code/save/model_alpha_embeddings/model_alpha_0.pt (torch, 386176 bytes, 4 tensors)

embed.weight f4 [59, 256]
00000000: 55fd 81be cbfa a1be 8db9 73be dd83 a0be
00000010: 170c 6ebe bd57 583e 29bf 793e 0db0 633e
00000020: aae0 1ebe 446e aa3d a1e7 c7bd 19ec 1fbc
00000030: 7ca1 11be 4df1 243c 7650 753e cfad 98be
00000040: b217 713e 2a02 5c3e 31d8 c13d 1314 78be
00000050: bf2d 95bc 3269 b63d 7eb8 c4bd 9ea7 5f3e
00000060: f737 763e e0a6 d9bd 3b28 463e dcbf 12be
00000070: 0d92 243d 72c1 a23e 4914 ae3d 49a2 b73e
00000080: d1c0 64be 0c26 8d3e eb95 13be 4da0 133e
00000090: 3667 68be 1a99 6a3d 04f6 13be f300 b4bd
000000a0: 0638 96be 4b6a 513e c110 89be 6398 47be
000000b0: fb12 923e ba9f 87be 96de 8b3e e093 2e3e
000000c0: 5eec 633e 795e 49bc bfe5 533c df02 71be
000000d0: 4e95 263e 6be2 343e 5730 1c3d 7ae5 c3bd
000000e0: 735e 5ebe d7e8 4e3e a6c6 353e 76c9 17be
000000f0: b823 43be 5976 b33e 3fcd 6d3e c7ae 063e
00000100: dce7 563e 0e6f 7bbd 04c7 de3d 6c37 7d3c
00000110: 9b79 8e3e 1849 563e bdf7 433e 95bd 43be
00000120: 5287 ed3d 765b 5fbd 7caf 5fbe 56cb 7dbe
00000130: 80fe 22be 440a 97bd ec16 2ebe 5261 97be
00000140: 5097 90be 52d8 38be d50a 9d3d b095 2b3e
00000150: bd2d 4c3e 71be 05be eeae 873e 9d18 61be
00000160: a2d1 8abe 022f 68bd b2a2 6bbe df1d d03c
00000170: a78e 403e 0ae5 18be 2cd7 2dbe 0f9b 213d
00000180: cbc9 953d 909d e53d 8b01 27be 679c 8c3e
00000190: 33f3 163e 7033 6fbe 13a1 83be a255 013e
000001a0: 3b0d 34be b22c 99be 1885 18be 3824 573e
000001b0: 968d 5f3e 8c7a 5cbe d293 90be c8a1 373e
000001c0: 19ca 2dbe 45d1 78be cb92 8e3e ab87 94be
000001d0: 6ec7 b93c efce a83e 210a 72bc 07e6 4d3e
000001e0: 3813 30be 6cc8 003e 0617 8a3e efa6 503e
000001f0: de18 693e 3ea8 55be 988e fbbd ac58 f43d
00000200: f748 a43e dd58 7fbe b995 01be 03a0 3bbe
00000210: f74b 81be 764b 693e c04a c83c 2e5b 72be
00000220: b192 1d3e cc3c 53be 192d e23d 6556 b63d
00000230: 347d 383e 814d 87be 990b 8e3e 2832 193e
00000240: eabe 1abe ce3d 7d3d 5fe1 343e 03b8 c33d
00000250: 2741 693e 218c 79be 4139 8abe 93df 683e
00000260: 2cd7 56be 67e5 8a3d 8723 583e 94a1 793e
00000270: e637 8e3c 8aa6 4d3e 69b6 53be f5aa a23d
00000280: 0bc0 6d3e 2c06 92be 414b 58be de17 61be
00000290: e8d1 0f3e 6f84 6f3e 4d2f 5cbe 0c92 67bd
000002a0: 6be8 443e d890 9e3e f851 20bd cbb6 6b3e
000002b0: 11db 513e 71e3 9dbe 0f68 283e 7002 253e
000002c0: 7504 26bc 9711 533e 8d6a 153d 29e1 613e
000002d0: e2c4 84bd 3e74 87be 4fcd 20be 5eed 66be
000002e0: fc25 2e3e ccdc a2be 1fa9 b5bd 7e21 0c3e
000002f0: 3da1 6f3e ed86 9e3d c077 3cbe d80a 4d3e
00000300: 0407 90be 22a1 883e ffff 6f3e 8074 953e
00000310: 87c5 43be 368e 073e 1d54 893e 412b ef3d
00000320: dd64 663e f65e e03d 39dd 71be 8f41 343e
00000330: d77d b2bc c982 1b3e 76c2 8ebe 3301 49be
00000340: 67a0 1dbe b1d6 753e f014 1e3e 01d3 713c
00000350: c460 5a3e e1f1 443e 1e47 2ebe e04d 35be
00000360: 33e0 23be fe8b 7ebe 336f adbd 7d50 2ebe
00000370: f93b c0bd e65b d63d 4e98 88be 6ab3 1d3e
00000380: 9a1f 143e 7b51 703e b9af 2ebe 8005 2cbe
00000390: a390 743c a426 af3d 30cd 753e 9c4f 43be
000003a0: 898e a6be 73c9 aa3e 8cbc 29be dc46 2c3d
000003b0: c0f4 20be 239b 943d 3546 28be e97b 33be
000003c0: b513 333e 8782 8e3e 29e7 bc3d f30c e53d
000003d0: af65 493d 2823 45be e6ec 84be c56e 32be
000003e0: 43b1 1d3d ba54 c93d 809c 5cbe 7ab1 f23d
000003f0: 22e4 9bbe 67a3 28be ca72 31be 61f6 50be
-0.2538859 -0.31636652 -0.23801251 -0.31350604 -0.232468 0.2112722 0.24389328 0.22235127
-0.1551539 0.08321813 -0.097609766 -0.00976088 -0.14221758 0.010067296 0.23956475 -0.29820105
0.23544195 0.214852 0.09465063 -0.24226408 -0.01821029 0.08906783 -0.096055016 0.21841285
0.24044786 -0.10627532 0.19351284 -0.14331001 0.040178347 0.31788212 0.08499963 0.35866
-0.22339179 0.2756809 -0.14412658 0.14416619 -0.22695622 0.057274915 -0.14449316 -0.087892435
-0.29339617 0.20450704 -0.26770595 -0.19491725 0.28530106 -0.2648905 0.27318257 0.17048597
0.22258136 -0.01229059 0.012933194 -0.23536251 0.16267893 0.17664497 0.038132038 -0.095652536
-0.21715717 0.20206009 0.1775156 -0.14822945 -0.19056594 0.3505123 0.23222826 0.1315261
0.20986885 -0.061385207 0.10877803 0.015455108 0.27827153 0.2092632 0.19137473 -0.19115289
0.11598076 -0.054530583 -0.21844286 -0.24784598 -0.15917397 -0.07375005 -0.17000932 -0.29566437
-0.28240442 -0.1805127 0.07668082 0.1675632 0.19939323 -0.13060929 0.26500648 -0.21982045
-0.27113062 -0.056685455 -0.23011282 0.025404869 0.18804418 -0.14931121 -0.16976613 0.039454516
0.073138796 0.11211693 -0.16309182 0.27463076 0.1474121 -0.23359466 -0.25708827 0.12630323
-0.17583172 -0.29916912 -0.14894521 0.2100991 0.21831354 -0.21531123 -0.28237778 0.17932808
-0.16971625 -0.2429858 0.2784637 -0.29009756 0.022678103 0.32970378 -0.014772923 0.2010728
-0.17194831 0.12576455 0.2697069 0.2037618 0.22763392 -0.2086496 -0.12283057 0.11930975
0.32086918 -0.24936242 -0.12654771 -0.18322758 -0.2525327 0.22782692 0.024449706 -0.23667595
0.1538799 -0.20628661 0.11043758 0.08903197 0.18016511 -0.26426318 0.27743223 0.1496054
-0.1511189 0.06182652 0.17664097 0.09556582 0.2277876 -0.24369861 -0.26996806 0.22741537
-0.20980519 0.06782036 0.21107303 0.24378043 0.017360639 0.20083061 -0.20675053 0.07942764
0.2321779 -0.28520334 -0.21122457 -0.21981761 0.14044917 0.23390363 -0.21502419 -0.056535766
0.19229285 0.30969882 -0.03914067 0.23018949 0.20493723 -0.30837587 0.16445945 0.16114211
-0.010132899 0.20612179 0.036478568 0.22058548 -0.06482865 -0.26455873 -0.15703319 -0.22551486
0.17006677 -0.3180908 -0.08870148 0.13684651 0.23401351 0.07740579 -0.18405056 0.20023668
-0.28130352 0.26685435 0.23437499 0.29190445 -0.1911832 0.13237843 0.26821986 0.11678172
0.22499414 0.10955612 -0.23619546 0.17603134 -0.02178852 0.1518661 -0.27882737 -0.19629364
-0.1539322 0.2400768 0.15437675 0.01475978 0.21325976 0.19232894 -0.17019317 -0.17705488
-0.16003494 -0.2485809 -0.08468475 -0.17022891 -0.09386439 0.10466747 -0.266787 0.15400472
0.1446518 0.23468582 -0.1705922 -0.16798973 0.014927062 0.08552292 0.24004054 -0.19073337
-0.3253062 0.3335682 -0.16575831 0.042059764 -0.15718365 0.072561525 -0.16433032 -0.17527737
0.17487986 0.2783396 0.09223778 0.111841105 0.04916924 -0.19251692 -0.2596199 -0.17425068
0.038499128 0.098306134 -0.21544075 0.11850257 -0.3044749 -0.16468583 -0.17328945 -0.20406486

unembed.weight f4 [59, 256]
00000000: 83f0 233e 9b7c 133e 45e8 1dbc df43 0fbe
00000010: 923d 403e c72c 423e 593b 0c3e 7993 c3ba
00000020: 2d85 473e 51aa bd3c b4fe 8a3d c7ed 26be
00000030: 98bc 683d 7536 903e fc23 79be ccfb 71be
00000040: ecdf 293e 2623 5fbe 1002 b7bd d188 0a3e
00000050: cc98 8e3e cdf6 3ebe 253e 0abe 56c8 d6bc
00000060: e4bf 063e cd11 653e 92ca 023b cf6a 8b3e
00000070: fe3a 81bd 8698 dc37 4ffc 193e 0940 63be
00000080: 9a70 de3d b2e7 a4be 6ee6 80be eb24 4d3e
00000090: ae89 5f34 8f44 12be baf7 303e 08c5 4d34
000000a0: 2d29 82be 06a8 9ebe 73d7 593e c758 9eb5
000000b0: 564c 5e3e e31c 7d3e 2836 57be e891 94bd
000000c0: c238 aebc 5e3f ae3e 48ec a83d facf 6d3e
000000d0: 3515 5cbd b181 9dbb 780f 8bbe 6483 e6bc
000000e0: 7f3e 7cbe 8509 36be 1f7e 483e 9a5c 963e
000000f0: 805a 423d 15d9 923e 002b 3e3e 29e9 b03d
00000100: a24e 4a3e 80d9 233e f7f3 1cbe 28ef cb3e
00000110: 4e99 6c3e bc2d 5a3a 0873 b7be 9af0 343e
00000120: abdd f6bd c0ee f63b 0eb9 b73e 4698 3f3e
00000130: 7f4c 233d a7bf 9b3e ed39 173e ccf8 563e
00000140: 55b2 ddbd 894a 87bd 58cc 4cbe 7429 01be
00000150: e822 863d 341a e0bd 7f0e 863e cf8d cdb5
00000160: 36c5 87be f752 593e 6245 b2bd 4047 90bc
00000170: 19db 883e 4c30 8cbe 1a89 7dbe 091d ddbb
00000180: fe9c 763e b748 99be d63a 6d3e 4f90 91be
00000190: 5bfa 483e 2aa0 7c3e 3a1b e8bd 5fac 60be
000001a0: cefc f3bd 2daa 05bb 1544 5cbe aa8d 98be
000001b0: 62cb f23d 77c8 183d d8f6 2a3c 1279 edbd
000001c0: ea74 3c3b 12bb c3be 70b5 c63a 44bf 34be
000001d0: 06d5 823e 7505 3ebd be97 acbe 5485 183e
000001e0: 6fe9 0a3e ffb3 a3be 3e47 3fbd 8360 fbbd
000001f0: 1995 923e 7c01 e93d 9cbe 573e 2618 14be
00000200: fe44 453e 81aa 7b3d 9268 2dbe e496 343e
00000210: 309a 85bc aa1a 203e 1259 2c3d 7850 fa3b
00000220: 9577 6ebe c32e 9fbe 8229 0dbe c067 8c3e
00000230: 4a37 ed3d e2f3 6e3e 8944 143a 6252 513e
00000240: cce2 0e3d aea4 68bd ba45 89bd 3161 063c
00000250: 98f2 46be 9312 3b3e 0d89 063d aa94 92bd
00000260: 4b15 c7bd c3c5 8abe f18b a5be eefc 7fbe
00000270: cbdd 0e3e 81c8 3735 9355 c63d 22d4 0c3e
00000280: 4d0b ec3c 5400 ab3b a039 3c3e abc9 723e
00000290: 120b 493e ceff 91b9 e0fa 15be b4a0 62bc
000002a0: c63b a8bd a82d 95ba 0b28 b03e b0fc 4f3e
000002b0: ced5 0dbe 0660 6abe d6c9 27bd 9268 613e
000002c0: b6a2 143d 27b7 8abe 2cd5 ac3d 307c 0bbc
000002d0: 8add 3d3e 0705 9a3d 8c1b 45be cbb9 01be
000002e0: 3f59 47be 56e7 c9bd da96 fabd 8d6d abbe
000002f0: ba09 503e 83c8 1abd 2cad 0fbe ae3b 4abe
00000300: 6363 25bc d334 31be 9741 1cbe e244 c43d
00000310: 4a52 253e c4d3 3fbc 77f1 073e f237 1e3e
00000320: 9d06 363e e565 a4be 0cc1 953e d7bd b1be
00000330: 0fbb 34be 78c2 bcbd b71a 953e cb8e b5be
00000340: fc1a 4e3e 521b a1be 1229 63be af16 66bc
00000350: 0ec7 343e a592 863e 863f 96be 3ed2 2ebe
00000360: da5f da3e f01f afbe df7a 283e a2d4 813e
00000370: 4827 cbbb 9669 b337 9909 1b3e 2955 e8bd
00000380: 1e7e 113e d3e9 433d 080e 343e e8df 683e
00000390: cd37 1e3e 4c76 113e fc43 c73d 4e9d 393e
000003a0: 78de 7c3e cbde bbbc b62a 72bd ef10 69be
000003b0: 52bf 253e 9f42 4d3e 11f7 bcbe cc31 783e
000003c0: f9e2 313e 8dfc 593c b24b eb3d 918f 4a3b
000003d0: 81f9 8eb3 024f ac3d 2d05 62be 030e b4be
000003e0: 47ec 7ebe d94b fd3d 5b49 003d 0400 74be
000003f0: 205d 60be e0a8 24bd 11de 0d3d 9912 6c3e
0.16009717 0.14403002 -0.009637897 -0.13990735 0.18773487 0.18962394 0.13694514 -0.001492127
0.19484396 0.023152502 0.06786862 -0.16301642 0.056820482 0.28166547 -0.24330133 -0.23631209
0.16589326 -0.21790752 -0.0893594 0.13528754 0.2785095 -0.18648835 -0.13500269 -0.026218574
0.13159138 0.22370072 0.0019957167 0.27229926 -0.0631008 2.6297068e-05 0.15037654 -0.22192396
0.10861321 -0.3220802 -0.25175804 0.20033614 2.0818581e-07 -0.14283966 0.17282 1.9163792e-07
-0.2542204 -0.30987567 0.21273594 -1.1797755e-06 0.21708807 0.2471805 -0.21016753 -0.07254392
-0.021267299 0.3403272 0.08248192 0.23223868 -0.053731162 -0.00480672 -0.2716024 -0.028138824
-0.24633215 -0.17777069 0.19579361 0.29367524 0.04744959 0.28681245 0.1857109 0.08638222
0.19756559 0.16000938 -0.1532744 0.398309 0.23105356 0.0008322855 -0.3582995 0.17669907
-0.120539986 0.0075357854 0.35883373 0.18710431 0.039867874 0.30419657 0.1476819 0.20993346
-0.1082503 -0.06606013 -0.19999826 -0.1261347 0.065496266 -0.10942498 0.26182935 -1.5314962e-06
-0.26517648 0.21223055 -0.0870464 -0.0176121 0.26729658 -0.27380598 -0.24759331 -0.006747846
0.24083325 -0.2993829 0.23166975 -0.2843041 0.19626753 0.24670473 -0.11333318 -0.21940754
-0.11913453 -0.0020395622 -0.21510346 -0.2979558 0.118551984 0.037300553 0.010434829 -0.11595358
0.002875621 -0.3822866 0.0015160274 -0.17651087 0.2555315 -0.046391923 -0.3370952 0.1489461
0.1356561 -0.31973264 -0.0466988 -0.122742675 0.28629377 0.11377236 0.21068805 -0.14462337
0.192646 0.061441902 -0.16934422 0.17635685 -0.016308874 0.15635172 0.04207713 0.007638987
-0.23287804 -0.31090364 -0.13785365 0.27422905 0.11582811 0.23335221 0.00056559645 0.20441583
0.03488426 -0.056797676 -0.067027524 0.008201883 -0.1942848 0.18268804 0.032845546 -0.07157262
-0.09720858 -0.27104005 -0.3233333 -0.24998829 0.13951795 6.8464584e-07 0.09684291 0.13752797
0.028813982 0.005218545 0.18381357 0.23709743 0.19633129 -0.00027847145 -0.14646482 -0.01383226
-0.08214526 -0.0011381404 0.3440555 0.20311236 -0.13851091 -0.22888193 -0.04096397 0.22012547
0.036287986 -0.2709286 0.08439097 -0.008513495 0.18541542 0.0752049 -0.1924879 -0.1266853
-0.19467638 -0.09858577 -0.12235804 -0.33482018 0.2031621 -0.03778888 -0.14030904 -0.19749328
-0.010094496 -0.17305307 -0.15259396 0.09583451 0.16144672 -0.011708204 0.13275705 0.15451029
0.1777596 -0.3210899 0.29248846 -0.3471515 -0.17649482 -0.092167795 0.29121944 -0.35460505
0.20127481 -0.31466156 -0.22183636 -0.014043494 0.17654058 0.26283756 -0.2934534 -0.17072389
0.42651254 -0.34204054 0.16453122 0.25357538 -0.006199751 2.138763e-05 0.1514038 -0.11344368
0.14208266 0.047830414 0.17583477 0.22741663 0.15450974 0.14205283 0.09729764 0.18126413
0.2469424 -0.022933384 -0.059122764 -0.22760366 0.16186264 0.20044945 -0.36907247 0.24237746
0.1737174 0.013304842 0.11489047 0.0030908326 -6.657775e-08 0.08413507 -0.22072287 -0.3516694
-0.2489482 0.123679824 0.031319957 -0.23828131 -0.21910524 -0.040200114 0.034635607 0.2305397

l1.weight f4 [256, 256]
00000000: 05cf f7bd a4d1 3cbe bebc b8bd cdfb 053d
00000010: b1e5 13be 8a97 a53d 1f6b 95bd 13ed d53d
00000020: ce4c bfbc bd74 133e 9d9d 0fbe cac2 243e
00000030: 8836 723d 5689 353c c3d9 18bc 7aa0 d33d
00000040: 0fa6 1b3e 3555 3fbe 11f0 133e 76ae 09be
00000050: 33d9 223d 1a05 b43c ab71 933d 5481 3e3d
00000060: f25b d2bd e516 c23d b07e a5bd 430a 47be
00000070: fd1d 603d 9281 de3d 6589 153e 9684 e13d
00000080: a1ba 88bd 8da2 28bc 5890 5e3d b566 afbd
00000090: 24d5 31bc ee07 c0bd 5b3e d9bb a31b 0abe
000000a0: 53c7 f13d ff37 343e 0e72 413b 0d27 033e
000000b0: 3a82 1c3e adea eb3d 5e0a b03d d167 3cbe
000000c0: d498 393d 83c6 d43c e5ad 0dbe a0c9 49bd
000000d0: fd5b 913d e63c ca3d 84e7 c8bd 3b11 a53d
000000e0: 8d80 a73d 5e8f c83d 7f79 2a3e 0b9d 2ebe
000000f0: 4c60 79bd c033 ea3d beb5 aebd ae9a b6bb
00000100: 3b8c 25bd 4285 36be ceee a6bd 8a5b e23d
00000110: 10ac a7bc 938f 22bd 03d7 033e 5261 0f3e
00000120: 3ee3 cf3d ec03 043e a58f 01be 6329 0dbd
00000130: bdd1 e6bd de10 16bd 2d62 b7bd ac91 c33c
00000140: c5bb 8a3d 517d e53d 2e5e c2bd c9c3 003e
00000150: a054 19bb e66c bebd a230 c23d 8c88 94bd
00000160: 6b82 03be 8ae1 96bd 685f 403e 3802 e63d
00000170: 112f 21be c405 29be 5d01 d1bd c9f4 0cbe
00000180: 51cd 193e 4645 2d3e af08 8dbd b6cd 293e
00000190: c6d8 a0bd d5f9 00be a8b7 dfbd 1447 87bc
000001a0: bbb0 05be 78a5 2a3e 4168 063e 0010 1b3e
000001b0: 1435 3d3e a0a3 0a3e 9204 a43c 43e7 ce3b
000001c0: 7d21 093e a509 1cbe 3a9b 003e ce0a efbc
000001d0: 6ff8 42be f075 10be 7c55 d3bd 43c9 23be
000001e0: 0afd fc3d d2f0 39bd 9e8a 1bbe 6bd6 233e
000001f0: 1339 273e bfd0 11be 833f 10be bb7e f73d
00000200: 563a 0f3d d820 49be cb61 cdbd 80b1 9abd
00000210: a355 1ebe 54ad 55bd 656e 243e e449 7c3c
00000220: ac3e 233e 9eb2 e7bb b503 07be d259 093e
00000230: 5f8d c43d 9313 1f3e d940 c6bc 994d d23d
00000240: 4cd2 94bd ae64 073e df1a edbd c3c6 9a3c
00000250: a820 1f3e 33b5 31bd a6e1 be3d b00d 3d3e
00000260: bbfd 033e 2066 02be de73 cdbd 654c 103e
00000270: f157 04be 71e6 d2bd e8f2 0fbe 7d8a 17be
00000280: b448 b6bd 2253 20be c23e 17bc aa70 0abe
00000290: 0aea 1a3e 3fa3 093e bbfd 12bc c8c0 b0bd
000002a0: 74fe a1bb c218 d03d eb8f 05be 5dec 2abe
000002b0: b1c6 2bbd 448b e53d 7919 d5bd 177c 12be
000002c0: f755 2dbe 57c7 9e3d 07e6 063e 7322 733d
000002d0: 9733 cbbd 92f5 2fbe 237a 05be dd50 91bd
000002e0: 1898 0a3e b53a 72bd c749 14be 4a81 34be
000002f0: 67b9 cd3d 336f 863d f6f1 8cbd 4703 d2bd
00000300: 098d 063e 3a31 78bd 9a0e 4a3e 6ed9 1e3e
00000310: 4f31 0abe c8ae f23d 56eb 8cbd 1bea b83c
00000320: 376c f63d deb3 213e e284 3ebe 8ae0 c9bc
00000330: 9354 9fbd 5f4f 333e e19d 803c b533 24be
00000340: 55a4 bcbd 362c 0ebe 8294 ae3d 7c64 e93d
00000350: b749 2a3e 16fa d83d f2fd 0bbe 3e9f ea3d
00000360: edff b7bd ff13 01be 33ed 1b3e 7d42 4a3c
00000370: 6d21 013e c155 c7bd 958d f7bd d874 ff3d
00000380: 7767 b23d 1ab5 aabc b4ab 9abd 7ef8 be3d
00000390: 0e80 1a3d 1a94 c23d 612b 093e ac3d 1ebe
000003a0: 8112 f4bc c4ef 4fbc 4b81 223e a3e4 4bbe
000003b0: fa95 813d 7af7 12be 7fed 143e 927d 4b3d
000003c0: 03c5 ea3d 0ad5 e43d f47f 0ebe d2d9 d83d
000003d0: c78b 1dbd 3b06 95bd c434 8b3c c98a 37be
000003e0: a165 b33d e722 373e 0a1c b93d 6793 133e
000003f0: 334d ac3d 41de b9bd cdaf ebbd a53e 2dbe
-0.12100033 -0.18439347 -0.09020375 0.03271084 -0.14443089 0.080855444 -0.07295822 0.10445609
-0.023352053 0.14400001 -0.14024968 0.16089931 0.059134036 0.011080107 -0.009329262 0.10333343
0.15200065 -0.18684848 0.14447047 -0.13445458 0.03975792 0.021975089 0.07199415 0.046510056
-0.102714434 0.09477023 -0.08080804 -0.19437508 0.0547161 0.10864557 0.14603193 0.11011617
-0.06676222 -0.010292661 0.054336876 -0.08564512 -0.010854039 -0.093765125 -0.006629748 -0.13487105
0.11805596 0.17599486 0.0029517445 0.12807865 0.15284052 0.1151937 0.085957274 -0.18398978
0.045311764 0.025973564 -0.13835867 -0.04926455 0.070976235 0.09874897 -0.09809783 0.08059927
0.08178816 0.0979297 0.1664791 -0.17052095 -0.06088285 0.11435652 -0.08530758 -0.0055726385
-0.040416937 -0.17824271 -0.08151017 0.11052616 -0.020467788 -0.039687704 0.12874989 0.14001969
0.10150765 0.12892121 -0.12652452 -0.034463298 -0.11270473 -0.03663718 -0.089542724 0.023873173
0.067740954 0.11205543 -0.094906196 0.12574686 -0.0023396388 -0.092981145 0.09481932 -0.07252607
-0.1284272 -0.07367237 0.18786395 0.11230892 -0.1574061 -0.16506106 -0.10205338 -0.13765253
0.15019728 0.16920957 -0.06886422 0.16582379 -0.07853846 -0.12595303 -0.109237015 -0.016513385
-0.13055699 0.16664684 0.13125707 0.15142822 0.18477279 0.1353898 0.02002171 0.0063141896
0.13391681 -0.15238054 0.12559214 -0.029179957 -0.19040082 -0.1410749 -0.10319039 -0.15994744
0.12352951 -0.04539568 -0.15189597 0.15999763 0.16330366 -0.14239787 -0.14086728 0.12084719
0.034967743 -0.19641435 -0.10028418 -0.07553387 -0.15462355 -0.05216725 0.16057737 0.015398476
0.15941876 -0.0070708534 -0.13185008 0.1341317 0.09597277 0.1553481 -0.024200844 0.10268707
-0.072666734 0.13222 -0.11577391 0.018893605 0.15539801 -0.043385696 0.09320383 0.18462253
0.12889759 -0.1273427 -0.100318655 0.14091642 -0.12924172 -0.102978595 -0.14057505 -0.14798923
-0.08900586 -0.15656713 -0.009231271 -0.1351954 0.15128341 0.1344118 -0.008971627 -0.0863052
-0.0049436633 0.10160972 -0.13043182 -0.16691728 -0.041937534 0.112082034 -0.10405249 -0.14305149
-0.16927324 0.07752865 0.13173686 0.059359025 -0.09921949 -0.17183521 -0.13034873 -0.070955016
0.13534582 -0.05913802 -0.14481269 -0.17627445 0.10045128 0.06564178 -0.06882088 -0.10254531
0.13139738 -0.06059382 0.19732133 0.1551263 -0.13495372 0.11849743 -0.06880824 0.022572568
0.12032359 0.1579127 -0.18605378 -0.024643201 -0.07779803 0.17510746 0.015700283 -0.1603535
-0.09211031 -0.13884053 0.08524419 0.11396119 0.16629682 0.10594575 -0.13671091 0.11456154
-0.08984361 -0.12605284 0.15227203 0.012344954 0.12610407 -0.09733153 -0.120875515 0.12473458
0.087111406 -0.02083831 -0.07552281 0.0932474 0.03771978 0.095009044 0.13395454 -0.15453213
-0.02979398 -0.012691442 0.15869634 -0.19911437 0.06327434 -0.14352217 0.14543723 0.0496803
0.11463358 0.111734465 -0.13915998 0.10588421 -0.03846338 -0.07276579 0.016992934 -0.17924036
0.087596186 0.17884408 0.09038551 0.14411698 0.08413162 -0.09075595 -0.11508141 -0.16918428

l1.bias f4 [256]
00000000: e530 293e f827 d63d 0cca 1a39 8d3e 0d3e
00000010: e01c 613e ebe7 a43d c090 0e3e 0631 823e
00000020: 829a 4e3e f7b5 423e 0c37 2e3e b3cc 5e3e
00000030: 2540 333e 7380 8f3e f828 413e 0eea 123e
00000040: baab 553d 2cd3 283e d8b6 563c 40e6 333d
00000050: 61c3 673e 3690 363e 3b97 413d 6e30 9dba
00000060: c3ab 093e 961d 5d3e 5cf9 403e d0b1 123e
00000070: 01c8 b63b a06c a037 beb3 983d 9ce4 533e
00000080: a337 9b3b 8101 8b3e 9c1f 693e da70 3d3e
00000090: 0635 d134 9e13 ad3d 6c9d 223e b7a3 2634
000000a0: 6459 303e 7fa2 103e d9c9 303e 2fcf 9134
000000b0: d5b2 4e3e ec4f 993d 5eef 143e 9025 323e
000000c0: 771b 203b 543a 533e def8 2c3e 718f 563e
000000d0: c4d0 d23d 1f56 0339 b6c8 943d a8d0 a63c
000000e0: 116f 773e 8021 6a3c 37b0 6b3d b1de 433e
000000f0: 100d 343d f88e 1e3d 1faa 433e aa70 1b3e
00000100: 9a0e 573e 5913 453e c515 8d3d c3df b13e
00000110: d370 533e 8b73 7cb9 242d 103e 340f ce3d
00000120: 649a 473d f7ca c739 5d1a 613e 78d5 de3d
00000130: 8970 473e 12c9 123e b203 563e bfdc f43c
00000140: ef46 1f3e 85a4 763d 0c3d c83d 93a2 3a3e
00000150: 1ee1 c6bb d6e3 223e 9019 5d3e c194 6f38
00000160: acd1 1ebc affb 053e 9204 9e3b 9ac7 4d3b
00000170: 2841 483e 1605 b03d 3d01 383e ddf7 753e
00000180: 66f7 2c3e e6e9 763e a894 573e a2a7 663d
00000190: 742f 2dbc eca7 3e3e a86b 843e 55fd 583e
000001a0: 590f 523e 766e 003b 635e 7e3e 7119 9e3d
000001b0: b59c 8b3e b6ed f03c 071a 2b3e d4ff dd3d
000001c0: f35b bb39 87ff a13e 3ef6 063a 7592 bd3d
000001d0: 68ac 703e c3ce a5bc b5ce 963e f295 1b3e
000001e0: 4af9 3e3b 7aef 153e 9909 383e 1f92 403d
000001f0: 8783 333e d1a2 963d 4cdd 023e da62 e33d
00000200: 9498 833d 2eac 143e 628b 9c3e c4c9 223e
00000210: 5d58 113e 71b7 8a3e d771 eb3b 3e45 233c
00000220: 7d91 723e 16ce 4b3e 2141 743d 653f 373e
00000230: f961 873e 20ee 3f3d 9ee4 643a 3027 733d
00000240: d929 473d a1a8 dc3d 35e2 f83d 67fd bb3a
00000250: 9034 073e 5609 4f3e 6922 153e 0775 a83d
00000260: ac3f 803e 0115 7f3e 7637 6d3e dc49 383e
00000270: f353 a63d ea81 2b33 b6c0 273e 62e1 583e
00000280: 55a7 e73d f136 803e e00f 8e3e 8805 0a3e
00000290: a2bc 233e 13aa a4b7 cbf9 4d3e f097 af3c
000002a0: 7772 873e 3685 e13d c582 863e 4b67 733e
000002b0: 5fc4 533e bba8 513e f889 053d 2088 7f3d
000002c0: 0f52 b93d dd90 0c3e 0493 a13d 6375 723a
000002d0: 3a42 263e 0c1a 873e 95cd 733e 260e 393e
000002e0: caab 373e 3585 213b d00e 313e 5f6c 343e
000002f0: 9011 383e 40ff d83d c757 ca3d 7c30 8d3e
00000300: d63c 113d 96f0 e43c b576 af3c b4cf 373e
00000310: 9ef6 b03d bb9c 333c 307f 423d 0784 543d
00000320: 40f6 6b3e e38c 543e e987 023e 3ffc 483e
00000330: c0c2 223e 4efd 943e ef02 4e3e 3a99 783e
00000340: f5ce 493e 31ab 6f3e 42ec 7c3e ac5f 533e
00000350: 38e7 2e3e 3b0a 4b3e 6d86 1f3e f931 0abc
00000360: cece a53e 4eba 5e3e a948 033e 58a1 4f3e
00000370: 6a08 9d39 d455 ea36 6381 0d3e a2c5 213e
00000380: 8857 603e c801 c33d 6968 753e b3a1 9e3d
00000390: 1f21 173e d017 283e 81af 733d fb3f 283e
000003a0: 6d4c f03d 0ff8 493e 6a8c 873d 7af2 253e
000003b0: 559f 5b3e 4804 5e3e d767 823e cc76 6e3e
000003c0: 3246 343e c760 d43d 9c1f cf3d f97e 2e3b
000003d0: 706f 1a36 6772 473e 672b 353e d857 c23d
000003e0: 7f89 783d 8fc3 893d 192b b53d 9e35 523e
000003f0: bcb1 393e 90c5 113e cc7d 5a3e 3ab4 303e
0.16522558 0.10456842 0.00014761853 0.13793392 0.21983671 0.08052047 0.13922405 0.25428027
0.20176128 0.19014727 0.17013186 0.21757774 0.17504938 0.28027686 0.18863285 0.14347097
0.052165724 0.16486806 0.013105117 0.043920755 0.22633125 0.1782845 0.047263365 -0.0011992583
0.13444428 0.21593317 0.18845123 0.14325643 0.0055780415 1.9124069e-05 0.07456158 0.20692676
0.004736857 0.27149585 0.22765964 0.1850008 3.8967863e-07 0.08451007 0.15880364 1.5519514e-07
0.172216 0.14124487 0.17264499 2.71591e-07 0.20185407 0.07485947 0.14544436 0.17397141
0.0024430433 0.20627719 0.1689181 0.20953156 0.10293725 0.00012525216 0.07264845 0.020363167
0.24163462 0.014290214 0.0575411 0.19127919 0.04395777 0.038710564 0.19107865 0.15179697
0.21001664 0.19245662 0.06888918 0.3474103 0.20648508 -0.00024075636 0.1407972 0.100614935
0.048731223 0.00038107458 0.21982713 0.1088056 0.19476523 0.14334515 0.20899847 0.029890416
0.15554403 0.06021549 0.09777269 0.1822608 -0.0060693165 0.15907225 0.21591783 5.712058e-05
-0.009693544 0.13084291 0.004822322 0.003139949 0.19556105 0.0859472 0.17969222 0.24020334
0.1689125 0.24112663 0.21052802 0.05631221 -0.010570396 0.18618745 0.25863385 0.21190389
0.20513667 0.001959709 0.24840693 0.07719696 0.27267995 0.029410224 0.16709147 0.10839811
0.00035735927 0.31640264 0.0005148387 0.0925645 0.23503268 -0.020240193 0.2945458 0.15193918
0.0029140287 0.14642134 0.17972411 0.047014352 0.17530642 0.073552735 0.1277973 0.11102839
0.06425586 0.14518806 0.3057509 0.1589728 0.14193864 0.2709308 0.0071852016 0.009965239
0.23688312 0.19902834 0.059632424 0.17895277 0.26441935 0.046857953 0.00087315764 0.059363544
0.048623893 0.10774351 0.121525206 0.0014342488 0.13203645 0.20218405 0.14563908 0.08225446
0.25048578 0.24910356 0.23165688 0.17996925 0.08121481 3.9932196e-08 0.16382107 0.21179727
0.11311213 0.25041917 0.27746487 0.13478673 0.15989926 -1.962952e-05 0.2011482 0.021434754
0.26454517 0.11011736 0.26271644 0.23769872 0.20680378 0.20474522 0.03260228 0.06238568
0.090488546 0.13727136 0.07889369 0.00092490594 0.16236201 0.2638706 0.23808892 0.18071803
0.17936626 0.0024646048 0.17290807 0.17619465 0.1797545 0.1059556 0.098800234 0.27576053
0.03545841 0.027946752 0.021418909 0.17950326 0.086407885 0.01096266 0.047484577 0.051883724
0.23043156 0.20756869 0.12747158 0.19627474 0.15894604 0.29099506 0.20118307 0.24277201
0.19707854 0.23405148 0.246995 0.20641965 0.1708039 0.19828121 0.15578623 -0.008434766
0.32384342 0.21750757 0.12820686 0.20276392 0.00029951643 6.983735e-06 0.13818888 0.15798047
0.2190839 0.09521824 0.2396561 0.077456854 0.14758728 0.16415334 0.059493545 0.16430657
0.11733327 0.19723533 0.06618579 0.16205779 0.21447499 0.2168132 0.2546985 0.23287505
0.17604902 0.10370021 0.10113451 0.0026625975 2.3012653e-06 0.19477235 0.17692338 0.09489411
0.060678 0.06726753 0.08846111 0.20528266 0.18134207 0.1423552 0.2133705 0.17256251
