code/save/model_alpha_embeddings/model_alpha_1.pt (torch, 386176 bytes, 4 tensors)

embed.weight f4 [59, 256]
0.05347674 -0.17787692 0.14102368 -0.31236297 -0.1272203 -0.2634214 0.26179153 -0.0028707657
-0.14256932 -0.2914586 -0.22775164 0.18303092 0.12253284 -0.18347389 0.20117523 -0.20452277
0.19915168 -0.29970366 0.08766743 0.24465671 -0.18870874 0.17629349 0.0022373162 -0.13711856
-0.014544833 -0.27397612 -0.34415713 -0.21785915 0.19179457 -0.08875707 0.002940256 0.2637145
0.20018113 -0.018374152 0.23089565 -0.19437784 -0.1648819 0.28123116 0.26068053 -0.2039888
-0.14043364 -0.12498746 -0.22225362 0.23302215 -0.24160129 0.13456842 -0.17384757 -0.20094185
0.1903872 0.21924658 0.082126684 -0.104539596 0.16290897 0.041148648 0.04845253 0.20602185
-0.015502158 -0.20022951 0.062276345 0.18557897 -0.23076677 0.1343903 0.12823738 -0.10417646
-0.033473916 0.0630662 -0.21183589 -0.01210988 0.072909236 -0.23436192 -0.0986126 -0.17275965
-0.1784329 -0.1618165 0.0385604 0.21567482 -0.21590611 -0.2267763 -0.23339961 0.2539974
-0.22413762 -0.15940961 0.03575565 0.23061252 -0.21846575 0.2616058 -0.13373621 0.14388888
-0.046849415 0.14453915 -0.011832923 0.15100917 -0.18443634 0.12476882 -0.20689219 0.06828996
-0.23704185 -0.24965034 0.3111893 0.1392225 0.26249263 -0.22630444 0.18181325 -0.03280661
0.19569656 -0.17786606 -0.30868307 -0.2303193 -0.18047029 0.13355476 0.14966057 0.27364808
0.2850518 -0.24765594 -0.22118773 0.22379528 0.2400091 0.16443369 -0.17444436 0.26321176
0.24732646 -0.24604149 0.2380971 -0.03285641 -0.2757605 -0.16710186 0.11464161 -0.14421701
0.1943173 -0.22474627 -0.120056875 -0.31978235 0.16909643 -0.23362648 -0.25557348 0.19464716
-0.19959071 0.23766167 0.1047252 -0.27558982 -0.1859797 -0.20016186 0.20669092 -0.20975928
0.28357047 -0.25444764 -0.039151765 -0.20914385 0.21370424 -0.163015 0.20864849 -0.26597556
-0.14627346 -0.21234976 0.09777018 0.12931445 -0.34926993 0.16563824 -0.23603447 -0.22893922
0.13509569 0.045079026 0.20981011 -0.20422713 -0.27046496 -0.13572215 0.20287661 0.32910714
0.147147 -0.12792544 -0.239789 -0.11860998 -0.18645096 -0.18794656 0.20680921 0.1433064
-0.0762148 0.23421717 0.33044684 0.049509346 0.19780695 -0.18538234 0.23733892 -0.27590075
-0.23139526 0.2083614 -0.07164916 -0.15067285 -0.28966853 0.16915573 -0.27676278 0.19217588
0.23068458 -0.22938552 0.11669137 0.19152598 -0.19819239 0.30774903 -0.18817817 0.075006135
-0.2510284 0.027560927 0.29436663 -0.23250464 0.21654622 0.18521452 -0.24816212 0.12278856
0.19270034 0.055864226 0.17084128 0.20855084 -0.036939017 -0.24375214 0.2048997 0.20744306
0.29193243 -0.25953785 -0.22304654 -0.27063304 -0.34231207 0.26287898 0.19464384 0.01937254
-0.13801295 0.31112856 -0.20570849 0.032987773 -0.053385545 0.09527807 0.19865306 -0.28608057
0.20951986 0.2480527 -0.2091588 -0.20951828 -0.21396375 -0.090448596 -0.24614899 0.21536571
-0.13545623 -0.20596182 -0.20107049 -0.25470042 0.17490041 0.0058929413 -0.16405766 -0.32029685
0.23829646 0.10636836 -0.25144273 -0.20621052 0.30722004 -0.27653283 0.13076617 -0.13741921
00000000: 6d0a 5b3d 5e25 36be 8368 103e 0aee 9fbe
00000010: 0a46 02be 2bdf 86be 8a09 863e 7523 3cbb
00000020: b1fd 11be 103a 95be ba37 69be 756c 3b3e
00000030: 7ff2 fa3d 94e0 3bbe e100 4e3e 6b6e 51be
00000040: 6bee 4b3e c272 99be fb8a b33d 4a87 7a3e
00000050: dd3c 41be 4886 343e f09f 123b cf68 0cbe
00000060: 744d 6ebc 9946 8cbe 5d35 b0be 7816 5fbe
00000070: cc65 443e 44c6 b5bd 4fb1 403b 9605 873e
00000080: 48fc 4c3e 6485 96bc e96f 6c3e fc0a 47be
00000090: cdd6 28be 88fd 8f3e eb77 853e 71e2 50be
000000a0: d6cd 0fbe 6df9 ffbd 7496 63be 5c9d 6e3e
000000b0: 5466 77be 4ecc 093e 1905 32be b3c3 4dbe
000000c0: ddf4 423e 2d82 603e 0932 a83d db18 d6bd
000000d0: 9cd1 263e 7c8b 283d 2976 463d 64f7 523e
000000e0: c3fc 7dbc f708 4dbe 7b15 7f3d 6a08 3e3e
000000f0: 204e 6cbe 9c9d 093e a950 033e 785a d5bd
00000100: f21b 09bd da28 813d 82eb 58be 8568 46bc
00000110: 7051 953d 92fc 6fbe 67f5 c9bd e8e7 30be
00000120: 1db7 36be 39b3 25be 83f1 1d3d dcd9 5c3e
00000130: 7e16 5dbe 0c38 68be 4f00 6fbe f20b 823e
00000140: 5584 65be 463c 23be 8474 123d b025 6c3e
00000150: 7cb5 5fbe 32f1 853e 25f2 08be 9b57 133e
00000160: 2ce5 3fbd 1202 143e e0de 41bc 26a2 1a3e
00000170: e1dc 3cbe cc86 ff3d 8cdb 53be 9bdb 8b3d
00000180: 19bb 72be 57a4 7fbe 3454 9f3e 5890 0e3e
00000190: 6f65 863e 5abc 67be 412d 3a3e 3960 06bd
000001a0: ae64 483e 8522 36be b50b 9ebe d3d8 6bbe
000001b0: 34cd 38be 94c2 083e 9f40 193e 9a1b 8c3e
000001c0: 4ff2 913e 8599 7dbe 097f 62be 972a 653e
000001d0: f2c4 753e 4e61 283e 8ba1 32be b1c3 863e
000001e0: 2643 7d3e 4df2 7bbe bacf 733e 7194 06bd
000001f0: 7b30 8dbe c01c 2bbe 38c9 ea3d a0ad 13be
00000200: 1dfb 463e e323 66be 61e0 f5bd 83ba a3be
00000210: 9d27 2d3e c83b 6fbe 87da 82be 9651 473e
00000220: 8261 4cbe 955d 733e 2a7a d63d 1c1a 8dbe
00000230: 7671 3ebe 3bf7 4cbe c9a6 533e 23cb 56be
00000240: 2630 913e f646 82be 9a5d 20bd ce29 56be
00000250: 49d5 5a3e 67ed 26be f3a7 553e f32d 88be
00000260: b6c8 15be 3772 59be bb3b c83d 026b 043e
00000270: 82d3 b2be 129d 293e 05b3 71be 0b6f 6abe
00000280: 8656 0a3e c9a4 383d 76d8 563e eb20 51be
00000290: 627a 8abe bffa 0abe e3be 4f3e bb80 a83e
000002a0: b4ad 163e e3fe 02be 3f8b 75be cae9 f2bd
000002b0: 00ed 3ebe 1075 40be cbc5 533e eabe 123e
000002c0: 8116 9cbd a0d6 6f3e 5430 a93e 50ca 4a3d
000002d0: e88d 4a3e ded4 3dbe f908 733e dd42 8dbe
000002e0: e1f2 6cbe b15c 553e cbbc 92bd fc49 1abe
000002f0: 6f4f 94be 2937 2d3e dab3 8dbe c1c9 443e
00000300: 9438 6c3e 0ae4 6abe e3fb ee3d 631f 443e
00000310: f2f2 4abe 4891 9d3e c7b1 40be d19c 993d
00000320: cb86 80be 74c7 e13c 39b7 963e b215 6ebe
00000330: 4bbe 5d3e e0a8 3d3e 361e 7ebe 9278 fb3d
00000340: 3d53 453e e3d1 643d 04f1 2e3e 5a8e 553e
00000350: 5e4d 17bd 299a 79be 3ad1 513e f46b 543e
00000360: 2b78 953e 25e2 84be 5066 64be 6a90 8abe
00000370: 8743 afbe 1398 863e b750 473e 29b3 9e3c
00000380: 4453 0dbe 3e4c 9f3e 3fa5 52be 301e 073d
00000390: cdaa 5abd 2621 c33d b56b 4b3e 2779 92be
000003a0: 608c 563e 8701 7e3e b92d 56be f68b 56be
000003b0: 5019 5bbe 1d3d b9bd 7b0e 7cbe d488 5c3e
000003c0: 0ab5 0abe a8e7 52be 6ce5 4dbe 1868 82be
000003d0: 1819 333e 9319 c13b bbfe 27be f3fd a3be
000003e0: fd03 743e a8d7 d93d 1abd 80be da28 53be
000003f0: f24b 9d3e b695 8dbe 91e7 053e 9fb7 0cbe

unembed.weight f4 [59, 256]
0.10111496 0.27088553 -0.31659687 -0.117088184 0.09042414 -0.06440185 0.23246558 -0.08649139
0.27707863 -4.6310368e-05 -0.016571598 0.13131534 -0.1983773 -0.1902708 -0.13687682 0.0002829531
-0.20626093 0.13632496 -0.14016551 -0.04693914 0.14069505 0.26418468 -0.027226584 0.053838596
-0.349947 -0.19289932 0.091122776 -0.09072198 0.03177824 0.30634895 0.2097866 0.27962315
0.011819041 -0.1762172 -0.15420997 0.086316176 -0.37320793 0.012951916 -0.2417066 -0.2561026
0.10046492 -0.14194126 0.10522701 0.093580574 0.22000973 -0.022389201 -0.16244252 0.08366563
0.14480849 0.15879235 0.3759045 0.17056029 0.019542921 0.09010576 -0.0109052975 0.18384348
-0.021560548 0.030123007 -0.1332141 -0.0014466441 0.08910804 0.32546008 -0.39798534 0.19879624
-0.27428675 -0.08155982 8.43856e-10 -0.053122398 0.09870189 -0.2471192 -0.34341446 0.2210433
0.13062513 -0.062340062 0.11725616 0.271839 -0.028821094 0.01608365 -0.33882573 0.15672424
0.3040506 -0.16533957 -0.24094158 -0.17619476 0.17203854 0.37532124 0.11142896 0.28216425
0.29107976 0.30747956 0.029626017 -0.37928647 0.321789 0.20276755 0.012696921 0.13239515
-0.23155633 0.038631987 1.5298251e-07 0.16711004 0.20550749 -0.08898668 -8.580032e-05 -0.14032029
-0.0327921 -0.081203826 0.007909404 0.15227127 -0.20544307 -0.091337144 0.17088167 0.16390736
-0.13877204 0.11184327 -0.0066468124 -0.18807888 -0.36408955 0.33557191 -0.23600675 0.15348941
0.12933458 0.24950893 0.27921736 -0.0727904 0.15465416 -0.32975557 -0.39860785 0.17613742
0.19048937 0.148703 -0.22930315 0.13700004 0.29742035 -0.22529672 -0.027609665 0.30530992
0.12388405 0.22011268 -0.3735788 0.13354105 0.1219795 -0.042238235 0.261779 0.24766299
-0.20767461 0.0019725345 0.029327275 0.21250525 -0.19087885 -0.2965063 -0.0011070668 0.018529437
0.16972168 -0.17399198 0.2120091 -0.31102672 -0.33548477 -0.14813411 -0.2826795 -0.17444214
0.14696966 -0.19106609 -0.07727542 -0.17049518 -0.07676296 -0.05579761 -0.07032088 -0.3116834
0.016503818 0.17960109 0.17214255 0.20398538 0.027306408 0.15731443 -0.107664764 0.18460464
0.1272302 -0.06147127 0.10320954 0.09892965 -0.15215997 0.29331973 0.27159116 0.27103776
-0.035441443 0.052609358 0.21063946 7.112832e-13 -0.017713012 -0.3657371 -0.31184834 -0.02947602
-0.30067974 -0.2165121 0.0007313199 -0.0037496975 -0.11064503 0.18850777 0.0838742 0.065433376
0.24011295 0.12317189 0.43908787 -0.19419786 0.19002561 -0.27542278 -1.2802653e-11 -0.030162305
0.13263607 -0.117815785 0.216788 0.23628546 0.26516098 0.038448814 0.2656747 0.123983234
-0.070478044 -0.044766735 -0.0072109695 0.09910247 -0.023112318 -0.2567093 -0.017912986 0.18385279
-0.09254891 -0.23968685 0.22509328 0.15105036 -0.104890876 0.10322556 0.2586115 -0.35173774
0.024815848 -0.1991947 -0.1455488 -0.33961853 -0.009972955 -0.063371316 0.098598465 -0.0020772861
0.20194796 0.123093225 -0.329067 -0.15668884 0.263724 0.1762622 -0.14254284 -0.23918125
0.15891804 0.052065846 -0.13045083 -0.07219107 0.08482756 -1.7186057e-05 0.110386774 0.0002544414
00000000: 5c15 cf3d 82b1 8a3e fc18 a2be eecb efbd
00000010: 4b30 b93d 1ee5 83bd 750b 6e3e 6622 b1bd
00000020: 40dd 8d3e 613d 42b8 29c1 87bc 8777 063e
00000030: 6b23 4bbe 59d6 42be 7029 0cbe 5259 9439
00000040: 1136 53be c598 0b3e 8c87 0fbe 4143 40bd
00000050: 5d12 103e 3743 873e 490a dfbc dc85 5c3d
00000060: 412c b3be 6687 45be 949e ba3d 72cc b9bd
00000070: e629 023d c5d9 9c3e 4cd2 563e c42a 8f3e
00000080: a7a4 413c 4872 34be 38e9 1dbe 89c6 b03d
00000090: 1c15 bfbe 4634 543c ef81 77be e11f 83be
000000a0: 8dc0 cd3d 0d59 11be 4281 d73d 2ca7 bf3d
000000b0: 3b4a 613e 8f69 b7bc 5557 26be e358 ab3d
000000c0: ad48 143e 769a 223e 8e76 c03e 5ba7 2e3e
000000d0: 7a18 a03c 5e89 b83d 22ac 32bc 7741 3c3e
000000e0: bf9f b0bc 86c4 f63c 4769 08be 529d bdba
000000f0: 477e b63d b4a2 a63e bcc4 cbbe 3e91 4b3e
00000100: 506f 8cbe d608 a7bd 16f5 6730 df96 59bd
00000110: 3724 ca3d d10c 7dbe 05d4 afbe 2d59 623e
00000120: 98c2 053e 4b58 7fbd ff23 f03d 7b2e 8b3e
00000130: 371a ecbc dcc1 833c 917a adbe 527c 203e
00000140: 85ac 9b3e c74e 29be 64b9 76be 666c 34be
00000150: df2a 303e 1b2a c03e de34 e43d d577 903e
00000160: 6808 953e f66d 9d3e 43b2 f23c d631 c2be
00000170: 87c1 a43e 4ca2 4f3e bf06 503c 9892 073e
00000180: 1a1d 6dbe 933c 1e3d 8343 2434 e51e 2b3e
00000190: 8e70 523e a63e b6bd b2ef b3b8 1fb0 0fbe
000001a0: 0251 06bd 314e a6bd 7296 013c 00ed 1b3e
000001b0: ab5f 52be f80e bbbd 9bfb 2e3e 55d7 273e
000001c0: 421a 0ebe 160e e53d 81cd d9bb c097 40be
000001d0: f269 babe 15d0 ab3e c1ab 71be 542c 1d3e
000001e0: 4970 043e 457f 7f3e 94f5 8e3e 2213 95bd
000001f0: a95d 1e3e b9d5 a8be 5416 ccbe 5e5d 343e
00000200: a50f 433e 9945 183e 72ce 6abe bd49 0c3e
00000210: 7b47 983e 2fb4 66be aa2d e2bc 9551 9c3e
00000220: ecb6 fd3d 3865 613e b845 bfbe fcbe 083e
00000230: 63d0 f93d 0002 2dbd e607 863e 5e9b 7d3e
00000240: a7a8 54be a345 013b c13f f03c fa9a 593e
00000250: bf75 43be accf 97be ff1a 91ba 0ccb 973c
00000260: 85cb 2d3e f42a 32be ea18 593e e53e 9fbe
00000270: a9c4 abbe 78b0 17be 5ebb 90be f6a0 32be
00000280: 377f 163e d4a6 43be 9342 9ebd 4a96 2ebe
00000290: e635 9dbd 098c 64bd 6504 90bd f794 9fbe
000002a0: 0433 873c 59e9 373e 2346 303e 8be1 503e
000002b0: b0b1 df3c 0917 213e 587f dcbd 0009 3d3e
000002c0: a248 023e 4cc9 7bbd 865f d33d a19b ca3d
000002d0: d3cf 1bbe 012e 963e ff0d 8b3e 76c5 8a3e
000002e0: 0c2b 11bd e97c 573d dfb1 573e 5b35 482b
000002f0: e11a 91bc e541 bbbe 96aa 9fbe b277 f1bc
00000300: b2f2 99be 59b5 5dbe 0cb6 3f3a 7cbd 75bb
00000310: dd99 e2bd 2e08 413e 3dc6 ab3d ef01 863d
00000320: 2be0 753e 8b41 fc3d 20d0 e03e cedb 46be
00000330: 1396 423e 3704 8dbe 063a 61ad f016 f7bc
00000340: c0d1 073e 6749 f1bd acfd 5d3e d1f4 713e
00000350: 2ec3 873e 817c 1d3d 8406 883e ecea fd3d
00000360: cb56 90bd 535d 37bd ff49 ecbb 3cf6 ca3d
00000370: 0b56 bdbc 676f 83be 41be 92bc e843 3c3e
00000380: 488a bdbd 7870 75be da7e 663e f2ac 1a3e
00000390: 07d1 d6bd ec67 d33d ba68 843e f816 b4be
000003a0: 9b4a cb3c b2f9 4bbe bf0a 15be 7be2 adbe
000003b0: 9b65 23bc d2c8 81bd feed c93d 1423 08bb
000003c0: 72cb 4e3e 4d18 fc3d 787b a8be 0a73 20be
000003d0: d506 873e 147e 343e c0f6 11be eeeb 74be
000003e0: 69bb 223e ff42 553d e794 05be e9d8 93bd
000003f0: 12ba ad3d c72a 90b7 7612 e23d 8c66 8539

l1.weight f4 [256, 256]
0.13390976 0.17456937 -0.21599545 0.102111965 0.03251594 -0.1736556 -0.12987337 0.09928388
-0.15570116 -0.1520827 0.11724621 0.10196009 0.049606316 -0.08593716 0.012670881 0.15002318
0.09557133 0.08199231 0.047537874 -0.039100178 -0.17009121 -0.1715892 -0.101195134 0.20343149
-0.17240475 0.07730807 0.1372647 -0.1714977 0.06047382 0.19615401 -0.104526974 -0.031033242
-0.019906735 -0.12959842 0.07215292 -0.029881172 0.123787485 -0.10517654 0.11979879 -0.06890904
0.107360646 0.15657715 -0.14024317 -0.18594189 0.044972125 -0.16854154 0.16040216 0.13633426
-0.17291313 0.15643983 0.15190363 -0.05526378 -0.12625366 -0.146993 -0.012968075 0.13909581
-0.03678277 0.092042424 0.13046871 -0.13295524 -0.04977407 0.17045355 -0.17474793 0.09059811
-0.12644492 -0.12581667 -0.16494657 -0.15148136 -0.051415507 -0.059092395 -0.17965625 0.12986004
0.121834844 -0.12556487 0.13766098 0.1173775 0.26299876 0.20793684 0.10931113 0.11452129
0.15690467 0.10780499 -0.043086927 0.030534765 -0.16218646 -0.188321 -0.18826357 0.046831418
0.15375343 -0.1398263 -0.07408131 -0.12794803 -0.14308482 -0.079998046 -0.09205842 -0.19973417
-0.1823847 -0.10463829 -0.13055162 0.107403055 -0.18013164 0.19291742 0.17852888 0.06721483
0.12858191 0.12199869 0.16440944 0.13319096 0.12136204 0.0462599 -0.10938037 -0.11429786
-0.20570707 -0.09655316 -0.18994752 -0.060589604 0.1551084 -0.11667631 0.10854241 -0.029586997
-0.12940413 0.109635964 -0.052173737 0.16821115 -0.0650964 0.17251047 -0.124568775 -0.13885646
-0.17803739 0.08300685 -0.07278969 0.14814596 0.03265798 0.16866165 0.193068 -0.078736514
0.123299405 0.051104996 0.06714406 -0.19235748 0.117135204 0.11736973 -0.04299468 -0.024821993
-0.037598323 -0.15403557 0.12844452 0.2304679 -0.1818054 -0.18986742 0.19751504 -0.10040119
-0.075550534 -0.046409976 0.010255151 -0.14407577 0.13063373 -0.19639681 0.14788264 0.09836398
-0.11665448 -0.06320015 -0.18939552 0.111418754 0.19686744 0.12633756 -0.19212413 -0.17194517
0.23221631 0.022020988 -0.15649186 0.12697686 -0.17353205 -0.16017962 0.06880051 0.10408632
-0.19288252 -0.1075767 -0.09770973 0.13418376 0.14822666 0.15416132 -0.18474065 0.049008127
0.14340091 -0.1076462 0.12478459 0.16094328 0.12957773 0.17574687 -0.10213365 -0.055297576
-0.108275555 -0.16119261 0.08814448 -0.14176285 0.08101479 -0.030283898 0.11340181 0.09912502
0.12524176 -0.04141463 -0.07472438 0.12842548 -0.12855488 -0.16190478 -0.15707265 0.19975679
-0.124729715 0.1278389 -0.17385145 -0.061790995 0.05761032 0.19004905 -0.09777631 -0.057270143
-0.054545872 0.052745804 0.08302518 -0.020984828 0.18516421 -0.031383805 -0.036303617 0.07450299
0.165578 -0.057676524 0.04597645 -0.06806041 -0.17170401 -0.11210145 0.038021047 -0.10388342
0.10816189 -0.042597372 0.1033582 0.13467334 0.124811985 -0.041573778 0.032667473 -0.16246767
0.15071157 0.13574344 0.17549221 -0.079683006 0.11994921 -0.08527219 0.14565268 0.08705465
0.1961708 0.105362676 0.12951618 -0.14778008 -0.1791839 0.07456555 -0.06168881 0.13418472
00000000: a41f 093e 50c2 323e e92d 5dbe 1420 d13d
00000010: 6f2f 053d c6d2 31be 86fd 04be 5955 cb3d
00000020: 2070 1fbe 91bb 1bbe c81e f03d 74d0 d03d
00000030: fe2f 4b3d d2ff afbd 8799 4f3c ad9f 193e
00000040: e7ba c33d 96eb a73d 13b7 423d 8227 20bd
00000050: 642c 2ebe 14b5 2fbe 653f cfbd 5850 503e
00000060: df8a 30be b253 9e3d 1e8f 0c3e 189d 2fbe
00000070: 65b3 773d 99dc 483e 3d12 d6bd 6d39 febc
00000080: 7313 a3bc 73b5 04be e9c4 933d 5cc9 f4bc
00000090: 4b84 fd3d cc66 d7bd 1159 f53d 2f20 8dbd
000000a0: e6df db3d c355 203e e89b 0fbe 8d67 3ebe
000000b0: b134 383d 2796 2cbe 7740 243e 359b 0b3e
000000c0: 2410 31be c331 203e a08c 1b3e 465c 62bd
000000d0: a448 01be 5585 16be 0d78 54bc 226f 0e3e
000000e0: 88a9 16bd bd80 bc3d 9799 053e 6b25 08be
000000f0: e5df 4bbd 608b 2e3e 1ff1 32be 808b b93d
00000100: c77a 01be 16d6 00be c1e7 28be ee1d 1bbe
00000110: 1199 52bd de0a 72bd cff7 37be 08fa 043e
00000120: 8c84 f93d 1494 00be 00f7 0c3e 9d63 f03d
00000130: c6a7 863e 65ed 543e 84de df3d 238a ea3d
00000140: 9eab 203e ddc8 dc3d eb7b 30bd 0b24 fa3c
00000150: 3514 26be 38d7 40be 2ac8 40be 4dd2 3f3d
00000160: 8a71 1d3e a02e 0fbe f1b7 97bd cf04 03be
00000170: d484 12be 04d6 a3bd 2089 bcbd 1d87 4cbe
00000180: 0ec3 3abe 9a4c d6bd 53af 05be 22f6 db3d
00000190: 6e74 38be 258c 453e 46d0 363e eea7 893d
000001a0: faaa 033e 73da f93d f35a 283e 3663 083e
000001b0: a98c f83d 057b 3d3d d102 e0bd ff14 eabd
000001c0: e0a4 52be aabd c5bd 9a81 42be ce2c 78bd
000001d0: bdd4 1e3e fdf3 eebd 7c4b de3d 6e60 f2bc
000001e0: 8482 04be d288 e03d 21b4 55bd 8b3f 2c3e
000001f0: 4351 85bd 96a6 303e ea1d ffbd 6330 0ebe
00000200: 6f4f 36be 7fff a93d c312 95bd 93b3 173e
00000210: 60c4 053d a4b5 2c3e 9eb3 453e 9c40 a1bd
00000220: 6684 fc3d 7953 513d d382 893d 5cf9 44be
00000230: 95e4 ef3d 8a5f f03d 311b 30bd 7e57 cbbc
00000240: b300 1abd 80bb 1dbe f686 033e c7ff 6b3e
00000250: 322b 3abe 9b6c 42be 6241 4a3e 249f cdbd
00000260: 3dba 9abd 6318 3ebd 3905 283c 9988 13be
00000270: d9c4 053e 3f1c 49be 8c6e 173e 0e73 c93d
00000280: 8be8 eebd 156f 81bd e6f0 41be 842f e43d
00000290: 9e97 493e a25e 013e 30bc 44be 6512 30be
000002a0: 1dca 6d3e 5c65 b43c 673f 20be 3906 023e
000002b0: 63b2 31be 2006 24be 48e7 8c3d 352b d53d
000002c0: ff82 45be 2c51 dcbd 0a1c c8bd 7867 093e
000002d0: bbc8 173e 77dc 1d3e a72c 3dbe bfbc 483d
000002e0: b0d7 123e 9c75 dcbd 108f ff3d 51ce 243e
000002f0: 06b0 043e fdf6 333e 722b d1bd b67f 62bd
00000300: 93bf ddbd ad0f 25be 1885 b43d 482a 11be
00000310: 15eb a53d f015 f8bc 353f e83d 0f02 cb3d
00000320: 603f 003e 63a2 29bd 1909 99bd f881 033e
00000330: e4a3 03be 5eca 25be a7d7 20be 0b8d 4c3e
00000340: 4b72 ffbd 33e8 023e 1d06 32be 8e18 7dbd
00000350: cdf8 6b3d 389c 423e f23e c8bd 1994 6abd
00000360: 7e6b 5fbd fc0b 583d 1b09 aa3d 60e8 abbc
00000370: b09b 3d3e 4e8c 00bd 1ab3 14bd 0695 983d
00000380: 478d 293e 383e 6cbd cd51 3c3d 4263 8bbd
00000390: 2dd3 2fbe 7295 e5bd f5bb 1b3d d5c0 d4bd
000003a0: fb83 dd3d 957a 2ebd 77ad d33d cfe7 093e
000003b0: 6d9d ff3d 4449 2abd 54ce 053d ed5d 26be
000003c0: 2254 1a3e 5400 0b3e 3bb4 333e d830 a3bd
000003d0: eea7 f53d 30a3 aebd fa25 153e b549 b23d
000003e0: 00e1 483e 63c8 d73d e49f 043e a953 17be
000003f0: fc7b 37be d3b5 983d 68ad 7cbd b867 093e

l1.bias f4 [256]
0.22939582 0.09203801 0.01231927 0.14785416 -0.012022095 0.039365977 0.06847103 0.031990483
0.19579574 -2.3275968e-06 -0.0013653515 0.04092974 0.07910442 0.1307302 0.13583985 -0.0002976428
0.18549305 0.03622622 -0.0485899 0.01153034 0.1838066 0.24466248 -0.0072469194 0.050270054
0.26460484 0.18261585 0.038512837 -0.0021632926 0.3158831 0.20749873 0.24990688 0.31863484
0.02423016 0.07773218 0.09304767 0.21699236 0.3170531 0.00027467136 0.13351253 0.07097804
0.061180476 0.013929762 0.18316641 -0.02195941 0.16830651 -0.0015308699 0.2692486 0.20785671
-0.008044785 0.042337615 0.095684774 -0.017802816 0.1167612 0.15988758 0.16121078 0.27392894
-0.00035961324 0.009521624 0.22359036 0.033849917 0.03772307 0.32365462 0.19866404 -0.007348246
0.09681703 0.08155459 1.0710569e-09 0.013890533 -0.012255726 -0.039899014 0.23082267 0.20610236
0.046584427 0.037217367 0.14282633 0.28899008 0.012067394 0.00817974 0.2817182 0.0761049
-0.02378758 0.066582076 0.1228186 -0.05031545 0.14611565 0.37995735 0.045779638 0.23983952
0.1816622 0.18471809 0.04568777 0.1644666 0.22463417 0.16830362 0.1189757 0.25851986
0.13063519 0.13965534 9.2738674e-08 0.2546256 0.22208281 0.23010105 8.515473e-05 0.22876084
0.12881471 0.042979844 -0.008314778 -0.0072492645 0.18511733 0.2892392 0.08439815 0.0013090589
0.11864901 0.117432065 0.0004796676 0.06410178 0.12897487 0.14771275 -0.032777626 0.01868807
0.015219532 0.03576872 -0.008945564 0.050243933 0.14146836 0.17538841 0.17328846 0.17911656
0.036726926 0.2480933 0.29467946 0.010572148 0.1410515 0.022814712 -0.0014532375 0.3434211
0.053254258 0.24473786 0.41432312 -0.007149432 -0.014556171 0.11989134 0.08796858 0.31707472
0.10819505 0.001589336 0.019405933 0.060033437 0.04493214 0.17551187 0.0012533684 0.008353877
-0.0014874471 0.18259211 0.20128445 0.1274836 0.20201252 0.21852474 0.21238385 -0.022499489
0.12847427 0.08504762 0.0042403587 0.038991824 0.03719515 0.0011063537 0.2196832 0.22638239
0.22028124 0.019852713 0.06485439 0.14600459 0.08648512 0.12802422 0.23625594 0.050415933
0.02227643 0.26812297 0.17582582 0.2475846 0.2600626 0.23520526 0.13540691 0.20690441
0.1242205 -0.014873302 0.08340291 -5.498943e-14 0.0008429977 0.30901667 0.09066769 0.1475704
0.27896523 0.1957972 -0.0020608122 -0.0015432213 -0.014750092 0.033774972 0.019247314 0.3040797
0.005380678 -0.0121212015 0.23039737 0.042388402 0.030301692 0.08302561 -9.046691e-12 -0.0077900533
-0.020266822 -0.023844915 0.20513956 0.08068997 0.16949908 0.2922684 0.25776148 0.016476216
0.0006119147 0.26598692 0.095260926 0.02947878 0.028782792 0.3569932 0.26254106 0.21770296
0.18278797 0.2415917 0.014497261 0.16854109 0.20485504 -0.024676226 0.29278222 0.19080766
0.13202775 0.10144029 0.08560299 0.079969555 0.0031203863 0.22491859 0.18705061 0.01186606
0.029529205 0.2493242 0.14426087 0.10507928 0.1322794 0.22276585 0.23159574 0.034463406
-0.030198509 -0.02735978 0.22612484 0.24361482 0.013641395 1.8437546e-05 0.18248561 0.0029862477
00000000: bde6 6a3e 6d7e bc3d c3d6 493c 1567 173e
00000010: 52f8 44bc 383e 213d 8a3a 8c3d 7408 033d
00000020: ae7e 483e cf33 1cb6 98f5 b2ba f1a5 273d
00000030: 8001 a23d 23de 053e 9a19 0b3e f10c 9cb9
00000040: e4f1 3d3e f261 143d 3406 47bd c0e9 3c3c
00000050: cc37 3c3e cd88 7a3e 9177 edbb f9e7 4d3d
00000060: 497a 873e a6ff 3a3e a3bf 1d3d 07c6 0dbb
00000070: 6ebb a13e 8c7a 543e 97e7 7f3e 1b24 a33e
00000080: 547e c63c 0d32 9f3d c78f be3d 3f33 5e3e
00000090: c954 a23e c401 9039 82b7 083e ef5c 913d
000000a0: 6198 7a3d a839 643c fa8f 3b3e 38e4 b3bc
000000b0: 8b58 2c3e 78a7 c8ba f4da 893e 64d8 543e
000000c0: 46ce 03bc 356a 2d3d 61f6 c33d 36d7 91bc
000000d0: 7f20 ef3d 92b9 233e 7014 253e 6a40 8c3e
000000e0: 798a bcb9 9600 1c3c dff4 643e 36a6 0a3d
000000f0: 8183 1a3d 0fb6 a53e 966e 4b3e 8ec9 f0bb
00000100: 0248 c63d 1806 a73d 7734 9330 1e95 633c
00000110: 3ecc 48bc 266d 23bd c75c 6c3e 7f0c 533e
00000120: 50cf 3e3d 3d71 183d 1141 123e 82f6 933e
00000130: 52b6 453c 5104 063c 5e3d 903e e3dc 9b3d
00000140: 2cde c2bc 2f5c 883d 5188 fb3d 9317 4ebd
00000150: 579f 153e c589 c23e 6e83 3b3d 7e98 753e
00000160: a805 3a3e bd26 3d3e 1923 3b3d ef69 283e
00000170: 8006 663e c957 2c3e 88a9 f33d b75c 843e
00000180: 3bc5 053e cf01 0f3e a027 c733 495e 823e
00000190: ad69 633e 9c9f 6b3e 1995 b238 4840 6a3e
000001a0: 01e8 033e a20b 303d b53a 08bc 3d8b edbb
000001b0: 668f 3d3e 2917 943e f0d8 ac3d ba94 ab3a
000001c0: 41fe f23d 3980 f03d e57b fb39 cb47 833d
000001d0: fd11 043e 0342 173e d541 06bd b917 993c
000001e0: 585b 793c 3982 123d 6a90 12bc 95cc 4d3d
000001f0: 15dd 103e 0599 333e 8872 313e 556a 373e
00000200: f96e 163d 2c0c 7e3e 3ae0 963e cd36 2d3c
00000210: ce6f 103e ebe5 ba3c 8f7a beba e4d4 af3e
00000220: 2321 5a3d 909c 7a3e 2922 d43e c845 eabb
00000230: 027d 6ebc 9789 f53d df28 b43d 9e57 a23e
00000240: 5e95 dd3d 4451 d03a 31f9 9e3c 9fe5 753d
00000250: c30a 383d 62b9 333e 1148 a43a b3de 083c
00000260: 71f6 c2ba 6df9 3a3e 831d 4e3e 108b 023e
00000270: 5fdc 4e3e f3c4 5f3e 277b 593e d950 b8bc
00000280: c28e 033e 722d ae3d b5f2 8a3b e4b5 1f3d
00000290: f159 183d 1203 913a a2f4 603e c9d0 673e
000002a0: 6891 613e 28a2 a23c 61d2 843d 3a82 153e
000002b0: 1c1f b13d c818 033e 14ed 713e f080 4e3d
000002c0: 0f7d b63c 6a47 893e af0b 343e d186 7d3e
000002d0: ed26 853e a6d9 703e 1ca8 0a3e c0de 533e
000002e0: 5167 fe3d 26af 73bc 25cf aa3d 7fa6 77a9
000002f0: 9efc 5c3a 6f37 9e3e fbaf b93d b21c 173e
00000300: 88d4 8e3e 107f 483e b10e 07bb ea45 caba
00000310: 5faa 71bc a057 0a3d 8bac 9d3c 56b0 9b3e
00000320: 6650 b03b 0198 46bc 4aed 6b3e 769f 2d3d
00000330: 413b f83c 5509 aa3d ad26 1fad b443 ffbb
00000340: 9b06 a6bc 6956 c3bc 1b10 523e c840 a53d
00000350: 2b91 2d3e 34a4 953e 50f9 833e 21f9 863c
00000360: e668 203a 702f 883e 2918 c33d 7c7d f13c
00000370: e4c9 eb3c d0c7 b63e c86b 863e 86ed 5e3e
00000380: c52c 3b3e d163 773e eb85 6d3c 0996 2c3e
00000390: 85c5 513e cc25 cabc 8de7 953e 1563 433e
000003a0: 4832 073e edbf cf3d 9f50 af3d 14c7 a33d
000003b0: 657f 4c3b 0f51 663e 328a 3f3e dd69 423c
000003c0: 3be7 f13c d84e 7f3e 1fb9 133e ce33 d73d
000003d0: 4074 073e bb1c 643e 6f27 6d3e 8029 0d3d
000003e0: dd62 f7bc 9e21 e0bc 458d 673e 2a76 793e
000003f0: 2880 5f3c 54aa 9a37 82dd 3a3e ecb4 433b
