code/save/model_alpha_embeddings/model_alpha_4.pt (torch, 386176 bytes, 4 tensors)

embed.weight f4 [59, 256]
-0.21773154 -0.25175878 0.1717256 0.3219112 -0.012127226 0.15519695 -0.18344946 -0.24318266
-0.25844437 0.20279653 0.230631 -0.12042235 0.0419094 -0.10714046 0.18524443 0.24600446
-0.20290434 0.14459707 -0.2254011 -0.23645328 0.25467518 0.12704682 -0.28776544 -0.21830149
0.25493863 0.15475133 -0.27603608 -0.17654765 -0.097415864 -0.09752663 -0.09097408 0.32482848
-0.2290453 -0.2121185 -0.24734056 0.12058612 -0.24578828 -0.18082836 0.16379672 -0.020056626
0.25657958 -0.045585357 -0.25054336 -0.26214707 -0.17924425 -0.17710006 -0.20273957 0.23085138
-0.062414337 -0.23729664 -0.23458886 -0.08070312 0.20612273 0.17067838 0.12536255 -0.30372795
0.0038596354 -0.17806706 0.2572382 0.2384922 0.1598838 0.21985485 0.24765061 0.19870724
0.025444075 0.25892913 0.25209573 0.1638605 0.16695201 0.13418889 0.15830322 0.16458927
-0.003598574 -0.19342212 -0.18211912 -0.20708135 0.18857796 -0.15117711 -0.13980058 0.15134652
-0.14462028 0.0080820955 -0.23998344 0.22421929 -0.19169767 -0.24919698 -0.3000857 -0.045975115
0.29372403 0.17274556 -0.034783594 -0.28613776 0.2797138 -0.25383535 0.06205084 0.110615596
-0.22708865 0.065678105 -0.14316517 -0.16441199 -0.25810388 0.14262262 0.25599727 -0.09087524
0.23342924 -0.079717234 0.25810856 0.09903876 0.28665692 0.18469128 -0.24225582 -0.15957902
0.100282185 0.22043097 -0.27486026 -0.24688378 0.08937513 0.20230511 0.17754844 0.19389398
-0.12848918 -0.06354086 0.29848126 -0.17726657 -0.3111657 -0.2061707 -0.15654123 -0.10813522
-0.033441324 0.23178604 -0.14724776 -0.18230547 0.28818494 0.2592547 -0.14669137 0.18892278
-0.17613052 -0.034305915 0.14939588 -0.16899432 0.10028947 -0.16965017 -0.17077045 -0.24241939
-0.14146583 0.08201948 0.28760895 -0.17491078 -0.0057172906 0.06382582 0.2446065 0.3286549
-0.3523617 0.23190694 -0.14878897 -0.13211542 -0.22146757 -0.17014737 -0.20127654 -0.20429042
0.2899828 -0.15982822 -0.25999138 -0.05494288 -0.18747996 0.029811952 0.29990005 -0.16808064
-0.19379906 -0.224682 -0.028615128 0.26494437 0.19242716 -0.2160289 0.0786859 -0.040883172
0.009857185 -0.10529679 0.07839901 -0.20020193 0.2556153 0.14086801 -0.26582444 0.12136886
0.16975395 -0.091373175 0.13867357 -0.21487072 -0.33380243 0.18479095 0.0375302 -0.2091445
0.010979549 0.038009662 0.301061 -0.08976063 0.278085 -0.25353175 0.12647694 -0.29994836
0.26836038 -0.20513824 -0.23260453 -0.19275428 0.21979026 0.021079978 0.2742134 0.19622146
0.18433006 0.16272774 -0.12750839 -0.269858 0.11039148 -0.25998107 -0.23723559 -0.087096535
-0.1873009 0.011423958 0.024510149 0.18763404 -0.12596966 0.012072501 -0.18165597 -0.0031683634
-0.3081331 0.2346028 0.26742497 0.2533381 0.3121167 0.19183636 0.15289344 0.08366923
0.27945912 -0.1850072 -0.20361683 -0.07922091 0.27021697 0.21246693 0.19526705 0.097876415
-0.13794008 -0.22582589 -0.23294288 0.24161392 0.18324015 -0.3692678 0.22213145 0.18605213
-0.15811902 -0.23833439 -0.24540332 0.14793089 0.17920123 0.12014597 -0.25219384 0.16414993
00000000: 04f5 5ebe 87e6 80be d6d8 2f3e 8bd1 a43e
00000010: 46b1 46bc f3eb 1e3e 2dda 3bbe e004 79be
00000020: d252 84be e5a9 4f3e 882a 6c3e fe9f f6bd
00000030: 31a9 2b3d 756c dbbd b7b0 3d3e 98e8 7b3e
00000040: 28c6 4fbe 4111 143e 8ccf 66be cf20 72be
00000050: c964 823e 9018 023e fe55 93be 6d8a 5fbe
00000060: 5187 823e 2277 1e3e 9a54 8dbe e8c8 34be
00000070: f881 c7bd 0bbc c7bd 9e50 babd eb4f a63e
00000080: da8a 6abe 9835 59be d846 7dbe dbf5 f63d
00000090: ecaf 7bbe 122b 39be 54ba 273e cb4d a4bc
000000a0: 665e 833e b6b7 3abd 3847 80be 2438 86be
000000b0: ce8b 37be b859 35be f69a 4fbe 4e64 6c3e
000000c0: 2da6 7fbd e4fd 72be 1038 70be ad47 a5bd
000000d0: d611 533e 50c6 2e3e 0a5f 003e 3b82 9bbe
000000e0: f0f1 7c3b 3657 36be bab4 833e 4d37 743e
000000f0: 94b8 233e a121 613e 1f98 7d3e e979 4b3e
00000100: 1870 d03c 5c92 843e b112 813e 0ccb 273e
00000110: 78f5 2a3e d068 093e 3d1a 223e 178a 283e
00000120: 0ed6 6bbb 7310 46be 6f7d 3abe 220d 54be
00000130: 951a 413e 2cce 1abe e227 0fbe 95fa 1a3e
00000140: 5717 14be c46a 043c 38be 75be be99 653e
00000150: 654c 44be 7e2d 7fbe d5a4 99be 6750 3cbd
00000160: ff62 963e 36e4 303e 3e79 0ebd a680 92be
00000170: a636 8f3e b5f6 81be 0629 7e3d 6e8a e23d
00000180: ed89 68be 3e82 863d e499 12be 9e5b 28be
00000190: 3126 84be aa0b 123e 1312 833e cc1c babd
000001a0: 1308 6f3e ca42 a3bd ce26 843e d5d4 ca3d
000001b0: b2c4 923e b61f 3d3e e911 78be af68 23be
000001c0: bf60 cd3d a8b8 613e 7cba 8cbe 1acf 7cbe
000001d0: 4f0a b73d 1229 4f3e 42cf 353e 258c 463e
000001e0: ab92 03be b621 82bd 89d2 983e 5e85 35be
000001f0: 1c51 9fbe 691e 53be 584c 20be 0076 ddbd
00000200: c5f9 08bd 5259 6d3e 1ec8 16be 49ae 3abe
00000210: fa8c 933e 08bd 843e 4336 16be f974 413e
00000220: 8f5b 34be 5c84 0cbd 3cfb 183e d90c 2dbe
00000230: 9164 cd3d c6b8 2dbe 73de 2ebe ca3c 78be
00000240: 6bdc 10be d4f9 a73d 7b41 933e d01b 33be
00000250: 1c58 bbbb 1db7 823d 207a 7a3e 7445 a83e
00000260: c168 b4be 0379 6d3e 235c 18be 4449 07be
00000270: 65c8 62be 1d3b 2ebe 701b 4ebe 8231 51be
00000280: a078 943e 02aa 23be 971d 85be c90b 61bd
00000290: bffa 3fbe 3238 f43c 808c 993e 551d 2cbe
000002a0: 4373 46be 0a13 66be 466a eabc caa6 873e
000002b0: a00b 453e ae36 5dbe 1326 a13d 1d75 27bd
000002c0: 0880 213c d8a5 d7bd a98f a03d bc01 4dbe
000002d0: 02e0 823e b43f 103e 241a 88be 3d90 f83d
000002e0: fbd3 2d3e dc21 bbbd 7200 0e3e 1207 5cbe
000002f0: 27e8 aabe d739 3d3e 44b9 193d fa29 56be
00000300: 91e3 333c 05b0 1b3d ab24 9a3e 6cd4 b7bd
00000310: 2861 8e3e eace 81be 2c83 013e d592 99be
00000320: 8866 893e c20f 52be e22f 6ebe 6161 45be
00000330: b310 613e ebaf ac3c b365 8c3e 47ee 483e
00000340: 05c1 3c3e 1aa2 263e 8f91 02be d42a 8abe
00000350: ee14 e23d 3d1c 85be e3ed 72be ab5f b2bd
00000360: cfcb 3fbe 8e2b 3b3c 82c9 c83c 2323 403e
00000370: 31fe 00be bdcb 453c 0604 3abe 51a4 4fbb
00000380: 9fc3 9dbe b73b 703e edeb 883e 88b5 813e
00000390: c3cd 9f3e c070 443e 1990 1c3e c65a ab3d
000003a0: 4415 8f3e 8772 3dbe ee80 50be 933e a2bd
000003b0: e159 8a3e ee90 593e 16f4 473e 6e73 c83d
000003c0: 2a40 0dbe e73e 67be 9488 6ebe a469 773e
000003d0: 4ea3 3b3e ab10 bdbe 6d76 633e 7384 3e3e
000003e0: f4e9 21be ee0d 74be 024b 7bbe 327b 173e
000003f0: 8780 373e 170f f63d 8d1f 81be eb16 283e

unembed.weight f4 [59, 256]
2.315838e-07 -0.20814717 0.08776146 0.046831377 -1.9100503e-06 -0.27408123 -0.14994702 0.096627936
-0.25220647 -0.0023605935 0.28030834 -1.3685136e-08 0.2490132 -0.40491143 -0.14357376 -0.20142742
-0.23535645 -0.100959636 0.21422234 -0.107878394 -0.09141067 0.12700815 0.28340995 0.020624964
-0.28906444 0.061437834 0.0010534613 0.23763694 0.21754168 0.17351796 0.22402708 0.029328424
0.019805217 -0.2610594 0.12556666 0.15438235 0.110850304 0.29406425 -0.19343217 -0.14447838
-0.21783401 0.023017496 0.13184151 -0.073102 -0.30171964 -0.122692786 0.11615894 0.0044150627
-0.2054231 -0.29141164 0.24333689 -0.051256195 -0.32548204 3.638599e-07 -0.31674427 0.120682895
0.01659262 0.08986912 0.15420821 0.1341584 0.2473909 0.21094278 4.5238835e-07 0.21565752
8.0072546e-08 -0.0023399042 0.1799605 0.038151987 0.11957905 -0.21682726 -0.121785596 0.15537068
0.4038475 0.27860823 0.31906435 0.17104368 0.10758158 -0.082154505 -0.37933096 0.14842641
-0.12351669 -0.06603771 0.06510837 0.16723467 0.35126883 0.077358626 0.2385343 0.20932572
-0.012167521 0.3331201 -0.348935 -0.13622646 -0.2525291 -0.2925146 0.19766596 0.23585452
0.0076048262 -0.011674204 0.17758325 0.18827927 0.16175804 -0.1749262 -0.29193464 0.034822572
0.18457092 0.24087533 0.22780886 0.18577854 0.10361042 0.08806633 -0.33228704 -0.008801133
0.13086808 0.20449965 0.17319427 -0.06556611 0.11596056 -0.010552503 -0.025277095 0.24478157
-0.2487416 -0.17920277 0.012135846 0.2946651 0.09999473 0.25578225 0.24107167 -0.26730633
0.24119152 0.12946159 0.07639573 0.037630245 0.22799686 -4.860802e-06 0.038055763 -0.21840625
0.23206313 0.23122154 0.3200352 -0.021296578 0.020558998 -0.25716203 -0.045273207 0.22778241
0.19452576 -0.049491096 0.18535775 -0.32503933 -0.14523049 0.12044782 0.2660641 0.05534285
0.09427064 -0.2823638 -0.20479017 -0.07588046 0.17598653 0.19878246 0.29380673 0.00047003702
-0.24074113 0.025079781 0.019051736 0.14091392 -0.14792873 -0.031083183 -0.45877507 -0.077068515
-0.14134201 0.21349621 -0.054206934 0.10714011 -0.14301787 0.28294054 -0.23060004 0.16523479
0.22500205 -0.021399446 -0.13328286 0.36494488 0.07493802 -0.16928348 0.2531107 -0.07250123
0.21373546 -0.1712354 0.07274317 -0.34033218 0.06586969 0.1288351 7.1538714e-05 -0.04405252
0.14737913 -0.21682377 0.1600071 -0.20235081 0.28181997 -0.0072728693 -0.42484674 -0.14851698
-0.30819687 0.04866481 0.22916792 0.010583904 0.13409823 -0.085789345 0.3317629 0.19959873
-0.1309428 -0.045237668 -0.15455252 -0.07579943 0.15297224 -0.006665763 0.05484423 0.022365978
0.14498888 -0.29901844 -0.070058815 -0.1480601 0.04808989 0.076188214 0.1584636 -0.04034079
-0.1808235 0.24446072 -0.3080418 -0.27450985 0.22043847 0.09973974 0.0428068 0.20017134
-0.3856916 0.16175339 -0.20463173 0.0706664 -1.1247413e-06 -0.17696041 -0.3281589 -0.1954791
-0.10314692 -0.21922478 -0.1854489 -0.2806502 0.2853466 -0.12469581 0.35871944 -0.111999534
-0.23848769 -0.17991614 -0.27713314 -0.27425772 0.2919225 0.1300463 0.0029696538 0.011925198
00000000: 45a9 7834 8824 55be 48bc b33d 42d2 3f3d
00000010: 6a2e 00b6 6054 8cbe b68b 19be dee4 c53d
00000020: 3521 81be 30b4 1abb 9384 8f3e dd1b 6bb2
00000030: 51fd 7e3e 8d50 cfbe 0005 13be fd42 4ebe
00000040: 4801 71be edc3 cebd 1a5d 5b3e 59ef dcbd
00000050: 8435 bbbd 6d0e 023e 1c1b 913e aff5 a83c
00000060: 4100 94be 3da6 7b3d 4c14 8a3a 1957 733e
00000070: 3fc3 5e3e b1ae 313e 5b67 653e 2a42 f03c
00000080: 8d3e a23c 94a9 85be 8c94 003e 6816 1e3e
00000090: 7c05 e33d 978f 963e 1513 46be 24f2 13be
000000a0: e10f 5fbe 308f bc3c 7601 073e 80b6 95bd
000000b0: ff7a 9abe 5b46 fbbd bde4 ed3d 3bac 903b
000000c0: 6f5a 52be e833 95be 4e2d 793e 04f2 51bd
000000d0: 95a5 a6be 8658 c334 4e2c a2be 9828 f73d
000000e0: 3fed 873c 4d0d b83d c2e8 1d3e d260 093e
000000f0: 0a54 7d3e 6201 583e c8df f234 53d5 5c3e
00000100: 59f4 ab33 1459 19bb 9147 383e 4245 1c3d
00000110: dce5 f43d f707 5ebe ba6a f9bd 7e19 1f3e
00000120: 19c5 ce3e bda5 8e3e 675c a33e 1326 2f3e
00000130: bb53 dc3d 9f40 a8bd ab37 c2be 18fd 173e
00000140: 52f6 fcbd c73e 87bd 8957 853d 913f 2b3e
00000150: 82d9 b33e 336e 9e3d 5642 743e 7b59 563e
00000160: 485a 47bc b88e aa3e 9ca7 b2be f37e 0bbe
00000170: 7f4b 81be 79c4 95be f268 4a3e d983 713e
00000180: e831 f93b 2945 3fbc 62d8 353e 48cc 403e
00000190: e6a3 253e db1f 33be 7578 95be 1da2 0e3d
000001a0: 2900 3d3e 06a8 763e ba46 693e bb3c 3e3e
000001b0: b331 d43d 1f5c b43d 8721 aabe a132 10bc
000001c0: 4802 063e 5b68 513e d759 313e 8647 86bd
000001d0: bb7c ed3d 68e4 2cbc e911 cfbc 05a8 7a3e
000001e0: 1eb6 7ebe ee80 37be 6dd5 463c 58de 963e
000001f0: 09ca cc3d e4f5 823e 7edb 763e 60dc 88be
00000200: e9fa 763e 9491 043e 5d75 9c3d 2c22 1a3d
00000210: 0278 693e f919 a3b6 5ce0 1b3d e3a5 5fbe
00000220: f5a1 6d3e 57c5 6c3e a7db a33e 2976 aebc
00000230: 586b a83c beaa 83be 6670 39bd cb3f 693e
00000240: c331 473e 2db7 4abd 6cce 3d3e 8e6b a6be
00000250: 4db7 14be 59ad f63d 8e39 883e 2faf 623d
00000260: f710 c13d fd91 90be 84b4 51be 3767 9bbd
00000270: d035 343e a18d 4b3e d66d 963e 4d6f f639
00000280: d884 76be 1d74 cd3c 6312 9c3c bd4b 103e
00000290: a17a 17be 29a2 febc 91e4 eabe 19d6 9dbd
000002a0: f6bb 10be c09e 5a3e 1708 5ebd 466c db3d
000002b0: 4773 12be 95dd 903e 6b22 6cbe 4f33 293e
000002c0: f066 663e e44d afbc 4d7b 08be 0eda ba3e
000002d0: 1b79 993d a658 2dbe ba97 813e 867b 94bd
000002e0: 78dd 5a3e 5558 2fbe 5ffa 943d 0540 aebe
000002f0: b0e6 863d 59ed 033e 0e07 9638 6a70 34bd
00000300: 8eea 163e 0d07 5ebe e7d8 233e 0d35 4fbe
00000310: b54a 903e 4051 eebb 8385 d9be d614 18be
00000320: fbcb 9dbe c054 473d ffaa 6a3e 1c68 2d3c
00000330: 0c51 093e 53b2 afbd d4dc a93e 9c63 4c3e
00000340: df15 06be 224b 39bd 0443 1ebe bb3c 9bbd
00000350: c1a4 1c3e 796c dabb 58a4 603d db38 b73c
00000360: f777 143e f218 99be ff7a 8fbd 119d 17be
00000370: e8f9 443d 9108 9c3d 4844 223e 623c 25bd
00000380: cc29 39be e953 7a3e a8b7 9dbe 8e8c 8cbe
00000390: 9fba 613e 5944 cc3d 2f56 2f3d b7f9 4c3e
000003a0: 5f79 c5be aea2 253e fb8a 51be 8cb9 903d
000003b0: d1f5 96b5 1c35 35be 7104 a8be ac2b 48be
000003c0: b13e d3bd 767c 60be 51e6 3dbe 62b1 8fbe
000003d0: f318 923e 8460 ffbd 13aa b73e 0360 e5bd
000003e0: 1e36 74be f03b 38be 65e4 8dbe 826b 8cbe
000003f0: de76 953e db2a 053e 869e 423b e861 433c

l1.weight f4 [256, 256]
9.7553e-08 1.8905095e-07 -6.668399e-08 4.0045858e-08 -4.0263302e-07 -4.1332008e-08 1.4969793e-07 -1.2448733e-07
-6.477474e-07 -2.0454814e-07 1.227548e-07 -1.3362866e-07 1.0963223e-07 -4.000998e-07 2.5633142e-07 5.7209043e-08
5.988286e-08 8.10666e-08 1.1222423e-07 -1.9464144e-07 -2.589809e-07 2.8295946e-07 -3.7126136e-07 4.0954948e-08
-6.5602926e-08 3.834817e-07 -1.0336872e-08 -4.4923124e-07 1.408188e-08 -1.456209e-07 -6.918034e-08 4.9726705e-08
-4.0233962e-07 -2.1941857e-07 2.3434441e-07 2.2989457e-07 -3.4485058e-07 -2.833082e-07 2.3974516e-07 1.6551466e-07
5.9314527e-08 9.434489e-08 2.4192968e-07 -2.186226e-07 5.3558455e-08 3.5277502e-08 1.1034635e-07 -1.7725066e-07
-5.313713e-08 1.8485453e-07 1.6298506e-07 1.5249164e-07 2.1922762e-08 8.771845e-08 -5.126237e-08 -2.2953144e-07
-2.6200186e-07 1.15241015e-07 -1.105752e-07 -2.3965137e-07 -1.7307387e-07 -9.522011e-08 1.189815e-07 -3.1467067e-07
-6.183896e-08 -1.01099936e-07 -2.1672312e-07 1.8992807e-07 -4.3008583e-09 1.8460328e-07 -2.8220198e-08 -1.8275969e-07
2.7021935e-07 2.4751552e-08 -5.855644e-07 -1.3623698e-07 1.5245583e-07 1.1388298e-07 6.078661e-08 1.3975435e-07
1.138536e-07 -2.5071327e-07 3.0469806e-07 -1.4411738e-07 -7.005941e-08 -1.0669291e-07 3.9869067e-07 -1.6501275e-07
8.1463334e-08 -1.7598775e-07 3.1334943e-07 1.4014938e-07 6.0272136e-08 -4.4765213e-07 -4.6990013e-07 1.15047776e-07
3.560203e-07 3.5379767e-07 2.4475634e-07 -2.614425e-07 2.801688e-07 1.4352466e-07 -1.4230265e-07 1.3672044e-07
2.4934774e-09 4.9898827e-09 5.8132954e-08 9.5012254e-08 -3.7234824e-07 3.911243e-07 3.0776056e-07 -1.0753635e-07
1.1521379e-08 2.2257323e-07 -1.5497218e-08 1.3140759e-07 -9.396157e-08 -3.3368903e-07 3.2450376e-07 -4.519635e-08
-1.3784451e-07 -4.578629e-08 2.8716835e-07 4.1978957e-08 3.5224298e-07 -2.849916e-07 1.8669391e-07 1.06754946e-07
-1.4417166e-07 1.791433e-07 2.9264746e-07 -1.8239088e-07 -1.6944945e-07 -2.5327168e-07 -1.2377781e-07 -2.3247082e-07
-9.961777e-08 -1.5679444e-07 4.1890038e-07 2.0758964e-08 -4.2798575e-07 -1.1286101e-07 9.6993084e-08 -3.2527555e-07
1.5465144e-08 -1.573586e-07 -2.084601e-07 2.208376e-07 -7.584881e-08 1.68686e-07 -9.516945e-08 -1.0689322e-07
-3.4904014e-07 -1.47455665e-08 -2.1166767e-07 4.2912777e-07 -1.2899527e-07 -2.597555e-07 -4.0440444e-08 2.1828999e-08
-2.5487955e-07 -2.5717637e-07 -6.41549e-08 -3.9854107e-09 -2.6657733e-07 -2.2852875e-07 -3.596069e-08 -3.6925562e-07
2.385245e-07 -1.1841767e-08 -1.173841e-07 2.3880844e-07 -2.8092475e-07 1.7621001e-07 -1.1303245e-07 9.301011e-08
-3.9805153e-07 2.6588415e-07 -2.0138583e-07 1.5069075e-07 2.963769e-07 5.6874803e-09 1.01122474e-07 -1.3411038e-07
2.0646968e-07 7.788231e-08 -3.5316384e-07 -1.5852838e-07 -1.1931036e-07 -3.6182118e-07 6.815673e-08 3.3677483e-07
-2.1534852e-07 2.062966e-09 -7.296414e-08 -3.7286927e-07 8.443193e-08 5.862112e-08 -5.5695466e-08 -3.1789872e-07
-1.8023901e-07 2.9529899e-08 5.040518e-07 4.022137e-09 4.2654838e-07 1.7341098e-07 3.1738855e-07 -2.5969339e-08
1.3204422e-07 5.653614e-07 1.0823642e-07 2.1012343e-09 5.295919e-07 -9.01561e-08 4.48444e-07 -2.2469486e-07
-2.3021751e-07 3.293098e-07 8.520873e-08 1.5910709e-07 1.5706924e-07 -2.3558796e-07 1.236533e-07 -2.3126765e-07
4.3731941e-07 -2.7513238e-07 -1.9054873e-07 -3.543771e-08 -2.513936e-07 -4.608114e-08 -4.6960082e-08 2.0421638e-07
2.3018075e-07 2.4240444e-07 1.206764e-07 -2.1413771e-07 -1.8777003e-07 -1.9848139e-07 1.15596364e-07 -1.4710284e-07
5.8290563e-08 -4.3443893e-07 1.0540441e-07 -1.1554325e-07 1.15118395e-08 1.6718654e-07 7.624318e-08 1.1516162e-07
-1.05452216e-07 9.185039e-08 -4.5505897e-09 -7.986768e-09 -1.1531473e-07 9.0771245e-08 -1.2542256e-07 -3.1066872e-07
00000000: 547e d133 eefd 4a34 e933 8fb3 e3fe 2b33
00000010: 7629 d8b4 0685 31b3 a7bc 2034 d1aa 05b4
00000020: dde0 2db5 c4a1 5bb4 95ce 0334 917b 0fb4
00000030: f56e eb33 4ccd d6b4 ec9d 8934 02b6 7533
00000040: f398 8033 d616 ae33 ecff f033 a2fe 50b4
00000050: 100a 8bb4 a7e9 9734 c651 c7b4 71e6 2f33
00000060: 97e1 8cb3 53e1 cd34 0b96 31b2 df2d f1b4
00000070: c3ec 7132 f85b 1cb4 4b90 94b3 1793 5533
00000080: 2301 d8b4 5199 6bb4 1aa0 7b34 f0d8 7634
00000090: e723 b9b4 9519 98b4 53b6 8034 53b8 3134
000000a0: 03c1 7e33 a79a ca33 90e2 8134 86be 6ab4
000000b0: 2508 6633 0684 1733 8cf7 ec33 4a52 3eb4
000000c0: e438 64b3 6d7c 4634 fe00 2f34 95bc 2334
000000d0: aa50 bc32 ba5f bc33 922b 5cb3 1f75 76b4
000000e0: 43a9 8cb4 6b7a f733 5c75 edb3 6fa9 80b4
000000f0: 2fd6 39b4 cf7b ccb3 c582 ff33 02f0 a8b4
00000100: 54cc 84b3 471c d9b3 66b4 68b4 08ef 4b34
00000110: c0c6 93b1 5d37 4634 df68 f2b2 9a3c 44b4
00000120: aa12 9134 3d9d d432 ae2f 1db5 8948 12b4
00000130: bdb2 2334 d58f f433 cb89 8233 620f 1634
00000140: ae7f f433 c599 86b4 6295 a334 afbe 1ab4
00000150: 9173 96b3 0c1f e5b3 a10b d634 5c2e 31b4
00000160: f1f0 ae33 25f7 3cb4 6b3a a834 f87b 1634
00000170: f56e 8133 d754 f0b4 9546 fcb4 2f10 f733
00000180: 0f23 bf34 95f1 bd34 0e67 8334 625c 8cb4
00000190: 1b6a 9634 c21b 1a34 dbcb 18b4 6ecd 1234
000001a0: b859 2b31 7973 ab31 dcad 7933 8a09 cc33
000001b0: 27e7 c7b4 b7fb d134 4a3a a534 bcee e6b3
000001c0: 90ef 4532 77fc 6e34 be1e 85b2 0b19 0d34
000001d0: ebc7 c9b3 df25 b3b4 7537 ae34 ea1d 42b3
000001e0: 6902 14b4 8fa6 44b3 1e2c 9a34 5a4c 3433
000001f0: e81b bd34 f200 99b4 0876 4834 2741 e533
00000200: 9bcd 1ab4 895a 4034 291d 9d34 39d7 43b4
00000210: e9f1 35b4 65f9 87b4 c9e7 04b4 189d 79b4
00000220: 73ed d5b3 545b 28b4 3be5 e034 7251 b232
00000230: eac5 e5b4 ff5d f2b3 834a d033 88a1 aeb4
00000240: 36d8 8432 67f6 28b4 13d5 5fb4 611f 6d34
00000250: 53e2 a2b3 0e20 3534 f55f ccb3 2b8d e5b3
00000260: b663 bbb4 b053 7db2 c446 63b4 df62 e634
00000270: f381 0ab4 8674 8bb4 bdb0 2db3 7a82 bb32
00000280: 61d6 88b4 0d12 8ab4 87c5 89b3 0bf0 88b1
00000290: 1c1e 8fb4 8161 75b4 3273 1ab3 1b3e c6b4
000002a0: 8f0e 8034 a470 4bb2 9714 fcb3 9535 8034
000002b0: 01d2 96b4 3d34 3d34 3fbc f2b3 d9bc c733
000002c0: c9b3 d5b4 d7be 8e34 843c 58b4 8fcd 2134
000002d0: bb1d 9f34 9b6b c331 ab28 d933 fbff 0fb4
000002e0: f4b1 5d34 4140 a733 789a bdb4 f337 2ab4
000002f0: c81b 00b4 5340 c2b4 8f5d 9233 fbcd b434
00000300: 8d3a 67b4 15c4 0d31 76b0 9cb3 c32e c8b4
00000310: f250 b533 9ac6 7b33 d035 6fb3 abab aab4
00000320: b987 41b4 efa8 fd32 2d4e 0735 1733 8a31
00000330: 5d00 e534 d932 3a34 8d65 aa34 2e13 dfb2
00000340: 0ac8 0d34 57c3 1735 9a6f e833 4e65 1031
00000350: 4729 0e35 d79b c1b3 adc1 f034 a743 71b4
00000360: b531 77b4 ffcb b034 fffb b633 06d7 2a34
00000370: dda6 2834 edf5 7cb4 8fc5 0434 5e52 78b4
00000380: b9c8 ea34 e8b5 93b4 a399 4cb4 2d34 18b3
00000390: 46f7 86b4 c0ea 45b3 28b1 49b3 9246 5b34
000003a0: 9a27 7734 d023 8234 4793 0134 baed 65b4
000003b0: d59d 49b4 261e 55b4 c63d f833 52f3 1db4
000003c0: 275b 7a33 d53c e9b4 b05a e233 9320 f8b3
000003d0: 9bc5 4532 e383 3334 22bb a333 c54e f733
000003e0: f874 e2b3 493f c533 695b 9cb1 2d36 09b2
000003f0: f1a2 f7b3 05ee c233 e4ab 06b4 fcc9 a6b4

l1.bias f4 [256]
1.1656494e-07 0.27791926 0.24814895 0.025088884 7.7476145e-08 0.040398832 0.085732915 0.17582698
0.106975034 0.0031743853 0.30680525 6.41377e-08 0.2054425 0.41118833 -0.01415115 0.09211814
0.0061471043 0.2467285 0.09040191 -0.0044320486 0.12005295 0.03078871 0.17611994 0.18859865
0.12802318 0.047636982 -0.00016092055 0.042532925 -0.010569141 0.10820383 0.07891497 0.014099439
0.0017977866 0.07239368 0.08722153 0.09784364 0.027497387 0.13648157 0.14575459 0.265741
0.20389132 0.023939662 0.043951407 0.10571782 0.25695252 0.12714261 0.3202133 0.14334436
0.16067396 0.09096432 0.09603247 0.017856792 0.20831881 1.5420154e-08 0.109078884 0.011046357
-0.0011745587 0.17663915 0.15452453 0.13463159 0.19614524 0.10955611 5.5334052e-08 0.26050332
3.5532253e-08 -0.005405701 0.06853095 0.0028878285 0.22507991 -0.012109839 0.1969085 0.116507694
0.18457793 0.18052134 0.286166 -0.006034926 0.07200558 0.16546167 0.28316364 0.082942285
0.03314157 0.03141709 0.04498818 0.15659878 0.26122233 0.22232991 0.25806376 0.094567366
0.014560363 0.27164713 0.20542881 0.07156688 0.26475963 0.14900209 0.21986128 -0.000493058
0.21141484 0.012547735 0.24155109 0.18427098 0.0759532 0.23525327 0.16149645 0.101360515
0.098029315 0.21627916 0.22683148 0.009635272 0.17375731 0.01686826 0.12408366 0.0010171077
0.073175125 0.09884879 0.2118053 0.2732928 0.010824446 0.22182965 0.24798012 0.11430474
0.17745817 0.12277945 0.015745778 0.14198653 0.21726266 -0.0023965638 0.10118737 0.029506674
0.30787534 0.097871855 0.21374547 -0.006225447 0.24934505 1.9462796e-07 0.0068650856 0.04377504
0.22086337 0.044644732 0.15040196 0.090425424 0.16098216 0.031581372 0.015581005 0.010542339
0.07733407 0.04103204 0.16551872 0.19965035 0.17859432 0.021009881 0.027027152 0.05853323
0.122129455 0.19835258 0.109275416 0.18856928 0.031310063 0.16896923 0.0762249 0.00016484872
0.15118535 0.10534581 -0.001473982 0.092970885 0.056185875 0.108428456 0.15208977 0.1203795
0.15981525 0.060592137 0.04952525 0.045307916 0.048393723 0.010456551 0.086336 0.016849244
0.03497873 0.058506716 0.049275745 0.10106691 0.012002343 0.1927188 0.11315643 0.08219954
0.032963842 0.19351134 0.10358384 0.15215078 0.1911512 0.19255027 0.00012407058 0.14676546
0.26291135 0.06484 0.007154702 0.20831883 0.1975392 -0.0014742267 0.25687104 0.062890284
0.23328787 0.22968203 0.10279667 0.21371748 0.229935 0.10622952 0.122597426 0.14965607
0.31355083 0.09116418 0.13092366 -0.006831956 0.13154066 0.087698855 -0.009278792 0.055910617
0.16644257 0.25646076 -0.0023670578 0.0393474 0.14143826 0.038217627 0.031892247 0.19827095
0.10177061 0.009615926 0.2281487 0.021341862 0.18866609 0.16945964 0.006606707 0.20965019
0.16577296 0.1694494 0.22723919 0.16074964 6.0510533e-06 0.14215218 0.008279766 0.08713689
0.06927493 0.20754996 0.13127263 0.042579286 0.35841513 0.06136665 0.36176178 0.015338501
0.115946904 0.14400388 0.0008018808 0.04285728 -0.022870503 0.012602522 0.06743489 -0.00037979425
00000000: 4152 fa33 6f4b 8e3e c21a 7e3e 3487 cd3c
00000010: f660 a633 3f79 253d bd94 af3d fd0b 343e
00000020: ba15 db3d 5909 503b 9415 9d3e 13bc 8933
00000030: 855f 523e 4787 d23e 3ada 67bc 6fa8 bc3d
00000040: a66d c93b 65a6 7c3e a324 b93d b83a 91bb
00000050: 52de f53d 9b38 fc3c c958 343e 0120 413e
00000060: 8218 033e ff1e 433d c8bc 28b9 0137 2e3d
00000070: 312a 2dbc f899 dd3d 2c9e a13d 5501 673c
00000080: b5a3 eb3a 2343 943d 34a1 b23d 3f62 c83d
00000090: 3342 e13c d3c1 0b3e b140 153e 340f 883e
000000a0: e3c8 503e 1c1d c43c 6406 343d 9682 d83d
000000b0: 488f 833e ac31 023e fff2 a33e ddc8 123e
000000c0: b787 243e 804b ba3d acac c43d 6848 923c
000000d0: 8751 553e 4775 8432 c064 df3d c8fb 343c
000000e0: a6f3 99ba e5e0 343e ae3b 1e3e dddc 093e
000000f0: 4cda 483e f45e e03d 6fa8 6d33 b160 853e
00000100: 209c 1833 4f22 b1bb f459 8c3d b941 3d3b
00000110: 597b 663e 5968 46bc 62a2 493e 969b ee3d
00000120: ff01 3d3e 96da 383e 5a84 923e a1c0 c5bb
00000130: a977 933d c96e 293e d3fa 903e a5dd a93d
00000140: 74bf 073d 35af 003d 8745 383d 6e5b 203e
00000150: efbe 853e 74aa 633e ef20 843e 89ac c13d
00000160: 978e 6e3c 5515 8b3e ee5b 523e a891 923d
00000170: 938e 873e 0194 183e 5123 613e 9040 01ba
00000180: 227d 583e 0495 4d3c 2b59 773e 88b1 3c3e
00000190: 5a8d 9b3d 3ce6 703e 535f 253e 1a96 cf3d
000001a0: 98c3 c83d 4978 5d3e 8346 683e 43dd 1d3c
000001b0: 70ed 313e 4e2f 8a3c 931f fe3d 7950 853a
000001c0: d7dc 953d 3c71 ca3d 7de3 583e 09ed 8b3e
000001d0: 0459 313c 5027 633e 80ee 7d3e 9b18 ea3d
000001e0: 98b7 353e cb73 fb3d 4afd 803c eb64 113e
000001f0: 1a7a 5e3e ab0f 1dbb 533b cf3d fbb7 f13c
00000200: d6a1 9d3e 0a71 c83d 18e0 5a3e d6fe cbbb
00000210: 4f54 7f3e edfa 5034 83f4 e03b 754d 333d
00000220: 022a 623e 65dd 363d f902 1a3e f730 b93d
00000230: 82d8 243e 785b 013d 7947 7f3c c6b9 2c3c
00000240: 5361 9e3d 3611 283d bd7d 293e 2471 4c3e
00000250: 6ee1 363e ea1c ac3c 0c68 dd3c 8ac0 6f3d
00000260: 021f fa3d f01c 4b3e cacb df3d 4e18 413e
00000270: fb3e 003d 4506 2d3e cd1b 9c3d 3edb 2c39
00000280: 55d0 1a3e 8bbf d73d a132 c1ba 8567 be3d
00000290: 2923 663d bd0f de3d 6cbd 1b3e 8789 f63d
000002a0: 9ca6 233e 762f 783d fdda 4a3d cb94 393d
000002b0: 7f38 463d f451 2b3c eed0 b03d 6d07 8a3c
000002c0: db45 0f3d bda4 6f3d 5dd5 493d 2bfc ce3d
000002d0: 7aa5 443c 1458 453e 8fbe e73d 3c58 a83d
000002e0: 1805 073d d627 463e c423 d43d 6acd 1b3e
000002f0: 24bd 433e e62b 453e f118 0239 af49 163e
00000300: 519c 863e d5ca 843d fe71 ea3b 8851 553e
00000310: b747 4a3e d73a c1ba 9a84 833e 9fcc 803d
00000320: 04e3 6e3e c431 6b3e 0f87 d23d c1d8 5a3e
00000330: 1574 6b3e dd8e d93d 5c14 fb3d 713f 193e
00000340: bc89 a03e 49b4 ba3d da10 063e 9ade dfbb
00000350: 98b2 063e 759b b33d 1306 18bc 8802 653d
00000360: ec6f 2a3e d34e 833e a420 1bbb bd2a 213d
00000370: 31d5 103e 168a 1c3d 72a1 023d 8a07 4b3e
00000380: 1c6d d03d 1e8c 1d3c d09f 693e 21d5 ae3c
00000390: af31 413e d486 2d3e 137d d83b 8aae 563e
000003a0: 63c0 293e 2584 2d3e 64b1 683e 8e9b 243e
000003b0: 270a cb36 5790 113e dba7 073c d374 b23d
000003c0: 04e0 8d3d fa87 543e 556c 063e 9e67 2e3d
000003d0: 3082 b73e 995b 7b3d d738 b93e 564e 7b3c
000003e0: 9275 ed3d c175 133e 4f35 523a 1d8b 2f3d
000003f0: ec5a bbbc cf7a 4e3c 4e1b 8a3d 1f1f c7b9
