code/save/model_gama/model_gama_repr_6.pt (torch, 649964 bytes, 6 tensors)

embed.weight f4 [59, 256]
0	0x3c0b0344	0.008484665
1	0xbe37946b	-0.1792771
2	0x3bb9324d	0.0056517483
3	0x3e005c01	0.12535097
4	0x3bd94635	0.006630684
5	0x3d92c5b0	0.07166612
6	0x3da4eeaf	0.08053338
7	0xbdbe1c56	-0.092827484
8	0xbd85e669	-0.06538088
9	0x3dfe5975	0.12419406
10	0xbe447dd3	-0.19188623
11	0x3a43b3db	0.000746546
12	0xbd972048	-0.07379204
13	0x3e125c54	0.14293033
14	0x3cb05ab1	0.02152762
15	0xbd10e836	-0.035377704
16	0xbdbc7e06	-0.092037246
17	0x3dd07784	0.10179046
18	0xbdc89a7d	-0.09795091
19	0xbe139c4c	-0.14415091
20	0xbcc76864	-0.02434177
21	0x3d774eb8	0.060377806
22	0xbcdad097	-0.026710792
23	0xbe359a4e	-0.17734644
24	0xbdac074f	-0.083998315
25	0xbdd40040	-0.1035161
26	0x3d98669b	0.074414454
27	0x3d9b4161	0.075808294
28	0x3e3576a4	0.17721039
29	0x3e1f0940	0.15530872
30	0xbc973f00	-0.018462658
31	0xbc6ba9cc	-0.014383744
32	0xbe2bb8b7	-0.16769682
33	0x3d8ce9de	0.06880544
34	0x3e50f105	0.20404442
35	0x3e5a55ff	0.21321867
36	0x3ce2bb4e	0.027677204
37	0xbdf2828d	-0.11841307
38	0x3da03343	0.078222774
39	0xbe080a53	-0.13285188
40	0x3ca7276f	0.020404546
41	0x3da9aee8	0.08285314
42	0x3e3e6c46	0.1859599
43	0x3de81f14	0.11334053
44	0xbe23fc1e	-0.16014144
45	0x3e540f02	0.2070885
46	0xbd49cd7b	-0.049268227
47	0x3dfd0be6	0.12355785
48	0xbe6b6a54	-0.2298978
49	0xbd908d9e	-0.07058261
50	0x3dbc90a2	0.09207274
51	0xbc8985ea	-0.016787488
52	0x3e413a1a	0.1886982
53	0x3c1059a8	0.008810438
54	0xbe3d1536	-0.18465123
55	0xbe678168	-0.22607958
56	0x3d10323f	0.03520417
57	0x3d938fc6	0.07205157
58	0x3dc522ce	0.09625779
59	0xbe1f88ce	-0.1557953
60	0x3b2978d1	0.0025859366
61	0xbe6b8159	-0.22998561
62	0x3db90a1f	0.090351336
63	0xbc7c6d78	-0.015406959
64	0xbdd0f136	-0.10202257
65	0xbdbee819	-0.09321613
66	0xbe0119cc	-0.12607497
67	0xbdcfab47	-0.101400904
68	0xbda4d3a4	-0.0804818
69	0x3e35bba6	0.17747363
70	0x3db927dd	0.090408064
71	0xbe0315d3	-0.12801294
72	0xbe0e4263	-0.13892512
73	0x3b2d9439	0.0026486053
74	0xbd53df4e	-0.05172663
75	0x3c8cc10f	0.017181901
76	0xbd63d08c	-0.055618808
77	0x3e089613	0.13338499
78	0x3e0a506a	0.13507238
79	0xbe1b7c26	-0.15184078
80	0x3dd47bc1	0.10375167
81	0x3e417140	0.18890858
82	0xbdbd6b9a	-0.09249039
83	0xbd1a266b	-0.037634294
84	0xbd21a2dc	-0.039461955
85	0xbe4757aa	-0.19467035
86	0xbdc1f673	-0.094708346
87	0x3e184e3a	0.14873591
88	0x3e4bc52b	0.19899432
89	0xbe2bc758	-0.16775262
90	0x3e030019	0.12793006
91	0xba6e4e3d	-0.0009090638
92	0x3ccbe242	0.024888162
93	0x3e013054	0.12616092
94	0x3c929de4	0.017897554
95	0xbe495e51	-0.19664885
96	0x3e139c96	0.14415202
97	0xbdb48e71	-0.08816231
98	0x3e6e98e1	0.23300506
99	0x3d616fdd	0.05503832
100	0xbdcddc4d	-0.10051785
101	0x3c0c868a	0.0085769985
102	0xbe218ba2	-0.15775922
103	0xbcfdcd2e	-0.030981626
104	0x3d51f3d6	0.05125793
105	0x3cc0df17	0.023543878
106	0x3d004f67	0.031325724
107	0x3dfade90	0.12249482
108	0x3dfcdb5a	0.123465255
109	0x3cbf9815	0.023387948
110	0x3e13071c	0.14358181
111	0xbd156c4e	-0.03648024
112	0xbb262103	-0.0025349266
113	0xbc8f1330	-0.017465204
114	0xbe4a9739	-0.1978425
115	0xbdad5479	-0.084633775
116	0xbe1b460b	-0.15163438
117	0xbc1c9156	-0.009556135
118	0xbe5a8e6d	-0.21343394
119	0xbe462775	-0.19350989
120	0xbd4e5c51	-0.05038101
121	0x3c88f9ff	0.01672077
122	0x3db7883f	0.08961534
123	0x3ddbdac6	0.10735087
124	0x3db2b7ec	0.087264866
125	0x3dc92fe4	0.098235875
126	0x3e071665	0.13192137
127	0xbd89d7f2	-0.067306414
128	0x3e639be1	0.22227432
129	0x3c448fb0	0.011997148
130	0xbc25b11c	-0.010113027
131	0xbb91c058	-0.004447978
132	0x3e025718	0.12728536
133	0x3ac6f65d	0.0015179623
134	0x3e15e0c1	0.14636518
135	0xbe4c6ce0	-0.19963408
136	0xbd44837b	-0.047976952
137	0x3e479f86	0.19494447
138	0xbd145a5a	-0.03621898
139	0xbe053eca	-0.13012233
140	0xbd399ba4	-0.045314446
141	0x3e03062a	0.1279532
142	0xbde1287b	-0.10994049
143	0xbe182800	-0.14859009
144	0x3e4c8eb4	0.19976312
145	0xbe2fd532	-0.17171171
146	0xbe258f70	-0.16167998
147	0xbe230778	-0.15920818
148	0xbd88dc8c	-0.06682691
149	0x3d1091f3	0.035295438
150	0x3e174eb6	0.1477612
151	0x3e1c545b	0.15266554
152	0x3e31323c	0.17304319
153	0x3e014028	0.1262213
154	0x3e28ca85	0.16483505
155	0xbb222200	-0.0024739504
156	0x3df6803b	0.12036177
157	0xbd67214b	-0.056428235
158	0x3da91f7b	0.082579575
159	0x3d6f9715	0.058493692
160	0xbe3adb64	-0.18247753
161	0xbe5f15b5	-0.21785624
162	0xbd394231	-0.04522914
163	0xbb24da05	-0.0025154364
164	0xbe13b74b	-0.1442539
165	0x3d6ff492	0.05858285
166	0xbdc38534	-0.09546891
167	0x3d346203	0.044038784
168	0x3e1b7648	0.1518184
169	0x3d1eec1a	0.038799383
170	0x3e21b22e	0.15790626
171	0x3cb3c4f9	0.02194451
172	0x3db10946	0.08644347
173	0x3d804f64	0.062651426
174	0xbcd945f1	-0.026522608
175	0xbc1b0f13	-0.009464043
176	0x3d42ec42	0.047588594
177	0x3e0e72a1	0.13910915
178	0x3a8f1b05	0.0010918087
179	0x3e11eb4d	0.14249916
180	0x3dc94026	0.098266885
181	0xbe23c69e	-0.15993735
182	0x3d793997	0.060845938
183	0x3e1449ed	0.14481325
184	0xbdb18f5c	-0.08669922
185	0xbdd6a410	-0.10480511
186	0xbe42ad0a	-0.19011322
187	0x3dc71301	0.097204216
188	0x3e0ad4c6	0.13557729
189	0xbe0b0e76	-0.13579735
190	0xbc3f930a	-0.011692772
191	0x3e5a29b4	0.21304971
192	0xbe2b3a6e	-0.16721508
193	0x3d930c18	0.07180041
194	0xbe0f82f8	-0.14014804
195	0x3e1a2a36	0.15055165
196	0x3e41577e	0.18881032
197	0x3d5f862a	0.05457131
198	0x3d814ab8	0.063130796
199	0x3d8897a7	0.066695504
200	0x3dfdd69c	0.12394449
201	0x3dae95f3	0.08524694
202	0xbdb4a868	-0.088211834
203	0xbe535860	-0.20639181
204	0x3e61b415	0.22041352
205	0xbd03709b	-0.03208981
206	0x3e41ad7f	0.1891384
207	0xbdb9055f	-0.090342276
208	0xbb3dabe4	-0.0028941566
209	0x3de26f1b	0.11056348
210	0x3996e854	0.00028783327
211	0x3d807315	0.0627195
212	0xbe42f702	-0.19039539
213	0xbe4241c3	-0.18970399
214	0xbda948a1	-0.08265806
215	0x3c8ea6d3	0.017413532
216	0xbc98d8be	-0.018658038
217	0x3da5b45b	0.08091041
218	0x3d5b2fb8	0.053512305
219	0xbe5597fe	-0.20858762
220	0xbc2e6eb5	-0.010646512
221	0xbe05f3cf	-0.13081287
222	0xbe0d3080	-0.13788033
223	0xbe27cc2d	-0.1638648
224	0xbdb3cdc1	-0.08779479
225	0xbc3b8ff5	-0.011447896
226	0xbde066af	-0.10957085
227	0xbd36b4bf	-0.044605967
228	0x3cfc90e7	0.030830814
229	0xbdbb15b8	-0.09135002
230	0x3dd8db4e	0.10588704
231	0x3e3c0d4c	0.18364447
232	0x3d89bcab	0.06725439
233	0x3d6ff74d	0.058585454
234	0xbcfb8271	-0.030701848
235	0x3e188390	0.14893937
236	0x3d9d3f98	0.07678145
237	0x3d87194f	0.06596624
238	0xbdbbdf46	-0.091734454
239	0x3e26bb66	0.16282424
240	0xbc7a9a1d	-0.0152955325
241	0xbe2cc308	-0.16871274
242	0x3d82c05c	0.06384346
243	0xbe1b1561	-0.15144874
244	0x3e2c191f	0.16806458
245	0xbd658681	-0.056036476
246	0xbd6b1732	-0.057395168
247	0xbe79baf6	-0.24387726
248	0x3d3b9ff2	0.045806833
249	0xbdce5b98	-0.10076064
250	0x3dfe7872	0.12425317
251	0x3cf595b3	0.029978609
252	0xbe13a156	-0.14417014
253	0x3c235a73	0.009970295
254	0xbcf0ff0e	-0.029418495
255	0xbd9fcd5b	-0.0780284

unembed.weight f4 [59, 256]
0	0x3da2c59b	0.079478465
1	0x3e0f11ac	0.13971585
2	0x3dc26970	0.09492767
3	0x3d096ebd	0.033552874
4	0xbd8f1d13	-0.06987967
5	0x3bb3db1d	0.005488767
6	0xbe1a413a	-0.15063944
7	0xbe1658bc	-0.14682287
8	0xbb2dcf69	-0.0026521331
9	0x3d32997f	0.043603417
10	0x3dbab2cd	0.09116135
11	0x3cb27675	0.021785
12	0xbe53673b	-0.20644848
13	0xbddbe37a	-0.10736747
14	0x3de4144f	0.11136686
15	0x3de2e6af	0.11079156
16	0xbdf1e587	-0.11811357
17	0x3e3e821a	0.18604317
18	0xbe182209	-0.14856733
19	0xbe1922d1	-0.14954688
20	0x3d91221b	0.07086583
21	0xbd8505a3	-0.06495216
22	0x3e411e48	0.18859208
23	0x3c66310d	0.014049781
24	0xbcf62e77	-0.030051453
25	0xbd8f56f1	-0.06999005
26	0xbde8f944	-0.11375669
27	0xbdfb7013	-0.12277236
28	0xbe2a642a	-0.16639772
29	0xbcc5b77f	-0.02413535
30	0xbd3647f1	-0.044502202
31	0xbd88f981	-0.06688214
32	0x3da19336	0.078894064
33	0x3e131844	0.14364725
34	0xbe1bc4cd	-0.15211792
35	0xbe094f4c	-0.13409156
36	0x3e08e9f0	0.1337049
37	0x3d63df7d	0.055633057
38	0x3e20f593	0.15718679
39	0x3e3078fb	0.1723365
40	0xbe42745b	-0.18989699
41	0x3dfcf5b1	0.123515494
42	0xbc20fbba	-0.009825641
43	0x3e0a24c2	0.13490584
44	0x3e069a1a	0.13144723
45	0x3d5cd850	0.05391723
46	0xbd20f665	-0.03929748
47	0x3e46bc74	0.19407827
48	0xbe0b9399	-0.13630523
49	0xbe1753ea	-0.14778104
50	0x3be1afeb	0.006887426
51	0x3e198a5d	0.14994188
52	0x3d0a20f9	0.03372285
53	0xbe156b03	-0.14591603
54	0xbc8e5074	-0.017372347
55	0x3c028c63	0.007968041
56	0x3e314b0c	0.17313784
57	0x3d85c999	0.06532592
58	0xbd565cfd	-0.052334774
59	0xbe1c66d1	-0.15273596
60	0x3e05c757	0.13064323
61	0xbd025431	-0.031818572
62	0xbe12db62	-0.143415
63	0xbe2b250e	-0.16713354
64	0xbe11e184	-0.14246184
65	0x3d8c93d7	0.06864136
66	0x3e365d91	0.1780913
67	0xbe4f3aa9	-0.20237221
68	0xbe054ce7	-0.13017617
69	0x3d9c619a	0.076358035
70	0x3dbf25e6	0.093334004
71	0xbe30cd5c	-0.17265838
72	0x3e462ecf	0.19353794
73	0xbdece447	-0.11566978
74	0xbcb5bbef	-0.02218434
75	0x3b8b61c7	0.0042535993
76	0x3e68614a	0.22693363
77	0xbd1ea1c8	-0.038728505
78	0xbd885d5b	-0.06658431
79	0x3dc217d5	0.09477202
80	0x3ddf4a46	0.109028384
81	0x3dbdae8c	0.09261808
82	0xbd899f18	-0.06719798
83	0xbddb6188	-0.10711962
84	0xbcbdf9b0	-0.02319035
85	0xbe26feb2	-0.16308096
86	0x3e2fbb0d	0.17161198
87	0xbdb60fdd	-0.088897444
88	0x3b4732a8	0.0030395184
89	0xbd9b7d3b	-0.07592245
90	0xbc6cb653	-0.014447766
91	0x3d9404b7	0.07227462
92	0x3dc0189b	0.09379693
93	0xbe273671	-0.16329361
94	0x3dce82f5	0.10083572
95	0xbe1f892a	-0.15579668
96	0x3e63769b	0.22213213
97	0x3e2899c2	0.16464904
98	0x3e1ee509	0.15517057
99	0xbdce3183	-0.10068037
100	0xbe2c10b6	-0.1680325
101	0xbe4ad2c3	-0.19806962
102	0xbd7fbd8b	-0.06243662
103	0x3d1367b6	0.03598758
104	0x3e346801	0.176178
105	0x3dc8da3b	0.09807249
106	0x3e46ddea	0.19420591
107	0x3d6c3d5f	0.057675716
108	0x20e63bc4	3.9003065e-19
109	0xbdaf4594	-0.08558193
110	0x3e173922	0.14767888
111	0x3e18dd48	0.14928162
112	0xbdd209c0	-0.10255766
113	0x3cb6f8be	0.022335406
114	0x3d3e9265	0.04652633
115	0x3e548830	0.20755076
116	0xbc05d4f3	-0.008168447
117	0xbc2751a9	-0.01021234
118	0xbdace952	-0.0844294
119	0xbe43b398	-0.19111478
120	0xbda789f7	-0.081806116
121	0x3d90ced4	0.07070699
122	0xbe223e50	-0.15844083
123	0x3c4d7fdd	0.012542692
124	0xbe24e5b9	-0.16103257
125	0xbce178a3	-0.027523344
126	0x3e06dc78	0.1317004
127	0xbe196d3c	-0.14983076
128	0xbe11d103	-0.14239888
129	0xbcbc1f3a	-0.022964109
130	0xbd976518	-0.07392329
131	0x3da6652b	0.08124765
132	0x3c28db1a	0.010306144
133	0x3df86c43	0.12130024
134	0xbd96dbe5	-0.0736616
135	0xbe0ad5b9	-0.13558091
136	0xbe51ba31	-0.20481183
137	0xbe10c96f	-0.14139341
138	0x3c91b8f2	0.017788384
139	0xbdbc892b	-0.0920585
140	0x3d7d75c5	0.061879892
141	0xbe05845f	-0.13038777
142	0x3d06221e	0.03274738
143	0x3def10b2	0.11673106
144	0x3e3addb7	0.1824864
145	0xbdda8fa0	-0.106719255
146	0x3e4efd2e	0.20213768
147	0x3d238a80	0.039927006
148	0xbe2b596d	-0.16733332
149	0xbd16e54d	-0.036839772
150	0x3dfdb5e5	0.12388209
151	0xbd2fd9c4	-0.042932287
152	0xbd544e37	-0.051832404
153	0x3e662829	0.22476257
154	0x3d95bed1	0.07311786
155	0xbd82762f	-0.06370198
156	0xbd10b2eb	-0.03532688
157	0xbbf05d6c	-0.0073353555
158	0xbcc0bf4a	-0.023528714
159	0xbe010e81	-0.12603189
160	0xbe2e253b	-0.1700639
161	0x3e5e78a3	0.21725707
162	0xbe11dd25	-0.14244516
163	0x3e3719ab	0.17880885
164	0xbde5285c	-0.111893386
165	0x3e38c24b	0.18042867
166	0x3d81ba0b	0.06334313
167	0x3ca7c8f0	0.020481557
168	0xbbb02a85	-0.0053761625
169	0xba91b9ab	-0.0011117955
170	0xbce1f711	-0.02758363
171	0xbe35a49b	-0.17738573
172	0xbe14059e	-0.14455268
173	0x3e5034a6	0.20332584
174	0x3d12686b	0.035744112
175	0xbd6b6345	-0.057467718
176	0x3ddf6c11	0.10909284
177	0xbdf82851	-0.12117065
178	0xbdfceb2b	-0.12349542
179	0x3dd26f58	0.102751434
180	0xbe10d6ea	-0.14144483
181	0x3d8ad641	0.06779147
182	0x3beebd4c	0.0072857495
183	0x3e1071e6	0.14105949
184	0xbe0b7401	-0.1361847
185	0xbc66d9e1	-0.014090032
186	0xbd83fd44	-0.06444791
187	0x9fe1a0f9	-9.5557513e-20
188	0xbdae4b0d	-0.085104086
189	0xbdc13fb9	-0.09435982
190	0x3c4ecaa0	0.012621552
191	0x3e20ef71	0.1571634
192	0x3d5d7cff	0.054074284
193	0x3c7e698d	0.015528095
194	0xbde674f2	-0.11252774
195	0xbd38e7d5	-0.045142967
196	0xbcfa8df1	-0.030585261
197	0x3e5825c2	0.21108153
198	0x3e1d5370	0.1536386
199	0x3c7a1250	0.015263155
200	0x3d019239	0.03163359
201	0x3e69300a	0.22772232
202	0x3e09361e	0.1339955
203	0x3e4010a8	0.18756354
204	0xbdab3d1b	-0.08361264
205	0xbe1e2943	-0.15445428
206	0x3daf2854	0.08552614
207	0x3d915a0b	0.070972525
208	0xbe52fef6	-0.20605072
209	0xbb9bd7b0	-0.0047559366
210	0xbd91c848	-0.07118279
211	0x3db91a0b	0.090381704
212	0xbe1d2464	-0.15345913
213	0xbda17200	-0.07883072
214	0x3c789c12	0.015173929
215	0x3e075d42	0.13219169
216	0x3ddf1852	0.108933106
217	0x3cc5531f	0.024087487
218	0xbc375acb	-0.01119108
219	0xbdb236fd	-0.087018944
220	0x3e3304d3	0.17482309
221	0xbe419566	-0.18904647
222	0xbd313516	-0.043263517
223	0xbcb71622	-0.022349421
224	0xbcf8e933	-0.030384636
225	0x3d65506d	0.055984903
226	0x3d27b28f	0.04094177
227	0xbda092e5	-0.07840518
228	0x3ca1ab8c	0.01973512
229	0xbd7e96da	-0.062155582
230	0x3de6892b	0.112566315
231	0x3da4ab83	0.08040526
232	0x3d8a0742	0.067396656
233	0x3e086c94	0.1332267
234	0xbe0a60ff	-0.13513564
235	0xbd87fea1	-0.066403635
236	0xbd294ad5	-0.04133113
237	0xbe5ae19d	-0.21375127
238	0xbdfad672	-0.122479334
239	0x3d16c937	0.036812987
240	0xbdb950d2	-0.090486184
241	0x3cd17ed7	0.025573177
242	0x3dd22155	0.10260264
243	0x3c4c75db	0.012479271
244	0xbdec85ee	-0.115489826
245	0x3d8d7687	0.06907373
246	0x3bec134a	0.007204448
247	0x3d9fd53e	0.078043446
248	0x3ccf12c0	0.025277495
249	0xbd94158a	-0.07230671
250	0x3e64585d	0.22299333
251	0xbe47d81a	-0.1951603
252	0xbe2ef8f7	-0.1708716
253	0x3dd0c0c6	0.101930186
254	0xbc5ade2f	-0.013358637
255	0xbd8628ba	-0.06550737

l1.weight f4 [256, 256]
0	0xbc78784a	-0.015165398
1	0x3dee8f09	0.116483755
2	0x3db9c182	0.09070112
3	0xbd9695c3	-0.073527835
4	0x3d576227	0.05258384
5	0x3d3ca893	0.046059202
6	0xbc7e9fe0	-0.015541047
7	0xbad36488	-0.0016127983
8	0x3a677ccf	0.00088305486
9	0x3cf1116f	0.029427258
10	0x3de8e1da	0.11371203
11	0xbb9a5837	-0.004710223
12	0x3caa75f0	0.02080819
13	0xbdb6dbe2	-0.08928658
14	0xbd3ff462	-0.04686392
15	0xbd6bf92d	-0.05761068
16	0xbddab3a2	-0.106787935
17	0x3dee98d3	0.11650243
18	0x3db517de	0.08842443
19	0x3d7ef290	0.062243044
20	0x3d10d76a	0.035361685
21	0xbd859b78	-0.06523794
22	0x3dc50d9f	0.09621739
23	0x3dd8073e	0.10548256
24	0x3dddc24a	0.10828073
25	0xbc905ef9	-0.017623411
26	0xbdb87a4b	-0.090077005
27	0xbd86ce3d	-0.065823056
28	0x3d94ca7b	0.072651826
29	0xbd7c95a0	-0.06166613
30	0x3d5ce75f	0.05393159
31	0x3df995a3	0.12186744
32	0xbc4df8bc	-0.01257151
33	0xbd95f1d6	-0.07321517
34	0xbdd20d98	-0.10256499
35	0xbdc0a27a	-0.0940599
36	0xbd7360aa	-0.059418358
37	0x3d5f7dc0	0.054563284
38	0xbdaa2af1	-0.08308972
39	0xbda596d1	-0.080854066
40	0x3d39402c	0.045227215
41	0x3d7e0434	0.062015727
42	0xbdef7445	-0.116920985
43	0xbdd3b215	-0.10336701
44	0x3daffa8c	0.0859271
45	0xbd86e91a	-0.06587429
46	0x3e127089	0.14300741
47	0x3d8f59e2	0.06999566
48	0x3de38b96	0.11110608
49	0x3dc12e57	0.09432667
50	0xbdeb6249	-0.11493356
51	0xbd4c1067	-0.04982033
52	0x3d9d937d	0.07694147
53	0xbd039d95	-0.032132704
54	0x3d057216	0.032579504
55	0x3d746c5c	0.059673652
56	0xbdfcb830	-0.123398185
57	0xbd847c23	-0.0646899
58	0xbdb57c87	-0.08861642
59	0xbd2a6f0c	-0.04160981
60	0xbccd480b	-0.025058767
61	0xbd52adfb	-0.051435452
62	0xbc065f08	-0.008201368
63	0xbdcba540	-0.09943628
64	0xbd744f7a	-0.059646107
65	0xbda5e5f7	-0.08100503
66	0x3da19c42	0.07891132
67	0xbd28ba8e	-0.041193537
68	0xbd7f44d5	-0.062321503
69	0xbd1ab65f	-0.03777158
70	0xbe0e8e98	-0.13921583
71	0xbc1e43da	-0.009659732
72	0x3d98a666	0.07453613
73	0x3c1157ae	0.008871002
74	0x3e01e10e	0.12683508
75	0x3d957054	0.072968155
76	0xbd51ffa1	-0.051269177
77	0xbaef8787	-0.0018274643
78	0x3de7c6d7	0.113172226
79	0xbd6076b9	-0.054800723
80	0xbd2cedc1	-0.042218927
81	0xbdacf4f1	-0.08445156
82	0xbddaf4b4	-0.10691205
83	0xbd935879	-0.07194609
84	0xbd1bf251	-0.038072888
85	0x3e057cf1	0.13035943
86	0x3e08ce23	0.13359885
87	0xbd344060	-0.044006705
88	0x3d8653a6	0.065589234
89	0x3e193532	0.14961699
90	0xbd7cec95	-0.06174906
91	0x3dfa2f7e	0.1221609
92	0x3d2d61cc	0.042329594
93	0x3c9b716a	0.018974978
94	0x3d9fd45a	0.07804175
95	0x3daf871f	0.08570694
96	0xbc94ab9f	-0.018148242
97	0xbca8ae29	-0.020590859
98	0xbdaf7745	-0.08567671
99	0xbd02a029	-0.031891022
100	0xbe1ae8cd	-0.15127869
101	0x3da193d2	0.078895226
102	0x3d7275c2	0.059194334
103	0x3c8f8289	0.017518299
104	0x3c994a05	0.018712053
105	0x3d015929	0.03157917
106	0xbdbdac4d	-0.092613794
107	0x3d8d47c5	0.068984546
108	0xbddfe477	-0.10932248
109	0xbd7fc0dd	-0.062439788
110	0x3cabe46b	0.020982942
111	0xbc8a8dd7	-0.016913338
112	0xbdcd0b9e	-0.100119814
113	0x3ddf0a1a	0.108905986
114	0x3db21226	0.08694868
115	0xbdb220bb	-0.08697649
116	0x3d6c44e1	0.057682876
117	0x3d933383	0.071875595
118	0x3da7da38	0.08195919
119	0x3d817d54	0.063227326
120	0xbc6f9f05	-0.014625316
121	0xbdca8d97	-0.09890287
122	0xbc48a8a3	-0.012247237
123	0xbd9927c7	-0.0747829
124	0xbde4271e	-0.111402735
125	0xbcc2f162	-0.02379674
126	0xbdd5ca49	-0.104389735
127	0xbd88106d	-0.06643758
128	0xbd808d9e	-0.06277011
129	0x3dcb329e	0.09921764
130	0xbd64a0fa	-0.05581758
131	0xbb904918	-0.0044032447
132	0x3c6de15e	0.014519064
133	0xbd04d9b9	-0.0324342
134	0xbdba218b	-0.09088429
135	0x3d970d3d	0.07375572
136	0xbcf9438b	-0.030427715
137	0x3c968c18	0.018377349
138	0xbd6d25a2	-0.057897218
139	0x3d64d821	0.05587018
140	0x3ceb74a6	0.028742146
141	0xbd40e840	-0.04709649
142	0xbdda48d8	-0.10658425
143	0x3cecea08	0.028920189
144	0xbd8a7295	-0.06760136
145	0x3dac2334	0.08405152
146	0x3d339e70	0.04385227
147	0x3d61acf2	0.055096574
148	0xbd3d4a61	-0.04621351
149	0x3c3c69fb	0.011499877
150	0xbd84c07a	-0.064820245
151	0xbd9613b5	-0.073279776
152	0x3d2265f5	0.039648015
153	0x3a818e0d	0.0009884253
154	0xbd829866	-0.06376724
155	0xbd49dfaf	-0.049285587
156	0xbc953152	-0.018211994
157	0xbd95555f	-0.07291674
158	0xbe0432ba	-0.12909976
159	0xbdcd9474	-0.10038081
160	0x3dd11855	0.10209719
161	0x3c34836f	0.011017664
162	0xbdb79e3b	-0.08965727
163	0xbd966bdb	-0.073447905
164	0x3db5234c	0.08844623
165	0x3bd7cad1	0.006585457
166	0x3d228e38	0.03968641
167	0x3cc263b4	0.023729183
168	0x3d67600b	0.056488078
169	0x3d8bf89d	0.068345286
170	0xbda38bc4	-0.079856426
171	0xbdb7b901	-0.089708336
172	0xbb917c0b	-0.004439836
173	0xbdfa7f49	-0.12231309
174	0x3db2da8b	0.0873309
175	0x3db70e78	0.089383066
176	0xbcefee92	-0.029288564
177	0xbd98c5db	-0.07459613
178	0x3cc9a520	0.02461487
179	0xbd8030e9	-0.06259329
180	0xbda546d2	-0.080701485
181	0x3d9bdb69	0.076102085
182	0xbdac0b0f	-0.08400547
183	0xbe07498c	-0.1321165
184	0x3c296605	0.010339265
185	0xbde1c781	-0.110243805
186	0x3db46e69	0.088101216
187	0xbd887dc2	-0.066646114
188	0xbd4bb939	-0.04973719
189	0x3dd193d1	0.10233272
190	0xbcfac367	-0.030610753
191	0xbd6d7d04	-0.057980552
192	0xbd27d1d4	-0.040971592
193	0xbdd4aa32	-0.10384025
194	0xbd799967	-0.06093731
195	0xbd0448d8	-0.03229603
196	0xbd3b4a1c	-0.045724973
197	0xbd539762	-0.05165804
198	0x3c4d9ba5	0.012549316
199	0x3dce8d95	0.100855984
200	0x3c57e891	0.013178007
201	0x3de1f363	0.110327505
202	0x3c2d2750	0.010568455
203	0x3db4f1d5	0.08835188
204	0xbd293606	-0.041311286
205	0x3db128bb	0.08650347
206	0xbd18e40f	-0.03732687
207	0x3d41c212	0.04730422
208	0x3c8c4017	0.017120404
209	0x3d00b7d1	0.0314253
210	0xbdf50dfa	-0.119655564
211	0xbdde8597	-0.10865324
212	0xbd369311	-0.044573847
213	0x3c2b6eff	0.010463475
214	0xbd8de402	-0.06928255
215	0xbd343f7c	-0.044005856
216	0xbc4adf7c	-0.012382384
217	0xbdbbbc90	-0.09166825
218	0xba996608	-0.0011703381
219	0x3db0668b	0.086133085
220	0xbdfb9204	-0.1228371
221	0xbdcaae50	-0.09896529
222	0xb92318af	-0.00015554087
223	0x3df8e4f7	0.121530466
224	0x3e04cd1f	0.12968872
225	0xbda14419	-0.07874317
226	0x3cf1eb70	0.02953121
227	0xbde29184	-0.11062911
228	0xbd03c425	-0.03216948
229	0xbda479b7	-0.08031028
230	0xbd38ca2b	-0.045114677
231	0xbdb5f323	-0.08884265
232	0x3dc6333f	0.09677743
233	0xbe04d47a	-0.12971678
234	0x3cb067f2	0.02153394
235	0x3dd032f2	0.10165967
236	0xbc826511	-0.015917333
237	0xbd9368ed	-0.071977474
238	0x3d3e3106	0.04643347
239	0xbe02cce6	-0.12773475
240	0xbe02958e	-0.12752363
241	0x3dce4524	0.10071781
242	0xbdaaef39	-0.08346409
243	0xbd160599	-0.036626432
244	0xbdf670d4	-0.12033239
245	0xbd3fad41	-0.046796087
246	0x3dcdf76e	0.10056959
247	0x3dcea858	0.10090703
248	0xbd550fbf	-0.05201697
249	0x3cd9db66	0.026593875
250	0x3d3402ae	0.043947868
251	0x3d834596	0.06409757
252	0x3d2bb30f	0.04191881
253	0x3df55fd2	0.11981167
254	0x3d7148ed	0.058907438
255	0x3dd34068	0.10315019

l1.bias f4 [256]
0	0x3dc69f50	0.09698355
1	0x3de92152	0.113833085
2	0x3de879af	0.11351334
3	0x3b310ed0	0.0027016886
4	0x3da02834	0.07820168
5	0x3db1f808	0.08689886
6	0x3e008d3c	0.12553877
7	0x3da243cc	0.079230875
8	0x3d490483	0.04907657
9	0x3e203f9b	0.15649264
10	0x3df51af5	0.11968032
11	0x3d7c4fd2	0.06159956
12	0x3e122c0f	0.1427462
13	0x3c91f8fc	0.01781892
14	0x3df5381e	0.11973594
15	0x3db252db	0.0870721
16	0x3e06afca	0.13152996
17	0x3df59ab2	0.119923964
18	0x3e085a2c	0.13315648
19	0x3dd9a99d	0.10628054
20	0x3d342c86	0.043987773
21	0x3dc96f23	0.09835651
22	0x3d10bc0f	0.035335597
23	0x3e02a508	0.12758267
24	0x3cc84fea	0.024452168
25	0x3df5fd99	0.120112605
26	0x3dd7cad1	0.10536731
27	0x3e090338	0.13380134
28	0x3de17c5d	0.110100485
29	0x3de52efb	0.111906014
30	0x3e01b3a5	0.12666185
31	0x3d86f987	0.06590562
32	0x3cc9d6ca	0.024638552
33	0x3db54bbf	0.08852338
34	0x3cb8811b	0.0225225
35	0x3e276fe6	0.1635128
36	0x3df86f23	0.12130573
37	0x3e0e9fbb	0.1392812
38	0x3dbb5636	0.09147303
39	0x3dcf89e5	0.10133723
40	0x3e16d004	0.14727789
41	0x3ddfe71e	0.10932754
42	0x39f0d37f	0.00045933944
43	0x3ce4bb00	0.0279212
44	0x3dc4d911	0.09611715
45	0x3d92f547	0.07175689
46	0x3df6e040	0.12054491
47	0x3e0a9559	0.13533534
48	0x3d9a0d6f	0.075220935
49	0x3dbb4ae5	0.091451444
50	0x3dca1e81	0.098690994
51	0x3dd76bb3	0.10518589
52	0x3bbf7675	0.0058429786
53	0x3d80da2a	0.062916115
54	0x3dad39d8	0.084582984
55	0x3dbebb2d	0.09313045
56	0x3de60db1	0.1123308
57	0x3b7884ee	0.003792103
58	0x3c018ae9	0.007906654
59	0x3e1a1fef	0.15051244
60	0x3cbe4301	0.02322531
61	0x3de77e73	0.11303415
62	0x3dfcab6e	0.12337385
63	0x3d97e48a	0.07416637
64	0x3c207e36	0.009795716
65	0x3dc43309	0.09580047
66	0x3df62e8b	0.12020596
67	0x3dd6ae6d	0.10482488
68	0x3e21b20a	0.15790573
69	0x3daa60d3	0.08319249
70	0x3dfc1e08	0.123104155
71	0x3daae3e2	0.083442464
72	0x3e22395d	0.15842195
73	0x3d983d7d	0.07433603
74	0x3dff45ac	0.12464461
75	0x3e055e08	0.13024151
76	0x3e00e588	0.12587559
77	0x3e238d62	0.15971902
78	0x3da26b92	0.07930674
79	0x3dc58342	0.09644176
80	0x3e23b650	0.15987515
81	0x3add222b	0.0016871145
82	0x3dced049	0.10098321
83	0x3e177659	0.1479124
84	0x3d4af8f4	0.049553826
85	0x3c8319d4	0.016003527
86	0x3dd56284	0.10419181
87	0x3e1b00dc	0.15137047
88	0x3bcfaefa	0.0063379975
89	0x3da57030	0.08078039
90	0x3b9e3209	0.004827742
91	0x3e35b712	0.17745617
92	0x3e1f97db	0.15585272
93	0x3da1fdae	0.07909714
94	0x3d98906f	0.074494235
95	0x3de49b8a	0.11162479
96	0x3dac4fd9	0.08413667
97	0x3e1024c9	0.14076532
98	0x3e3d51f4	0.18488294
99	0x3d95dcf2	0.073175326
100	0x3e0039d0	0.12522054
101	0x3dd3b068	0.10336381
102	0x3e0d740d	0.13813801
103	0x3db1e377	0.086859636
104	0x3b7213b5	0.0036938016
105	0x3c8fa219	0.017533349
106	0x3da7fccb	0.08202513
107	0x3dc6c1da	0.09704943
108	0x3e269d55	0.16270955
109	0x3e24bc9d	0.16087575
110	0x3d96cbef	0.07363116
111	0x3df3b8f1	0.11900509
112	0x3e047da7	0.12938558
113	0x3db21d42	0.08696987
114	0x3d0257ba	0.031821944
115	0x3dc9b6db	0.0984933
116	0x3da94c18	0.08266467
117	0x3e2a0739	0.16604318
118	0x3d363e4d	0.04449301
119	0x3e0f02e8	0.13965952
120	0x3dce82b2	0.10083522
121	0x3e1634cc	0.14668578
122	0x3db14c29	0.086571045
123	0x3e05b969	0.1305901
124	0x3d5703d7	0.052493896
125	0x3d8c64cf	0.06855165
126	0x3dbde577	0.092722826
127	0x3da9befd	0.08288381
128	0x3d9df969	0.07713587
129	0x3dccb1f5	0.0999488
130	0x3e050b61	0.12992622
131	0x3df99803	0.12187197
132	0x3dd8ae82	0.1058016
133	0x3dabaea1	0.08382917
134	0x3dde350d	0.108499624
135	0x3de4096d	0.1113461
136	0x3da7cb9a	0.08193131
137	0x3e234b82	0.15946773
138	0x3e28ccd8	0.16484392
139	0x3d8e6195	0.06952206
140	0x3d9bf5c1	0.07615233
141	0x3dc36b9c	0.09542009
142	0x3db6397a	0.088976815
143	0x3df8aea7	0.12142687
144	0x3dc26d82	0.09493543
145	0x3dbaced8	0.091214836
146	0x3dd66b61	0.104697
147	0x3def1735	0.11674348
148	0x3db22dac	0.087001175
149	0x3dd7ce23	0.10537364
150	0x3d9f6574	0.077830225
151	0x3d8d1d47	0.0689035
152	0x3db593e8	0.088661015
153	0x3e3802e6	0.17969856
154	0x3df1473d	0.11781166
155	0x3d9fb570	0.07798278
156	0x3db941df	0.09045767
157	0x3da704b4	0.08155194
158	0x3e024db3	0.12724952
159	0x3da597ec	0.080856174
160	0x3dfd29e6	0.12361507
161	0x3e2a4184	0.16626555
162	0x3e02150e	0.12703344
163	0x3a8cf32d	0.0010753624
164	0x3df3f5ea	0.11912139
165	0x3dad7b62	0.08470799
166	0x3daf2d1f	0.08553528
167	0x3dae9175	0.085238375
168	0x3e1af3c9	0.15132059
169	0x3de2f8a6	0.11082582
170	0x3e21778f	0.15768264
171	0x3d505224	0.050859585
172	0x3e183af5	0.1486624
173	0x3e305801	0.17221071
174	0x3dac91cc	0.08426246
175	0x3e0ee19d	0.13953252
176	0x3dfa1211	0.12210477
177	0x3dc318a0	0.09526181
178	0x3b19f887	0.002349408
179	0x3d51353a	0.05107615
180	0x3e17cc38	0.14823997
181	0x3e0f146a	0.13972631
182	0x3e02705b	0.12738173
183	0x3d97c292	0.07410158
184	0x3d931430	0.07181585
185	0x3dcdfff2	0.10058583
186	0x3ce124ae	0.02748331
187	0x3e0ff3bb	0.1405782
188	0x3da69b38	0.081350744
189	0x3d92c428	0.0716632
190	0x3dde7826	0.1086276
191	0x3d90a7f1	0.07063282
192	0x3dc020b4	0.093812376
193	0x3a2fb7b8	0.00067030964
194	0x3e1dc193	0.15405874
195	0x3e050179	0.12988843
196	0x3d91f845	0.07127432
197	0x3d26acc6	0.040692113
198	0x3df96233	0.12176933
199	0x3dcf9c67	0.10137253
200	0x3e0397b8	0.12850845
201	0x3e13a687	0.14418994
202	0x3e07ddaf	0.1326816
203	0x3e1187bd	0.14211936
204	0x3b7a03a2	0.0038149138
205	0x3df53661	0.119732626
206	0x3da6a681	0.08137227
207	0x3e079f4b	0.13244359
208	0x3dc4bbd6	0.09606139
209	0x3dbd075f	0.092299215
210	0x39a98db1	0.0003233976
211	0x3e51169e	0.20418784
212	0x3dfe60d5	0.12420813
213	0x3e14f46a	0.14546362
214	0x3db80828	0.08985931
215	0x3db2b2f5	0.087255396
216	0x3dbc8d93	0.09206691
217	0x3dc3f733	0.09568634
218	0x3dd4333f	0.10361337
219	0x3dd7f6e6	0.10545139
220	0x3d9c1b60	0.07622409
221	0x3dd22229	0.10260422
222	0x3dfc4ad8	0.12318963
223	0x3e08b6c9	0.13350977
224	0x3dc26737	0.09492343
225	0x3d9c6821	0.076370485
226	0x3a366d0f	0.0006959
227	0x3e0c06d8	0.13674486
228	0x3db70b12	0.08937658
229	0x3deac155	0.114626564
230	0x3e185948	0.14877808
231	0x3c22c83f	0.009935438
232	0x3de5acf9	0.112146325
233	0x3e063a63	0.1310821
234	0x3dfcba2e	0.123401985
235	0x3cf0b95c	0.029385261
236	0x3e2d8856	0.1694654
237	0x3d7f3ea8	0.062315613
238	0x3e0ba9df	0.1363902
239	0x3e0eece7	0.13957559
240	0x3db50eb7	0.08840697
241	0x3db77d90	0.08959496
242	0x3d7e3a85	0.062067527
243	0x3e230710	0.15920663
244	0x3d8b32c4	0.06796792
245	0x3dd2a657	0.10285633
246	0x3dbddb6f	0.09270369
247	0x3dc125a1	0.09431005
248	0x3e04cf45	0.12969692
249	0x3e0610d4	0.13092357
250	0x3bf5b455	0.007498304
251	0x3dcc16aa	0.0996526
252	0x3db51ab6	0.08842985
253	0x3e27dc14	0.16392547
254	0x3d8c86e7	0.06861668
255	0x3dbdd8af	0.09269845

l2.weight f4 [256, 256]
0	0x3d908259	0.07056112
1	0xbddd4962	-0.10805012
2	0xbdb40e0e	-0.08791743
3	0x3b12f6e9	0.0022425002
4	0x3cb4af0b	0.022056123
5	0xbd37cc53	-0.044872593
6	0x3ce9b48b	0.028528472
7	0xbd87a612	-0.06623472
8	0xbdab439b	-0.08362504
9	0xbd96054a	-0.073252276
10	0xbd4e9e43	-0.0504439
11	0xbd96d2b3	-0.073644064
12	0xbbd3270c	-0.0064438637
13	0x3c8a5cb3	0.016889906
14	0x3ce9337d	0.028466934
15	0x3db6f06b	0.08932575
16	0xbd84eef8	-0.06490892
17	0xbd727d5c	-0.059201583
18	0x3dcd84bd	0.100350834
19	0x3d0ce11c	0.03439437
20	0x3d0c422d	0.034242798
21	0x3d7d1d26	0.061795376
22	0x3c8394d0	0.01606217
23	0x3daf05be	0.08546017
24	0x3bc6454c	0.0060507413
25	0x3c8a144b	0.01685538
26	0x3e0636d0	0.13106847
27	0xbcf23198	-0.029564664
28	0x3d736127	0.059418824
29	0x3de27f17	0.11059397
30	0x3ced306b	0.028953752
31	0xbd83774b	-0.06419238
32	0xbc6aff74	-0.014343131
33	0x3baa3481	0.0051942472
34	0x3b85370f	0.0040654014
35	0x3c987144	0.018608697
36	0x3d32d308	0.043658286
37	0x3ddb5c41	0.107109554
38	0x3df5780f	0.1198579
39	0x3da2d7b9	0.07951302
40	0x3c815a75	0.015790204
41	0x3dafa869	0.085770436
42	0x39bfe291	0.00036599164
43	0x3d140935	0.036141593
44	0xbd42fb60	-0.04760301
45	0x3b439604	0.0029844055
46	0xbd90d915	-0.07072655
47	0xbd35abb9	-0.04435322
48	0x3ce40624	0.02783496
49	0x3e17978e	0.14803907
50	0x3dca73e5	0.098853864
51	0x3db4df84	0.08831695
52	0x3c286260	0.010277361
53	0x3cb1b80e	0.02169421
54	0xbce2a73a	-0.02766763
55	0x3e07736a	0.1322762
56	0x3cdd6e6b	0.02703019
57	0x3be30529	0.0069281054
58	0x3c6a4d36	0.014300635
59	0x3c74ca0d	0.014940751
60	0x3c94c064	0.018158145
61	0xbd4c3321	-0.049853448
62	0xbd421a3e	-0.047388308
63	0xbc4e5396	-0.012593171
64	0xbb996a68	-0.004681874
65	0xbc55ced3	-0.013049799
66	0x3cb3da3f	0.021954654
67	0x3d22ed29	0.039776955
68	0x3d4288ec	0.04749386
69	0x3dfc0c82	0.12307073
70	0x3d180ec0	0.03712344
71	0x3de8655e	0.11347459
72	0x3d8e4b79	0.06947989
73	0x3c094d41	0.008380235
74	0x3d019a40	0.031641245
75	0xbce10c65	-0.02747173
76	0x3db7606a	0.089539364
77	0x3d5d9623	0.05409826
78	0xbdebdd89	-0.11516864
79	0xbd03ae71	-0.032148782
80	0xbdba47d4	-0.090957314
81	0x3b0c8bf6	0.0021445728
82	0x3d2e0389	0.04248384
83	0xbb033bdf	-0.00200247
84	0xbd8ac179	-0.06775183
85	0x3c963b84	0.018338926
86	0x3d096feb	0.033554
87	0x3c2d369d	0.010572103
88	0x3b9e100e	0.004823691
89	0x3d832628	0.06403762
90	0xbbb1ccc9	-0.0054260236
91	0x3cc40a39	0.023930656
92	0xbdd53eda	-0.104123786
93	0x3dde7aaa	0.1086324
94	0x3dc65789	0.09684665
95	0x3d359f9c	0.04434167
96	0x3daf9d55	0.085749306
97	0x3df85258	0.12125081
98	0x3cb5462c	0.022128187
99	0x3da21b4c	0.07915363
100	0x3dff6300	0.124700546
101	0x3dc384b4	0.095467955
102	0x3e0588d2	0.13040474
103	0x3deff1df	0.11716055
104	0x3b17f0b9	0.0023184253
105	0x3cf34bc1	0.029699208
106	0xbd29cfa9	-0.041457806
107	0xbdd7b4a4	-0.10532501
108	0xbdb4a45e	-0.08820413
109	0x3d4da176	0.05020281
110	0xbdd3e9d8	-0.103473365
111	0x3d508d73	0.050916146
112	0xbd406cb7	-0.04697868
113	0x3cbc4d06	0.022985946
114	0xbd2fe882	-0.042946346
115	0x3e066863	0.13125758
116	0xbda1a5bf	-0.07892942
117	0x3de78150	0.11303961
118	0xbd291b8e	-0.041286044
119	0xbd9c4d20	-0.07631898
120	0xba8b9503	-0.0010649267
121	0x3c848010	0.016174346
122	0xbd3739a1	-0.044732694
123	0x3dc26a8f	0.09492981
124	0x3d6de4e0	0.0580796
125	0x3e05e7b2	0.13076666
126	0x3cc82938	0.024433717
127	0xbdcf6be6	-0.10128002
128	0x3e08e330	0.13367915
129	0xbdd42162	-0.1035793
130	0x3d39066d	0.045172144
131	0x3db8e06f	0.09027182
132	0xbd9d218e	-0.07672416
133	0xbdbfb414	-0.09360519
134	0xbd95f3e9	-0.07321913
135	0xbdbfbcd8	-0.09362191
136	0xbcf2cc9c	-0.029638581
137	0xbdbbba45	-0.091663875
138	0x3a813e15	0.0009860421
139	0x3df4395f	0.11925005
140	0xbd9ea9cd	-0.07747231
141	0x3e05dad8	0.13071764
142	0xbdc0d7fd	-0.094161965
143	0xbd887eed	-0.06664834
144	0x3e013cf0	0.12620902
145	0x3dc7be0d	0.09753046
146	0xbcf196c5	-0.029490838
147	0x3ba439cc	0.0050117727
148	0x3d95e54d	0.07319126
149	0xbe035704	-0.12826163
150	0x3c937230	0.017998785
151	0xbc18d9ab	-0.00932924
152	0x3db65a17	0.08903902
153	0x3e0dc65c	0.138452
154	0x3d036787	0.032081153
155	0xbd72368d	-0.059134055
156	0xbc8533a2	-0.016259972
157	0x3bac3183	0.0052549257
158	0x3dcc0aaf	0.09962975
159	0x3c36db51	0.011160688
160	0x3d76c1ad	0.060243297
161	0x3d9d4476	0.076790735
162	0x3aeb1077	0.0017933984
163	0x3a67abe6	0.00088375655
164	0x3d5ea9ec	0.05436127
165	0x3c10dbe0	0.008841485
166	0x3e00d30c	0.12580508
167	0x3d5d47df	0.05402362
168	0xbd642cd0	-0.0557068
169	0x3d92cb0b	0.071676336
170	0x3c8893b8	0.016672
171	0x3dcfa342	0.10138561
172	0x3cc33037	0.023826702
173	0x3cc72cca	0.02431335
174	0x3e10aa0a	0.14127365
175	0x3c1e9cc2	0.009680929
176	0x3d65125a	0.055925705
177	0xbdd11bdc	-0.10210392
178	0xbb1d8394	-0.0024034726
179	0xbda54297	-0.08069342
180	0x3bfa1510	0.0076319054
181	0x3d46cb6e	0.04853385
182	0xb9c331d2	-0.00037230417
183	0x3dfd9fce	0.12383996
184	0x3cb4e915	0.022083798
185	0xbdd3da8d	-0.1034442
186	0x3bca4ba3	0.0061735674
187	0x3b15539c	0.002278543
188	0xbbe2c9d8	-0.0069210343
189	0x3d961f9d	0.073302485
190	0xbdb9ecab	-0.09078344
191	0x3df99000	0.12185669
192	0xbdc666a6	-0.096875474
193	0x3a1b79c8	0.00059309276
194	0x3d7a9edc	0.061186656
195	0x3dddea86	0.108357474
196	0xbca5f398	-0.020257756
197	0x3b2121e4	0.002458685
198	0x3c9df7b7	0.019283159
199	0xbdeeee87	-0.11666589
200	0x3d918c56	0.07106845
201	0xbda810df	-0.08206343
202	0x3cb10ab6	0.021611553
203	0x3d249195	0.0401779
204	0x3a0ad8f7	0.00052966125
205	0x3dc1027e	0.094243035
206	0x3d91df88	0.07122713
207	0x3c9458c3	0.018108731
208	0x3ce011df	0.027352272
209	0x3dd0da62	0.10197903
210	0x3813ab75	3.5207213e-05
211	0x3c887292	0.016656194
212	0x3dd87cfc	0.10570714
213	0x3e09362a	0.13399568
214	0x3cd1fc97	0.02563314
215	0x3c4763fc	0.012169834
216	0x3db7e686	0.08979516
217	0x3cd96e22	0.026541773
218	0xbdbcd8b8	-0.09221023
219	0x3c8dcba2	0.017309014
220	0xbde89780	-0.11357021
221	0xbd94128b	-0.07230099
222	0xbd8376bc	-0.06419131
223	0x3d7d8bdc	0.06190096
224	0x3de95963	0.11394002
225	0xbd9b6ba9	-0.07588894
226	0x3a10e47f	0.00055272126
227	0xbd8c2fea	-0.068450764
228	0x3dbc8578	0.09205145
229	0xbd917679	-0.07102675
230	0x3c9342ee	0.01797625
231	0x3bf767df	0.007550224
232	0xbc1e1d50	-0.009650543
233	0x3d22de82	0.03976298
234	0xbd2a2ff0	-0.041549623
235	0x3d2cf909	0.042229686
236	0x3caa6eed	0.020804847
237	0x3d8bedfb	0.068325005
238	0x3dcb9c6e	0.09941946
239	0xbd3068b6	-0.04306861
240	0xbdfe14c1	-0.12406302
241	0x3d8f82bf	0.0700736
242	0xbd9fa274	-0.07794657
243	0x3d2c1c3e	0.04201912
244	0x3dafed60	0.085901976
245	0xbc05fac9	-0.008177468
246	0xbd19327d	-0.037401665
247	0x3d20a4a6	0.03921952
248	0x3cdcbd73	0.026945805
249	0x3a169ad4	0.0005745117
250	0x3bafedfd	0.0053689466
251	0xbda035dd	-0.078227736
252	0x3ce86ed4	0.02837316
253	0x3e0f15fc	0.1397323
254	0x3cbc5319	0.022988843
255	0x3dce0ba5	0.10060815

l2.bias f4 [256]
0	0x3d39ba3a	0.045343615
1	0x3d5099c8	0.050927907
2	0x3d72ebc9	0.059306893
3	0x3d3193b7	0.043353762
4	0x3d59e613	0.05319793
5	0x3d72b17b	0.05925129
6	0x3d522813	0.05130775
7	0x3d812022	0.06304957
8	0x3d73aaf6	0.059489213
9	0x3d56a48b	0.052403014
10	0x3d4708e9	0.04859248
11	0x3d8bdc1e	0.068290934
12	0x3d7bfcfd	0.061520565
13	0x3d59fb34	0.05321808
14	0x3d54c494	0.051945284
15	0x3d58dbd0	0.052944005
16	0x3d5c6de9	0.053815756
17	0x3d56a454	0.05240281
18	0x3d33b992	0.043878146
19	0x3d35f9f4	0.044427827
20	0x3d63f022	0.05564893
21	0x3d664c6d	0.05622523
22	0x3d66616e	0.05624526
23	0x3d3aabb3	0.0455739
24	0x3d899f26	0.06719808
25	0x3d66dbe5	0.05636205
26	0x3d859ae4	0.06523684
27	0x3d77fb51	0.06054241
28	0x3d6c0df6	0.0576305
29	0x3d5b6cf9	0.05357072
30	0x3d46cc13	0.048534464
31	0x3d8095d5	0.06278578
32	0x3d4538b2	0.048149772
33	0x3d739669	0.059469614
34	0x3d63f538	0.05565378
35	0x3d866f72	0.06564225
36	0x3d42ceac	0.04756038
37	0x3d40a699	0.04703388
38	0x3d4845f9	0.048894856
39	0x3d828eb0	0.06374872
40	0x3d4547f2	0.048164316
41	0x3d4a3480	0.049366474
42	0x3d75c3a7	0.06000104
43	0x3d4b5443	0.049640905
44	0x3d73c933	0.05951805
45	0x3d1eb7d9	0.03874955
46	0x3d56df2c	0.052458927
47	0x3d7a0f1e	0.061049573
48	0x3d4ccd1a	0.050000288
49	0x3d54c3a7	0.0519444
50	0x3d867bce	0.065665826
51	0x3d935b5e	0.07195161
52	0x3d22ab79	0.03971431
53	0x3d31e622	0.043432362
54	0x3d5f6527	0.054539826
55	0x3d32f223	0.04368795
56	0x3d6d5ce4	0.057949916
57	0x3d657204	0.056016937
58	0x3d603ce3	0.054745566
59	0x3d59aaec	0.05314152
60	0x3d51acea	0.051190294
61	0x3d8c2e70	0.06844795
62	0x3d76644a	0.060154237
63	0x3d6ddf80	0.058074474
64	0x3d6b1da6	0.05740132
65	0x3d424b16	0.04743489
66	0x3d7150ad	0.05891483
67	0x3d6db9ea	0.05803863
68	0x3d616eeb	0.05503742
69	0x3d858f99	0.0652153
70	0x3d511214	0.05104263
71	0x3d423fdf	0.047424193
72	0x3d58520c	0.05281262
73	0x3d0f5b8f	0.034999426
74	0x3d74aef9	0.05973718
75	0x3d2f090a	0.04273323
76	0x3d635cc2	0.055508383
77	0x3d4c6e79	0.049910042
78	0x3d4fcac7	0.050730493
79	0x3d73d3f5	0.05952831
80	0x3d6e70b1	0.05821294
81	0x3d654e78	0.055983037
82	0x3d4eb1bf	0.05046248
83	0x3d7daf00	0.06193447
84	0x3d691d47	0.056912687
85	0x3d1d0a7a	0.03834007
86	0x3d667ac7	0.056269433
87	0x3d5b5d2b	0.05355565
88	0x3aae3228	0.0013290094
89	0x3d35f2c2	0.044420965
90	0x3d39d62b	0.045370262
91	0x3d63ac85	0.05558445
92	0x3d3f4108	0.046692878
93	0x3d7182b6	0.058962546
94	0x3d4dbe4c	0.05023031
95	0x3d7d8f3a	0.06190417
96	0x3d6ca177	0.057771172
97	0x3d8e7647	0.06956153
98	0x3d3e5e12	0.04647643
99	0x3d43061a	0.04761324
100	0x3d66736e	0.056262426
101	0x3d562823	0.05228437
102	0x3d40f6db	0.04711042
103	0x3d45a257	0.048250522
104	0x3d43364d	0.047659207
105	0x3d429316	0.047503553
106	0x3d5ff407	0.054676082
107	0x3d4f8e31	0.050672714
108	0xa07451de	-2.0694691e-19
109	0x3d4e6e88	0.05039838
110	0x3d5fcb69	0.054637346
111	0x3d4b2625	0.049596924
112	0x3d553e02	0.05206109
113	0x3d555733	0.052085113
114	0x3d5ed5a2	0.054402955
115	0x3d47ae9d	0.04875051
116	0x3d430c5b	0.047619205
117	0x3d831632	0.06400718
118	0x3d7ac89c	0.061226472
119	0x3d7aab48	0.061198503
120	0x3d7c7f95	0.06164511
121	0x3d3f505f	0.046707507
122	0x3d6ae168	0.05734387
123	0x3d581ec9	0.052763734
124	0x3d857ef7	0.06518357
125	0x3d5897c3	0.052879106
126	0x3d4ddaa3	0.050257336
127	0x3d66fb1f	0.05639183
128	0x3d45c32f	0.048281845
129	0x3d4537fb	0.04814909
130	0x3d4b0a9f	0.049570676
131	0x3d65a778	0.056067914
132	0x3d7e2375	0.062045533
133	0x3d22149b	0.039570432
134	0x3d91012e	0.07080303
135	0x3d6de24f	0.058077153
136	0x3d645e9e	0.055754296
137	0x3d413a44	0.047174707
138	0x3d62c3e3	0.055362593
139	0x3d4d29ba	0.05008862
140	0x3d741b98	0.059596628
141	0x3d5b2a51	0.053507153
142	0x3d7636cc	0.060110852
143	0x3d826287	0.06366449
144	0x3d83928d	0.06424437
145	0x3d663bd6	0.056209408
146	0x3d595962	0.053063758
147	0x3d371d03	0.044705402
148	0x3d47f8a6	0.048821114
149	0x3d8b7df5	0.06811134
150	0x3d378a1b	0.044809442
151	0x3d519860	0.051170707
152	0x3d40605f	0.046966907
153	0x3d699d53	0.0570348
154	0x3d86de62	0.06585385
155	0x3d628366	0.055301093
156	0x3d4ef1d2	0.050523587
157	0x3d837032	0.06417884
158	0x3d78b6fa	0.060721375
159	0x3d4790b6	0.04872199
160	0x3d517c78	0.051144093
161	0x3d8baf53	0.0682055
162	0x3d1ef7c8	0.03881052
163	0x3d801186	0.06253342
164	0x3d417a4d	0.047235776
165	0x3d67e7b7	0.056617465
166	0x3d3f0fb4	0.046645835
167	0x3d7b467e	0.061346523
168	0x3d3fdf88	0.046844035
169	0x39ffa821	0.00048762656
170	0x3d5da8d4	0.054116085
171	0x3d7e75bc	0.062124
172	0x3d3c9ffb	0.046051007
173	0x3d78473e	0.060614817
174	0x3d5f1bcb	0.054469865
175	0x3d5cd4f6	0.053914033
176	0x3d8105cc	0.06299934
177	0x3d40c6ec	0.047064707
178	0x3d3c5e75	0.04598852
179	0x3d6966c2	0.056982763
180	0x3d33e37f	0.04391813
181	0x3d87aed8	0.06625146
182	0x3d583048	0.05278042
183	0x3d86e73c	0.06587073
184	0x3d52324d	0.0513175
185	0x3d6f11d4	0.05836661
186	0x3d7371ef	0.059434827
187	0xa0ad8bc0	-2.939982e-19
188	0x3d3e2c03	0.04642869
189	0x3d4adb8a	0.049525775
190	0x3d6d81a7	0.057984974
191	0x3d3f692b	0.046731155
192	0x3d8c3eb7	0.068478994
193	0x3d3ce3af	0.046115573
194	0x3d1b43f3	0.0379066
195	0x3d2615f4	0.04054828
196	0x3d604056	0.054748856
197	0x3d64a994	0.055825785
198	0x3d3ec111	0.04657084
199	0x3d5140dd	0.05108725
200	0x3d4068cd	0.046974946
201	0x3d5ec8a6	0.054390572
202	0x3d666e8f	0.05625778
203	0x3d755080	0.059891224
204	0x3d3466f9	0.044043515
205	0x3d13ce91	0.03608567
206	0x3d5d0b05	0.053965587
207	0x3d5e3f45	0.054259557
208	0x3d8da8ee	0.069169864
209	0x3d7006ab	0.05860011
210	0x3d7fff99	0.062499616
211	0x3d81b4a0	0.063332796
212	0x3d4b14a5	0.049580235
213	0x3d42a81c	0.047523603
214	0x3d3ca2ef	0.046053823
215	0x3d4a7a45	0.04943301
216	0x3d6bdf76	0.057586156
217	0x3d1b34ba	0.03789208
218	0x3d72a495	0.05923899
219	0x3d5c7c8f	0.053829726
220	0x3d5a53bd	0.053302515
221	0x3d5a8e16	0.05335816
222	0x3d6fa2b7	0.058504786
223	0x3d4e9dcf	0.050443467
224	0x3d80ab58	0.06282681
225	0x3d6b2404	0.057407394
226	0x3d3b4e88	0.04572919
227	0x3d4e1276	0.050310574
228	0x3d5b18d4	0.053490475
229	0x3d1c5aea	0.03817264
230	0x3d74538b	0.059649985
231	0x3d4a8c50	0.04945022
232	0x3d3aa59f	0.045568105
233	0x3d45ced1	0.04829294
234	0x3d53fd76	0.05175539
235	0x3d1b2c12	0.037883826
236	0x3d7d5d77	0.061856713
237	0x3d7efab1	0.062250797
238	0x3d3c7f1f	0.04601967
239	0x3d3ca17d	0.046052445
240	0x3d326eff	0.043562885
241	0x3d4eeb87	0.050517585
242	0x3d6d97f5	0.058006246
243	0x3d55a033	0.05215473
244	0x3d70b9ab	0.058770817
245	0x3d58194c	0.0527585
246	0x3d550e23	0.052015435
247	0x3d63b31f	0.055590745
248	0x3d651a20	0.055933118
249	0x3d6eb540	0.058278322
250	0x3d5b71be	0.05357527
251	0x3d698dc2	0.057019956
252	0x3d82442c	0.06360659
253	0x3d304608	0.043035537
254	0x3d4fd6aa	0.05074183
255	0x3d5d6b2d	0.05405729
