code/save/model_gama/model_gama_repr_7.pt (torch, 649964 bytes, 6 tensors)

embed.weight f4 [59, 256]
00000000: 36c1 973d 640b 4d3d 9ee3 3c3d 0040 b93d
00000010: 5152 e4bd 71de afbd debc 03bd 9136 333e
00000020: f0c9 afbd 988d 4b3e 6f64 4abe 9e70 48bc
00000030: bacc 8e3d 9d9d e33d fef0 24be c3bf b2bd
00000040: f009 193e 3eba 003e 6870 dc3d a43f 6c3d
00000050: 2f24 ec3d 54fc 4b3e 4a2b 6dbd 2e8c c8bd
00000060: ff1d 6ebd 9a31 603d e89f 2b3e af17 4d3e
00000070: c302 7ebc 51a2 1dbe 957f 463d 5028 823d
00000080: 3c91 39be 4257 47be 7ef6 0abd 5f6d e3bc
00000090: d4bb 51be 4585 62bd f6b8 47be b968 20be
000000a0: e970 a53d d0f2 1cbe 8821 4cbe ec6e 24bd
000000b0: 2688 86bd b80c 393e 45cc 3a3e 5e1f 0ebe
000000c0: f180 9bbc 78ad e83d 0ded 533d 3d64 d0bd
000000d0: 7a85 cfbd 58cb 703e a188 99bd 4790 783c
000000e0: 9cec 6b3d 1956 19be 6bbd 4b3e 8626 5b3e
000000f0: 00b4 fa3c 3717 483e 3c63 243e 5271 f83d
00000100: 89eb 27be c34c 0fbe 40e3 123e c41f e7bd
00000110: b4dc db3c 591d 51bd 8a52 d5bc d7fd 593e
00000120: e235 31be fe20 8cbd 9a70 02be 7e13 c83d
00000130: 8fe9 613e de88 023e bee0 49be 0c56 16be
00000140: b2a6 f43d bd06 f33a 69e6 863b e945 983d
00000150: 6f60 a0bd 5168 0bbd 41b7 10be 3178 a13c
00000160: d534 16bd 7346 56be 572f 52be 8f2f 953d
00000170: d2e0 45be a522 eabd 359e a6bd 5d2c 293e
00000180: 8bb3 5a3e abc1 493e 968e 54be f0b8 093c
00000190: 5cbe 853c 6a90 85bc 264c 013d ca3d 213e
000001a0: 42df 1e3d f22a ca3d 2435 4cbe 0147 d9bd
000001b0: 76cb 6abd 156e 003e dfaa 013d 27d3 b43d
000001c0: 9ce2 25be eed1 3cbe 60e1 cebd e163 633d
000001d0: 0b86 fbbd cc72 d2bd f9d6 4abe de2d 6ebe
000001e0: 3973 933d f017 febd 7611 fb3d 041a 2dbd
000001f0: c074 f03c 8fed c4bd ff0c 49be bde5 5b3e
00000200: 43d0 88bd 4bd9 1f3e 3cd3 b13d 1e08 cc3c
00000210: 0b65 10be facc 563b 3afc f93d 641d 45be
00000220: 19c7 3d3e 43ee 313d 71ae fcbd c06a 82bd
00000230: ba79 733e 48c4 ee3c ef33 68bd 1010 3a3e
00000240: 548b a13d 1e8c 0cbe 3fc0 f7bd 753e ec3c
00000250: a8c0 31be 8d2b 35be a080 cf3c ae43 f33d
00000260: f709 133e de6d 0f3d f040 24be 14cc 21bc
00000270: 7181 9a3c cff6 67bc 6bba 1c3e ab28 0f3e
00000280: be96 29be 6ea1 19be cc51 39be c18f 203d
00000290: 9eb0 adbd b2a9 473d 2b67 c9bc de90 7bbc
000002a0: 2d3c c83d 1f20 0a3e 741d f6bc 7c0b 8fbb
000002b0: 91ef 803d 4e26 4d3d e747 543e a3ce 773d
000002c0: 8102 1f3e 151f ca3d 7eea bdbd e148 263c
000002d0: 6443 8d3d 5feb 9d3d c09b e4bd b2cd 703d
000002e0: 692e 1abe d8d9 27be a91f 343e c58a de3d
000002f0: 5378 0c3e 032a 313e 776d 11be a850 4d3d
00000300: 96eb 093e e137 353e 7bd0 98bc f713 febc
00000310: e930 c03d b4de 45be c9c9 64bd efe0 20be
00000320: 24dd 94bd ebe2 6e3d 5c03 b3bd 9a8a c3bd
00000330: fed0 a8bd 01ed 8b3d dc6b 9b3d e412 393e
00000340: bd37 38be c8ab c93d a108 2dbe 7873 84bd
00000350: 277b 1fbe f418 97bb 6304 1e3d 36d2 ebbc
00000360: 7e22 68bd f480 8fbd 72a7 7fbd c104 f6bd
00000370: 44c6 1cbd d6ec 4e3d 7c50 94bd aebd 1e3e
00000380: b19f fb3c 522e 3e3e d88b 203d 15cc ebbd
00000390: 46fe 173e 0e89 92bd 05af 75bd bc92 02bd
000003a0: 4fb0 38be 057a eb3c 4ab8 4ebd c280 0abe
000003b0: fff5 3f3e 6434 1d3d a8a8 90bd c9c3 653c
000003c0: 71fc 1cbe 71fb c8bc 8df0 8c3d ded8 5ebe
000003d0: 1a8b 0b3e 215c 5abe b813 8c3c 8938 0ebd
000003e0: 1b69 63bd 68aa e03d 3883 a2bd 2d02 023d
000003f0: bac2 183d 4809 a43d d36c b2bd 5bc3 443e
0.07409899 0.05005969 0.04611551 0.0904541 -0.11148513 -0.08587349 -0.03216254 0.17501284
-0.085834384 0.19878232 -0.19764875 -0.012233881 0.06972642 0.11114047 -0.16107556 -0.08727982
0.14945197 0.12571046 0.10763627 0.05767788 0.11530339 0.19920474 -0.05790261 -0.09792362
-0.058134075 0.054734804 0.16760218 0.20028566 -0.015503588 -0.1539395 0.048461515 0.06355345
-0.18121809 -0.1946688 -0.03392648 -0.027762113 -0.20481807 -0.055302877 -0.19504151 -0.15664949
0.080781765 -0.15327 -0.19934666 -0.040144846 -0.06568937 0.18071258 0.18241985 -0.13879153
-0.018982382 0.113612115 0.05173974 -0.10175369 -0.101328805 0.2351507 -0.07496763 0.015171117
0.057598695 -0.1497425 0.19896476 0.21401414 0.030603409 0.19540106 0.1605348 0.12130989
-0.16398443 -0.13994126 0.14344501 -0.11285356 0.026838638 -0.05105338 -0.026040334 0.21288238
-0.17305711 -0.0684223 -0.12738267 0.09769343 0.22061752 0.12747523 -0.19714639 -0.14681262
0.11945857 0.0018541437 0.0041168225 0.07435209 -0.07830893 -0.03403503 -0.14132406 0.019710632
-0.03667148 -0.20925312 -0.20525871 0.07284462 -0.19324043 -0.11432389 -0.08135644 0.1652083
0.21357553 0.19702785 -0.20757517 0.008405909 0.016326122 -0.016304214 0.03156676 0.15746227
0.038787134 0.098714724 -0.19942147 -0.10609246 -0.05732294 0.12541993 0.031657096 0.088293366
-0.16199726 -0.18439457 -0.101015806 0.055515174 -0.12281426 -0.10275802 -0.19808568 -0.23259684
0.07199711 -0.124069095 0.1225919 -0.04226114 0.029352546 -0.09615623 -0.19633864 0.21474357
-0.06680348 0.15610234 0.08682868 0.024906214 -0.14101045 0.0032775984 0.122063115 -0.19249493
0.18532981 0.043440115 -0.123379596 -0.06368017 0.23776904 0.029146329 -0.056690153 0.1817019
0.07887903 -0.13725325 -0.12097215 0.028838376 -0.17358649 -0.17692395 0.025329888 0.11878143
0.1435927 0.035016887 -0.16040397 -0.009875316 0.01886055 -0.014157965 0.15305488 0.13980357
-0.1656141 -0.15002987 -0.1809761 0.039199594 -0.08480953 0.04874582 -0.024585327 -0.015354363
0.097771026 0.13488816 -0.030043341 -0.0043653827 0.06295694 0.05008536 0.20730554 0.0604998
0.15528299 0.0986921 -0.092732415 0.010149212 0.06897619 0.07710909 -0.111625195 0.058789916
-0.15056767 -0.16391695 0.17590202 0.10866312 0.13717775 0.17301182 -0.14201914 0.050125748
0.13468775 0.17697097 -0.018654099 -0.03101538 0.09384329 -0.19323236 -0.0558565 -0.15710805
-0.07268742 0.058321875 -0.08740875 -0.095479205 -0.08242987 0.06832314 0.07588932 0.18073612
-0.17990012 0.09847218 -0.16897823 -0.064673364 -0.15574323 -0.004611129 0.038578402 -0.02878676
-0.05667352 -0.07007018 -0.062415548 -0.120126255 -0.03827502 0.050518833 -0.07241914 0.15502045
0.030715795 0.18572357 0.039195865 -0.11513535 0.14843091 -0.07155047 -0.059981365 -0.031878218
-0.18036006 0.028744707 -0.05046872 -0.1352568 0.18746184 0.03838004 -0.070634186 0.01402373
-0.15330674 -0.02453396 0.06881819 -0.21762416 0.13627282 -0.21324207 0.017099246 -0.034721885
-0.05552016 0.109700024 -0.07935184 0.031740356 0.03729508 0.08009583 -0.08712163 0.19215147

unembed.weight f4 [59, 256]
00000000: 0b4c 483d 0b6c 163e 4a76 58be 2081 df3c
00000010: 3709 fe3c 734d cdbd f1b1 1abe 1620 72bd
00000020: f11f 46be 3813 19be 0f43 59bd 9936 09bc
00000030: 9cfa 3a3e 7a03 ea3c 386c d2bc 60e4 d43d
00000040: c5e6 9d3d 26c6 49be b81e 39be c3a0 a53d
00000050: bfa5 39be 3bd8 733d 1b6d f93d 820b bf3d
00000060: cc8b c1bd 2c06 97bd 4be6 553d de16 2c3d
00000070: 230c cb3c 4c0d 3cbe 6ccc 2dbd 9d1a 2bbe
00000080: 8b42 12bd 4425 843d 5e7a 3cbe ab0e fcbd
00000090: b9d7 9dbd d680 e93d fcd6 08be 4219 413e
000000a0: 8f00 9a3d 8c63 123e aed2 33be b142 47be
000000b0: 7d56 48bc 6666 1bbe 48f5 4a3d 8de5 a43d
000000c0: 062f 1f3e d5d2 853c c5d3 343c acd1 b5bd
000000d0: 166b 513e ed66 143c a2a7 57bd 04a8 a73c
000000e0: 61c5 db3d 9d2d 15be e7a2 cabd 8bd2 6b3c
000000f0: b839 e4bd 1b8d a6bb 66e3 3ebe efa4 8a3d
00000100: 027f 4bbe 7c22 e3bd 9447 243e 76a3 8cbd
00000110: 2451 e6bd 07fd 9abd 2396 b83d cecd 20bd
00000120: 3737 083e 7733 853c 8880 993d 4643 06be
00000130: 79aa a3bd a8b9 b03d 1457 543d 1a8b dc3c
00000140: fc7d 7ebc 6f7e 2fbe fa44 68bd d091 1cbe
00000150: b277 b53d 2fff 303e 3df4 57be 0182 bbbd
00000160: 200e 303d 4352 13be 6359 63be e604 b5bd
00000170: 11ee 193e 578f 40be 557d 8a3b 9a4a a2bd
00000180: 9d20 ce3d 8c1a 04bd eafe d1bc e20c e1bd
00000190: de52 a63c 70f0 66bd 9203 a0bd 0b8c 953c
000001a0: 17bb 1e3e 5855 08be dddb 2cbe 6409 95bc
000001b0: 16f9 7b3d 00d9 843d a5d6 42be c4a6 1a3e
000001c0: 8137 d23d 4cdf 533d cdbf 493e f695 82bd
000001d0: 48ad 873d fac2 71bd 64be 81bd 8543 9dbd
000001e0: abc1 00be 47db 713d 458f 103d 0092 493e
000001f0: fac6 423d 13aa 1abc 111a 0dbc f803 32be
00000200: aeae c33d 9862 623c 28b2 50bd dcb0 a73d
00000210: 1303 b83c 9068 143d 01a3 533e f669 ecbc
00000220: 1501 38be d068 2b3e a4ad 44be 579b 30be
00000230: 63c2 273e 055e 953b 781a c33d 6a74 123e
00000240: aac4 92bb cb22 51be 83ac 883d a29b ebbd
00000250: da75 21be 0c70 bd3d 2ce2 b23d c02d 0e3e
00000260: d53e 4abe 6775 c53d 9e00 a0bc 5556 3bbd
00000270: 0a1b 913d e4de 2abe 3e6f 043e 98cf 1d3e
00000280: 757f 0f3d bba3 a8bd 858e 03be 7d94 033e
00000290: cd35 d73d 2a0a 21be 29ec 34be 6093 873d
000002a0: d88e 393e 1e64 3e3e 9700 033d 52bf b53d
000002b0: 242c 46be b0d8 263e 4add 4dbe 6d98 b83d
000002c0: 714f 54bd 6103 efbd e47c 323e 9948 573e
000002d0: 0f9f d03d 42da 583e 0cfe 463e 5523 883c
000002e0: 8a0e 383d f2a1 783d 29d5 93bd d64c 49be
000002f0: e0ed 923d d992 2b3e 10b8 2e3e 8962 3f3e
00000300: ca14 6a3d 8529 863d 93a1 98bd 0a32 603e
00000310: 897a d13d 4103 583e b3e0 2c3e c3c9 343e
00000320: 0def ba3d dfed 263e 19ca e8bb 8565 07be
00000330: 8186 a93d 234a 62be 34cc b2bd d322 39be
00000340: 9be2 7c3c a7f2 183d 812a 5d3d dac5 e83d
00000350: f5a7 12be 0440 c0bd c015 143e 78bc b3bd
00000360: 1216 143d bcce 6cbe 24b5 33be ef66 873d
00000370: f593 37be a8fe 3cbc 5462 073e bd8c 03be
00000380: ea87 4e3e b10a ae3d b0e7 c0bd ffae b93d
00000390: 9ca0 b4bd 082e 20be 3478 cdbd cceb 4f3d
000003a0: 67a9 4f3d 5e3c 263e f6c3 f7bc 9f85 cf3d
000003b0: 2204 273e 2e26 e8bb 702f 9dba 8dc0 f13d
000003c0: 10a2 63bd 3015 1e3e 4782 8bbd ea3b 163e
000003d0: a6d1 5cbd f3ea 4dbc a07e d4bd 0680 2b3e
000003e0: 7a4f 083e 42dc 09be f508 143e 1a98 2721
000003f0: 5241 1a3c fb0a b2bc 3a56 2f3d 66df d4bd
0.048900645 0.14689653 -0.21138874 0.027283251 0.031010253 -0.10024538 -0.15106942 -0.05911263
-0.19348122 -0.14948738 -0.053042468 -0.0083748335 0.18259662 0.02856611 -0.025686368 0.103951216
0.077100314 -0.19704494 -0.18078125 0.080873035 -0.18129633 0.059532385 0.12179013 0.09328367
-0.09450492 -0.07374224 0.052221578 0.042013995 0.02478606 -0.18364447 -0.04243128 -0.16709371
-0.03570799 0.0645242 -0.18406054 -0.12307485 -0.077071615 0.11401527 -0.1336326 0.18857291
0.07519638 0.14295787 -0.17560837 -0.19459035 -0.012227652 -0.1517578 0.049550325 0.08051596
0.15545282 0.016335884 0.011036818 -0.08877882 0.20451006 0.009057743 -0.0526501 0.020465858
0.107310064 -0.14568181 -0.098943524 0.014393459 -0.111438215 -0.005082739 -0.18641433 0.0676974
-0.19872668 -0.11090562 0.1604293 -0.06867115 -0.11245945 -0.075677924 0.09013011 -0.03925877
0.13302313 0.016259892 0.074952185 -0.131116 -0.079914995 0.08629161 0.051840857 0.026921798
-0.015532967 -0.17138074 -0.056706406 -0.15289998 0.08860721 0.17284845 -0.21089263 -0.09155656
0.04298222 -0.14386849 -0.22202067 -0.08838825 0.15032221 -0.1880468 0.0042263665 -0.07924385
0.10064814 -0.03225188 -0.025634248 -0.10988785 0.020303186 -0.056381643 -0.07813181 0.018255254
0.15501057 -0.13313806 -0.16880746 -0.018192954 0.061516844 0.06486702 -0.19027193 0.15102679
0.10264493 0.051726624 0.19702072 -0.06376259 0.06624848 -0.059023835 -0.06335142 -0.07678894
-0.12573878 0.05904701 0.035292882 0.19684601 0.04755304 -0.009439963 -0.008612172 -0.17384326
0.09554802 0.013817452 -0.050951153 0.0818803 0.022462403 0.03623253 0.2066765 -0.02885912
-0.17969163 0.16739202 -0.19206864 -0.17246757 0.16382746 0.004558327 0.09526533 0.14302221
-0.0044790106 -0.20423429 0.06673529 -0.11504294 -0.15767613 0.09249887 0.08734545 0.1388464
-0.19750531 0.09641533 -0.019531544 -0.04573663 0.070852354 -0.16686589 0.1293306 0.15411222
0.035033662 -0.08234354 -0.12847336 0.12849613 0.105083086 -0.15726534 -0.17668213 0.066199064
0.18120897 0.18592879 0.031982984 0.08874382 -0.19352776 0.16293597 -0.20103946 0.09013448
-0.051833574 -0.11670566 0.17430454 0.21023788 0.10186588 0.21177009 0.19432849 0.01661841
0.04493574 0.060701318 -0.072183914 -0.19658217 0.07174277 0.16755237 0.17062402 0.18689932
0.057148732 0.06550888 -0.07452693 0.21894088 0.1022845 0.21094991 0.16882591 0.17655091
0.091276266 0.16301678 -0.00710417 -0.1322232 0.08277608 -0.22098593 -0.08730355 -0.1807969
0.015434886 0.037340786 0.053995613 0.11365862 -0.14321883 -0.0938721 0.14461422 -0.08776182
0.03615386 -0.23125738 -0.17549568 0.0661143 -0.17927535 -0.011535324 0.13221103 -0.12846656
0.20169035 0.08498133 -0.09419191 0.09066581 -0.08819696 -0.1564256 -0.100326926 0.050761983
0.050698664 0.16233966 -0.030244809 0.10132908 0.1631017 -0.0070846295 -0.0011992287 0.11804304
-0.055574477 0.1543777 -0.06811958 0.14671293 -0.053910874 -0.012568223 -0.10375714 0.16748056
0.13311568 -0.13462928 0.14456542 5.6783106e-19 0.009414988 -0.021733752 0.04280684 -0.10394172

l1.weight f4 [256, 256]
00000000: df1d 973d 6620 83bd a795 983d ac52 d6bb
00000010: 63e7 bdbd db44 edbd b1b2 7ebd 39af 0e3e
00000020: 2e43 943c 7954 7b3d 81bb 3bbc edd1 af3d
00000030: 6050 133e 3afd ab3d 4499 8ebd 1150 603d
00000040: 43de 043e 47c3 2fbc ba3f d8bc 5b23 7cbd
00000050: c866 c33d 7b94 e5bc 32fd cdbd a499 c63c
00000060: a446 d43d 16e0 a93d 525d 2cbc 94ab 30bd
00000070: 4d54 cb3d 416e abbd 1ccb 683d b687 ccbd
00000080: 4715 7dbd 5259 92bd 3c18 55bd 4f85 0e3d
00000090: cb17 92bd 7a1b 243d 1101 74bd 637f dbbd
000000a0: b6c4 923d d7a2 a63d fe6e 9e3c ce65 993d
000000b0: ef98 813d 87d9 f73d c885 043d fd3f c7bd
000000c0: fb01 853d 43d5 0b3e ba05 0c3e 7838 8ebd
000000d0: 4d4e 4bbd cc05 d03b 719b c5bb a669 b9bd
000000e0: 1132 993d 025a 8c3b f780 a2bd a1f5 933d
000000f0: 3286 ddbd f255 ee3d aee7 9bbd 30eb 373c
00000100: 3921 0abe c4e8 dcbd 5c66 8cbc bd9e c5bc
00000110: cea8 f13c ce15 033d f367 243d 79e4 ac3d
00000120: aa5f 7dbc 7aca ecbd 4ea8 b53d 31b4 2cbd
00000130: 42a5 a23d ac83 ea3d 030e a9bd 1335 d8bd
00000140: e13e adbb 74dc 2ebd ca95 aabd 3365 0d3d
00000150: 4306 d1bd c61d 5f3c 3fb1 153d 45e8 ad3d
00000160: 75c6 dcbd 45d1 bb3b df3f 6e3b 9d8d 3dbc
00000170: 701c b7bd c5b8 a03d fc93 90bd 2a8b d33d
00000180: fea6 6c3d 1d80 08be c035 c8bd 79ec 7e3d
00000190: c993 8cbd 6924 ae3d 62fa 95bd 9b8d eb3d
000001a0: 51df b13d 86f4 01bd 5ef0 a4bd 58b6 37bd
000001b0: d049 9abd 4b7f ccbc 60e3 02bd c0de 933d
000001c0: e030 b43c 031e bf3d 80ea 963d 8c9c 773c
000001d0: fb24 ca3d 90eb 67bc 5e6b 373c 3719 d1bd
000001e0: cc63 393d f1b9 cd3d 965f ef3c ec72 8c3d
000001f0: edd8 e53c c10a 9abd 0fa1 fbbb 7712 dfbc
00000200: 61d1 983d 4a74 d83d 99d2 93bb a8ce 263d
00000210: b980 2b3b ef7b 8d3d 45b8 5fbd 02ae 743d
00000220: fed0 a33d 6f81 b33d 0100 8a3c 233b 93bd
00000230: 801e b4bd 6376 0a3e b62f d93c 9ecd 31bd
00000240: eb1b f0bd e5d7 a0bd e55b 96bd aad1 c63c
00000250: a32a 07be 8b9b a03d 6730 debd f9df 92bc
00000260: 734b 993d c904 d63d 04e5 73bb 474b be3b
00000270: e118 7a3d 9f3d 85bd 7631 873d d645 ee3d
00000280: 8426 d0bd d64e 81bd e6e9 813d 9501 723d
00000290: a315 8dbd 0d4e 3bbd c99c a8bd 43f0 f33d
000002a0: fd7c 06be be01 cf3d a717 cdbd de12 e8bb
000002b0: c085 52bc 8fe7 d53d c744 763d 0fda a1bd
000002c0: da25 e13c 2177 573c 5f3f c73d c75e bb3d
000002d0: 8651 82bd 9a87 c1bd be45 03be 50f0 01be
000002e0: f527 54bd 2a63 f9bc ff1b 1f3e 2c1f 82bd
000002f0: a6b1 403d e6e7 df3c 5990 c9bd 62a2 cb3d
00000300: 7658 a73d d3fc e43d 117c b13d 5c9c 6abd
00000310: 17aa e43d f058 88bc a7f4 ef3d face adbd
00000320: 2ce5 e9bd 1ae2 0cbe 8af3 c7bc c9cc bcbd
00000330: c2af efbd 3f59 09bd 6e90 00bd 1576 2abd
00000340: 0c6a d63d f8e5 e23d f176 bfbc e9d4 ccbd
00000350: 4425 99bd 9bac 0c3e d40f c0bc 0154 a63d
00000360: 66e4 85bd ec7f aa39 e772 f03b 980a b73d
00000370: b04a f23d 52bd 353d fcba 41bd 2561 56bd
00000380: c78c 1e3c fd49 0d3e b10e 293c c84a 453d
00000390: da62 b83b 9a3f 6a3d a440 c9bd 2881 cd3d
000003a0: 0ddc de3d 12fe 003e 9a6b 113c 4c17 0fbe
000003b0: dc97 74bc 606d 973c 608b 9bbd 6ac0 84bc
000003c0: 1e36 aabd f81b 7abd 77ad 24bd 81a0 05be
000003d0: 3b8c 243e 3281 913b b727 66bd 18ce bc3d
000003e0: 6edc 123e b0c7 e33d 9dc4 c83d 4fcc 01bd
000003f0: ad0b 97bd 7693 cc3d bca5 fdbc 214d abbd
0.07378744 -0.06402664 0.07450419 -0.006540617 -0.09272649 -0.11585399 -0.062182132 0.1393403
0.01809844 0.061359856 -0.011458279 0.08584962 0.1438613 0.083979085 -0.06962827 0.054763857
0.12975411 -0.01072771 -0.026397575 -0.061557155 0.09541088 -0.028024903 -0.10058059 0.024243183
0.10365036 0.08294694 -0.010520296 -0.04313238 0.099281885 -0.08370639 0.056834325 -0.09986822
-0.06178787 -0.07145943 -0.052025065 0.0347951 -0.071334444 0.040065266 -0.05957133 -0.107176565
0.07166426 0.08136528 0.019340035 0.07490121 0.06327998 0.12102037 0.032354146 -0.09729002
0.06494518 0.13655572 0.1367406 -0.06944364 -0.04963522 0.0063483473 -0.006030493 -0.09053354
0.074802525 0.0042831907 -0.07934754 0.07224584 -0.10816611 0.116374865 -0.07612549 0.011225507
-0.13489236 -0.10786584 -0.017138653 -0.024123544 0.029499438 0.032003216 0.040138196 0.08442015
-0.015464703 -0.11562057 0.08869992 -0.04216403 0.07941677 0.11450896 -0.08254626 -0.10556998
-0.0052870368 -0.04269071 -0.08329351 0.03452034 -0.102062725 0.013617938 0.03654599 0.084915675
-0.1078004 0.005731734 0.0036353988 -0.011569408 -0.08940971 0.07847742 -0.07059476 0.10329278
0.057776444 -0.13330121 -0.09775877 0.062237237 -0.06864125 0.085030384 -0.07323147 0.115016185
0.08685172 -0.031727336 -0.08053659 -0.04485163 -0.0753361 -0.024963042 -0.031955123 0.072202206
0.021995962 0.09331896 0.07368946 0.015113007 0.09870335 -0.014155284 0.011195032 -0.102098875
0.04526119 0.10045231 0.029220384 0.06857857 0.02805754 -0.075215824 -0.007679112 -0.027230484
0.07461811 0.105690554 -0.004511189 0.040724427 0.0026169254 0.06908404 -0.054619092 0.05973626
0.079988465 0.08764922 0.016845705 -0.07189014 -0.0879488 0.13521723 0.026512008 -0.043408982
-0.11724075 -0.078536786 -0.07341746 0.024269897 -0.13199858 0.078421675 -0.10849076 -0.017929064
0.07485094 0.104501314 -0.0037215361 0.0058073136 0.061058883 -0.06505894 0.06601231 0.11634414
-0.10163596 -0.06313865 0.06343441 0.05908354 -0.068888925 -0.045728732 -0.082330294 0.11911061
-0.13133617 0.10107754 -0.10014277 -0.0070823273 -0.012849271 0.10444557 0.060124185 -0.079029195
0.02748387 0.013150961 0.09728884 0.09148937 -0.063632056 -0.09449692 -0.12819573 -0.12689328
-0.05179592 -0.030442793 0.15538023 -0.06353602 0.04704442 0.027332257 -0.09841985 0.099430814
0.081711695 0.11181035 0.08666242 -0.057278022 0.111652546 -0.016643971 0.117165856 -0.08486743
-0.11420664 -0.13758126 -0.02440812 -0.09218747 -0.11703445 -0.033532377 -0.03138774 -0.041616518
0.104694456 0.11079019 -0.023372145 -0.10001547 -0.07477811 0.13737719 -0.023445047 0.08121491
-0.06537704 0.00032520236 0.007337916 0.089375675 0.11830652 0.044370003 -0.047297463 -0.052338738
0.009677119 0.13797756 0.010318444 0.04816702 0.0056270184 0.05718956 -0.09826782 0.100344
0.10881815 0.1259692 0.008875752 -0.13973731 -0.014928784 0.018484771 -0.07594943 -0.016205031
-0.08311103 -0.06106183 -0.04020449 -0.13049509 0.16069119 0.00444045 -0.05619022 0.09218997
0.143419 0.11122072 0.09803126 -0.031688984 -0.07375274 0.099890634 -0.030962817 -0.083643205

l1.bias f4 [256]
00000000: 78e2 ca3d 99f7 a63d 1043 8e3d 20ac d03d
00000010: 390c a43d 6bc2 903d 7c43 a83d 8b9b b73d
00000020: 9cdb dd3d 7ca4 533c f8f3 923d 0f5f b13d
00000030: 5e42 9f3d 11ce bc3d 18a3 403e 1e79 2a3a
00000040: 9554 9d3d a556 003e 62af d43d 8e72 263d
00000050: 5b1a cd3d e25b b43d 7c4e be3d 4dac a13d
00000060: decb ba3d 5307 c33d 4993 6f3a f7cf cf3a
00000070: 8027 ab3d 120d b03d 8cd3 7e3d 2462 ae3d
00000080: e272 bd3d cff3 1739 a9cd b73d 5830 e03d
00000090: b22c 963d d682 763e e47e d53d 3e09 a23d
000000a0: 9320 c33d 868f 9f3d 39b1 d03d 61b4 b539
000000b0: 0bcf c23d c487 bd3a a35a 9b3d 4f21 c73d
000000c0: ade8 8e3c 2819 c93d 9505 d93d 71b1 073a
000000d0: f673 e23d 0ff0 b83d 0770 943d 7b1f a037
000000e0: 7fa0 f13d cf07 a13d 1dd5 bf3d 7f29 bb3d
000000f0: 4fb8 b13d 2fb7 ae3d 245b 0c39 dbbc e23d
00000100: 7c22 b83d 6ea1 b23d 33a4 b03d 7e77 9d3d
00000110: a76c 443a e487 c73d faa4 c43d 1874 d63a
00000120: cb97 c93d d7d9 c23d 3090 8f3b 1f79 393d
00000130: a6df b83d c393 bb3d dd2b eb39 a62f b93d
00000140: 567d b03d e8a8 ef39 aa9d 0c3c caf1 d03d
00000150: f8bd ff3d 09b1 9a39 bb62 b33c ce59 cc3d
00000160: f485 c43d db16 b03d 8af5 a33d ab99 aa3d
00000170: 75c1 a03d 184b 333c 8c5f d33d 25ca a23d
00000180: 739f 0038 f466 053d 8e0e b83d 17bc a238
00000190: f055 a53d 9bcd 3439 a7fd f53d e93d a83d
000001a0: 3693 b03d 76a6 a43d 5b6c bd3d 53d0 d93d
000001b0: f471 8d3d 8432 b03d 972a c53d 9793 433d
000001c0: 3002 563c 913d bb3d d178 c73d 4c43 f63d
000001d0: 12ed 783d b8a4 af3d b211 b03a 65e9 853c
000001e0: f042 c03d 44a7 9b3d b642 663d 97ce 893d
000001f0: 30eb e53d d261 5e3d 4775 d93a 46cf a23d
00000200: 2eae a73d 9ec6 ae3d ca2a bc3d a5f2 e03d
00000210: 6b96 7536 2472 bf3d 3c41 dc3d 29c2 b03d
00000220: 483b 673b ceab ad3d 4515 c33d 2fc1 c83d
00000230: 5174 ad3d 688a cc3d d754 be3d b6d6 7d3d
00000240: 21c9 983d 5d44 453b 55de 8839 8af4 da3d
00000250: 9b09 cd3d 6191 c53d 335f 7a3b 1c75 a33d
00000260: 77d7 963d 3f0b ae3d 11de 3a3b a5a7 833c
00000270: 6e56 843d 342b c73d a75c cd3d 8e96 b93d
00000280: 005f c23d 17d8 953d fbb6 f13d 1fd4 b03d
00000290: aaa4 503c 37a2 cc3d 1f08 0e3d 9ae3 db3d
000002a0: 120a b83d a7b5 c83d 20db da3c 238c cc3c
000002b0: 1758 933d 613d 893d b449 703b d9a0 9b3d
000002c0: ea70 af3d bf9b 8c3a 364c 9f3d 5ecc e93d
000002d0: 8249 9f3d aa81 973d 80f9 ad3d f01a 2f3c
000002e0: e6a7 aa3d 3c4b c23d 0aaa bb3d cd2a ee3d
000002f0: 03b7 983b 56a5 b63d 6d39 c83d ffc5 943d
00000300: 1e00 ce3d 41b7 753d aa3f e43d 100b 6c3d
00000310: 9412 a33b 6b88 683e 3f75 a93d 20bd 903d
00000320: a28c b639 c2ca 843c f74d fd3d 3568 d63d
00000330: 8bf0 ae3d 0a9d a43d 756c b63d 0c69 723d
00000340: 63fb 6f3d 4682 1a3b 445f ed3d 905d 973d
00000350: dc83 d63d 129a 923c 94ff 993d 18c7 c03d
00000360: 1d00 b23d b83d a03d 8b88 a23d 9681 b03d
00000370: 372d b83d 79d0 3b3c d09e 453d 2419 7f3a
00000380: 0e86 b43d f595 803d cf17 bb3d b2fb fb3d
00000390: 8906 ce3d f482 a13d 04e2 ac3d eba2 bf3d
000003a0: 754c c03d 2125 013e 4638 0c3d 9fb5 c03d
000003b0: a363 8e3d 10c2 503d 4bf2 cc3d fba6 c43d
000003c0: 9fb1 333c d765 a93d e044 f73d 2b23 aa3d
000003d0: 888a ab3d 5993 a93d 0598 9b3b dcd7 943d
000003e0: 594f be3d d0da b33d 2342 dc3d e753 b73b
000003f0: 0e38 c73d d7d1 203d b9e5 ee3d b32c bd3d
0.09906477 0.08152694 0.06946385 0.1018908 0.08010144 0.07068332 0.082159966 0.08965214
0.10832903 0.012917634 0.071754396 0.08660709 0.077763304 0.092189915 0.18812215 0.0006503033
0.07682148 0.12533052 0.10385014 0.04063659 0.100147925 0.08806588 0.092923135 0.07894192
0.09120916 0.09522881 0.00091390737 0.0015854825 0.083571434 0.08596243 0.062213466 0.085148126
0.09250428 0.00014491308 0.089747734 0.10946721 0.07332744 0.24073347 0.10424593 0.07911919
0.095276974 0.07791047 0.101900525 0.00034657403 0.095121466 0.0014460017 0.07585647 0.0972315
0.017444933 0.09819251 0.10596768 0.0005176282 0.11057274 0.090301625 0.0724793 1.9088146e-05
0.1179819 0.078628175 0.0936682 0.09138774 0.08677732 0.08531033 0.00013385393 0.110711776
0.089909524 0.087221965 0.086250685 0.07688807 0.0007492997 0.09742716 0.09601779 0.0016361503
0.09843405 0.09514206 0.004381202 0.045281526 0.090270326 0.09159043 0.00044855374 0.09042291
0.08617656 0.00045711477 0.008582512 0.102023676 0.124874055 0.0002950507 0.021897664 0.099780664
0.09595862 0.08598109 0.08005817 0.08330091 0.07849399 0.010943197 0.103209585 0.07948712
3.0666077e-05 0.032568887 0.08987151 7.7597964e-05 0.08073032 0.00017242732 0.12011271 0.082149334
0.08621828 0.080395624 0.09249183 0.10635438 0.069065005 0.08603385 0.09627264 0.047748175
0.013062045 0.09142602 0.09739841 0.120245546 0.060772963 0.085763395 0.0013433008 0.016346643
0.09387767 0.07600263 0.056215964 0.06728857 0.11226499 0.054292507 0.0016590738 0.079496905
0.08187519 0.08533977 0.09187849 0.10983781 3.65954e-06 0.093479425 0.1075463 0.08630783
0.0035283137 0.08480035 0.09525541 0.09802472 0.08469451 0.099873364 0.09293526 0.061972342
0.07460237 0.0030100562 0.00026105592 0.106911734 0.10011598 0.096468695 0.0038203716 0.07981321
0.073653154 0.08498239 0.002851371 0.01607115 0.06461798 0.09725037 0.10027438 0.09061919
0.09490776 0.073166065 0.11802479 0.08634209 0.0127345715 0.099918775 0.034675714 0.10736771
0.08986296 0.098002724 0.026715815 0.024969166 0.07194536 0.0670116 0.0036665024 0.07599039
0.085664585 0.0010727568 0.07778208 0.11415933 0.077776924 0.07397778 0.08494854 0.010687575
0.08332805 0.09487006 0.09163292 0.11629257 0.0046604886 0.08918254 0.09776578 0.07264327
0.10058616 0.059989218 0.111449555 0.057627738 0.00497658 0.2270829 0.08274316 0.07067323
0.00034818525 0.016209964 0.12368386 0.10469095 0.08541974 0.08037765 0.08907405 0.05918221
0.05858935 0.0023576184 0.11590436 0.073908925 0.10474369 0.017895732 0.07519451 0.09412974
0.08691428 0.07824272 0.079362 0.086184666 0.08992999 0.011463278 0.04824716 0.0009731224
0.088146314 0.06278602 0.091354005 0.123038664 0.1005984 0.078863055 0.084415466 0.09357246
0.09389583 0.1261182 0.034233354 0.094096415 0.06952598 0.050966322 0.10007151 0.096021615
0.010967641 0.082713775 0.12073684 0.08307489 0.08376032 0.082800575 0.0047483467 0.072677344
0.09292478 0.087819695 0.10754802 0.0055947187 0.097274885 0.03926262 0.1166491 0.09237041

l2.weight f4 [256, 256]
00000000: 305a aa3d 8638 25bd 7db6 66bd d808 843c
00000010: 7f40 cdbd d22e 033e c83e 613d 075c 63bd
00000020: 545d 003e 0884 fcbb 3ad4 da3b c3e7 b03d
00000030: 215c 9dbd 6b60 03be d23a b93c 6013 d6b8
00000040: 0517 b83d 2a17 ef3d 02a5 e4bd e54f d23c
00000050: 7a75 803d 9c3f a13d 3993 07bd 0426 043d
00000060: 7d2a 183e fe5a 0e3e d728 8ab9 6fdb 3d3a
00000070: 9961 303d 8287 94bc ebc6 e0bd 1304 13be
00000080: 3ee6 e8bd 63e2 5639 c65d 03bd b95d af3c
00000090: d583 8dbd 6822 e53c 4604 1b3e ae0c 93bc
000000a0: fb32 f93d 9e50 8bbc 4a84 abbd 30e9 e939
000000b0: 278e 163e e2da 5ab9 ca3d 82bd a77a f23d
000000c0: 145d 8d3c 9e91 dfbd 66f0 083e 0430 b5b8
000000d0: 2700 723d b092 5c3a 777a 9fbd 3a36 2e37
000000e0: f81a 443c 74ab f1bc 94f8 d2bd 0e67 a83d
000000f0: b0b0 98bc 61fa b93d 12b5 deb8 03c5 14bd
00000100: 1fd3 fb3d 4baf 2d3e b300 b3bd 837b 82bd
00000110: 2bbc cd39 b489 e53d bd58 9c3d c593 4c39
00000120: 5a16 81bd 8185 99bd a48d cd3b 9404 febb
00000130: 37f6 8abd 3fff 083e ccba a1b9 88c3 f93c
00000140: 6980 9a3d 04ed 0d3a 78d6 52bc a5dc 5cbd
00000150: b344 e4bd a3f8 9339 364e a73c 9c8e 82bd
00000160: 5954 d93d 63cf d73d 070f 743d eb4f 133e
00000170: 958b dd3d 42c8 8d3b 742f 013e 5140 283d
00000180: bbbf 0eb6 41ab 6c3b e503 a9bc 05ee 95b8
00000190: e594 0f3d e1b9 fab8 2efe 8b3d ae55 2a3c
000001a0: 732c 29bd a685 3bbd 11dc 03be 159a eb3d
000001b0: 8342 ad3b 0128 bb3d 9060 8d3c 2cb5 2f3b
000001c0: 116c aa3c c9d3 963d f52b f9bd 8815 0b3e
000001d0: cedb 11bd ef22 bd3d 5ca8 a4ba 0e73 8abc
000001e0: e872 ed3d 6f52 ca3a b808 093d 9888 2e3c
000001f0: 3834 a5bd 4f3a 0dbd f7d7 3a3b 040a cdbd
00000200: 5a6d 073e 28a3 30bc f63a aeba cdfd 863d
00000210: 0ef1 8535 0dd6 9dbd 51da c8bd a924 3cbd
00000220: 8246 a83b c7f6 a33d 3d57 fb3c 65a9 b7bb
00000230: c01f 333d f0c7 0f3e e44d f4bd b983 a5bd
00000240: 47de e9bd d1ea ffba e698 2039 7635 493d
00000250: 2a25 f0bd 9420 24bd 54fa 233a 832c 1bbb
00000260: b5b6 c9bd e7b3 3bbd 1e4a b13a 1bba aebc
00000270: 256c 6f3c e775 a3bc 1676 f53d a7fe d93c
00000280: ff70 dcbd 8b07 2e3d a3f5 0d3e ae9e 84bd
00000290: f367 dfbb 0ebe 343e af8f 3abd 9df5 a0bd
000002a0: 6c1a a7bd ece4 a9bd 935a c23b a3de a23b
000002b0: 9a6b 583c 6280 b53d dc4e 5ebb aa7c d43d
000002c0: 31b0 dcbd 25bc a4ba 58e7 a43d 1dc8 6dba
000002d0: b20e 613d f24c 053d 962b 033d 5cb5 5a3b
000002e0: 215a b33d d836 9a3a 92f6 7dbd beeb ff3d
000002f0: f6c0 43ba 1c6e b7bd 55d7 42bd 3b9c a9bd
00000300: 008c a03d ef0f e43b ee56 183e fbe3 053e
00000310: f0ec 5eb9 8135 b03c 6eca 143e 7e21 c73d
00000320: 1d68 7bb9 f8f6 303c 661f 13be 744d 1e3c
00000330: 09f8 8c3d b32d 043d 9acc 96bd b690 a43d
00000340: 5f81 9c3d 1bbf 97ba bfa4 0e3e 7122 e03d
00000350: 280a 123e 2e33 963c ebf8 bcbd 1d2d a93d
00000360: f1da fd3d ab85 bcbd 50d3 923d 7cce 023e
00000370: 117d eb3d 943f ce3a 1ecb 3c3c dd82 65ba
00000380: c33b 213c fcce aebd 5839 1cbd cee7 9cbc
00000390: 063c f1bd 13f5 a13d aee9 a3bd 8e6c b33d
000003a0: 9cdc d3bd bdfb 94bd 46ea 6e3d d445 88bd
000003b0: 48c9 da3d 0c43 99bd 1ec5 cf3d c3f2 6cbd
000003c0: be1d 0339 3b42 d03d 89e6 00be 4123 1f3e
000003d0: c003 20bd 765b 1a3e 5686 0bbb 9f3c 593c
000003e0: cda4 983d bc68 b8bd 2857 213e 68c2 dfbb
000003f0: c756 023e 5d60 853b 3d74 8e3d 55c7 ca3d
0.08317983 -0.040337108 -0.056326378 0.016117498 -0.10022067 0.1281083 0.054991513 -0.055507686
0.12535602 -0.007706169 0.0066781314 0.08637955 -0.07683588 -0.1282975 0.022611056 -0.00010207924
0.089887656 0.1167434 -0.11164285 0.025672862 0.06272407 0.07873461 -0.033099387 0.032262817
0.14859958 0.13901898 -0.0002635184 0.0007242476 0.043061826 -0.018131021 -0.109754406 -0.14357023
-0.1137204 0.00020492966 -0.03207185 0.021406995 -0.069099106 0.027970508 0.15138349 -0.017950382
0.12167927 -0.017006215 -0.083748415 0.0004461496 0.14702664 -0.0002087164 -0.063594416 0.118398
0.017256297 -0.10916446 0.13372955 -8.639696e-05 0.059082177 0.0008414192 -0.0778703 1.0383834e-05
0.0119693205 -0.0295007 -0.10301319 0.08222781 -0.018638939 0.09080959 -0.00010619512 -0.036320698
0.122961275 0.169614 -0.08740368 -0.06371214 0.00039240843 0.112079054 0.07634113 0.00019510004
-0.06303091 -0.07496167 0.0062729884 -0.0077520106 -0.06785243 0.13378619 -0.00030847488 0.030488744
0.075440235 0.0005414041 -0.012868516 -0.05392136 -0.11145916 0.00028223274 0.020423036 -0.06374857
0.10611791 0.10537603 0.059584644 0.14385955 0.10817639 0.004326851 0.12615758 0.041076962
-2.127125e-06 0.0036112817 -0.02063174 -7.149208e-05 0.035054106 -0.000119555516 0.0683559 0.010396404
-0.041302156 -0.045781754 -0.12876917 0.11503998 0.00528747 0.091384895 0.017257959 0.0026810868
0.020803483 0.073646136 -0.12166587 0.13582432 -0.035610013 0.09235179 -0.0012562382 -0.016900565
0.11594182 0.0015435944 0.03345558 0.010652684 -0.080666006 -0.034479436 0.0028510073 -0.10011676
0.13225308 -0.010781087 -0.0013292718 0.065913774 9.979428e-07 -0.077068426 -0.098072655 -0.0459334
0.0051353583 0.080060534 0.030681247 -0.00560491 0.04373145 0.14041114 -0.11928919 -0.08081765
-0.11419349 -0.0019524937 0.00015315748 0.04912325 -0.117258385 -0.04007013 0.00062552583 -0.0023677654
-0.09849302 -0.045825865 0.0013526117 -0.021328976 0.014613186 -0.019953681 0.11985414 0.026610686
-0.1076374 0.042487662 0.13863234 -0.06475578 -0.0068178116 0.17650625 -0.045547184 -0.07859347
-0.081593364 -0.082956165 0.0059312074 0.004970388 0.013209248 0.08862378 -0.0033921516 0.1037534
-0.10775793 -0.0012568278 0.08051938 -0.0009070652 0.054945655 0.032544084 0.03202399 0.0033372259
0.08757425 0.0011765612 -0.062002726 0.12496136 -0.0007467413 -0.089565486 -0.047568638 -0.08281752
0.07839203 0.0069599072 0.14876911 0.13075249 -0.00021259836 0.021509888 0.14530346 0.09723185
-0.0002397601 0.010801069 -0.14367446 0.009662021 0.068832465 0.032270145 -0.073632434 0.08035414
0.07641863 -0.001157734 0.13930033 0.10944069 0.14261687 0.018334951 -0.09227165 0.08260558
0.123952754 -0.09205183 0.07169211 0.1277408 0.11498464 0.00157355 0.011523036 -0.0008755157
0.009840908 -0.08535573 -0.038140625 -0.019153502 -0.11779027 0.07908072 -0.08003555 0.087609395
-0.10344812 -0.07274578 0.05832889 -0.06653944 0.106829226 -0.07483491 0.10145019 -0.057848703
0.00012504213 0.101688825 -0.12587942 0.15540792 -0.039066076 0.15073952 -0.0021289787 0.013259082
0.07453308 -0.090043515 0.15755904 -0.006828595 0.12728415 0.0040703253 0.069557644 0.09901301

l2.bias f4 [256]
00000000: 3989 5b3d e999 323d 3db7 5d3d b5e9 5b3d
00000010: 990b 643d c211 623d 9e4e 413d 91ae 4f3d
00000020: 59d3 963d 21db 543d 6eaf 423d a875 6c3d
00000030: 7a76 6e3d bf8e 283d 4d32 5f3d 0a0c 523d
00000040: ae15 543d 97b6 8a3d bb9f 423d 2dc1 723d
00000050: 4b51 5f3d 2a2a 443d 347a 313d 433a 213d
00000060: 8fb1 563d 1563 813d 46ae 5f3d 8d7a 693d
00000070: d865 383d c478 503d 8a48 453d 5533 4e3d
00000080: f38d 603d 5557 4a3d f5eb 283d 6245 583d
00000090: fd95 3c3d a299 423d cc3d 273d 73a7 5f3d
000000a0: 653c 2b3d 40c0 2c3d 7f02 2e3d 0c42 403d
000000b0: 03a4 423d 0a99 613d a03e 703d a362 633d
000000c0: f669 633d ddba 813d 5285 403d 6adf 683d
000000d0: 3227 6a3d cd7b 303d 906c 373d 32b9 3c3d
000000e0: 986e 753d 674b 6c3d 4bfe 593d 52ab 653d
000000f0: b368 483d 68cc 473d ec18 3b3d 4a99 2c3d
00000100: ccae 503d 4d0d 593d 17d9 403d 72d5 833d
00000110: 7c6d 693d 7cfe 463d b8bd 1e3d 4843 553d
00000120: c377 6b3d c9f5 813d efcf 223d a246 463d
00000130: aaca 553d de9c 533d 7c7f 6c3d 7d1e 7d3d
00000140: c638 333d b5cc 823d c6d7 853d f45b 2d3d
00000150: 7b58 563d f982 4d3d 7be0 4a3d 8079 5a3d
00000160: 53a3 603d 7345 4f3d 2ad9 7d3d 1888 3b3d
00000170: 7876 813d fdac 713d cd42 403d ea3e 8d3d
00000180: 0b64 423d 1815 413d 68af 523d 6a2c 5b3d
00000190: c419 4e3d 0de9 7b3d fede 7d3d 6818 1f3d
000001a0: 23c3 713d be65 333d 9402 3a3d 16ba 713d
000001b0: bf2a 5d3d 5aca 643d ad43 543d 720e 363d
000001c0: b444 673d e7c1 313d 1f42 663d cf7e 6f3d
000001d0: 335b 613d 9ae8 493d 6d8f 673d c95a 4d3d
000001e0: 55cd 3d3d e0a7 2f3d e47f 113d 1df2 573d
000001f0: 1994 6d3d 454e 683d 65a6 143d e717 783d
00000200: 71d5 613d 0c25 2b3d cd24 233d 2731 563d
00000210: 7dba 3f3d 02b5 2a3d f2c9 483d dd31 803d
00000220: 523d 6c3d ee3f 543d d6ac 523d 006f 453d
00000230: e839 863d d01f 373d 1538 343d a8a9 503d
00000240: beea 593d c9bd 923d b291 3f3d 6f1d 543d
00000250: f2c1 583d fd9c 3d3d e653 613d 1d50 693d
00000260: 7644 663d f129 303d 7671 263d 38f9 773d
00000270: 4cc2 2e3d e27a 843d 7fc8 853d bb65 823d
00000280: 7723 433d ad4c 5f3d 0f32 683d 8cd1 5d3d
00000290: 7064 693d 544f 8d3d 8ef0 6f3d 0a3b 623d
000002a0: 2801 823d 92c2 373d 8892 323d 8c48 493d
000002b0: f7dd 3d3d e1f4 5e3d 8184 7a3d 2ca1 643d
000002c0: 369c 5b3d c773 543d 52b4 833d e726 6b3d
000002d0: bb1a 543d df8f 853d fcd7 5e3d b61b 583d
000002e0: d006 3f3d d41d 4b3d ef9a 303d d943 6e3d
000002f0: a972 453d 9993 703d ec6f 803d 886c 373d
00000300: c0a1 6c3d 5034 6c3d 2e27 3b3d 9025 833d
00000310: 451b 4f3d 0ffa 623d c90b 673d 3407 643d
00000320: ee04 3c3d f517 5b3d 369c 673d 4991 5a3d
00000330: 25e8 483d 5d91 7c3d 77e7 7b3d b34e 4d3d
00000340: a7de 323d f060 263d 2921 463d eed4 773d
00000350: 91a7 753d 4c92 543d 8d71 4c3d 6aa4 653d
00000360: 54c2 863d d80a 803d 3273 3f3d 6647 6b3d
00000370: f234 323d 087d 5a3d fe76 623d 3cbd 6a3d
00000380: 3fd0 443d 4b56 6a3d d0a9 6c3d 719d 5a3d
00000390: 41d2 823d 3079 763d 31e8 123d 75ae 723d
000003a0: 0fd0 803d ba2e 333d 0f85 423d 8ef7 4c3d
000003b0: 218f 2b3d 98f2 7d3d ee4c 4e3d efc7 2c3d
000003c0: cc8e 503d 2ce2 393d ce2a 4c3d 7cd3 623d
000003d0: 4470 333d 44f5 473d 21c1 4d3d c4de 733d
000003e0: 9c9f 6c3d f6bf 743d ac6e 383d 07dc 1ea0
000003f0: a3d8 403d f6d5 603d 60f6 3e3d 5bcc 673d
0.053597663 0.04360381 0.054129828 0.053689677 0.055675123 0.055192716 0.047194116 0.05070359
0.0736453 0.05196679 0.047530584 0.057729393 0.058218457 0.04115176 0.05449133 0.051281013
0.051778488 0.067731075 0.047515612 0.059266258 0.054520886 0.047891773 0.043329433 0.039362203
0.052415427 0.063177265 0.05460956 0.05700164 0.045019 0.05089642 0.04816488 0.050341923
0.054822873 0.049399693 0.04124065 0.052800544 0.046041477 0.047509797 0.04083042 0.05460305
0.041805644 0.04217553 0.04248285 0.046937987 0.047519695 0.05507759 0.058653474 0.05551399
0.055520974 0.063344695 0.047002144 0.05685369 0.057166286 0.043086816 0.044781268 0.046075054
0.059919924 0.057689097 0.05322103 0.056071587 0.048927974 0.04877892 0.045678064 0.042138375
0.05094795 0.0529912 0.047082033 0.06437196 0.056989178 0.04858254 0.03875515 0.052066118
0.05748726 0.06345708 0.039749082 0.048407204 0.05219523 0.051663272 0.057738766 0.061796654
0.043755315 0.06386701 0.06535296 0.04232402 0.052330475 0.050173733 0.049530488 0.053338528
0.054843258 0.05060334 0.061974682 0.045784086 0.06321424 0.059002865 0.046938706 0.068967655
0.04745869 0.047139257 0.05143681 0.053509153 0.05031754 0.06150155 0.06198024 0.038841635
0.059023988 0.0437982 0.045412615 0.059015356 0.053995844 0.05585704 0.051822353 0.04444737
0.056462005 0.04339781 0.0562154 0.058470543 0.055018615 0.04929409 0.056533266 0.050135408
0.046338398 0.042884707 0.035522357 0.05272113 0.058002565 0.05671527 0.0362915 0.06056967
0.055135194 0.041783378 0.039830018 0.05229297 0.04680871 0.04167653 0.049020715 0.06259511
0.057675667 0.05181878 0.05143436 0.04820156 0.065540135 0.044708073 0.043998796 0.050943047
0.053202383 0.07165105 0.046769805 0.051785883 0.052919336 0.046292294 0.055011652 0.056961168
0.056217633 0.04300875 0.04063555 0.060540408 0.042665765 0.064687505 0.06532382 0.0636706
0.047641244 0.054516483 0.056688365 0.054154918 0.05698055 0.06899896 0.05857902 0.055232085
0.06347877 0.04486329 0.043596774 0.04914145 0.04635426 0.054432753 0.06116152 0.055817768
0.05361577 0.051868226 0.06430878 0.057410147 0.051783305 0.06521582 0.054405198 0.052760802
0.046637356 0.049588993 0.043116506 0.058170173 0.04820505 0.05873451 0.062713474 0.044781238
0.057771444 0.057667077 0.04569166 0.06403649 0.050563116 0.055414256 0.056407724 0.055670932
0.04590314 0.053489644 0.05654546 0.05336121 0.049049515 0.061662067 0.06150004 0.05012388
0.04366937 0.04061979 0.048371468 0.0605058 0.059974257 0.051897332 0.049912978 0.056065
0.06580034 0.06252068 0.04674072 0.057441138 0.043507524 0.053341895 0.05528926 0.057309374
0.04805016 0.0572112 0.057779133 0.053372804 0.06387759 0.060174167 0.035865966 0.059248406
0.06289684 0.043745734 0.047490176 0.050040774 0.041884545 0.061998934 0.050366335 0.04218286
0.05091743 0.04538171 0.04984551 0.05537747 0.043808237 0.048817888 0.05023301 0.059538618
0.057769403 0.05975338 0.04502742 -1.3455922e-19 0.0470816 0.05489155 0.04662168 0.056591373
