code/save/model_gama/model_gama_repr_8.pt (torch, 649964 bytes, 6 tensors)

embed.weight f4 [59, 256]
0	0x3d928933	0.07155075
1	0xbe5794be	-0.21052834
2	0xbe500e66	-0.20317993
3	0xbcd829ec	-0.026387177
4	0x3e22550a	0.15852752
5	0x3db6a8f7	0.08918946
6	0xbcfd69cc	-0.030934237
7	0xbe4351ea	-0.19074216
8	0x3db78e55	0.089626946
9	0xbd3cc17e	-0.046082966
10	0x3e4011f5	0.1875685
11	0x3dfa719b	0.122287
12	0xbe09bd4d	-0.13451119
13	0xbe54127a	-0.20710173
14	0x3e0e9757	0.13924919
15	0xbdd38cb7	-0.103295736
16	0xb9c065d0	-0.0003669695
17	0xbe1d6357	-0.15369926
18	0xbde04ba6	-0.10951929
19	0x3e0a6f90	0.1351912
20	0x3ddc1d41	0.10747767
21	0xbe04e9a9	-0.1297976
22	0x3e2d460a	0.16921249
23	0x3e496187	0.1966611
24	0x3c93c4a6	0.018038105
25	0xbe2fb1e6	-0.17157707
26	0xbde65654	-0.112469345
27	0xbe3c1e38	-0.18370903
28	0xbe3d181d	-0.1846623
29	0x3d834470	0.06409538
30	0xbddba160	-0.10724139
31	0x3c4b29b5	0.01240008
32	0xbdd94180	-0.10608196
33	0x3d1a75bc	0.037709936
34	0x3d9c2450	0.076241136
35	0x3daffa75	0.08592693
36	0xbdfd028d	-0.12354002
37	0x3add23ce	0.0016871633
38	0xbdf35009	-0.118805
39	0x3db95a94	0.090504795
40	0x3e1887d4	0.14895564
41	0xbdb17312	-0.08664526
42	0xbe373065	-0.17889555
43	0x3e36e2a4	0.17859894
44	0xbc3bdcfb	-0.01146626
45	0xbd8a1b6c	-0.067435116
46	0x3e7e1087	0.24810992
47	0xbd9e6a2d	-0.07735095
48	0xbb763ad4	-0.0037571685
49	0xbe480720	-0.19533968
50	0x3dbf293f	0.09334039
51	0x3e4d1db1	0.20030858
52	0xbd8f2c31	-0.06990851
53	0x3d8a4ff3	0.0675353
54	0xbe2e587c	-0.17025942
55	0xbda3d83e	-0.08000229
56	0x3d740289	0.05957273
57	0x3e3444f4	0.17604429
58	0xbd06ab4c	-0.032878205
59	0xbdb78fda	-0.089629844
60	0x3da748cb	0.08168181
61	0xbd2fa22b	-0.042879265
62	0xbdff2228	-0.12457687
63	0x3d54cd58	0.051953644
64	0x3db94833	0.09046974
65	0xbd3dcd3d	-0.04633831
66	0x3d8286cf	0.06373369
67	0x3e294481	0.16530038
68	0xbd758fab	-0.059951466
69	0x3e4da1b5	0.20081218
70	0xbc3b68f6	-0.011438599
71	0x3d3ee559	0.04660544
72	0xbe4d0ef2	-0.20025232
73	0xbd567e52	-0.052366562
74	0xbe521f40	-0.20519733
75	0x3db74f35	0.089506544
76	0xbd8b7816	-0.06810014
77	0x3e443254	0.19159824
78	0x3d8a66d3	0.067578934
79	0xbd81ee37	-0.06344264
80	0xbcafb289	-0.021447437
81	0xbe17edf7	-0.1483687
82	0xbdcc495f	-0.09974932
83	0x3d962ddd	0.073329665
84	0xbd04dd27	-0.03243747
85	0x3e19c390	0.15016007
86	0xbcadc846	-0.021213662
87	0x3b69965a	0.0035642595
88	0x3dd5b865	0.10435561
89	0x3d731fde	0.059356563
90	0x3d8797a6	0.066207215
91	0x3c0b1121	0.008487971
92	0x3e33f511	0.17573954
93	0x3e30584a	0.1722118
94	0xbb8b90e0	-0.004259214
95	0x3e371166	0.1787773
96	0x3e2049eb	0.15653197
97	0xbdc75ed0	-0.09734881
98	0x3cf07ef5	0.029357413
99	0x3e61e76c	0.22060937
100	0xbda436e2	-0.080182806
101	0x3d1d8914	0.038460806
102	0xbd09be60	-0.03362882
103	0x3bbf3f96	0.0058364375
104	0x3d833345	0.06406263
105	0xbe3072bd	-0.17231269
106	0xbcd44e5a	-0.025916267
107	0x3c2d9712	0.0105951
108	0xbe0b08c6	-0.13577566
109	0xbda09700	-0.07841301
110	0xbe0b61a8	-0.13611472
111	0x3cc0230b	0.02345421
112	0x3e0dfa59	0.13865031
113	0xbe1aa37c	-0.15101427
114	0xbd2095e7	-0.039205458
115	0xbe5af1ef	-0.21381353
116	0xbdc1e396	-0.09467237
117	0x3e4b7c04	0.19871527
118	0xbc6c0861	-0.014406295
119	0x3e27030d	0.16309758
120	0xbd85065a	-0.06495352
121	0x3d71fff0	0.05908197
122	0xbde14a54	-0.11000505
123	0x3e02ff4d	0.12792702
124	0x3e2474f3	0.16060238
125	0x3d9cc08b	0.07653912
126	0x3e1481a2	0.14502576
127	0xbe2b4941	-0.16727163
128	0x3e15a30c	0.14612979
129	0xbdd90c28	-0.10598022
130	0xbdb41bda	-0.08794375
131	0x3e3255c7	0.17415534
132	0x3d2800bd	0.04101633
133	0x3dd9bf38	0.10632175
134	0x3e4e9ccb	0.20177
135	0x3cbb021f	0.02282816
136	0x3d845fc3	0.064635776
137	0x3e003356	0.12519583
138	0x3c24f339	0.010067754
139	0x3e3ff673	0.18746357
140	0xbe265af9	-0.16245641
141	0xbe029452	-0.12751892
142	0x3d387888	0.045036823
143	0x3cf263cf	0.029588608
144	0x3b2c7661	0.0026315677
145	0x3dc07ab7	0.09398406
146	0xbddc4039	-0.10754437
147	0xbd3bb146	-0.045823358
148	0xbd45ab11	-0.048258845
149	0xbe32e788	-0.17471135
150	0xbb042d48	-0.0020168591
151	0x3dbacf16	0.0912153
152	0xbaae9eed	-0.001332251
153	0xbe27056c	-0.16310662
154	0x3e24b58d	0.16084881
155	0xbe32f3e9	-0.17475857
156	0x3e1f0597	0.15529476
157	0xbd83f655	-0.064434685
158	0x3de9c75b	0.11414977
159	0x3df0a4d1	0.11750186
160	0x3e40341b	0.18769877
161	0xbe119120	-0.14215517
162	0xbbec8438	-0.00721791
163	0x3e1b2ab7	0.15153013
164	0x3e54c521	0.20778324
165	0x3b55f0ee	0.0032644826
166	0xbde08585	-0.10962967
167	0x3d81183e	0.06303452
168	0x3da523af	0.08063447
169	0x3d9040d5	0.07043616
170	0xbcc0ee2c	-0.02355107
171	0xbc13e90e	-0.009027733
172	0xbdac95f8	-0.08427042
173	0x3e2df9a8	0.16989768
174	0xbd644438	-0.05572912
175	0xbd30fe3c	-0.043211207
176	0xbc979b42	-0.01850665
177	0x3cfe004d	0.031006003
178	0x3d2378fd	0.039910305
179	0xbd851f52	-0.065001145
180	0xbe2b4798	-0.1672653
181	0xbe1863ec	-0.14881867
182	0x3de7aa1e	0.11311744
183	0x3e4edfe3	0.20202594
184	0xbd7e0c1f	-0.06202328
185	0x3d91f0f7	0.071260385
186	0xbdc023cd	-0.093818285
187	0x3e4d6245	0.20057018
188	0x3d3349f2	0.04377169
189	0xbd11023d	-0.035402525
190	0x3d743054	0.0596164
191	0x3db56ebd	0.08859012
192	0x3e24d4ad	0.16096754
193	0xbe482d0e	-0.19548437
194	0x3cbe1eb6	0.023208003
195	0xbe14e220	-0.14539385
196	0x3d9c04e7	0.076181225
197	0xbd8e1a32	-0.0693859
198	0x3e03ac3a	0.12858668
199	0xbe14a5cb	-0.1451637
200	0x3d02e82e	0.031959705
201	0x3d710feb	0.05885307
202	0x3dfd7f9c	0.12377855
203	0xbe35dfdb	-0.17761175
204	0x3e4164ab	0.18886058
205	0x3bd37de9	0.0064542186
206	0xbe4ce387	-0.2000867
207	0xbcea24b4	-0.028581955
208	0xbe47303b	-0.19451992
209	0x3d3c3d6c	0.045957014
210	0xbcbd9fc9	-0.02314748
211	0xbe0802f6	-0.1328238
212	0x3e4a806b	0.1977555
213	0x3e37b5cc	0.17940444
214	0x3db9e6bb	0.090772115
215	0xbc3800a6	-0.011230623
216	0x3e11620f	0.14197563
217	0x3d1228ac	0.03568332
218	0x3c294c0c	0.010333072
219	0x3e0f2cf2	0.13981989
220	0x3cfc4395	0.030793944
221	0xbdf3d389	-0.119055815
222	0xbe28aaa1	-0.1647134
223	0xbcc08161	-0.023499193
224	0x3daf942f	0.08573186
225	0x3e486107	0.19568263
226	0xbe2df3b9	-0.16987504
227	0x3dfb4f7a	0.12271018
228	0xbd8b52f8	-0.068029344
229	0xbd499cb2	-0.049221702
230	0xbd8e40f3	-0.06945982
231	0x3e33ab49	0.17545809
232	0x3e0494c6	0.12947378
233	0xbe41ffff	-0.18945311
234	0x3d7c0eb1	0.06153745
235	0x3d8e8514	0.069589764
236	0xbdcbb0ca	-0.09945829
237	0xbe14ebff	-0.1454315
238	0x3d6e1145	0.05812194
239	0xb91963f8	-0.00014628458
240	0x3d492f2e	0.04911726
241	0xbd2bc3eb	-0.04193489
242	0xbdfbf953	-0.12303414
243	0xbe3274a1	-0.17427303
244	0x3d1af568	0.037831694
245	0x3cc42560	0.023943603
246	0xbe076591	-0.13222338
247	0xbe3669d0	-0.17813802
248	0xbc4e3f0f	-0.0125882765
249	0x3df6e7d1	0.12055934
250	0xbe511da9	-0.2042147
251	0x3c52802f	0.012847944
252	0xbe067213	-0.13129453
253	0x3e537026	0.2064825
254	0x3e2d8ec8	0.16948998
255	0xbe1b9e17	-0.15197025

unembed.weight f4 [59, 256]
0	0x3c0c30e1	0.0085565755
1	0xbdef2e07	-0.11678701
2	0x3cf58114	0.029968776
3	0xbe3e9bcb	-0.18614118
4	0x3d6ad64b	0.057333272
5	0xbe53b7ed	-0.20675631
6	0xbe29609e	-0.16540763
7	0xbd8cf899	-0.06883354
8	0x3d9b8ba0	0.07594991
9	0x3e88e150	0.267344
10	0xbe31b7d7	-0.17355286
11	0xbddcb3c1	-0.10776473
12	0xbaaacf2c	-0.0013031713
13	0x3db300ea	0.08740409
14	0x3e23dbde	0.16001841
15	0xbcd3a59f	-0.02583581
16	0x3d69f25b	0.057115894
17	0xbd082c82	-0.03324557
18	0x3c332797	0.010934732
19	0xbe304744	-0.17214686
20	0x3b020b8b	0.0019843306
21	0xbdf347a8	-0.11878902
22	0x3e0b8910	0.13626504
23	0xbdb72172	-0.08941926
24	0x3e579ceb	0.21055953
25	0x3cb2e3c5	0.021837125
26	0xb9589d24	-0.00020657905
27	0xbcd01ea7	-0.025405241
28	0x3c9dcdc3	0.019263154
29	0xbdcc966e	-0.0998963
30	0x3cd85e6e	0.026412215
31	0x3e24e031	0.16101147
32	0xbd8db57c	-0.06919381
33	0x3db77149	0.08957154
34	0x3e5200cc	0.20508116
35	0xbdae8808	-0.0852204
36	0x3d81d26f	0.06338965
37	0x3d8a9c25	0.067680635
38	0xbd4291ff	-0.047502514
39	0xbc3e6821	-0.011621506
40	0x3dcb6941	0.09932185
41	0x3b9a6faf	0.0047130208
42	0xbda8ee29	-0.082485504
43	0x3ce2fe27	0.02770908
44	0xbdff81e2	-0.12475945
45	0x3ccea827	0.025226666
46	0x3d85327f	0.06503772
47	0x3d9ad1c0	0.07559538
48	0x3d9bd275	0.07608501
49	0xbe25de3e	-0.1619806
50	0x3e10a2db	0.14124624
51	0x3e123eb6	0.14281735
52	0x2116b73e	5.1064496e-19
53	0x3d300875	0.042976815
54	0xbcab916b	-0.020943364
55	0x3e28d983	0.16489224
56	0xbe1d4f39	-0.15362252
57	0x3e641f5a	0.22277585
58	0x3dcf5bf5	0.10124961
59	0xbe1d2182	-0.15344813
60	0xbe228482	-0.1587086
61	0xbd6287a3	-0.055305135
62	0xbd942b7b	-0.07234856
63	0x3e01d8a3	0.12680297
64	0x3e4ec63f	0.20192812
65	0x3c9d8888	0.019230142
66	0xa1198567	-5.2014973e-19
67	0x399cca24	0.00029905245
68	0xbe4e0ae6	-0.20121345
69	0x3e603f99	0.2189926
70	0x3dc0fcf2	0.094232455
71	0x3e1a0a1a	0.15042916
72	0xbc0e0a14	-0.008669395
73	0xbd68959e	-0.05678331
74	0x3dcf08d4	0.10109106
75	0x3c22c188	0.009933837
76	0x3d342657	0.043981876
77	0xbd0cd391	-0.034381453
78	0x3dbbfee6	0.091794774
79	0x3e1989dc	0.14993995
80	0x3d77baac	0.06048076
81	0xbe304472	-0.1721361
82	0xbdd53d63	-0.10412099
83	0x3cb5927c	0.022164576
84	0xbd8370d8	-0.064180076
85	0x3e37a78a	0.17935005
86	0x3e6418b0	0.22275043
87	0xbe37657d	-0.17909808
88	0xbdbfc1e8	-0.093631566
89	0x3a520d76	0.000801287
90	0xbe4eaf6f	-0.2018411
91	0x3e29638c	0.1654188
92	0xbe39e63d	-0.18154235
93	0xbe2f4905	-0.17117698
94	0xbe33a080	-0.17541695
95	0x3d9c68d2	0.076371804
96	0xbc01891e	-0.007906226
97	0xbd981cd9	-0.07427377
98	0xbcb87468	-0.022516444
99	0x3d4d2b96	0.050090395
100	0x3d4d2445	0.050083417
101	0x3e378066	0.17920074
102	0xbcaccea6	-0.021094631
103	0xbe39a0ec	-0.18127793
104	0xbd2af688	-0.041739017
105	0xbdc5be47	-0.09655433
106	0xbcbc3904	-0.022976406
107	0x3e04691f	0.12930726
108	0xbcf66f1f	-0.030082284
109	0xbe13ee2e	-0.14446327
110	0xba0b52bd	-0.0005314758
111	0x3e1e8d9e	0.1548371
112	0xbe10df6d	-0.1414773
113	0xbd01f8ac	-0.031731293
114	0xbe468a05	-0.19388588
115	0xbe5bf0e6	-0.21478614
116	0x3d9a41d7	0.07532089
117	0x3dd7c769	0.10536081
118	0xbddda6c7	-0.10822826
119	0x3d9d1d84	0.07671645
120	0x3dccbb81	0.09996701
121	0xbc9626c8	-0.01832904
122	0x3d9926e2	0.074781194
123	0xbdf2b99b	-0.11851808
124	0x3dc45018	0.09585589
125	0xbdbd80d4	-0.09253088
126	0x3e216725	0.15762003
127	0x3d89c981	0.06727887
128	0x3e4ffdc3	0.20311646
129	0xbe1e2270	-0.15442824
130	0xbcecf49e	-0.028925236
131	0x3e335380	0.17512321
132	0xbbfe3c8c	-0.0077586826
133	0x3dd94397	0.10608595
134	0xbe1695c8	-0.14705575
135	0xbe44a32d	-0.19202872
136	0x3b562436	0.0032675392
137	0xbe2c0372	-0.1679819
138	0x3e192ac0	0.14957714
139	0x3de3aafc	0.11116597
140	0x3e2db648	0.16964066
141	0xbdad3c1b	-0.0845873
142	0xbe1dd0f7	-0.15411745
143	0xbdf093c8	-0.11746937
144	0xbe5d5847	-0.21615706
145	0x3dc35868	0.095383465
146	0xbe5bfcc6	-0.21483144
147	0xbe079989	-0.13242163
148	0x3e20788a	0.15670982
149	0x3e3bbea8	0.18334448
150	0xbe149f3b	-0.14513867
151	0x3cc44c60	0.0239622
152	0x3dabc2a7	0.08386736
153	0x3e36344d	0.17793389
154	0xb90026c5	-0.00012221474
155	0xbe07d7bf	-0.13265894
156	0xbc8d01c1	-0.01721275
157	0x20cacff8	3.4357753e-19
158	0xbd445815	-0.047935564
159	0x3d8d8941	0.06910945
160	0xbdc2ba95	-0.09508244
161	0xbd687f9f	-0.056762334
162	0xbe49ea4b	-0.19718282
163	0xbddd4c3a	-0.10805555
164	0x3c4fcda8	0.01268331
165	0x3e20345d	0.15644975
166	0xbe12ee9d	-0.14348836
167	0x3dc47bf6	0.09593956
168	0xbd0768eb	-0.033059042
169	0x3d98d970	0.07463348
170	0x3e020035	0.12695391
171	0x3d965300	0.0734005
172	0xbd787bab	-0.060664814
173	0xbd57579e	-0.052573793
174	0xbd8d01af	-0.06885087
175	0xbde5e080	-0.112244606
176	0x3d99adaa	0.07503827
177	0xbd8a45f9	-0.067516275
178	0xbe09b57b	-0.13448136
179	0xbe2f6005	-0.17126472
180	0x3d9ae0ca	0.07562406
181	0x3cbc2192	0.022965226
182	0xbe001e34	-0.12511522
183	0xbd8eea59	-0.06978292
184	0x3e565ce2	0.2093387
185	0xbdff6c9d	-0.12471888
186	0xbdaa2330	-0.08307493
187	0xbe00d70b	-0.12582032
188	0xbe2f06e1	-0.17092468
189	0x3d969ac3	0.07353737
190	0x3e0c76e5	0.1371723
191	0xbd68b6eb	-0.05681507
192	0xbdc78a8f	-0.09743225
193	0x3e6c104c	0.23053092
194	0xbc0c3b64	-0.008559082
195	0xbd16ac5d	-0.036785472
196	0xbe254644	-0.16140085
197	0xbe137538	-0.14400184
198	0xbd57359d	-0.052541364
199	0x3df642ec	0.12024483
200	0xbbb027d0	-0.00537584
201	0xbcee0ad0	-0.02905789
202	0xbd0dd54e	-0.03462725
203	0xbdf51e73	-0.11968698
204	0xbc154360	-0.009110302
205	0xbe42599a	-0.18979493
206	0xbdccccd8	-0.10000008
207	0x3d3e5f82	0.046477802
208	0xbe30f42b	-0.17280643
209	0xbe48752c	-0.19575948
210	0xbe4c50d5	-0.1995271
211	0x3e3325cf	0.17494892
212	0x3e09f2d9	0.13471545
213	0x3d25ad44	0.040448442
214	0x3de9c4ac	0.11414465
215	0xbcc3f968	-0.023922637
216	0xbe2af44e	-0.16694757
217	0xbd6066d2	-0.054785557
218	0x3dea9d1e	0.11455749
219	0x3dd07874	0.101792246
220	0x3c5d714c	0.013515782
221	0x3e1b6c08	0.1517793
222	0x3d483b9c	0.048884973
223	0x3d59c19c	0.053163156
224	0x3dbb7a99	0.09154243
225	0x3e45a048	0.19299424
226	0xbd33356a	-0.04375211
227	0x3d8af4d9	0.06784982
228	0x3d82f22c	0.06393847
229	0x3c269169	0.010166504
230	0x3e0bd312	0.13654736
231	0x3cba8924	0.022770472
232	0xbe4620ad	-0.19348402
233	0x3d4d8d14	0.05018337
234	0x3d18d3a6	0.03731122
235	0xbe37cf05	-0.17950065
236	0x3baa2270	0.0051920936
237	0x3cfdee7e	0.030997511
238	0x3e459723	0.19295935
239	0x3d20e7c5	0.039283533
240	0x3e165132	0.14679411
241	0x3dbfb4bb	0.093606435
242	0x3cd4d0b4	0.025978424
243	0x3dcdf280	0.10056019
244	0x3de672b5	0.112523474
245	0x3dfd7c96	0.123772785
246	0x3d05829d	0.032595266
247	0x3e27ed56	0.1639913
248	0x3d9b1c8e	0.07573806
249	0xbe0281e2	-0.12744859
250	0x3e3f8397	0.18702541
251	0xbe45ff70	-0.19335723
252	0x3d72d3e9	0.059284125
253	0x3c9ce529	0.01915224
254	0x3bd441cd	0.0064775706
255	0x3c50b8ce	0.012739373

l1.weight f4 [256, 256]
0	0x3d200a78	0.039072484
1	0xbd295278	-0.041338414
2	0xbdb0fec4	-0.08642343
3	0x3cef2260	0.029191196
4	0xbd8e0ed8	-0.06936425
5	0xbcbfe70f	-0.023425607
6	0x3cb9267a	0.022601355
7	0xbe05ee45	-0.13079174
8	0xbd4fd6fe	-0.050742142
9	0xbdc34082	-0.09533788
10	0x3d857fc6	0.065185115
11	0x3a7559a9	0.00093593687
12	0x3d62211b	0.055207353
13	0xbdd5c402	-0.10437776
14	0x3d3a68b5	0.045510013
15	0xbdb3041d	-0.08741019
16	0x3d21759d	0.039418805
17	0x3d3252ab	0.04353587
18	0xbd4b52cb	-0.049639504
19	0x3d586580	0.052831173
20	0x3dda613b	0.106630765
21	0x3d9eebbd	0.07759807
22	0x3d090906	0.03345587
23	0xbd81c311	-0.06336034
24	0x3d4c5ada	0.04989133
25	0x3dbff3a0	0.0937264
26	0x3dfb2388	0.122626364
27	0xbdb47e50	-0.08813155
28	0xbcddf50c	-0.027094387
29	0x3d14c7f5	0.036323506
30	0x3ba0494d	0.0048915506
31	0x3dcb813a	0.099367574
32	0x3d3f49e3	0.046701323
33	0xbdb04ac0	-0.086080074
34	0x3da089ad	0.078387596
35	0xbc276f8e	-0.010219468
36	0xbd88e659	-0.0668456
37	0x3df44825	0.11927823
38	0x3dfb772a	0.12278588
39	0x3e08bd0b	0.13353364
40	0xbd531162	-0.05153025
41	0xbdd91884	-0.10600379
42	0xbda7225a	-0.08160849
43	0xbd447d5a	-0.047971107
44	0xbdd92f6b	-0.106047474
45	0x3ba7654f	0.0051085125
46	0xbcaae5c6	-0.020861518
47	0x3ca010bc	0.01953923
48	0xbd8b225a	-0.067936614
49	0x3dcfad30	0.10140455
50	0xbc2052b8	-0.009785347
51	0xbb75f32e	-0.003752898
52	0x3c809c30	0.015699476
53	0xbdad1f03	-0.08453181
54	0x3c584f8d	0.01320256
55	0xbd45234d	-0.04812937
56	0x3e1b1e15	0.15148194
57	0x3d0e4c4d	0.034740735
58	0xbe118acb	-0.14213102
59	0x3e025345	0.12727077
60	0xbde7e07f	-0.11322116
61	0xbdcde4c2	-0.10053398
62	0xbbb3a940	-0.0054828227
63	0x3ddd3398	0.10800856
64	0x3d439a57	0.04775461
65	0x3c20b10c	0.009807836
66	0xbdae06f1	-0.08497418
67	0x3e05cf73	0.13067417
68	0x3d862f74	0.0655202
69	0x3c39a36b	0.011330466
70	0xbca80678	-0.020510897
71	0x3defad86	0.11703019
72	0x3c90bff0	0.017669648
73	0xbd1619d5	-0.03664573
74	0x3bccdbd2	0.0062517906
75	0x3ca06544	0.019579537
76	0x3d343ef1	0.044005338
77	0x3de71ef7	0.11285203
78	0xbc425be2	-0.011862727
79	0x3d9d7fe8	0.07690412
80	0xbe08a8eb	-0.13345687
81	0x3d934ba4	0.07192162
82	0xbcfc9ef6	-0.030837517
83	0x3c076196	0.008263012
84	0xbdedbd8c	-0.11608419
85	0x3d871403	0.06595614
86	0x3d84a0d8	0.06475991
87	0xbcaa5bb7	-0.020795686
88	0x3d6b2797	0.057410803
89	0xbcca3c9f	-0.02468711
90	0xbddccfa3	-0.10781791
91	0xbd2eba0d	-0.0426579
92	0xbbfa9c61	-0.0076480363
93	0xbcbf73e2	-0.023370687
94	0xbcaaf375	-0.020868042
95	0xbd1e051e	-0.0385791
96	0x3cbca2a5	0.023026774
97	0xbdbdf3b9	-0.09275002
98	0xbb9bdcf3	-0.004756564
99	0xbdb80069	-0.08984453
100	0x3dbf0bb2	0.093284026
101	0xbe02a706	-0.12759027
102	0xbdba72e9	-0.091039486
103	0xbe040926	-0.12894115
104	0x3db1b9b6	0.08678
105	0xbc896aad	-0.0167745
106	0xbd56bc2d	-0.052425552
107	0x3de22555	0.11042277
108	0x3da24d93	0.07924952
109	0xbe06ba45	-0.13156994
110	0xba8ce2f6	-0.0010748792
111	0x3c9bb219	0.019005822
112	0x3e0c0973	0.1367548
113	0x3e1287b5	0.1430958
114	0x3dd5a8b1	0.10432566
115	0x3db29a7b	0.08720871
116	0xbe076802	-0.1322327
117	0x3c90a8ac	0.017658554
118	0xbbbd9038	-0.0057850145
119	0x3b87499b	0.0041286475
120	0xbc8c96a3	-0.017161673
121	0x3dac4bc4	0.08412889
122	0x3db4f458	0.08835667
123	0x3c058d52	0.008151369
124	0x3b3afc1b	0.0028531614
125	0x3df496f0	0.119428515
126	0x3cab1eb1	0.020888658
127	0xbda646e8	-0.08118993
128	0x3db68350	0.089117646
129	0x3c6d6a5a	0.014490688
130	0x3dfd54b6	0.12369673
131	0x3c2e2040	0.010627806
132	0x3dfa7259	0.12228841
133	0x3ddb4899	0.10707206
134	0x3c83957f	0.016062496
135	0xbc87890d	-0.016544843
136	0xbd753b8b	-0.059871238
137	0x3db1aa33	0.08675041
138	0x3d73cb4e	0.05952006
139	0xbdabae47	-0.0838285
140	0xbc3eae0c	-0.011638176
141	0x3d88402f	0.06652867
142	0x3b301042	0.002686516
143	0xbb8b9699	-0.004259896
144	0xbc998e9b	-0.018744757
145	0xbca0b822	-0.019619051
146	0xbc56caf1	-0.013109908
147	0x3d233c17	0.039852228
148	0xbcffc71c	-0.031222872
149	0xbd3699bd	-0.04458021
150	0x3ca11fa0	0.0196684
151	0x3dbc5c25	0.09197263
152	0xbe03f1c9	-0.12885202
153	0xbde55126	-0.111971185
154	0x3d4e27ba	0.050330855
155	0xbe096fc7	-0.13421546
156	0x3e0faa9b	0.14029925
157	0xbe03273b	-0.12807934
158	0x3d8993cf	0.067176454
159	0xbb9b0696	-0.0047310097
160	0x3c421342	0.011845412
161	0xbdfb5e52	-0.122738495
162	0xbcc6a80b	-0.024250051
163	0xbdb0c356	-0.086310074
164	0xbc3c0f5d	-0.011478272
165	0x3e2cd883	0.16879468
166	0xbcf3f83a	-0.02978145
167	0xbd1f23f1	-0.038852636
168	0x3c5bccfd	0.013415572
169	0x3d874c80	0.06606388
170	0xbd0e1579	-0.034688447
171	0x3dea6d51	0.11446632
172	0xbceee4c1	-0.029161813
173	0xbbf6e7b4	-0.0075349454
174	0xbe09603b	-0.13415615
175	0x3c039144	0.0080302395
176	0xbde245c5	-0.11048464
177	0x3d6822cb	0.056673806
178	0xbccac992	-0.02475432
179	0x3ce6faad	0.028195703
180	0x3c9d350f	0.01919034
181	0xbe0609e1	-0.13089706
182	0xbcdf7004	-0.027275093
183	0x3de9d551	0.1141764
184	0xbdb27cb8	-0.087151945
185	0xbd28753c	-0.04112743
186	0xbdeb67a8	-0.1149438
187	0x3dda8444	0.10669759
188	0xbdbd1556	-0.09232585
189	0xbdb8a843	-0.090164684
190	0x3dd665cb	0.10468634
191	0xbcb476ac	-0.022029243
192	0x3df3e1d7	0.1190831
193	0xbd5770b0	-0.0525977
194	0x3dc93cfa	0.098260835
195	0xbcf8b8af	-0.030361502
196	0x3d40f36b	0.04710714
197	0x3d45024b	0.04809789
198	0xbdebff7d	-0.1152334
199	0xbdfc3a1a	-0.123157695
200	0x3c607bab	0.01370136
201	0x3df8a523	0.12140872
202	0x3c1257ae	0.008932037
203	0x3d882d32	0.06649245
204	0x3e0eb944	0.1393786
205	0xbdeef76f	-0.11668288
206	0xbceb362b	-0.028712353
207	0x3d44580c	0.04793553
208	0x3d47ac73	0.048748445
209	0xbd9af440	-0.07566118
210	0xbda76339	-0.08173222
211	0xbd07267f	-0.032995697
212	0xbd247023	-0.040146004
213	0x3dc14cb1	0.09438456
214	0x3d9fb86a	0.07798846
215	0xbbbc0ca5	-0.005738812
216	0x3dbcd8b1	0.09221018
217	0xbd45e6cb	-0.048315804
218	0x3dda91f7	0.10672372
219	0xbd90b7a3	-0.07066276
220	0x3daa4e69	0.08315737
221	0x3d9126dc	0.0708749
222	0xbbb02b95	-0.005376289
223	0xbd9fc66c	-0.07801518
224	0xbc8e0514	-0.017336406
225	0xbbde54e8	-0.006785024
226	0xbc822fab	-0.01589187
227	0x3c54c2db	0.01298591
228	0x3d794b79	0.060862992
229	0x3dc4d0bb	0.09610125
230	0x3d053139	0.032517646
231	0xbd0acaff	-0.033885
232	0xbd952d9a	-0.072840884
233	0x3d4c99ff	0.04995155
234	0xbd921989	-0.07133777
235	0x3bcde9be	0.0062839678
236	0xbdacbb4f	-0.08434164
237	0x3db89406	0.09012608
238	0xbd992a9c	-0.0747883
239	0xbdcc4cd7	-0.099755935
240	0xbdbebbdc	-0.09313175
241	0xbc73185c	-0.014837351
242	0xbd3d08dc	-0.046151027
243	0xbc4453d2	-0.011982875
244	0x3d862975	0.06550876
245	0xbd244da2	-0.0401131
246	0x3d90ba5f	0.070667975
247	0xbd8a6826	-0.06758146
248	0x3df681de	0.12036489
249	0xbdb1b0d9	-0.08676309
250	0xbd3e007e	-0.046387188
251	0xbc4eb784	-0.012616996
252	0xbd2da2c7	-0.042391565
253	0x3d36051a	0.04443846
254	0x3da453ff	0.080238335
255	0xbdbea144	-0.09308103

l1.bias f4 [256]
0	0x3dcb2d03	0.09920695
1	0x3da8c8f3	0.08241453
2	0x3d3f325f	0.046678897
3	0x3d0ad592	0.033895083
4	0x3dea2b63	0.114340566
5	0x3d96593e	0.0734124
6	0x3ddd97b2	0.10819949
7	0x3d641b1f	0.055689927
8	0x3aec6a63	0.0018037077
9	0x3dac24e2	0.08405472
10	0x3daf7326	0.08566885
11	0x3da8d5c6	0.08243899
12	0x3c95c739	0.018283473
13	0x3dd41d36	0.10357134
14	0x3dbe22ff	0.09284019
15	0x3d782b1a	0.06058798
16	0x3dae14d1	0.08500064
17	0x3dc4a50d	0.096017934
18	0x3da3b397	0.079932384
19	0x3db878de	0.090074286
20	0x3dcb64f7	0.09931367
21	0x3d892678	0.066967905
22	0x3da62f26	0.081144616
23	0x3dd30458	0.10303563
24	0x3db255e2	0.08707787
25	0x3de4a436	0.11164133
26	0x3dc4d62e	0.09611164
27	0x3dceaaf2	0.10091199
28	0x3db253f8	0.08707422
29	0x3db055ea	0.08610137
30	0x3df6f564	0.12058523
31	0x3d02e6ff	0.031958576
32	0x3d2daf55	0.042403538
33	0x3d9a1e30	0.07525289
34	0x3d784b17	0.060618486
35	0x3c8d1c28	0.01722534
36	0x3d825a59	0.06364889
37	0x3d9093aa	0.07059415
38	0x3d9cf768	0.076643765
39	0x3d855e75	0.06512157
40	0x3cfe2470	0.031023234
41	0x3db544d0	0.088510156
42	0x3d8f7c73	0.07006159
43	0x3db6c558	0.08924359
44	0x3d1b5e7e	0.03793191
45	0x3e0bf084	0.13665968
46	0x3d92e0e2	0.07171799
47	0x3d8cec76	0.06881039
48	0x3d8ab77d	0.06773279
49	0x3db36da8	0.0876115
50	0x3d8c3c0f	0.06847393
51	0x3de04197	0.1095001
52	0x3de8b535	0.113626875
53	0x3dc67afc	0.09691426
54	0x3da0ddd3	0.078548096
55	0x3de77af2	0.11302747
56	0x3d713802	0.058891304
57	0x3dee7b34	0.11644593
58	0x3dd62710	0.10456669
59	0x3d88815e	0.066653
60	0x3de7b5c2	0.113139644
61	0x3cfc7c4c	0.030820988
62	0x3dd524d6	0.104074165
63	0x3d65f8e4	0.056145564
64	0x3e082733	0.13296203
65	0x3d95989d	0.07304499
66	0x3d1ba58b	0.03799967
67	0x3b64c94a	0.0034910017
68	0x3de81f7c	0.1133413
69	0x3d8062b4	0.06268826
70	0x3d8b0044	0.0678716
71	0x3d8abc8b	0.06774243
72	0x3dd12b71	0.10213364
73	0x3d953c82	0.072869316
74	0x3d937d65	0.072016515
75	0x3dd78433	0.10523262
76	0x3de17526	0.110086724
77	0x3da17d26	0.07885198
78	0x3c4820af	0.012214824
79	0x3dc6c9b5	0.09706441
80	0x3da2d8e6	0.07951526
81	0x3d8f86b2	0.07008113
82	0x3d9e45b4	0.077281386
83	0x3dec3056	0.11532657
84	0x3c3bdf42	0.011466803
85	0x3dc6f4c0	0.09714651
86	0x3dedb064	0.116059095
87	0x3d73f2db	0.059557777
88	0x3d53adee	0.051679544
89	0x3d89c0bd	0.06726215
90	0x3cbad896	0.022808354
91	0x3de26b7a	0.11055656
92	0x3c692134	0.014229108
93	0x3da08def	0.07839572
94	0x3d834da7	0.064112954
95	0x3dbc40ea	0.09192069
96	0x3d7b4066	0.061340712
97	0x3dac64b2	0.084176436
98	0x3d825fc4	0.06365922
99	0x3da8de55	0.082455315
100	0x3dafb8ef	0.08580195
101	0x3d5dc452	0.054142304
102	0x3da46701	0.08027459
103	0x3d9e9c49	0.07744653
104	0x3bfaea02	0.0076572904
105	0x3de88f42	0.11355449
106	0x3b3bdeaa	0.0028666654
107	0x3de7b6e3	0.1131418
108	0x3a473f30	0.0007600663
109	0x3d8e2388	0.06940371
110	0x3caa7bbe	0.020810958
111	0x3dbfa905	0.0935841
112	0x3d9de88d	0.07710371
113	0x3de3e050	0.111267686
114	0x3dae721e	0.0851786
115	0x3d521309	0.051287685
116	0x3d9d74f8	0.07688326
117	0x3db324c5	0.087472476
118	0x3d85135d	0.06497834
119	0x3d5a3883	0.05327655
120	0x3dde063c	0.10841033
121	0x3bad81df	0.005295023
122	0x3deb52ec	0.114904255
123	0x3dee44f2	0.11634244
124	0x3bdd52aa	0.006754239
125	0x3d25efc7	0.040511873
126	0x3d87d58a	0.06632526
127	0x3dbddf64	0.09271124
128	0x3d9fc460	0.078011274
129	0x3d8378bf	0.06419515
130	0x3db3de66	0.087826535
131	0x3d9fcb20	0.07802415
132	0x3dc75d6b	0.09734615
133	0x3dfdf17e	0.123995766
134	0x3d16a3e5	0.036777396
135	0x3dc3209d	0.09527705
136	0x3de04380	0.109503746
137	0x3d42391d	0.04741775
138	0x3d8ce227	0.06879073
139	0x3d7483e2	0.059696086
140	0x3dd1fd6a	0.10253413
141	0x3d91c49a	0.07117577
142	0x3c59549a	0.0132647995
143	0x3d6a23ef	0.057163175
144	0x3da1f322	0.07907702
145	0x3dc59280	0.09647083
146	0x3da8703d	0.08224533
147	0x3d789847	0.060692098
148	0x3dd3232c	0.10309443
149	0x3cb8368b	0.022486946
150	0x3dac01fb	0.08398815
151	0x3dc474d8	0.09592599
152	0x3dc901b5	0.09814779
153	0x3dee8e51	0.116482385
154	0x3d7a47fe	0.061103813
155	0x3d73b030	0.059494197
156	0x3b5da949	0.0033822826
157	0x3c5833d2	0.013195949
158	0x3df57570	0.1198529
159	0x3cae09ba	0.021244872
160	0x3d8c7008	0.06857306
161	0x3dbf4be1	0.09340645
162	0x3dee8038	0.116455495
163	0x3de16b25	0.11006764
164	0x3d51b18b	0.05119471
165	0x3df43fac	0.11926207
166	0x3d87e296	0.06635015
167	0x3b546a33	0.0032411932
168	0x392dbb01	0.0001656823
169	0x3dcdd5e8	0.10050565
170	0x3da481b7	0.08032554
171	0x3daa05d7	0.08301895
172	0x3e16fd36	0.1474503
173	0x3c50dd2d	0.012748045
174	0x3d84f6e5	0.06492404
175	0x3db38381	0.08765317
176	0x3d82796b	0.06370815
177	0x3da715c8	0.08158451
178	0x3b4e86be	0.0031513418
179	0x3d62656c	0.055272505
180	0x3d9145c3	0.07093384
181	0x3d15550e	0.036458068
182	0x3dc13a96	0.094350025
183	0x3d9bf42c	0.076149315
184	0x3dc1b922	0.094591394
185	0x3d887469	0.066628285
186	0x3d86f5af	0.06589829
187	0x3db25cc4	0.087091
188	0x3cfa3b3d	0.030545825
189	0x3ddb1498	0.10697287
190	0x3d4133f7	0.0471687
191	0x3dab2e10	0.08358395
192	0x3df601d4	0.120120674
193	0x3ddba4e3	0.10724809
194	0x3db842b7	0.089971
195	0x3db026c4	0.08601144
196	0x3d906065	0.07049636
197	0x3d76f4bb	0.060291987
198	0x3cef80cc	0.02923622
199	0x3d9ab54a	0.075541094
200	0x3c4158a9	0.011800923
201	0x3c91be7d	0.017791027
202	0x3dbaa64c	0.0911375
203	0x3c364358	0.011124454
204	0x39d15ec4	0.00039934192
205	0x3de74b2c	0.11293635
206	0x3d921c8d	0.07134352
207	0x3dd5f794	0.104476124
208	0x3daf79a6	0.085681245
209	0x3db056d7	0.086103134
210	0x3d4a4c63	0.049389254
211	0x3bac46b1	0.0052574505
212	0x3da65d21	0.08123232
213	0x3da2fe62	0.07958676
214	0x3d92e6cc	0.07172927
215	0x3d92d78d	0.07170019
216	0x3dc0bd86	0.09411149
217	0x3dc76b98	0.09737319
218	0x3dbb5b5a	0.09148283
219	0x3dae705e	0.08517526
220	0x3d8138f0	0.06309688
221	0x3dcde7c7	0.10053974
222	0x3db47c17	0.08812731
223	0x3d917bba	0.07103677
224	0x3d7abcab	0.061215084
225	0x3d7618f8	0.060082406
226	0x3d76e4aa	0.060276665
227	0x3e0157b9	0.1263112
228	0x3db7977a	0.08964439
229	0x3dd9374b	0.106062494
230	0x3c0bd284	0.008534078
231	0x3de7eadf	0.11324095
232	0x3d12d4e1	0.03584755
233	0x3d9011ef	0.070346706
234	0x3dd9b13a	0.106295064
235	0x3dc210de	0.094758734
236	0x3d4111c8	0.0471361
237	0x3e068593	0.13136892
238	0x3d9b5aa3	0.07585647
239	0x3cf8f5ae	0.030390587
240	0x3d4f21de	0.050569408
241	0x3d897329	0.06711418
242	0x3d81ffd7	0.06347626
243	0x3dcdc1e1	0.10046745
244	0x3dab8614	0.08375183
245	0x3dbdff0d	0.09277163
246	0x3dbe5807	0.09294134
247	0x3db62d09	0.088953085
248	0x3dc79c4d	0.09746609
249	0x3dd1a202	0.10235979
250	0x3dcfccc2	0.10146476
251	0x3dbc29e2	0.09187676
252	0x3d731784	0.059348598
253	0x3dafb65d	0.08579705
254	0x3ceec475	0.029146412
255	0x3d9720f8	0.07379335

l2.weight f4 [256, 256]
0	0x3d304ddc	0.043043002
1	0x3dc3b304	0.09555629
2	0x3bc6b4e3	0.006064044
3	0xbac26aa1	-0.0014832803
4	0x3d8bed0a	0.06832321
5	0x3cf8bb17	0.030362649
6	0x3e3abe86	0.18236741
7	0xbd2152e4	-0.03938569
8	0xb9626631	-0.00021591109
9	0x3bd22784	0.006413402
10	0x3c135b29	0.008993902
11	0xbd33e08b	-0.043915313
12	0x3c74c251	0.014938907
13	0xbca69c87	-0.02033831
14	0xbd46d27b	-0.048540574
15	0xbda56de3	-0.080776
16	0xbdc5bc24	-0.096550256
17	0xbdbc9c87	-0.09209543
18	0x3d2b275d	0.041785587
19	0x3cbfef7f	0.02342963
20	0x3e08c4c1	0.13356306
21	0x3c17b05c	0.009258356
22	0x3d252462	0.0403179
23	0x3d989160	0.07449603
24	0x3c85ea66	0.016347121
25	0xbcb213ea	-0.021738011
26	0x3d47fa5d	0.04882275
27	0xbc3c5720	-0.011495382
28	0xbdba69e2	-0.09102227
29	0xbd66d7df	-0.056358214
30	0x3dc8de84	0.098080665
31	0x3c09b857	0.008405766
32	0x3c340290	0.010986939
33	0xbd508c67	-0.050915148
34	0x3cde9bfd	0.02717399
35	0x3ad40f63	0.0016178902
36	0x3d966209	0.073429175
37	0x3cb0d257	0.021584673
38	0x3d7a8378	0.061160535
39	0x3d34b802	0.044120796
40	0xbbcc4a99	-0.0062344787
41	0x3dc603db	0.09668704
42	0x3e09742f	0.13423227
43	0xbd372ae1	-0.044718627
44	0xbcc62f8c	-0.024192594
45	0x3dab52ba	0.08365388
46	0x3d9900e8	0.07470876
47	0x3da88d1d	0.0823004
48	0xbbd13549	-0.006384526
49	0x3d1cc624	0.0382749
50	0x3e02a611	0.12758662
51	0xbd849882	-0.06474401
52	0xbda376c1	-0.07981635
53	0xbdf582ec	-0.11987862
54	0xbd2bc786	-0.041938327
55	0xbdac2403	-0.08405306
56	0xbccf7e9a	-0.025328923
57	0x3e18f6f4	0.14937955
58	0x3d980525	0.07422856
59	0x3dfa46c7	0.12220531
60	0xbd0ff04a	-0.035141267
61	0x3ba35a92	0.004985162
62	0x3d960945	0.07325987
63	0x3d62b08c	0.05534415
64	0xbdb43b70	-0.08800399
65	0xbd14be2f	-0.036314186
66	0x3cd9b36f	0.026574818
67	0x3b1899b2	0.002328497
68	0xbe202c0f	-0.15641807
69	0xbdb02b63	-0.08602025
70	0x3d485d3f	0.04891705
71	0x3daf9b07	0.08574491
72	0xbde16c0b	-0.11006936
73	0x3d92e2eb	0.071721874
74	0xbce06f8b	-0.027396938
75	0x3d082d04	0.033246055
76	0x3d7fe6a9	0.062475834
77	0x3d5964d7	0.053074684
78	0x3c482b25	0.012217318
79	0x3c9f29dc	0.01942914
80	0x3e0326c5	0.12807758
81	0x3dee4256	0.11633746
82	0xbcd08791	-0.025455268
83	0x3ddb44af	0.1070646
84	0xbb802519	-0.0039106724
85	0xbc75f4eb	-0.015012006
86	0xbd730a2b	-0.05933587
87	0xbda55fbb	-0.080749
88	0x3bc19a9e	0.0059083244
89	0x3dd12fca	0.10214193
90	0x3c84d8ba	0.016216625
91	0x3d5b1f37	0.053496566
92	0x3c199179	0.009373062
93	0x3a75dc73	0.0009378858
94	0x3dcd8502	0.10035135
95	0x3d6d4d8b	0.05793528
96	0xbcfa1cd8	-0.030531332
97	0xbcca9d14	-0.024733104
98	0xbd60e7ff	-0.05490875
99	0x3bdecb20	0.0067991167
100	0x3cac1da8	0.021010235
101	0x3dd39212	0.10330595
102	0x3d8402be	0.064458355
103	0xbcb94e73	-0.022620415
104	0x3ba8b045	0.005147966
105	0x3c519514	0.012791891
106	0xbad3e2c3	-0.0016165603
107	0x3dc97613	0.09836974
108	0x3a0e1ffe	0.00054216373
109	0x3d9f4647	0.07777076
110	0x3bfdc700	0.00774467
111	0xbe1d5cc4	-0.15367419
112	0xbbb0f410	-0.0054001883
113	0x3e07da7f	0.13266943
114	0x3d792fb5	0.060836513
115	0xbd49a099	-0.049225423
116	0x3c1a97d0	0.009435609
117	0xbd8926d9	-0.06696863
118	0xbdabb7c3	-0.08384659
119	0x3d65efb3	0.056136798
120	0x3d715c38	0.058925837
121	0x3a395c5a	0.00070709514
122	0x3de5719f	0.11203312
123	0xbd56e90d	-0.05246835
124	0xba88a014	-0.0010423684
125	0x3b94c1ac	0.004539689
126	0x3dfcfd28	0.12352973
127	0xbd4452de	-0.04793059
128	0x3bc5c2e9	0.006035198
129	0x3cc887c4	0.0244788
130	0x3d6d6835	0.057960708
131	0x3d2c8182	0.042115696
132	0x3df72a0a	0.12068565
133	0x3dc15754	0.09440485
134	0x3d81d9a8	0.06340343
135	0x3d7be825	0.061500687
136	0x3ce45857	0.027874155
137	0x3ca5d78e	0.020244386
138	0x3dc85ff7	0.09783929
139	0x3de86d7c	0.113490075
140	0xbd9495c6	-0.072551295
141	0x3de50ff6	0.11184685
142	0x3b271b33	0.002549839
143	0x3d03e9ab	0.032205265
144	0xbba339f7	-0.004981275
145	0xbce166cd	-0.02751484
146	0xbcbb06a2	-0.022830311
147	0x3d5db0fa	0.054123856
148	0xbd749c19	-0.05971918
149	0xbbb1dccd	-0.005427933
150	0xbe06439f	-0.13111733
151	0x3e04fe00	0.12987518
152	0x3e3d0cfa	0.18461981
153	0xbddc2444	-0.107491046
154	0xbd6ef713	-0.058341097
155	0x3d0de855	0.034645397
156	0x3b1354ad	0.002248089
157	0xbba1909c	-0.004930569
158	0x3da58be1	0.080833204
159	0x3ac01753	0.0014655389
160	0x3a9e0bfc	0.0012058015
161	0x3dcf08d7	0.10109108
162	0x3def179c	0.11674425
163	0x3d2a57c1	0.041587595
164	0x3db55e4c	0.08855876
165	0x3e42e730	0.19033504
166	0xbdbc1fcd	-0.09185753
167	0xbae50386	-0.0017472364
168	0xb883b40d	-6.280104e-05
169	0xbb8edbdb	-0.004359705
170	0xbcf507dd	-0.029910976
171	0xbc3f63aa	-0.011681477
172	0x3dde9f35	0.1087021
173	0xbbd89325	-0.006609338
174	0x3dabd073	0.08389368
175	0xbddeaa39	-0.10872311
176	0xbd0ee767	-0.03488865
177	0xbd813752	-0.0630938
178	0x3bc4cc9c	0.0060058367
179	0x3d9eac1f	0.07747673
180	0x3cd31270	0.025765628
181	0xbc5ff84a	-0.013670037
182	0x3d419410	0.047260344
183	0xbd0fba4e	-0.035089783
184	0xbd9c4feb	-0.07632431
185	0x3cd9c6d3	0.026584065
186	0x3d9a677f	0.075392716
187	0xbd9e998c	-0.077441305
188	0x3c31e812	0.0108585525
189	0x3dc0a84e	0.094071016
190	0x3c647a21	0.013945133
191	0xbd8eedbd	-0.06978939
192	0x3dd50bdc	0.104026526
193	0x3c84e5cd	0.016222859
194	0xbca5706e	-0.020195212
195	0xbd8bc042	-0.0682378
196	0x3da27676	0.07932751
197	0xbd0426da	-0.032263614
198	0x3c35e016	0.0111007895
199	0xbd1e8388	-0.038699657
200	0xb8f078ef	-0.000114666174
201	0x3cbdd4d1	0.023172768
202	0xb8c41a2b	-9.3508825e-05
203	0x3b888cea	0.004167189
204	0xb9730dc9	-0.00023179421
205	0x3cc3a476	0.023882132
206	0xbd8e12c7	-0.06937175
207	0x3dcb7624	0.09934643
208	0x3d51d3e6	0.051227473
209	0x3d149199	0.036271665
210	0x3b96e066	0.004604387
211	0x3989aa6b	0.00026257648
212	0x3d484ad9	0.048899505
213	0xbdc14fd2	-0.09439053
214	0x3e1415d3	0.1446145
215	0xbd8c096a	-0.06837733
216	0xbd1fb10c	-0.038987204
217	0xbb46abef	-0.0030314883
218	0xbdc3048a	-0.0952235
219	0xbd0be07d	-0.034149636
220	0xbcc7238d	-0.024308944
221	0xbb12e934	-0.0022416832
222	0xbd122d3b	-0.035687666
223	0xbba5c4fa	-0.005058882
224	0x3dcb1878	0.099167764
225	0xbd3309a4	-0.043710366
226	0xbc5a803f	-0.01333624
227	0x3debc012	0.11511244
228	0xbcad9918	-0.021191165
229	0xbda1602e	-0.07879673
230	0x3c326b96	0.010889908
231	0xbde87e02	-0.11352159
232	0x3d01f5e3	0.031728636
233	0xbd9fbf06	-0.07800107
234	0x3c24ab6e	0.010050638
235	0xbd01120b	-0.031511348
236	0x3c10a72f	0.008828922
237	0x3dec1225	0.11526898
238	0xbda0f2cf	-0.07858812
239	0xbc018953	-0.007906276
240	0xbd052967	-0.032510187
241	0x3bfa2989	0.007634346
242	0x3d3292df	0.0435971
243	0xbd7ab4a6	-0.061207436
244	0x3de8d2c9	0.11368329
245	0x3d9d8405	0.07691196
246	0x3c94cdf1	0.018164607
247	0x3d77c9ec	0.060495302
248	0x3d71b5b4	0.059011176
249	0xbd72a1bf	-0.059236284
250	0xbc2efaa0	-0.010679871
251	0x3c818240	0.015809178
252	0x3dcceb15	0.10005776
253	0x3dc9837d	0.098395325
254	0x3b4d0d03	0.0031288273
255	0x3d921e8a	0.07134731

l2.bias f4 [256]
0	0x3d5b392a	0.053521313
1	0x3d7c65cb	0.061620515
2	0x3d65dae6	0.05611696
3	0x3d51b1f7	0.05119511
4	0x3d7087c4	0.058723226
5	0x3d649e44	0.055814996
6	0x3d715987	0.05892327
7	0x3d50593c	0.05086635
8	0x3d2b8f34	0.041884616
9	0x3d8bd3f7	0.068275385
10	0x3d7d93a1	0.061908368
11	0x3d6e5bbd	0.058192957
12	0x3d3f0ad6	0.046641193
13	0x3d4a25e8	0.049352556
14	0x3d6500f3	0.05590911
15	0x3d3085d6	0.043096386
16	0x3d3c597e	0.045983784
17	0x3c760a89	0.01501716
18	0x3d3ebd83	0.04656745
19	0x3d407479	0.046986077
20	0x3d687ccd	0.056759644
21	0x3d80a430	0.06281316
22	0x3d5311af	0.051530536
23	0x3d32e58a	0.043675937
24	0x3d2c50ba	0.042069174
25	0x3d5a4a49	0.0532935
26	0x3d64069d	0.05567037
27	0x3d8b838c	0.068122
28	0x3d44b565	0.048024554
29	0x3d2491c9	0.040178094
30	0x3d327a88	0.043573886
31	0x3d276ff3	0.040878247
32	0x3d38730a	0.045031585
33	0x3d44498a	0.047921695
34	0x3d2bce81	0.041944984
35	0x3d5879ca	0.052850522
36	0x3d10b521	0.035328988
37	0x3d1eb918	0.038750738
38	0x3d232644	0.039831415
39	0x3d27297a	0.04081104
40	0x3d60ae2c	0.054853603
41	0x3d6a19ed	0.05715363
42	0x3d4460a0	0.04794371
43	0x3d49cedd	0.049269546
44	0x3d47d549	0.04878739
45	0x3d20c6eb	0.039252203
46	0x3d629a81	0.055323128
47	0x3d2edbc3	0.04269005
48	0x3d369422	0.044574864
49	0x3d4f66cb	0.05063514
50	0x3d8fdfbe	0.07025097
51	0x3d4a3293	0.049364638
52	0xa04afb6c	-1.7193254e-19
53	0x3d3bbe1e	0.045835607
54	0x3d5830a8	0.052780777
55	0x3d68dbc6	0.056850217
56	0x3d7655bc	0.060140356
57	0x3d77c831	0.06049365
58	0x3d744dae	0.059644394
59	0x3d3d10fd	0.04615878
60	0x3d3be1d2	0.045869656
61	0x3d364d01	0.04450703
62	0x3d4834be	0.048878424
63	0x3d5c59c4	0.053796545
64	0x3d6b06b8	0.057379454
65	0x3d5e1053	0.054214787
66	0xa0874db5	-2.2921312e-19
67	0x3d3d9f15	0.04629429
68	0x3d57968e	0.052633815
69	0x3d355020	0.044265866
70	0x3d81124f	0.0630232
71	0x3d7c8a75	0.06165548
72	0x3d82359e	0.06357883
73	0x3d4d507a	0.050125577
74	0x3d839c43	0.06426289
75	0x3d597bb9	0.053096507
76	0x3d288b63	0.041148555
77	0x3d4efd00	0.05053425
78	0x3d52d2b9	0.051470492
79	0x3d87b77e	0.06626795
80	0x3d2c149f	0.042011853
81	0x3d3068df	0.043068763
82	0x3d5fed76	0.05466982
83	0x3d4b8fda	0.049697734
84	0x3d477efa	0.04870508
85	0x3d58c25c	0.05291973
86	0x3d81eadd	0.06343625
87	0x3d768e58	0.060194343
88	0x3d6b086e	0.057381086
89	0x3d6900fc	0.056885704
90	0x3d6d6aff	0.057963368
91	0x3d4891f8	0.04896733
92	0x3d7f4415	0.062320787
93	0x3d852a3b	0.065021954
94	0x3d6a9707	0.057272937
95	0x3d34a336	0.044100963
96	0x3d15c50b	0.036564868
97	0x3d2455b9	0.040120814
98	0x3d3fac2a	0.046795048
99	0x3d604c62	0.054760344
100	0x3d38c742	0.045111902
101	0x3d82437b	0.06360527
102	0x3d7b1737	0.061301436
103	0x3d867c02	0.06566621
104	0x3d767357	0.06016859
105	0x3d44d0e3	0.048050772
106	0x3d4345ef	0.047674116
107	0x3d32ee1d	0.043684114
108	0x3d466793	0.04843862
109	0x3d1e765b	0.03868709
110	0x3d25736b	0.040393274
111	0x3d6c70bb	0.057724696
112	0x3d4614a4	0.04835953
113	0x3d621f5d	0.05520569
114	0x3d5dcc91	0.054150168
115	0x3d6b7f6d	0.05749457
116	0x3d79e011	0.061004702
117	0x3d0d4eec	0.034499094
118	0x3d715cd3	0.058926415
119	0x3d2466d5	0.04013713
120	0x3d77019a	0.06030426
121	0x3d434254	0.047670677
122	0x3d462ca2	0.04838241
123	0x3d6a46d8	0.057196468
124	0x3d4ab32f	0.04948729
125	0x3d432007	0.047637966
126	0x3d27796e	0.04088729
127	0x3d5d5599	0.05403671
128	0x3d57a907	0.05265143
129	0x3d49d392	0.049274035
130	0x3d7afbf2	0.06127543
131	0x3d29a8a6	0.0414206
132	0x3d4baec1	0.049727205
133	0x3d530576	0.05151888
134	0x3d75c3b7	0.0600011
135	0x3d625f9e	0.05526697
136	0x3d4ce2b8	0.050020903
137	0x3d7438b6	0.059624396
138	0x3d881fb0	0.06646669
139	0x3d4b48ad	0.049629856
140	0x3d841767	0.06449776
141	0x3d81a843	0.063309215
142	0x3d5759c3	0.052575838
143	0x3d836541	0.06415797
144	0x3d63ad6b	0.055585306
145	0x3d420899	0.04737148
146	0x3d868db3	0.06569996
147	0x3d4656e0	0.048422694
148	0x3d84de34	0.064876944
149	0x3d45217d	0.04812764
150	0x3d458466	0.048221968
151	0x3d162457	0.03665575
152	0x3d5e2013	0.054229807
153	0x3d691be7	0.056911375
154	0x3d70e88d	0.058815528
155	0x3d504297	0.050844755
156	0x3d740f7c	0.05958508
157	0xa06f42a5	-2.0266138e-19
158	0x3d73d1d7	0.05952629
159	0x3d6e309a	0.05815182
160	0x3d3548ac	0.04425876
161	0x3d49d5ad	0.049276043
162	0x3d75f3e7	0.060047057
163	0x3d8315ef	0.06400668
164	0x3d5192d1	0.051165406
165	0x3d5fb0dc	0.054612026
166	0x3d465aa1	0.048426274
167	0x3d48aef2	0.048994966
168	0x3d761c0f	0.060085353
169	0x3d3b93d6	0.045795284
170	0x3d55f876	0.052238904
171	0x3d5e1859	0.05422244
172	0x3d8638f6	0.06553833
173	0x3d53c129	0.051697884
174	0x3d4d05d9	0.050054405
175	0x3d636cf3	0.055523824
176	0x3d6d259f	0.057897206
177	0x3d145262	0.03621138
178	0x3d65f0ee	0.05613797
179	0x3d3937af	0.04521912
180	0x3d53ff7f	0.051757332
181	0x3d5e6d97	0.05430373
182	0x3d1f11cc	0.03883533
183	0x3d6ca3a4	0.057773247
184	0x3d7dd7a7	0.06197324
185	0x3d5c6d20	0.053815007
186	0x3d2c5129	0.042069588
187	0x3d38ea51	0.045145337
188	0x3d59f168	0.05320874
189	0x3d79fef2	0.06103415
190	0x3d5fdd46	0.054654382
191	0x3d67f1a9	0.05662695
192	0x3d6c59ac	0.057702705
193	0x3d5b8e9d	0.053602803
194	0x3d504931	0.05085105
195	0x3d5fcab2	0.054636665
196	0x3d5d802f	0.054077324
197	0x3d3b6866	0.04575386
198	0x3d227edb	0.03967176
199	0x3d83f4ec	0.064431995
200	0x3d57e7c2	0.052711256
201	0x3d4e27fa	0.050331093
202	0x3d26d661	0.04073179
203	0x3d5de707	0.054175403
204	0x3d72e4ea	0.05930034
205	0x3d41de6d	0.047331262
206	0x3d487d42	0.04894758
207	0x3d80e5c6	0.06293826
208	0x3d81ebd1	0.063438065
209	0x3d87b39f	0.06626057
210	0x3d5e33df	0.054248687
211	0x3d5f3a53	0.05449898
212	0x3d430f41	0.04762197
213	0x3d85c51e	0.06531738
214	0x3d423154	0.047410324
215	0x3d4fc102	0.050721176
216	0x3d3f2397	0.0466648
217	0x3d389d95	0.045072157
218	0x3d56df4c	0.052459046
219	0x3d4d882e	0.0501787
220	0x3d319f20	0.043364644
221	0x3d5d0a62	0.05396498
222	0x3d61d531	0.055134956
223	0x3d5a2bf0	0.05326456
224	0x3d190e5a	0.037367202
225	0x3d817685	0.06321434
226	0x3d410d8f	0.04713207
227	0x3d671d1b	0.05642424
228	0x3d58e80e	0.05295568
229	0x3d6b8049	0.05749539
230	0x3d650b5f	0.055919047
231	0x3d310d71	0.04322571
232	0x3d815ab0	0.063161254
233	0x3d963263	0.07333829
234	0x3d1ca099	0.038239095
235	0x3d8b0dc7	0.06789737
236	0x3d844809	0.06459052
237	0x3d83c975	0.06434909
238	0x3d7922c4	0.06082417
239	0x3d3f31af	0.04667824
240	0x3d764977	0.060128655
241	0x3d648a00	0.05579567
242	0x3d7cbe28	0.061704785
243	0x3d7ea2fd	0.062167156
244	0x3d5fc4e2	0.05463112
245	0x3d46b2ae	0.048510246
246	0x3d6278af	0.055290874
247	0x3d23e50e	0.040013365
248	0x3d40b84d	0.047050763
249	0x3d3f7793	0.046744894
250	0x3d52a1a5	0.051423687
251	0x3d567a41	0.052362684
252	0x3d3c1121	0.045914773
253	0x3d34a56e	0.04410308
254	0x3d536b91	0.051616255
255	0x3d34092e	0.043954067
