code/save/model_gama/model_gama_repr_1.pt (torch, 649964 bytes, 6 tensors)

embed.weight f4 [59, 256]
000000 66 eb cc 3c 7b 5c 81 bd 2e ea 38 3d c0 d1 ae 3d
       0.02501459 -0.063164674 0.045145206 0.085361004
000010 63 85 84 bb 87 13 5f be db 36 54 3e b6 3d 88 bd
       -0.0040442212 -0.21784793 0.2072405 -0.066523954
000020 fd 26 86 3d ae 80 fc bc b7 d5 51 bd 5c eb d3 3c
       0.06550405 -0.030823078 -0.051229205 0.025869064
000030 a1 19 65 3b d5 d6 8d bb 3e ea 80 bc 4e a4 66 bd
       0.0034957903 -0.0043285885 -0.015736695 -0.056309037
000040 39 17 e0 3d 57 14 de bd 68 f7 b5 3d 7e f9 1a be
       0.10941929 -0.10843723 0.088850796 -0.15134236
000050 06 7c 97 3d 74 97 04 be dc cf 11 be a3 cd 2b 3e
       0.073967025 -0.129484 -0.14239448 0.16777663
000060 f6 82 1c 3e 63 e9 df bd 49 9e c8 bc 14 66 a6 bb
       0.15284333 -0.10933187 -0.024489539 -0.0050780866
000070 41 14 d7 bd 04 90 9c 3d 36 99 09 3e dc 54 bf 3d
       -0.1050191 0.07644656 0.13437352 0.093423575
000080 07 5f 13 3e 15 bf 18 bd f0 99 09 bd bc 5f a3 3c
       0.14391719 -0.037291605 -0.033594072 0.01994311
000090 cd 60 82 bd 41 00 95 3d e6 ec f4 3d cb 4b 43 3b
       -0.063661195 0.07275439 0.11959247 0.0029799815
0000a0 fb 89 0b 3e a7 0c 2a be 43 83 02 3e cd 34 ff 3c
       0.13626854 -0.16606389 0.12745385 0.031153107
0000b0 5f 9c 36 be fe 9c 68 3e 92 f4 17 3d 36 e9 7f 3e
       -0.17833088 0.22716138 0.037098475 0.24991307
0000c0 f9 83 cf bd 53 e1 04 bc 30 2f 00 be c4 aa 4c bc
       -0.10132594 -0.008110362 -0.12518 -0.012491886
0000d0 75 0c c2 bc 9a a7 a1 3d 32 3f b0 3c 9a 62 1d bc
       -0.02368758 0.078932956 0.021514509 -0.009606028
0000e0 57 1f 7b bc db 8c 18 be 5f e7 f2 bd 09 f5 f4 bd
       -0.015327296 -0.14897482 -0.11860537 -0.11960799
0000f0 45 ce 1d bd 4b 33 18 3d d8 63 2a 3d ad 3a 51 bd
       -0.038526792 0.03715829 0.041599125 -0.05108135
000100 4f f0 cb 3d 51 b2 41 3e 2a e7 73 bd 6a d6 2b 3d
       0.099579446 0.18915679 -0.059546627 0.041952528
000110 a8 27 12 3e 78 93 41 3e b3 4e 59 bd 95 67 a6 3d
       0.1427294 0.18903911 -0.05305357 0.081252255
000120 76 7d 3d bc ff 91 0e 3e ad 32 6f be 13 d5 6d 3e
       -0.011565557 0.1392288 -0.23359175 0.23225813
000130 1e e1 40 3b d7 36 76 bc 20 6d bc 3c 33 38 d0 bd
       0.0029431055 -0.015027723 0.023001254 -0.10166969
000140 bc 0e 72 bd 09 f7 cd ba f3 de 14 be 03 0d 47 3e
       -0.059096083 -0.0015713881 -0.14538173 0.19438557
000150 83 3c 76 be fb 97 98 3c ea fc 19 be 2b 4a 50 bd
       -0.24046521 0.018627157 -0.15037885 -0.050851982
000160 d0 11 2d be d0 41 a7 bd 1f 33 38 be 18 f5 e7 3d
       -0.16901326 -0.081668496 -0.17988251 0.11326045
000170 2d 5a 61 be e4 d0 0d 3d c9 84 cf bc 19 c6 39 be
       -0.22007056 0.03462304 -0.025331872 -0.18141975
000180 0b aa 41 be 47 8b 98 3d 54 85 42 be e8 fe 4e 3d
       -0.18912522 0.0744844 -0.18996173 0.050536066
000190 3e d7 26 be ea 5c 69 3d df 67 a4 3d 6f 79 fa 3d
       -0.16293046 0.056973375 0.08027624 0.12230193
0001a0 f3 2b a3 3b 05 da 60 3e 86 b8 06 be 54 3c 88 bc
       0.0049796044 0.21958168 -0.13156328 -0.01663033
0001b0 de 75 c7 3d 24 fb 13 be c6 b7 d4 3b e5 a5 49 3c
       0.09739278 -0.14451271 0.006491634 0.012307619
0001c0 c1 28 89 3d 8a e0 57 3e 52 99 30 3e d1 c8 a9 3d
       0.06697226 0.21081749 0.17245987 0.08290256
0001d0 ec a6 60 3b f2 83 4f 3e 76 48 94 bd 6a 6c 53 bd
       0.003427918 0.20265177 -0.07240383 -0.051617064
0001e0 dc 57 27 3e f7 26 22 3d 7a 03 1a bd 6c b0 0b 3e
       0.1634211 0.03958794 -0.03760097 0.13641518
0001f0 0d 45 04 be b3 5b 84 bd ad db a5 3d a0 c5 10 be
       -0.12916966 -0.06462803 0.080985405 -0.14137888
000200 7c 5a 03 3e d0 a1 6f bd f0 66 2d 3e ac 08 5f 3d
       0.12827486 -0.058503926 0.16933799 0.05445163
000210 ed aa 27 3e eb 2a 1a bd 14 91 67 3d aa d9 3e bc
       0.16373797 -0.037638586 0.05653484 -0.011648575
000220 0f 11 6b 3b 12 73 57 3e 08 e4 09 be 73 96 00 be
       0.0035868322 0.2103999 -0.13465893 -0.12557392
000230 85 6b 97 bd 59 ca e0 bd 3c 20 00 3e b7 9c 4a 3e
       -0.073935546 -0.10976095 0.12512296 0.19786344
000240 14 af 35 3e 48 0c 45 bd e5 f1 f7 3d 9c 40 25 3c
       0.17742568 -0.048107415 0.121066846 0.010086205
000250 22 d9 e6 3d e0 b2 0e bd 80 d1 2f 3e 82 43 17 3d
       0.112718835 -0.034838557 0.17169762 0.036929615
000260 46 31 b4 3d 98 49 4e bd bb 27 e0 bd db d3 60 be
       0.08798461 -0.050363153 -0.10945078 -0.21955816
000270 e0 d8 81 be e7 eb f2 bd 37 3b 67 3e af d9 08 3e
       -0.25360775 -0.11861401 0.22581182 0.1336429
000280 20 54 b5 3d 6a fd 2d be 42 81 09 be e0 23 81 bc
       0.08853936 -0.16991201 -0.13428214 -0.015764177
000290 23 e2 06 be 18 c6 79 bd 7f 22 7b be 49 5e 0c bd
       -0.13172202 -0.060979933 -0.24524878 -0.034269605
0002a0 48 b7 b9 bd 28 a4 51 3e 58 d8 af bc 35 4c 4d bc
       -0.09068161 0.20472777 -0.021465465 -0.012530376
0002b0 e1 47 64 3d 9a 68 1e be f2 53 ef bd 56 61 72 bd
       0.05573261 -0.1546959 -0.11685933 -0.059174858
0002c0 2f 94 c3 3c bd 6a e2 bd 88 9b dd bd b1 7a 88 bd
       0.02387437 -0.11055515 -0.10820681 -0.066640265
0002d0 29 83 9a 3c 23 a1 72 bc fd 8c 66 3e d4 e9 4b 3c
       0.01886137 -0.014808926 0.2251472 0.012445886
0002e0 40 46 f6 bd ff f5 43 be c0 3c d4 3d 89 77 ff bd
       -0.12025118 -0.19136809 0.1036315 -0.124739714
0002f0 bb 96 fb bd 63 15 9e 3d 82 2a 83 bb 5b d2 1d be
       -0.12284609 0.07718923 -0.00400287 -0.15412275
000300 61 4a 46 3e 0a 7f 98 3c ad ce bd 3d 42 fc 1b 3c
       0.19364311 0.018615264 0.09267936 0.009520592
000310 a3 21 4d 3e cc eb 11 3e 88 6f 36 3e 2c 0d 41 be
       0.20032363 0.14250106 0.17815983 -0.18852681
000320 83 2d 06 3e cb 31 39 be 7a a9 70 3d 73 85 10 bd
       0.13103299 -0.18085401 0.058755375 -0.035283517
000330 be 0e 33 bd ef 0a a3 bb 24 fb 54 3d b3 5b d9 bd
       -0.04371523 -0.0049756686 0.05199732 -0.10613193
000340 f4 5b 4c 3e db 34 66 3c ad e3 63 be a3 0c df 3a
       0.19956952 0.014050688 -0.2225482 0.0017017316
000350 3a c3 87 3d f6 46 4d bd 12 8a 02 be c6 28 46 3e
       0.066290334 -0.0501165 -0.12747982 0.19351491
000360 a5 ec 9a 3d d7 1e 0f be 32 22 e8 3d d7 76 c0 bd
       0.075646676 -0.13976608 0.11334647 -0.09397667
000370 1e e5 33 ba 9a b9 fd bd 4e e2 b9 3c c2 ac 93 bd
       -0.0006862449 -0.12388916 0.022690918 -0.07210685
000380 e2 19 0c be 52 27 33 be e5 08 e2 3d e5 17 36 be
       -0.13681749 -0.17495468 0.11036853 -0.17782553
000390 6a 35 63 3c e0 4d db 3d 73 c5 d0 bd 3f b1 13 3e
       0.013867715 0.10708213 -0.101939104 0.14423083
0003a0 0e 4d 07 bd 5c 92 53 be 50 87 d5 bd b1 20 1c be
       -0.03303247 -0.206613 -0.104261994 -0.15246846
0003b0 d8 ff e9 3d ce 13 77 3d 1e ec 40 be c1 a3 11 3e
       0.114257514 0.06032162 -0.18840072 0.14222623
0003c0 34 ca ca bd f6 4c 0f be 0e d6 09 be 13 bb 4f 3e
       -0.099018484 -0.13994202 -0.13460562 0.20286207
0003d0 48 b3 8e bb 6a df 9a bd bd ad 3b 3b db 0a 6a 3d
       -0.004354868 -0.07562144 0.0028637492 0.05713926
0003e0 eb 28 75 3d 7b b2 6c bd e9 2d bf bd 16 a4 69 be
       0.059853476 -0.0577874 -0.093349285 -0.228165
0003f0 0b 19 47 bc 5a 3e 1b 3c c0 a3 5f 3c f7 29 e4 bd
       -0.012151967 0.009475315 0.013649881 -0.11140817

unembed.weight f4 [59, 256]
000000 06 1a 28 be b4 a1 bc bd 23 d4 54 bd 78 7c 22 be
       -0.16416177 -0.0921053 -0.05196012 -0.15867794
000010 a8 48 a5 bd ee 3f 06 3e d5 59 0a 3e db c6 be 3b
       -0.08070499 0.13110325 0.1351083 0.0058220453
000020 0d eb b2 bd 59 83 64 bd ac 18 34 3e aa 8c 69 bd
       -0.08736239 -0.055789325 0.17587537 -0.057018913
000030 95 59 3e 3e 5b dc 8e 3d 5a 80 08 be 20 e8 f5 3d
       0.1858886 0.06975623 -0.13330212 0.12007165
000040 ac de 0a be 08 1c 69 bc 32 22 0a 3d 88 2a 38 3e
       -0.13561505 -0.014227875 0.033724017 0.17984974
000050 c5 32 d5 3c 14 c2 80 bc 4b 50 59 3e 7d 29 1c 3e
       0.026025185 -0.015717544 0.21222036 0.15250202
000060 9a 01 c3 bd 4f b3 d0 3c fc b0 04 3d 32 9a 5c bd
       -0.0952179 0.025476126 0.032395348 -0.05385799
000070 3f 59 0b be c3 00 0e 3d ce ef aa bd d5 a9 e2 3d
       -0.13608263 0.034668695 -0.0834652 0.11067549
000080 fd 0a e6 3d f0 2d 22 3d 21 d9 11 21 33 d3 16 3e
       0.112325646 0.03959459 4.941528e-19 0.14729004
000090 02 8a 21 bd dd d8 9b bd 8c ff 2f be d6 4d 26 be
       -0.039438255 -0.07609723 -0.17187327 -0.1624063
0000a0 7c f5 12 be 55 e3 cc 3d cd bc 34 3c 5f b5 02 be
       -0.14351457 0.10004298 0.011031342 -0.127645
0000b0 28 b8 06 be f1 b3 ac bc 66 52 f1 3b 72 39 0a bd
       -0.13156188 -0.021081896 0.007364559 -0.03374619
0000c0 8c 5e 88 3b 47 0d 33 bd 28 85 3d 3e d0 69 2f be
       0.0041616615 -0.043713834 0.18507826 -0.17130208
0000d0 0e 37 bf bc 34 72 11 3e 98 d7 4a 3c 50 72 6d 3e
       -0.023341682 0.14203721 0.012380503 0.23188138
0000e0 f1 c0 5f 3e d7 c2 af 3d 0c 51 2f 3e bc 3c 48 3e
       0.21850945 0.085820846 0.1712076 0.19554418
0000f0 cf c9 0e be 51 70 cf bc 08 7b 7c 3e e3 17 92 bc
       -0.13944171 -0.025322111 0.24656308 -0.017833656
000100 d6 b0 f3 3c fc 65 3c 3e 0b e8 47 bd aa 2c 48 be
       0.029747408 0.18398279 -0.048805278 -0.19548288
000110 65 2f e9 3d d6 df fb 3c ed 3d 2c 3e c9 a8 37 3d
       0.11385993 0.030746382 0.16820498 0.0448387
000120 68 d3 08 3e 12 32 99 bd 34 33 e5 bc 09 90 0d 3d
       0.13361895 -0.07480253 -0.027978517 0.03456119
000130 46 18 3c be 81 1a 48 be 95 cd 8b 3b b1 7d 11 be
       -0.18368635 -0.1954136 0.0042664506 -0.14208104
000140 3d 39 2e 3e 99 0c 1d bd 09 f3 88 bb 0b 16 91 bd
       0.17014022 -0.038342092 -0.0041793627 -0.070842825
000150 61 9f 1c bd 7f a2 ac 3c c7 68 88 bc 64 67 b5 bd
       -0.038237933 0.021073578 -0.016651524 -0.08857611
000160 ee 38 11 3c 0c a8 2d bd f5 ac db 3d c8 ce 40 3c
       0.008863671 -0.04239659 0.10726348 0.0117680505
000170 1d f4 48 3c a2 20 97 bd ce f0 28 3e a7 b8 33 be
       0.012265232 -0.07379271 0.1649811 -0.17550908
000180 43 ec 0c 3d 4f b9 93 bd 6b d0 79 3b d9 bb 1f be
       0.034405004 -0.07213079 0.0038118612 -0.15599002
000190 4f ed 9e bd 85 fb b1 bd a9 43 a8 3d 11 c1 31 be
       -0.07760107 -0.08690552 0.0821603 -0.17358805
0001a0 b2 2e 34 3d d9 c0 48 3e c6 7b 1f 3d d2 fd 36 be
       0.043989845 0.19604816 0.0389364 -0.17870262
0001b0 a9 b0 5f 3d ed f4 1f 3e b5 a8 f8 bd 3c ab ea 3d
       0.054611836 0.15620776 -0.12141553 0.114584416
0001c0 fa b6 06 bd ac f0 74 bd 40 25 33 3d 34 b9 d6 bd
       -0.032889344 -0.059799835 0.043736696 -0.104845434
0001d0 55 44 59 3d e9 e2 b3 bd 1b 6f 13 3e e3 37 d8 3d
       0.053043682 -0.08783514 0.14397852 0.105575345
0001e0 59 96 ce 3d 7d 9f f7 bd 64 6b 61 bc 46 f8 27 3e
       0.1008727 -0.12090967 -0.013758514 0.16403303
0001f0 5d 76 3f 3e 00 7d 68 3e 28 5a 20 3e af c2 20 be
       0.18697496 0.22703934 0.15659392 -0.15699266
000200 13 12 1c 3e 1a 67 e6 bd 08 a1 29 be bc bc 1d bc
       0.1524127 -0.11250134 -0.16565335 -0.009627517
000210 38 27 1d bd d1 bc 29 bd e4 dc 8c bd 0d 55 8f bd
       -0.03836748 -0.041439835 -0.06878069 -0.06998644
000220 18 d2 28 3d 73 1f de 3d 46 f6 ff bc f6 9f 5f bd
       0.041215986 0.10845842 -0.031245362 -0.05459591
000230 31 b2 ea 3d a6 1e 3e be cc 5c 97 bd 63 61 12 be
       0.114597686 -0.18566379 -0.073907465 -0.14294963
000240 62 06 11 be e0 88 be 3d 66 e7 a1 3d c9 1d 80 bc
       -0.14162591 0.093034506 0.07905464 -0.015639203
000250 4a fa 02 be 74 3b 7a bd 25 0d ed bd e9 0c 18 be
       -0.1279079 -0.061091855 -0.11574773 -0.14848675
000260 7e fc f3 bd b4 dd df 3d 5b 33 8f bd 98 27 82 3c
       -0.119133934 0.109309584 -0.06992217 0.01588802
000270 f3 c3 05 be 60 bc 32 be b6 2f 2b bd 10 70 9f bd
       -0.1306303 -0.17454672 -0.041793548 -0.07785046
000280 92 b9 3d be 19 3b 48 bd 36 ec bf bd a3 ed a0 bc
       -0.1852782 -0.048884485 -0.093712255 -0.019644564
000290 7e 32 15 3e 7e 6b 6d 3e 85 48 12 be d6 a0 e3 3d
       0.14570042 0.23185536 -0.14285477 0.111146614
0002a0 95 84 3d 3e 0e ad 1c be 9f 04 43 be 82 ec 32 be
       0.18507607 -0.1530039 -0.19044732 -0.17473033
0002b0 7b b1 2a be f5 4d 2a be aa d0 b0 3c 87 c2 0b 3e
       -0.16669266 -0.16631301 0.021583874 0.13648425
0002c0 7f 98 2b be 49 ed c1 bc e1 cc f3 3c eb 89 42 3c
       -0.16757391 -0.023672717 0.02976078 0.0118737025
0002d0 cd fd 4c 3d 39 b4 29 be d1 37 ed 3d 02 39 ac bd
       0.05004673 -0.16572656 0.11582912 -0.08409311
0002e0 8c fb 92 3c 60 e2 15 3e c7 a4 45 3e f1 a6 84 3d
       0.017942213 0.14637136 0.19301139 0.06477154
0002f0 1d c3 e4 3d 02 3c d3 3d a7 87 a3 bd 30 a4 d1 3c
       0.111700274 0.1031418 -0.07984858 0.025590986
000300 58 65 b6 bd 9c b8 e3 3d 87 99 8e bc 11 ca 8a bd
       -0.089060485 0.11119196 -0.017407192 -0.06776822
000310 44 ef d7 3d 3b 1e 86 3d fb 0d 0b be 27 5e 43 3e
       0.10543683 0.06548735 -0.13579552 0.19078885
000320 d0 7f 1b be 76 37 29 be d6 15 24 3e 1a 49 f4 bc
       -0.15185475 -0.16525063 0.16023955 -0.029820014
000330 9f 13 33 bd b5 c8 33 bd cd 0f 10 bd 0d 6a f6 bd
       -0.043719884 -0.04389258 -0.03517132 -0.12031946
000340 7b 38 b4 3c 54 03 f6 bd 38 1b 2f 3c 5e 80 11 be
       0.021999588 -0.120123535 0.010687642 -0.14209124
000350 0e b7 0a 3e 9d 4d 41 be ee 2f df bd c3 a4 ae bc
       0.13546392 -0.18877263 -0.10897814 -0.021318799
000360 30 e0 33 3d eb 82 04 be 1c 7a ad 3d 98 88 83 3d
       0.043914974 -0.12940566 0.08470556 0.064225376
000370 d2 3c 1c bd cf 07 44 be 13 88 00 3e 29 a8 70 3e
       -0.03814394 -0.19143604 0.12551908 0.23501648
000380 ef 4e 0f be d4 eb e6 3d 0e d5 23 be fb df 31 3e
       -0.13994955 0.112754494 -0.15999243 0.17370598
000390 8e c8 e8 bb d1 37 a4 bd 48 7e 32 3e 8c 4f 81 bc
       -0.007103986 -0.08018459 0.17430985 -0.015785001
0003a0 e2 15 3c be 02 d4 2e be f8 71 14 3e c1 83 02 bc
       -0.18367723 -0.17073062 0.144966 -0.007965983
0003b0 25 0f b4 20 67 a7 67 bd 25 dc 5c bd 10 81 31 3d
       3.0503208e-19 -0.05655613 -0.053920884 0.043335974
0003c0 52 20 5d 3e af 89 4a 3e a5 f6 df bc 9d c5 1c be
       0.2159436 0.19779085 -0.027339289 -0.15309758
0003d0 02 dc 2c 3e 7b 55 36 3b 28 17 33 3e 71 c0 8c 3b
       0.16880801 0.0027821946 0.17489302 0.0042954017
0003e0 6f b2 c5 bc fd 35 50 bc 79 4e 73 bd 68 fc 1d 3e
       -0.024132935 -0.012708184 -0.05940101 0.15428317
0003f0 14 08 1a 3e 7d b8 99 bd 11 80 7d 3d 00 6f 48 3d
       0.15042144 -0.075058915 0.06188971 0.048933983

l1.weight f4 [256, 256]
000000 e5 2c ce bc 9a 3f 1e bd 4c e5 82 3d a7 02 94 bd
       -0.025167892 -0.038634874 0.06391391 -0.072270684
000010 15 86 00 3d f3 3b 84 bd c5 75 4b bd 9d 4c 68 3d
       0.03137787 -0.06456747 -0.04967286 0.05671369
000020 38 f6 c1 bc 33 c7 90 bd c9 9d 0d 3d f4 24 83 bd
       -0.023676977 -0.07069244 0.034574304 -0.064035326
000030 d6 69 94 3d ed 4d 9d bd ea 86 0b 3d d2 27 c2 bc
       0.07246749 -0.07680879 0.03406421 -0.023700628
000040 e9 51 89 3d 00 02 a6 bd e5 e0 5e 3d 8e 6d 25 3c
       0.06705076 -0.0810585 0.054413695 0.010096921
000050 15 33 66 bd 8d 4b 5e bd 00 6c 53 3d 0e 29 66 3d
       -0.05620106 -0.05427127 0.05161667 0.056191497
000060 1d 6e a0 3d a0 f0 c6 bd ed 5d 54 bd a3 87 9d bd
       0.078335024 -0.09713864 -0.051847387 -0.07691886
000070 53 af 21 bd 98 33 cd bd e9 1b 16 bd e9 79 09 bd
       -0.039473843 -0.10019606 -0.03664771 -0.03356353
000080 97 a7 cf 3c aa dc 98 bd c0 18 96 3d f3 5b b3 bd
       0.025348468 -0.07463963 0.073289394 -0.08757772
000090 24 5d 25 bd 67 f1 74 bd 59 3f fa 3b 5f e2 3f bd
       -0.04037203 -0.05980053 0.007636946 -0.046846744
0000a0 d6 7c 62 bc 66 10 80 3d fa ba b6 bc f4 55 76 3d
       -0.0138237085 0.06253128 -0.022305954 0.060140565
0000b0 35 6c 8f bd 15 59 a6 3d bc 8c 17 3d dc 22 c0 3c
       -0.07003061 0.0812246 0.03699945 0.023454122
0000c0 ce d5 c2 bd be 52 8b 3d 78 89 9f bd c1 f3 0b bd
       -0.09513436 0.06802891 -0.07789892 -0.03416801
0000d0 aa 94 61 3c e8 1a db 3d c6 3e 6c bd 3a 58 24 3d
       0.013768354 0.10698491 -0.057677053 0.040123202
0000e0 75 c1 7c 3d 4a 6f 9a bd a2 07 5a 3d 50 df 82 3c
       0.061707933 -0.07540758 0.053229935 0.015975624
0000f0 54 f2 27 bd ea de 70 3c f6 b1 cc b9 f3 a3 f3 bc
       -0.041002586 0.014701584 -0.00039042503 -0.029741263
000100 2f ae 2d bd a8 36 00 bd 22 a1 1a bd fe 2e 42 3d
       -0.042402443 -0.031302124 -0.037751324 0.047408096
000110 42 c8 a6 bc cb 69 8a 3b 2c ea 6c 3d 1a 5d 87 bc
       -0.020359162 0.0042240373 0.05784051 -0.016523886
000120 37 84 08 bd e3 ed 1e 3c a4 78 35 bd 77 41 ec 3d
       -0.033329215 0.009700271 -0.044304505 0.11535924
000130 59 39 29 3d 75 ea 87 bd 73 c0 52 3c f9 97 a2 3d
       0.041314457 -0.06636516 0.012863266 0.07939143
000140 04 17 28 3d 06 d7 f9 3c ff 29 22 3d 78 f3 a0 3d
       0.041037574 0.030498039 0.03959083 0.07858938
000150 8d 60 c3 bc 50 72 e9 bb 83 06 6e bd 1e d3 c4 3c
       -0.02384975 -0.007124223 -0.05811168 0.02402645
000160 d8 21 1e bc 3d 5f 1f 3d b3 3e b3 3d 65 e7 35 3d
       -0.009651624 0.038909186 0.08752193 0.04441013
000170 a2 db 5d bd 00 47 ea 3d 75 89 83 bc 67 14 6b bd
       -0.054164536 0.114393234 -0.016056756 -0.057392504
000180 39 76 af 3d 54 50 27 bc eb 00 81 bd 79 ab 31 bd
       0.08567471 -0.010212023 -0.06299003 -0.04337642
000190 14 a8 ad 3c 0f 86 fb 3b 9f 1a 1d 3d ed e6 18 3d
       0.02119831 0.007675893 0.038355466 0.037329603
0001a0 71 07 85 3b 97 a3 97 3d 64 14 4d bd 27 d3 9a bd
       0.004059725 0.07404249 -0.050068274 -0.07559805
0001b0 cf 90 2d 3c c4 d1 45 bd 97 9e 6d bd a1 04 c3 bc
       0.010593607 -0.04829575 -0.05801257 -0.023805918
0001c0 d5 13 99 3c 60 2e 9b 3c f8 5b 7e bd 15 53 2f bd
       0.018686214 0.018943012 -0.062099427 -0.042803843
0001d0 cd d9 d0 bc 8c 2d 93 ba 57 30 7a 3d 92 6a b6 3c
       -0.02549448 -0.0011228784 0.061081257 0.022267614
0001e0 50 d3 ec bc a1 34 8a 3d 03 ca 3d bd 4d bb bd bc
       -0.028909355 0.067483194 -0.04633523 -0.023160601
0001f0 dc 24 a5 bd ba d4 80 3d db 77 10 bd 87 f5 2b 3d
       -0.08063671 0.06290574 -0.035270553 0.0419822
000200 35 bf 9d 3d 5a d1 70 3d 8d 73 ae bc 25 86 59 bc
       0.077024855 0.058793403 -0.021295333 -0.013276611
000210 e1 09 03 3d 07 3f 55 3d ea b2 8d bd 9a 69 2e 3d
       0.031991843 0.05206206 -0.06918891 0.04258118
000220 03 5f 7a 3c e5 98 75 3d a9 6a 2d 3c 3b 3a 36 bd
       0.015281442 0.059960265 0.010584512 -0.044489127
000230 34 d6 91 bd 89 dd 89 bc 30 43 e9 bc 03 57 09 3d
       -0.07120934 -0.016829269 -0.02847442 0.033530246
000240 9a 57 af 3c c6 e1 ae 3b 19 f2 3e 3d 97 08 97 3b
       0.021404076 0.005336973 0.0466176 0.0046091783
000250 b8 f1 94 3d 6b 39 48 3d d9 37 2b bc 53 b4 2c bd
       0.07272667 0.048882883 -0.010450327 -0.042164158
000260 0f c1 5c bd d8 78 e6 3c 59 79 94 3c de bc be 3c
       -0.053895053 0.028133795 0.01812427 0.023283418
000270 24 4d 08 bd 0f ff 89 bd 2a ae 0b 3d 0a f6 a3 3c
       -0.033276692 -0.06738102 0.034101643 0.020014782
000280 e9 0a ce bd cb 98 17 3d 5c 63 a7 3d 99 05 3a 3c
       -0.10060675 0.03701095 0.08173248 0.011353874
000290 a1 35 8c bb 6e 34 56 bd 82 38 73 bc 04 28 2a 3d
       -0.004278854 -0.052296095 -0.0148450155 0.041542068
0002a0 e0 9f 93 bd 48 ef 1a bd da a4 59 bd b3 6a 83 bd
       -0.07208228 -0.037825853 -0.05313573 -0.06416836
0002b0 4a 5d 5e bd e2 aa 09 3d 47 de 10 bd 55 23 6d bc
       -0.054288186 0.033610232 -0.03536823 -0.014473756
0002c0 73 f7 df bc 56 5c 64 bc ec 05 e1 3c 72 3d 62 bd
       -0.027339673 -0.01393803 0.027468644 -0.05523438
0002d0 e1 fd 89 bc 76 e5 1a 3d 58 42 bd bc f3 f5 6b 3d
       -0.016844692 0.037816487 -0.023102924 0.057607602
0002e0 14 9f 79 3d 93 61 b7 3d 2c 1a 27 bc a8 c4 04 3e
       0.060942724 0.08954158 -0.010199111 0.12965643
0002f0 98 95 a8 3c f4 ab fa bc 61 6c 8f 3d fb d9 5f bd
       0.020579144 -0.030599572 0.070030935 -0.05465124
000300 24 51 1f 3d 91 91 7a 3d 96 a4 de 3d ec e7 06 3d
       0.03889574 0.06117398 0.10871236 0.03293602
000310 ed 5f 09 bd 44 3b a2 3c 63 e8 be 3d 59 94 8c bd
       -0.033538748 0.01980365 0.09321668 -0.068642326
000320 93 0c b1 3d 99 65 09 3d 0e bf 63 3d 20 11 d7 3c
       0.086449765 0.033544157 0.055602126 0.026253283
000330 50 af ad bc 26 08 57 3d d2 40 8f 3d 83 1c a8 bd
       -0.02120176 0.052498005 0.06994785 -0.08208563
000340 8d de a2 3d f0 02 64 3d 76 39 95 bd 42 9e 01 3d
       0.079526044 0.055666864 -0.072863504 0.031645067
000350 f4 37 01 bd 23 06 46 bd 9e f7 4e 3c d2 b7 a5 3d
       -0.0315475 -0.048345696 0.012632279 0.080917016
000360 e5 77 fe bc b2 0c 8e 3d 89 0a 9a bd d5 81 b7 bd
       -0.03106303 0.06936015 -0.07521541 -0.0896031
000370 83 38 96 bd 64 28 af bd a5 97 08 bc 97 1a 7f 3d
       -0.073349975 -0.08552626 -0.008336936 0.062281217
000380 69 78 64 bd 97 7b 39 bd b7 a6 70 bd a3 db 61 3d
       -0.055778895 -0.04528388 -0.05875274 0.055141103
000390 55 32 fd bc bc 4b bf 3d 68 13 c5 bd ce a3 c8 3b
       -0.03090779 0.09340617 -0.09622842 0.0061230427
0003a0 bd 13 df bc ab a5 a4 bc 98 01 86 3d 55 01 58 3d
       -0.027231092 -0.020098528 0.06543273 0.052735645
0003b0 b4 c1 2f 3d c1 cf 33 3d cc 25 ed 3b 50 9a bb 3d
       0.04290934 0.0438993 0.0072371718 0.09160292
0003c0 44 f1 8e bd e0 f4 8f bc f9 6c 84 bc 69 ea 38 3d
       -0.069796115 -0.01757282 -0.016165243 0.045145426
0003d0 ea b5 84 bd 9b d0 a9 bd 5b 51 d6 3c 49 a4 87 bd
       -0.0648001 -0.082917415 0.02616184 -0.06623132
0003e0 e9 8b 8f 3c 0c 0a 45 bb ef 8f 5e 3c 9c d2 dd bc
       0.017522769 -0.0030065803 0.013584121 -0.027077965
0003f0 6c 0a c9 3c b0 b4 ba 3d e1 0a b7 bd 2c 6a f1 bd
       0.024541102 0.09116495 -0.08937622 -0.11787829

l1.bias f4 [256]
000000 db dc bc 3d 14 2d b6 3d cb bd b9 3d da e7 b6 3d
       0.09221812 0.08895317 0.09069403 0.08930941
000010 c9 95 88 3d 9e a9 a1 3d ca 85 aa 3d e2 13 ce 3d
       0.06669194 0.0789368 0.083262995 0.10062386
000020 bd 3d e0 3d ca aa 3a 3e 77 ca 9b 3d bc 60 ac 3d
       0.10949276 0.18229213 0.076069765 0.08416888
000030 64 fb a1 3d d9 22 fc 3d 80 06 ea 3d 67 72 2e 3d
       0.07909277 0.12311334 0.11427021 0.04258957
000040 5b e8 dd 3d 4c a4 3b 3b 18 a0 20 3e 95 d8 c8 3d
       0.10835334 0.0028631864 0.15686071 0.09806935
000050 b6 fa 73 3d ce 5e e8 3d 4b 76 e3 3d 37 5d ec 3d
       0.05956527 0.113462076 0.11106547 0.11541217
000060 be a5 bf 3d e9 92 c2 3d 1a 72 bb 3d 11 00 61 3d
       0.09357785 0.09500677 0.091526225 0.054931704
000070 12 53 a4 3b bb 74 09 3e cb 23 7b 3d 46 9c 16 3b
       0.0050147856 0.13423435 0.06131343 0.002298133
000080 a5 10 bb 3d 5d d9 ed 3d 3b 8b c1 3d 81 9d 3c 3d
       0.09134034 0.116137244 0.09450384 0.046048645
000090 ba 98 03 3c 5f ca 03 3e 85 29 73 3d 4b 4a 08 3e
       0.008032018 0.12870167 0.059365768 0.1330959
0000a0 00 0a 24 3d 83 92 b0 3b 69 db 82 3d 8e ab e6 3d
       0.0400486 0.0053885593 0.063895054 0.1126319
0000b0 51 63 9c 3d a8 fc 90 3c ae 25 ef 3d 6c 02 c5 3d
       0.076361306 0.0176986 0.11677109 0.096196026
0000c0 11 65 c9 3a db f2 bb 3d 9a e6 e6 3d 45 57 f8 3d
       0.0015365203 0.091771804 0.112744525 0.1212602
0000d0 1e b0 8a 3d 0b 75 9a 3d 2a 09 d3 3d 54 52 05 3e
       0.06771873 0.075418554 0.10304482 0.13019687
0000e0 15 54 ee 3d 32 71 38 3e ea bf 33 3e da 59 b4 3a
       0.11637131 0.1801193 0.17553678 0.0013759688
0000f0 80 d0 b1 3d 7f 0e de 3d e7 6a ea 3c c9 b6 d7 3d
       0.08682346 0.10842609 0.028615428 0.105329104
000100 02 e7 9c 3a 0a 42 ca 3d 32 4d ec 3d 62 a7 2a 3e
       0.0011970701 0.09875877 0.11538161 0.16665414
000110 29 ae 0d 3d 13 de 08 3e 3d 3e c2 3d 0d 51 85 3d
       0.03458992 0.13365965 0.09484527 0.065096
000120 65 35 da 3d 77 35 fd 3d 3c 70 e3 3c bb 0c b5 3d
       0.106547154 0.12363713 0.027763478 0.08840319
000130 25 f0 0a 38 4f 96 af 3d bf 06 c7 3d 09 46 dc 39
       3.3125416e-05 0.08573591 0.097180836 0.0004201385
000140 45 b8 24 3e 6e 59 17 3e 50 2d 85 3c 63 c6 0b 3e
       0.16085918 0.14780208 0.016256958 0.13649897
000150 e5 8d c7 3d e8 b5 af 3b 49 d1 8b 3d 57 56 12 3e
       0.09743861 0.005362261 0.06827027 0.14290749
000160 f9 56 a8 3d fd 6c b3 3d 10 d3 29 3e 9e 62 3e 3a
       0.08219714 0.08761022 0.1658442 0.000726262
000170 b5 03 0f 3e 58 3e f2 3d f1 86 f6 3d b6 30 86 3b
       0.13966258 0.118282974 0.12037457 0.0040951623
000180 57 fe 6e 3d eb d3 18 3c b9 97 11 3e b3 73 83 3d
       0.058348026 0.009327869 0.14218034 0.06418552
000190 96 36 90 3d c7 6b e3 3d 9d 9f 6d 3b f3 87 16 3d
       0.070416614 0.11104541 0.0036258467 0.036750745
0001a0 55 52 03 3e 45 45 23 3d ed 6c fd 3d 2f 63 8f 3d
       0.12824376 0.039860982 0.123742916 0.0700134
0001b0 bd 30 d1 3d 7e c8 fc 3d b0 7b 96 3d ba 08 81 3d
       0.10214374 0.12342928 0.0734781 0.063004926
0001c0 87 af 16 3c a8 2e 7c 3b ac 20 d3 3d a0 33 ff 3d
       0.009197122 0.0038479958 0.10308966 0.124610186
0001d0 d4 df 90 3d 4a f3 14 3e e4 47 a2 3d 90 27 c1 3d
       0.07073942 0.14545932 0.07923868 0.09431374
0001e0 ae 5f f9 3d 41 8e ca 3d 95 95 fa 3d 39 09 f6 3d
       0.121764526 0.09890414 0.12235562 0.12013478
0001f0 cc 8d c9 3d 74 32 2c 3e 7a ae 09 3e b9 87 fe 3d
       0.09841499 0.16816121 0.13445464 0.12428231
000200 78 dd 29 3e 78 69 ba 3c 49 5e f9 3d f5 c9 1a 3e
       0.1658839 0.02275537 0.121761866 0.15116103
000210 7e d5 0b 3e 6d 3f fb 3d a0 47 10 3e 3b c3 c4 3d
       0.1365566 0.12267957 0.14089823 0.0960755
000220 19 e6 71 3d c6 ed e7 3d a7 3a c2 3d 3b 71 db 3d
       0.05905733 0.113246486 0.09483843 0.107149564
000230 c9 d2 f2 3b 3b 8b ea 3d 7f 75 8a 3d 2b c0 81 3d
       0.0074103815 0.11452337 0.06760692 0.06335481
000240 50 35 d6 3d f7 d2 d9 3d 54 e2 dd 3d 8c ae ef 3d
       0.10459387 0.106359415 0.10834184 0.11703214
000250 f6 24 3c 3d 42 af c3 3d 2b af 2a 3e b9 ba fe 3d
       0.045933686 0.09554912 0.16668384 0.12437958
000260 27 0d ff 3d 1f e0 e2 3d 98 1c 91 3d cc 1f fb 3b
       0.124536805 0.11077904 0.07085532 0.0076637026
000270 77 17 cb 3d 04 6d a6 3d 49 21 21 3e 5c ae 3a 3d
       0.09916585 0.08126262 0.15735354 0.04557644
000280 54 6d 37 3b 7b 86 1c 3c 08 a1 a2 3b fc d0 8e 3d
       0.0027988749 0.009553547 0.004963044 0.06973454
000290 f4 62 7f 3d 99 40 99 3e 1e ec 04 3e fa d0 2b 3d
       0.06235023 0.29932097 0.12980697 0.041947342
0002a0 f8 12 43 3d 82 94 c6 3d 69 ab de 3d d2 28 06 3e
       0.047625512 0.09696294 0.10872538 0.13101509
0002b0 10 da f8 3d 5a 30 b8 3b 12 5d a8 3d ff bd f6 3d
       0.12150967 0.0056209983 0.08220877 0.12047958
0002c0 f7 ff 99 3d 06 68 fc 3d 78 6b b8 3d a4 87 fc 3d
       0.075195245 0.123245284 0.09004873 0.12330559
0002d0 43 13 0b 3e a5 37 ee 3d 39 5e 99 3d 9d c0 7d 3d
       0.13581567 0.11631707 0.07488675 0.06195127
0002e0 d6 90 a5 37 67 c1 40 3b ef f5 ef 3d f6 de 96 3d
       1.9736977e-05 0.0029412152 0.1171683 0.07366745
0002f0 1d bd d9 3d 9f 74 22 38 a9 e7 1c 3d f4 7d 22 3d
       0.106317736 3.873242e-05 0.038306866 0.0396709
000300 2a 63 f9 3d 59 64 4b 39 ba 94 84 3d 6f fa c2 3d
       0.12177117 0.00019396971 0.0647368 0.09520423
000310 d5 0c 29 3b 80 e5 e6 3d ad 2c c3 3d 30 d3 8a 3d
       0.0025795002 0.112742424 0.095300056 0.06778562
000320 28 fa 75 3d 00 05 a0 3d 49 fb a6 3d 2d 20 f9 3d
       0.06005302 0.07813454 0.081533976 0.1216434
000330 fe 05 fc 3d 9c 73 1b 3e 50 c4 d2 3d e6 f1 00 3e
       0.123058304 0.1518082 0.1029135 0.12592277
000340 c4 9f d8 3d 0e 6b 97 3d 50 94 bd 3c d6 6f 8e 3d
       0.10577348 0.07393466 0.02314201 0.06954925
000350 04 53 81 3d 27 cd e7 3d 63 57 2c 3e f6 3a c5 3d
       0.06314662 0.113184266 0.1683021 0.096303865
000360 83 d1 dd 3d 21 ef 9e 3d 1b b7 86 3d 5f 8f 06 3e
       0.10830977 0.07760454 0.06577893 0.13140629
000370 13 d2 09 3e ee 36 bc 3d 02 be f5 3d 7c 16 be 3d
       0.13459043 0.091901645 0.11999132 0.09281632
000380 a8 5b c3 3d 40 46 39 3e c1 0b b5 3d a7 49 b7 3d
       0.095389664 0.18093204 0.088401325 0.08949595
000390 8c 3b e6 3d cf 4c ff 3d 5d 53 09 3e 2c e1 07 3e
       0.112418264 0.12465822 0.13410707 0.1326949
0003a0 08 a2 0b 3e f5 96 cb 3c ce 9e cd 3d e7 30 06 3e
       0.13636029 0.024852255 0.10040055 0.13104592
0003b0 14 6a a5 3d b1 d7 e9 3d 97 65 d5 3d b4 45 c9 3d
       0.080768734 0.11418093 0.10419767 0.09827748
0003c0 91 67 73 3d d3 90 b3 3b d9 c3 6d 3d b5 79 b2 3d
       0.05942494 0.005479911 0.058048103 0.0871462
0003d0 9b c8 ac 3d 1d b5 aa 3d 48 2c da 3d 03 cd 87 3d
       0.084367 0.08335326 0.10652977 0.066309
0003e0 2c a1 89 3d e6 f0 e9 3d ac 8d 8d 3d e3 cd 47 3e
       0.06720194 0.11422901 0.069117874 0.19512133
0003f0 68 5d 8c 3d 2a 30 eb 3d d8 d7 e9 39 c6 1b c6 3d
       0.06853753 0.11483796 0.0004460204 0.09673266

l2.weight f4 [256, 256]
000000 dd 12 80 bd 85 29 39 3c 07 39 35 bc 8c 46 7b bd
       -0.06253598 0.011301403 -0.01106096 -0.061346576
000010 ab 09 07 bd 80 96 a5 3c a1 f7 8e 3d c0 b3 5c bd
       -0.032968204 0.020213366 0.06980825 -0.05388236
000020 e8 d7 a6 bd 0b f8 93 3d 6b b3 1c 3d 1b f1 83 3d
       -0.081466496 0.07225045 0.038257044 0.064424716
000030 96 72 21 bd 0d 7f 5f 3d 99 2d ba bb a3 bf b0 bc
       -0.03941592 0.054564524 -0.005681705 -0.021575755
000040 4d 0a fa bc 86 30 3f 3a 7f 55 6c 3d ad db ce bd
       -0.03052249 0.00072933023 0.057698723 -0.101004936
000050 15 71 66 bc 75 e1 d7 bd 05 e4 34 3d 5e 4f 09 3e
       -0.014065047 -0.105410494 0.04416277 0.13409182
000060 59 9c 32 bd e2 60 a8 bb 9d fb 2e 3d a0 04 1e bd
       -0.043606136 -0.0051385025 0.042720426 -0.03857863
000070 a2 28 0a ba 6d fe 73 bd fb df 11 bd 56 e8 58 3b
       -0.0005270337 -0.05956881 -0.035613995 0.0033097467
000080 d8 c9 8b bd 84 53 de 3d 0d f7 f5 3d df 05 e8 3d
       -0.06825608 0.10855773 0.12010012 0.11329245
000090 d5 10 35 b9 7b 80 d9 3d 9d e0 15 39 15 e6 b7 bd
       -0.00017267776 0.10620209 0.00014293422 -0.089794315
0000a0 b8 8b c2 3c d9 97 8f b9 3e 67 48 bd 77 3a 88 3c
       0.023748264 -0.0002738822 -0.048926584 0.01662944
0000b0 91 58 7b 3d 54 48 07 bc 27 f6 1d 3d 7d e5 42 bd
       0.06136376 -0.00825699 0.038564827 -0.04758214
0000c0 9e ba 1f 3a 7b d9 b3 3d 3a cf 9e bd db ed b9 bd
       0.0006093177 0.087817155 -0.07754369 -0.090785705
0000d0 5b ec 89 3d 32 55 c3 3c 25 50 6a 3d e6 bb 9b 3c
       0.06734534 0.023844335 0.057205338 0.019010495
0000e0 42 7e 98 bd 3a 4a 8e 3c 31 cd e7 3c 94 9c 31 ba
       -0.07445957 0.017369378 0.028296085 -0.0006775346
0000f0 d5 78 9b 3c 2e 3b 77 bd 75 32 da 3c a0 3c 3b 3d
       0.018978516 -0.060359173 0.026635388 0.045712113
000100 53 46 4c 3a 7a dc ae 3d 63 93 8d 3d 26 24 38 bc
       0.00077924615 0.08538146 0.069128774 -0.011239087
000110 40 40 bd bc 4f 60 0f 3e b3 38 fa 3d 5e a7 0b 3c
       -0.023101926 0.14001583 0.12217846 0.00852379
000120 b9 37 3c bd e7 44 1b bd bb 46 87 3c 9d 0a a5 3d
       -0.04595158 -0.037907507 0.01651322 0.08058665
000130 80 e1 ad 36 b4 f1 2d bc e4 99 67 3d 07 17 65 b7
       5.1820534e-06 -0.010616709 0.056543246 -1.3654825e-05
000140 cf 8c 36 3b 88 93 2d 3b 1b 7e 97 3c 6c c9 19 3e
       0.0027854925 0.002648564 0.018492749 0.15018243
000150 5f 57 b1 bd 4c 29 31 bb c6 88 65 bd f6 d9 97 bc
       -0.08659243 -0.0027032671 -0.05603864 -0.018536549
000160 a1 56 46 3d a9 c3 55 3c 03 48 9d 3d a1 92 a8 b9
       0.04842246 0.013047137 0.07679751 -0.00032152704
000170 9a 6f 01 3e 21 8c 00 3d 23 a5 9f bc eb fb 7f 3b
       0.12640229 0.031383637 -0.019487923 0.0039060067
000180 fb 1c 65 3d 06 25 c5 bb bf bd ee bc 33 5b 4b bd
       0.05593584 -0.0060163764 -0.029143212 -0.04964752
000190 4a c5 00 3a a4 3f 19 bd cb a3 a8 ba 60 30 21 bc
       0.0004912211 -0.037414208 -0.0012866197 -0.009838194
0001a0 20 52 62 3b 67 03 9e 3c f9 1d 66 3d 1c 81 1b bc
       0.0034533814 0.019288732 0.056180928 -0.009491231
0001b0 23 db a7 bd b8 2a de 3d e1 5e 4a bd 48 5d eb 3d
       -0.08196094 0.10847992 -0.04940689 0.11492401
0001c0 c2 29 0c bb c2 5b 4a bb c5 19 d1 3d 77 da 03 bd
       -0.0021387194 -0.0030877446 0.10209993 -0.032190766
0001d0 c7 75 77 3d 2e bd a3 3d cc c9 61 bd c7 93 92 bd
       0.060415056 0.079950675 -0.05512409 -0.071570925
0001e0 fb c7 92 bd d7 59 ae bc b4 be a0 bd 29 f1 01 3e
       -0.071670495 -0.021283073 -0.07848874 0.12689652
0001f0 88 83 a4 3d 9a 3c 62 bd 12 05 af 3d 3a 3b 86 bc
       0.080329 -0.055233575 0.08545889 -0.016385663
000200 af d2 9e 3c ef 28 9f bb 39 93 a5 bd 95 aa 73 3d
       0.019387571 -0.0048571746 -0.08084721 0.05948885
000210 45 90 30 bc cc bf 0c 3e 7d d2 27 3e 04 71 6e bd
       -0.010776584 0.1374504 0.16388889 -0.05821325
000220 e5 f3 41 bc 39 32 b1 bd a9 3a b2 bd 49 b0 d9 3d
       -0.011837934 -0.08652157 -0.08702595 0.10629327
000230 04 d9 b6 3a 88 be b5 ba 19 57 bd bc bb 87 88 3d
       0.0013950174 -0.0013865987 -0.02311282 0.066665135
000240 ed 81 f6 3d 97 c4 75 3d e3 b6 e3 3d da d9 9b bd
       0.120365 0.060001936 0.11118867 -0.07609911
000250 c6 eb d3 3c ac ea 3e bd 3e b4 ca 3d 3f ea 12 bd
       0.025869261 -0.04661052 0.0989766 -0.035867926
000260 7e 05 99 3d 32 e7 46 3c 12 1f 4c 3d 6e 61 cc 3b
       0.07471751 0.012140082 0.04983432 0.0062372005
000270 56 d6 52 3d bb ea 8b bd ee 4d 22 3d 8b 71 98 bd
       0.051473938 -0.06831881 0.0396251 -0.074435316
000280 ea 7a 58 3a d1 ee df bb df 69 ae 3a e7 ff 84 3d
       0.0008258062 -0.006833889 0.0013306699 0.06494122
000290 04 0f 7e 3d 91 d8 05 3d 34 25 d6 3d 4b 14 cb 3d
       0.06202604 0.032677237 0.10456315 0.0991598
0002a0 bc 7d 6a 3d ef 02 75 3d b3 be 81 3d 1c c7 bd 3d
       0.057248816 0.05981725 0.06335201 0.09266493
0002b0 f3 7a 1e 3d 58 8b 8f 3a d9 dc f5 3d 49 ae 0b 3e
       0.038691472 0.0010951562 0.12005014 0.13640703
0002c0 78 14 a9 3d 54 9f 59 3d 78 55 73 3d 0f 7b b4 bd
       0.08255857 0.053130463 0.05940768 -0.08812534
0002d0 de a8 05 3d 6e b6 21 bc 91 92 ca 3c 6f b0 4e 3d
       0.032631747 -0.009870155 0.024728091 0.05046123
0002e0 16 5c 39 36 16 a2 20 3b 83 d9 97 3d 85 4d 23 bd
       2.762075e-06 0.0024510673 0.07414534 -0.03986885
0002f0 68 c5 84 bd 30 17 5a b6 d6 a8 8d bd 42 b0 c3 bc
       -0.06482965 -3.2498028e-06 -0.069169685 -0.023887757
000300 39 b8 06 3e c1 3e 94 39 47 bf 87 3d 5e 84 a9 3d
       0.13156213 0.00028275515 0.0662828 0.082772
000310 0c c3 18 bb 70 8f c7 bd db 33 c5 3d df 72 df bc
       -0.0023309616 -0.097441554 0.09629031 -0.027276454
000320 42 91 d2 3d 61 b4 c1 bd 2e 07 e3 bc f0 0b a0 3d
       0.10281612 -0.09458233 -0.027713384 0.07814777
000330 26 34 66 3c b5 de 18 3e 2f 33 8f 3d 13 62 11 bd
       0.014050519 0.14928706 0.06992184 -0.03549392
000340 45 2c e9 3d c0 73 50 bc 17 22 3b bb 8b c5 0a bc
       0.11385397 -0.012722909 -0.0028554255 -0.0084699495
000350 c1 d0 ab bd 21 4f 08 3e 69 74 ab 3d bb 50 2e bd
       -0.08389426 0.13311435 0.08371813 -0.04255746
000360 81 6b 93 3d 5f 81 a2 3d c3 b9 86 3c 53 6b 97 3c
       0.07198239 0.07934832 0.016446 0.018483793
000370 97 f6 49 bd 6b 0c 95 bd 4b b4 84 bd 7b 12 87 3c
       -0.049307432 -0.07277759 -0.06479701 0.016488304
000380 28 a1 6f 3c 57 c0 4e 3c 2b cd 63 bc b7 79 dc 3c
       0.014625825 0.0126191 -0.013903896 0.026913507
000390 f5 48 34 bd ee dd 16 bd d9 74 e8 3c 83 ac cc 3d
       -0.04401489 -0.036832742 0.02837603 0.099938415
0003a0 1d 5f 34 bd 60 9d 27 bc 72 2d d1 bd a3 9a 7c 3d
       -0.04403602 -0.010230392 -0.10213746 0.06167091
0003b0 85 c2 28 3c 46 38 ca bd d0 f9 a1 bc 78 f1 11 3e
       0.010300283 -0.098740146 -0.01977244 0.1425227
0003c0 33 dd 54 3d dd 70 a1 3a d7 59 99 3d 05 cc bb bd
       0.051968765 0.0012316961 0.07487839 -0.09169773
0003d0 65 9b 90 bd f0 fd 13 3d 0d 07 d2 3d 9d d7 8d 3d
       -0.07060889 0.036130846 0.10255251 0.069258906
0003e0 09 ee 85 bd df 40 c9 bd 94 da 9f 38 5b 23 64 bd
       -0.06539542 -0.09826826 7.622424e-05 -0.05569778
0003f0 df 2d d4 bd 56 61 92 3c 35 7c 4e 39 e4 0b d0 bd
       -0.10360312 0.017868679 0.00019691962 -0.10158518

l2.bias f4 [256]
000000 02 44 4e 3d 10 7e 6b 3d 5e a5 7c 3d cf a9 8f 3d
       0.050357826 0.05749327 0.061681144 0.0701481
000010 a7 3e 54 3d 02 ad 6c 3d 23 b1 57 3d 58 81 76 3d
       0.051817562 0.05778218 0.052659165 0.060181946
000020 cb 59 83 3d 03 9d 51 3d 66 fe 8a 3d a4 8f 1a 3d
       0.06413611 0.05117513 0.06786804 0.037734643
000030 5b 63 42 3d 51 4a 44 3d 2e 02 69 3d 3c ae 75 3d
       0.047458034 0.047922436 0.056886844 0.059980616
000040 24 54 53 3d 63 56 51 3d 0d ba 86 3d 1a d8 3c 3d
       0.051593915 0.051107775 0.06578455 0.046104528
000050 df 19 43 3d 1a 23 2e 3d 83 8c 61 3d 28 bf 6d 3d
       0.047632094 0.042513944 0.055065643 0.05804363
000060 14 b1 6c 3d 2a 48 5b 3d ac 19 59 3d 69 7c 7b 3d
       0.057786062 0.053535618 0.053003 0.061397944
000070 75 f7 63 3d 5b c7 7e 3d 40 4e 87 3d 8f 9d 36 3d
       0.055655915 0.06220184 0.06606722 0.044583853
000080 53 10 56 3d 1e 6c 86 3d b2 30 8f a0 83 36 76 3d
       0.05226166 0.065635905 -2.4257366e-19 0.06011058
000090 e5 22 5b 3d 4e 2c 7c 3d fb 6f 73 3d fc 56 5c 3d
       0.053500075 0.06156569 0.059432965 0.053793892
0000a0 a2 03 63 3d 2a 02 70 3d da c7 33 3d 18 46 39 3d
       0.055423386 0.058595814 0.043891765 0.045232862
0000b0 61 82 6b 3d 10 d1 44 3d e2 84 4f 3d 64 4f 62 3d
       0.057497386 0.04805094 0.050663836 0.055251494
0000c0 a1 30 82 3d 85 d2 5a 3d ab 52 74 3d 20 e3 68 3d
       0.063569315 0.053423423 0.05964915 0.05685723
0000d0 10 3d 81 3d fd 51 4f 3d d3 4d 98 3d 01 c8 6f 3d
       0.06310475 0.0506153 0.07436719 0.058540348
0000e0 d1 64 4d 3d 09 5f 77 3d 0d 63 5b 3d 95 ea 65 3d
       0.050144974 0.060393367 0.05356126 0.056131918
0000f0 72 6b 4b 3d 83 9e 36 3d 93 26 76 3d 43 1f 5f 3d
       0.049663015 0.044584762 0.06009538 0.054473173
000100 bd ff 7b 3d 5d 90 87 3d 95 77 57 3d 9c 3d 85 3d
       0.061523188 0.06619332 0.052604277 0.06505892
000110 5a 7f 82 3d 07 e0 62 3d bf 3b 31 3d 43 95 3c 3d
       0.06371947 0.05538943 0.04326987 0.046040785
000120 25 3d 70 3d e1 6e 47 3d d3 16 8e 3d 58 25 5e 3d
       0.058652062 0.048689727 0.06937947 0.054234833
000130 15 3a 80 3d 56 f6 61 3d bc 0d 2d 3d 10 d3 58 3d
       0.06261078 0.055166565 0.042249426 0.05293566
000140 84 62 5a 3d db 7d 57 3d 46 49 8f 3d da 67 7d 3d
       0.053316608 0.05261026 0.06996398 0.06186662
000150 0c ca 4a 3d a0 13 79 3d a6 90 3e 3d a5 b8 4b 3d
       0.049509093 0.06080973 0.046524666 0.049736638
000160 e0 09 1f 3d 98 74 64 3d 6b 7d 7f 3d 96 2d 1f 3d
       0.038827777 0.055775255 0.062375467 0.038861834
000170 d5 19 6a 3d cd dd 39 3d 0e 48 5e 3d 00 48 62 3d
       0.05715354 0.04537754 0.054267935 0.055244446
000180 11 00 63 3d 25 31 5f 3d cd 29 7b 3d 1c d5 5c 3d
       0.055419985 0.054490227 0.06131916 0.053914174
000190 8f a5 72 3d c5 bf 36 3d 9e b9 81 3d 90 2a 55 3d
       0.05923992 0.04461648 0.06334232 0.052042544
0001a0 60 59 5f 3d 65 6b 5d 3d 03 7b 69 3d 01 ad 83 3d
       0.054528594 0.054057498 0.05700208 0.06429482
0001b0 0d d1 60 3d 04 c5 5f 3d ed cb 4f 3d e0 15 3e 3d
       0.054886866 0.054631248 0.05073159 0.04640758
0001c0 68 b6 41 3d a6 f9 67 3d 61 9f 63 3d df 11 4f 3d
       0.047293097 0.056634568 0.055571917 0.050554153
0001d0 da 23 3b 3d 0c 84 3f 3d bd 44 42 3d 32 f4 74 3d
       0.045688488 0.04675679 0.047428835 0.059803195
0001e0 6b d4 88 3d c4 a4 6a 3d 8e 93 8c 3d ee f4 7a 3d
       0.066811405 0.05728604 0.06864081 0.06126874
0001f0 77 d3 5c 3d 98 e2 42 3d bd fe 69 3d 53 1c 69 3d
       0.053912606 0.047579378 0.057127703 0.056911778
000200 78 3f 66 3d c5 57 63 3d 79 a1 73 3d 34 1e 5f 3d
       0.056212872 0.055503625 0.059480164 0.054472163
000210 f7 04 47 3d ea ee 33 3d 59 25 3a 3d 2d cb 6e 3d
       0.04858872 0.043929018 0.045445774 0.058299232
000220 25 78 3f 3d cd ca 40 3d 8a 4a 77 3d 0e ce 67 3d
       0.046745438 0.047068406 0.06037382 0.056592993
000230 4a d8 50 3d 17 cf 3c 3d 90 3b 52 3d f0 7e 5a 3d
       0.05098752 0.046095934 0.051326334 0.053343713
000240 2c 5c 44 3d e2 52 4f 3d cc fa 4f 3d 68 08 47 3d
       0.047939464 0.050616153 0.050776288 0.048592
000250 d3 74 95 3d 43 d2 87 3d ab 53 5b 3d 28 89 74 3d
       0.07297673 0.06631901 0.05354659 0.059701115
000260 61 51 6d 3d 12 ab 5d 3d 79 b4 83 3d b1 0c 2e 3d
       0.057938937 0.054118223 0.06430907 0.042492572
000270 c8 79 5e 3d 92 01 4d 3d d3 62 5b 3d 86 9d 64 3d
       0.05431536 0.050050326 0.053561043 0.05581429
000280 70 28 79 3d 31 3e 63 3d 5c 57 2a 3d 38 fc 53 3d
       0.06082958 0.055479232 0.04158722 0.051754206
000290 ba 0c 5b 3d 4a 23 68 3d 4d b0 48 3d 5e fc 78 3d
       0.053478934 0.05667428 0.04899626 0.06078755
0002a0 3a 3f 81 3d 5b 5e 49 3d 48 a2 69 3d f2 47 81 3d
       0.06310888 0.04916225 0.05703953 0.063125506
0002b0 ca cb 5a 3d a1 14 4e 3d da 37 6a 3d db b8 5c 3d
       0.053417005 0.050312642 0.05718217 0.05388723
0002c0 89 ad 78 3d 6b 17 3a 3d a0 11 2d 3d 72 75 7c 3d
       0.06071237 0.04543249 0.042253137 0.061635442
0002d0 be a1 6e 3d ca 65 4b 3d 27 90 7d 3d b2 18 51 3d
       0.058259718 0.04965762 0.061905053 0.051048942
0002e0 28 cf 58 3d 5a 47 7f 3d fa 53 7e 3d 58 76 56 3d
       0.052931935 0.062323906 0.062091805 0.052358955
0002f0 95 6b 51 3d 9b ce 49 3d 7b 50 73 3d ee 49 31 3d
       0.05112799 0.0492693 0.059402924 0.043283395
000300 58 94 33 3d da 32 47 3d cb bf 54 3d 12 28 6d 3d
       0.043842643 0.04863248 0.05194072 0.057899542
000310 e9 2a 57 3d 7f 57 4e 3d b6 0b 83 3d f2 eb 43 3d
       0.052531157 0.05037641 0.06398718 0.047832437
000320 cc e1 4f 3d b9 92 64 3d 5d 86 3e 3d 4d ff 51 3d
       0.050752446 0.055803988 0.046514858 0.051268864
000330 a1 1f 43 3d 1d 00 4b 3d 58 29 4f 3d 9a 9c 3c 3d
       0.047637586 0.049560655 0.050576538 0.046047784
000340 17 9d 44 3d 28 f3 1d 3d 73 d9 59 3d b3 b2 3a 3d
       0.048001375 0.03856197 0.05318589 0.045580577
000350 87 93 7c 3d 4f 25 61 3d cc 1f 84 3d 5e 10 8b 3d
       0.06166413 0.05496722 0.06451377 0.06790231
000360 47 99 60 3d a3 fd 72 3d a0 65 13 3d 84 80 6a 3d
       0.054833677 0.059323918 0.03598559 0.05725147
000370 5b 57 62 3d f2 04 88 3d 26 1f 78 3d 69 2a 6f 3d
       0.05525909 0.06641568 0.06057658 0.058390055
000380 9d 2e 58 3d 78 8a 4b 3d 4a bf 46 3d ce a2 85 3d
       0.05277883 0.0496926 0.04852227 0.06525193
000390 98 5a 6f 3d e4 b9 59 3d 23 95 86 3d 2d 81 5d 3d
       0.058436006 0.053155795 0.06571414 0.05407827
0003a0 cb d6 5e 3d 2d 11 71 3d 9e b7 3f 3d a5 78 56 3d
       0.05440406 0.05885427 0.04680597 0.05236115
0003b0 e8 6d 1c a0 4c 83 53 3d 7d 1e 4a 3d b0 f1 46 3d
       -1.3250079e-19 0.051638886 0.049345482 0.048570335
0003c0 aa 1a 98 3d d1 6d 51 3d e6 3a 48 3d 3c 01 1f 3d
       0.07426961 0.05113012 0.048884295 0.038819537
0003d0 3e 5e 71 3d 2e 14 0c 3d 30 92 80 3d 3f 7d 6f 3d
       0.058927767 0.034198932 0.06277883 0.058469053
0003e0 4c 24 64 3d 4a 57 46 3d ff 7d 48 3d 2a e8 57 3d
       0.055698678 0.04842309 0.048948284 0.052711643
0003f0 e6 71 52 3d 5c 2c 88 3d b8 d4 27 3d aa e8 8b 3d
       0.051378153 0.06649086 0.04097435 0.068314865
