code/save/model_delta/model_delta_repr_9.pt (torch, 356000 bytes, 4 tensors)

embed.weight f4 [59, 128]
000000 c4 34 c0 3e 4b ce 80 3e bf 76 98 be 49 c8 88 3e
       0.37540257 0.2515739 -0.29778096 0.26715305
000010 fe e3 33 be 49 b6 49 be a0 b6 9e 3d 8d fa 8b 3e
       -0.17567441 -0.19698443 0.07749677 0.27339593
000020 11 0d f5 3d e4 86 b5 3e 16 e4 3a be 33 97 19 be
       0.11965383 0.35454476 -0.1825107 -0.14999084
000030 ba 82 57 3e ae 03 3e 3e 12 4f a0 3e fe 92 60 3e
       0.21045962 0.18556091 0.31310326 0.21931073
000040 9b 8d 8e be bd 63 a3 3d 37 9d 73 3d 2c 4e 95 be
       -0.2784241 0.07978008 0.059476104 -0.29161203
000050 37 05 b4 3d 02 42 8e be 07 18 ad 3e 2f c1 83 3e
       0.08790057 -0.27784735 0.33807394 0.25733325
000060 80 fb 72 3e 6e 3b c0 bd ce 5d c9 bd 2c 6c 09 3e
       0.23728752 -0.09386335 -0.09832345 0.1342017
000070 b3 96 2a be 37 22 83 be 5b b3 50 be a9 47 13 3e
       -0.1665905 -0.2561204 -0.20380919 0.14382805
000080 fe 42 a3 be ab 0c 86 be 61 ad f3 3e 55 f2 40 3e
       -0.31887048 -0.2618154 0.47593215 0.18842442
000090 f7 25 5b be bc f0 ee 3b 9c ea a4 3e f7 93 9b 3e
       -0.21401201 0.0072918814 0.32210243 0.30386326
0000a0 29 8a e5 bd ee 48 99 3e a4 4e 92 be 13 7f 86 3e
       -0.112079926 0.29938453 -0.28575623 0.26268825
0000b0 af 21 1e 3e 39 39 e5 3e 96 10 53 be b6 04 97 3e
       0.15442537 0.4477022 -0.20611796 0.29495782
0000c0 cb 88 0a 3e 5b e9 61 be 0e c2 a1 be 36 55 c1 bd
       0.13528745 -0.22061674 -0.31593364 -0.09440081
0000d0 9e 59 98 be 04 a7 b1 3e 52 67 29 3e b4 34 b5 be
       -0.29755872 0.34697735 0.1654332 -0.35391772
0000e0 57 c7 c2 be 0b 32 76 3e 35 25 a5 bd a3 be 81 be
       -0.3804271 0.24042527 -0.08063737 -0.25340757
0000f0 8e 64 61 be 3d 9a b6 be ed ae 35 3e 8a 7f 70 be
       -0.22011015 -0.3566455 0.1774251 -0.23486152
000100 9b e5 3f 3e b1 15 c3 3d e4 a2 c3 3d 8d ff 5f be
       0.18739931 0.09525622 0.09552553 -0.21874829
000110 a8 59 57 3e 7e a3 5e bd 38 7c 6a 3e bf 83 de 3d
       0.21030295 -0.054355137 0.22898948 0.10864972
000120 27 ee 4a bd 2c 2c 32 be 99 b3 14 3e c7 c9 51 be
       -0.049543526 -0.17399663 0.14521636 -0.20487128
000130 0c 54 9a be fb 25 86 3e 82 1e 82 3d 66 00 47 bd
       -0.30142248 0.26200852 0.06353475 -0.048584364
000140 8a e3 7c be b6 18 1d be 97 92 86 3e 64 7a 96 3e
       -0.24696174 -0.15341458 0.26283714 0.29390252
000150 27 37 74 be 5d 6f 01 be 41 7c 71 be f7 db 57 be
       -0.23849164 -0.12640138 -0.23582555 -0.21080004
000160 a5 cb 42 3e 20 87 5f 3e 91 3c 44 3e 23 17 af bc
       0.19022997 0.2182889 0.19163729 -0.021373337
000170 a3 8a bc bc f1 de 72 be 18 5d df 3d 85 da 37 be
       -0.023015326 -0.23717858 0.10906428 -0.17954452
000180 fd e6 ca 3e ea 4c 9d be a2 ed 70 be 61 5f 9c 3e
       0.39629355 -0.30722743 -0.2352815 0.30541518
000190 17 be 66 bd 76 c7 2e 3e 6e a7 b7 3e e6 8d a7 be
       -0.056333628 0.17068276 0.35869926 -0.32725447
0001a0 81 63 6b 3e f5 35 a3 3e 28 e1 72 be 31 92 85 3e
       0.22987176 0.31877103 -0.23718703 0.26088098
0001b0 a6 32 aa be 3d 61 9b 3e b5 ef fa bd 30 88 a5 3e
       -0.33241767 0.30347624 -0.12252752 0.32330465
0001c0 c4 f3 89 3d 1f d3 98 bc e2 d7 89 be 78 50 24 3b
       0.06735948 -0.018655358 -0.26922518 0.0025072377
0001d0 ab e3 1d bd d0 93 1e be 8c 3e d3 bd 29 35 1e 3e
       -0.0385472 -0.15486073 -0.10314664 0.15449966
0001e0 04 b5 eb bb b6 23 0d 3e de 45 8b 3e 04 38 91 be
       -0.0071932096 0.13783154 0.27201742 -0.2836305
0001f0 8a 54 64 3e 1d b8 89 be a2 54 a8 be 41 f8 db 3e
       0.22297874 -0.2689828 -0.3287707 0.4296284
000200 d4 06 00 bd e6 30 a8 be 13 df 66 be e3 4b bb bd
       -0.03125651 -0.32849807 -0.22546034 -0.091453336
000210 07 a9 be 3c e6 9a 4b 3e 26 6e 21 3e 57 99 b7 3e
       0.023273958 0.19883308 0.15764675 0.35859177
000220 96 ad ab bd a4 b3 81 bd a2 d7 a6 be 18 57 77 3e
       -0.08382718 -0.06333092 -0.3258639 0.24154317
000230 02 8f 72 3e 83 9e 8f 3e 92 35 46 3e ad 36 65 3e
       0.23687366 0.28050622 0.19356373 0.22384138
000240 cb 53 1f 3e 7e 45 91 be c0 fa 1b 3e fd f7 c1 3e
       0.15559308 -0.2837333 0.15232372 0.37884513
000250 b5 9a 10 be 24 45 67 3e eb 33 22 3e 92 57 a3 be
       -0.14121516 0.22584969 0.15840118 -0.31902748
000260 6d e9 7e be 0c d7 f0 bd 40 87 bf bd cb 27 99 3e
       -0.24893732 -0.11759767 -0.09351969 0.29913172
000270 c9 a0 c5 3e 06 39 92 3e 11 b4 20 3e a1 8c 98 3d
       0.38599232 0.2855913 0.1569369 0.07448698
000280 9f 34 20 3d 82 77 08 3d 72 f8 6e 3e 59 a5 eb bd
       0.039112683 0.033317097 0.23336962 -0.11506147
000290 96 ae 19 3e 64 8c 91 be 88 13 9e 3d b1 3c 29 3d
       0.15008005 -0.28427422 0.07718569 0.041317645
0002a0 d1 20 1c 3e 43 82 83 be 6e 60 8e be 41 f9 a6 3e
       0.15246893 -0.2568532 -0.27807945 0.3261204
0002b0 f8 0f 96 be dc e6 05 3d ca ad 10 be 71 42 0e 3e
       -0.29309058 0.032690868 -0.14128795 0.13892533
0002c0 f3 d8 b9 3e df 26 7e be 07 48 b4 3e 56 9f 88 be
       0.36298332 -0.24819516 0.35211203 -0.26684064
0002d0 eb 9c 38 be f4 3d dd bb 0b fe cd be bf 3c 8e 3e
       -0.1802861 -0.00675177 -0.40232882 0.2778072
0002e0 e5 b5 b4 be b4 5e 11 be f0 02 57 be 74 97 18 be
       -0.35295025 -0.14196283 -0.20997214 -0.14901525
0002f0 af 22 34 be a4 c2 5c be fa e4 89 bd d4 34 d3 3d
       -0.17591356 -0.21558625 -0.06733127 0.103128105
000300 6b 2a 86 3e 88 ec 81 be fb f9 4b be ef d5 78 be
       0.26204237 -0.25375772 -0.19919579 -0.24300359
000310 6a 7c 67 3e b4 69 b1 3d ca 20 11 be fa 47 ee bd
       0.22606054 0.086627394 -0.14172664 -0.11634822
000320 8e dc 0c be e1 c1 9f 3e 24 54 91 bb dc 30 79 be
       -0.1375601 0.31202605 -0.004435079 -0.24335045
000330 a0 a6 ca 3e d9 7f 26 be 0b 94 a0 be 86 4e 8e be
       0.3958025 -0.16259708 -0.31362948 -0.27794284
000340 c8 18 49 3e c6 b8 07 3e eb fc d4 bd 66 f3 a7 3e
       0.1963836 0.13254079 -0.10399803 0.32802886
000350 b0 d2 08 3e 87 ec 88 3e cd 38 92 be 14 16 25 3e
       0.13361621 0.26742956 -0.2855896 0.16121703
000360 b6 0d 8b be ad b6 a0 3d 01 69 6b bd c9 af 67 3e
       -0.27158898 0.07847343 -0.057473186 0.2262565
000370 93 41 e4 bd 5e 9e 65 be d8 55 ba 3e af 3b ce 3e
       -0.1114532 -0.22423694 0.3639362 0.4027991
000380 ee bd 53 3c ea 6e 85 3e 09 4e cb be ea a6 7d 3e
       0.012923701 0.26061183 -0.39707974 0.24770704
000390 03 1f 60 be 60 88 89 3e 99 4f 05 be 5b 40 42 bc
       -0.2188683 0.26861858 -0.13018645 -0.011856164
0003a0 79 95 2a be 6a a9 ad be 6d 04 03 3d 09 12 93 be
       -0.16658582 -0.33918315 0.031986643 -0.28724697
0003b0 18 20 93 3e bf 44 91 bd 65 ea a9 be cb aa a5 be
       0.28735423 -0.070931904 -0.3318664 -0.32356867
0003c0 0b 0c 53 3c f6 e1 48 be df 8b 15 3e f6 5c ac be
       0.012881289 -0.19617447 0.14604138 -0.33664674
0003d0 31 53 53 3e b8 dc 75 3e 72 a9 a6 3e f6 b7 a1 3e
       0.20637204 0.24009979 0.32551152 0.31585664
0003e0 08 5a f1 be a1 dd 1f be fb 65 9b 3e bc fd 1d be
       -0.47139 -0.15611888 0.30351242 -0.15428823
0003f0 28 85 cb 3e b6 c1 71 3e 5a 55 91 3e ba cf 9a 3e
       0.39750028 0.23609051 0.2838543 0.30236608

unembed.weight f4 [59, 256]
000000 ed 7c 9b be 65 0d 9a 3e 67 0d 06 3e a8 88 2e be
       -0.30368748 0.30088344 0.1309105 -0.17044318
000010 51 b1 9e be 03 3c 01 3e 8b b1 80 bd 3a 68 78 be
       -0.30994657 0.12620549 -0.06283864 -0.2425851
000020 cc 15 8c bd d8 ae 64 3e f8 4e 43 3e 29 33 87 be
       -0.06840095 0.22332323 0.19073093 -0.2640622
000030 0c 6f 03 3d 2b 0f 31 3e 93 88 2b be b7 f0 89 be
       0.032088324 0.17290942 -0.16751318 -0.26941463
000040 84 d6 88 bd 2d f8 bb 3e e1 09 cc 31 b3 24 86 be
       -0.066815406 0.3671278 5.9383045e-09 -0.26199874
000050 be ae 13 bc fb 4f 62 3e d4 93 81 be 46 b7 2e be
       -0.00901383 0.22100823 -0.25308096 -0.17062101
000060 a6 cf 3b 3e d0 40 67 3e 4d 4a 14 3e 8e 89 d0 bd
       0.1834093 0.22583318 0.14481468 -0.101824865
000070 3a 79 37 3e 95 2e 8a be d0 24 0e 3e 02 37 91 3d
       0.17917338 -0.26988664 0.1388123 0.0709057
000080 6c 51 5d 39 9e a1 94 3e a8 97 6b 3e f4 e8 a2 be
       0.00021106534 0.29029554 0.23007071 -0.31818354
000090 59 1c eb bd ad 3d f0 bd 4b 0e 86 be b7 ca e2 bc
       -0.11480016 -0.11730514 -0.2618278 -0.027684553
0000a0 ab 75 56 3e dc ca 70 be 8b a7 c3 be 22 5e 98 31
       0.20943324 -0.23514885 -0.38213763 4.434484e-09
0000b0 61 72 4a 3e d8 58 a5 3e 61 74 7f 3e 5d bf 61 3e
       0.19770195 0.32294345 0.24946739 0.22045656
0000c0 00 66 b7 be 51 ff ca 3d 6e 81 8e 3d 00 8a 29 be
       -0.35820007 0.09911979 0.069582805 -0.16556549
0000d0 35 76 a2 b4 fe d5 89 be 34 43 cd bd 2a d3 d4 3d
       -3.0260858e-07 -0.26921076 -0.100225836 0.10391839
0000e0 7b 8c 0a bd 0c 7c 89 be fa c4 60 3e df 20 62 3d
       -0.03382538 -0.26852453 0.2195014 0.05520713
0000f0 05 39 6e 3e f9 e8 6f bd 88 a8 9e be 07 1c 14 be
       0.23263939 -0.05857179 -0.30987954 -0.14463817
000100 55 e1 8e be 4b a7 69 bd 23 99 7b bc da 05 38 3d
       -0.2790629 -0.05704431 -0.015356335 0.044927455
000110 0b 84 57 be cb a8 a7 be c8 20 cf be f0 7b c3 bd
       -0.21046464 -0.32745966 -0.40454698 -0.095451236
000120 e6 8d fe 3d 2b 8f 7a 3e 2f 8d ae be 1b 50 57 3e
       0.12429409 0.24468677 -0.3409209 0.21026652
000130 ce 24 69 3e 86 3c a4 be 13 48 2c be aa 22 e5 be
       0.22767946 -0.32077426 -0.16824369 -0.4475301
000140 5c ba ce 3d 47 cd c4 be 03 1c 87 be ea 2d 65 3e
       0.10094139 -0.38437864 -0.2638856 0.22380796
000150 45 27 54 be 0a e1 a4 be 05 ef 46 3e 54 80 e5 3d
       -0.20718105 -0.3220294 0.19427116 0.11206117
000160 39 5f 4c 3e a2 5a d4 3d cd 5c 8e be 86 75 a3 3b
       0.199582 0.10368849 -0.27805176 0.004988375
000170 72 6f a1 3e 2d 9b a5 bd d3 83 92 be 38 f9 cd 3d
       0.3153034 -0.08086238 -0.286162 0.100573
000180 72 b7 6f be 4b 29 6a 3e 6d 9b 39 3d 44 ee 8a be
       -0.23409823 0.22867315 0.04531424 -0.27134907
000190 62 a1 08 3e 32 3e 40 3e 2f 53 6b 3e a0 9d a7 3d
       0.13342813 0.18773726 0.22980951 0.081843615
0001a0 72 74 98 be a5 3e 1c 3e 63 b6 00 3d 47 b7 e3 3d
       -0.2977634 0.15258272 0.031423938 0.11118942
0001b0 a0 eb 94 be e7 07 9f be 9b 70 a9 be dc b2 b3 3d
       -0.29086018 -0.31060717 -0.33093724 0.08774349
0001c0 1f 31 8c 3e ee 35 4a 3e df 23 6e 3e 83 8a 59 bd
       0.27381226 0.19747135 0.23255871 -0.05311061
0001d0 5b 6b 9e be 5a d2 5a 3e 5b 02 be be 2a 50 64 3e
       -0.3094128 0.21369305 -0.37111172 0.22296205
0001e0 5f 79 5a 3e ad 4d a8 3d fb 66 a1 3e ce 0d 82 bd
       0.21335362 0.082179405 0.3152388 -0.06350289
0001f0 b1 4e 9c 3e 75 73 8e be 08 32 aa b6 04 78 58 3e
       0.30528787 -0.27822462 -5.072219e-06 0.21139532
000200 c4 13 b7 3d 50 13 52 3e e0 8e 65 3e b2 e3 9d 3d
       0.08939317 0.2051518 0.22417784 0.07709445
000210 93 99 b0 32 15 ff 8f be 0e 2f 82 3e 78 2d 94 be
       2.0558934e-08 -0.281243 0.25426525 -0.2894094
000220 5b 3e 88 be 20 80 bb 3d 5c 9b d8 3d 43 9a af be
       -0.26610073 0.09155297 0.105765074 -0.3429738
000230 9b a0 81 be 1d cb 44 3e 72 81 75 be 27 91 9e 3b
       -0.25317845 0.19218107 -0.2397516 0.004839081
000240 8e a7 63 be 02 7d 59 3e 3d 36 b9 bd 62 47 a7 3e
       -0.22231886 0.21239093 -0.09043548 0.32671648
000250 83 85 4d 3e d0 32 a1 3e 91 0c 4c 3e 3c 84 90 3e
       0.20070462 0.3148408 0.19926669 0.28225887
000260 88 79 e4 bd 90 87 00 3e 54 ab 21 33 fe ad 26 3e
       -0.11155993 0.12551713 3.7641556e-08 0.1627731
000270 c0 14 2b 3d 45 fe 1f be 4c 33 a7 3e 0b 6c 18 3e
       0.041767836 -0.1562434 0.32656324 0.14884965
000280 8f c1 8c 3e 48 b7 bb be 25 90 56 3e d9 a2 9b bd
       0.27491423 -0.3666327 0.20953424 -0.0759942
000290 8d 0d bf be 0e d7 b3 3e 65 f0 ca bd 26 7d 24 3e
       -0.37315026 0.3512501 -0.09909133 0.16063365
0002a0 56 0f 98 be 08 ee 6b 3e 68 e5 93 3e 8c 85 47 3e
       -0.296992 0.2304002 0.2888596 0.19484538
0002b0 47 2d 9e be 56 9c 35 bd 1a 19 4b 3e 1f 2d 9b 3e
       -0.3089392 -0.044338547 0.19833794 0.30307862
0002c0 6f 1d 43 3e b2 05 38 3e fc 2a b1 be 00 ee 1b be
       0.19054197 0.17970923 -0.34603107 -0.15227509
0002d0 9d 4b 32 3e 16 52 63 3e 98 15 50 3e 07 a9 5d 3e
       0.17411657 0.22199282 0.20320737 0.2164651
0002e0 53 ac aa bd c6 c2 95 be 10 08 04 be 98 70 0a 3e
       -0.083336495 -0.29250163 -0.128937 0.13519514
0002f0 39 78 84 3e b3 0a a7 3e 9d 0c 4a 3e 92 d8 42 ba
       0.25872973 0.3262535 0.19731374 -0.0007432784
000300 03 92 fc bd 53 4d de 3d 12 a0 51 3e 63 e2 8a be
       -0.12332537 0.10854592 0.20471218 -0.27125844
000310 22 6d 5c 3e 89 4f 6c 3e a9 fc 48 3d eb 86 98 3e
       0.21526006 0.23077215 0.04906908 0.29790434
000320 47 d2 a4 be 18 33 72 3e 50 ec 2f bc f4 fe a2 be
       -0.3219168 0.23652303 -0.010737494 -0.3183514
000330 02 4b 7f 3e 39 b0 59 3e 95 2e 79 3d 14 23 0b 3e
       0.24930957 0.2125863 0.06083544 0.135876
000340 ac 76 8f 3e a3 0a 55 be 42 7d 08 3d ea ef b2 3e
       0.28020227 -0.20804839 0.03332258 0.34948665
000350 6c 9f 46 be 8b 11 76 be 54 78 4e be 1d 51 37 3d
       -0.19396752 -0.2403013 -0.20163089 0.04475509
000360 39 85 12 3e 43 3c 3d be 0f b6 7a 3e 28 f2 ac bd
       0.14308633 -0.1848002 0.24483512 -0.08444625
000370 a6 15 4b be e0 bd 3e 3e 09 71 46 3e db 91 86 bd
       -0.19832477 0.18627119 0.19379057 -0.065707885
000380 77 64 82 3e 95 9f 2a 3e 05 79 7b bc 14 7f 66 3e
       0.25467274 0.16662438 -0.0153486775 0.22509414
000390 02 65 b1 be b2 c2 e9 3c 11 2f 97 3d 3e 83 80 3e
       -0.34647375 0.02853522 0.07382024 0.2510013
0003a0 de 34 d1 3c 3a b8 31 3e 4a 72 64 3e 1f 99 80 3e
       0.025537904 0.17355433 0.22309223 0.25116822
0003b0 6e dc 4d 3e c5 e9 24 3e 2a d3 58 be 6f 17 3a 3e
       0.20103619 0.16104801 -0.21174303 0.18173002
0003c0 a3 5d 71 3e f4 f8 af be ed 08 e1 bd 06 53 c1 be
       0.23570876 -0.34369624 -0.109880306 -0.37758654
0003d0 57 6f af 38 49 45 9b bd 47 c5 63 3e db 70 12 3e
       8.365389e-05 -0.075815745 0.22243224 0.14300863
0003e0 c3 92 b4 be 7e 0d 6e 3e 25 ea 26 3e cb 43 84 3e
       -0.3526822 0.23247334 0.16300257 0.25832972
0003f0 76 2c 88 3e d2 51 46 3e 19 df 42 3e 5e 45 5f 3e
       0.2659642 0.1936715 0.19030418 0.21803805

l1.weight f4 [256, 256]
000000 cb ed 48 3e bf e0 66 be ff d7 cf bd 24 7d bb 3d
       0.19621961 -0.22546671 -0.1014862 0.09154728
000010 b4 f0 14 be 3c 85 e5 bd 9c af c2 bd 92 79 b5 3d
       -0.14544946 -0.11207053 -0.09506151 0.08861078
000020 7a 6c 78 3e 6c 3f 52 3e 9e 50 13 be f5 7c 75 be
       0.2426013 0.20532006 -0.14386222 -0.23973449
000030 ba 99 4a 3e 91 e7 36 3e 36 38 91 3d 89 1b 49 be
       0.19785205 0.17861773 0.070907995 -0.1963941
000040 c4 38 27 3e 7f d9 cd 3d a2 b8 fa 3d 41 ec e8 bd
       0.16330248 0.1005125 0.12242247 -0.11373187
000050 ca 54 0e be d7 92 5c 3d c4 85 f6 3d 80 96 7b be
       -0.13899532 0.053850975 0.120372325 -0.2456913
000060 98 56 64 bd b1 c6 86 3c d2 6e 1a 3e cf 86 25 3e
       -0.055746645 0.016452165 0.15081337 0.16164707
000070 5b a0 b0 bd 36 86 04 be 0d ff 3c 3e 4f 69 2e be
       -0.086243354 -0.12941822 0.18456669 -0.1703236
000080 fa 2b 50 be c6 79 b2 3c ce 46 6c be 8b 11 10 3e
       -0.20329276 0.021786582 -0.23073885 0.14069192
000090 da fa 5a be f5 8b ec bd f1 70 f9 3d 59 be e8 3d
       -0.21384755 -0.11550132 0.12179745 0.11364431
0000a0 be 40 ad be a0 8d f2 3d b5 63 2c be 15 9a 82 3e
       -0.33838457 0.11843419 -0.1683491 0.2550818
0000b0 4c a4 0f be 5f 11 42 3d 5f 62 36 3e 29 68 7a 3e
       -0.14027518 0.047379848 0.17810963 0.24453796
0000c0 57 85 8c be 16 52 27 be 4a 45 80 3d a7 1b 71 be
       -0.2744548 -0.16339907 0.06263216 -0.23545705
0000d0 6a 1c 14 be 19 fc 56 3e cf 51 b4 bd 94 31 23 be
       -0.14463964 0.20994605 -0.08804666 -0.15936881
0000e0 a9 ba 1c be 3f c8 80 bd 50 02 66 3e 77 79 7e be
       -0.1530558 -0.06288194 0.2246182 -0.24851023
0000f0 8e e1 48 be 77 54 30 be 3b 3a 08 be 80 73 1f be
       -0.19617292 -0.17219721 -0.13303463 -0.15571404
000100 b3 bb 3e 3e 56 98 8c 3e cf 65 2d be d3 af ee 3d
       0.18626289 0.27459973 -0.16933368 0.116546296
000110 4a d3 28 3d a6 84 cd 3d d8 9c 10 3e 12 5b 77 3d
       0.041217126 0.10035066 0.14122331 0.060389586
000120 c9 d3 84 be fd 00 42 be 3f ac 28 bd b1 54 62 be
       -0.2594283 -0.1894569 -0.04117989 -0.2210262
000130 f0 f0 1c 3e 27 db 15 3d 37 47 ca bd 54 5d 0c bd
       0.15326285 0.036585953 -0.098768644 -0.034268692
000140 81 d8 53 bd 37 a0 2c 3e 3d 30 56 3e 73 04 07 3e
       -0.051720146 0.16857992 0.20916839 0.13185291
000150 ab ee 89 3d eb 6e 37 3e 38 0b 91 be cb cd c2 3d
       0.067349754 0.17913406 -0.28328872 0.09511908
000160 26 76 22 be 2e 41 f8 bd 66 a5 96 be 44 bb ed 3d
       -0.15865383 -0.12121807 -0.29423064 0.11607984
000170 10 d0 01 be 57 d8 68 3d b6 1a 1c be 16 ee b8 bc
       -0.12677026 0.056846943 -0.15244564 -0.022574466
000180 2a b4 43 3e 15 b4 2c 3e 99 5c 2a be 6e f9 20 3c
       0.19111696 0.16865571 -0.16636886 0.009825094
000190 f6 26 ae 3c 36 06 2c 3d 03 c9 26 3e 6d c3 d0 bd
       0.021258812 0.04199811 0.16287617 -0.101935245
0001a0 2a fb 7e be ac 99 de bd aa 50 82 3d 60 31 71 be
       -0.24900499 -0.10869154 0.06363042 -0.23553991
0001b0 68 c3 42 be 3d 80 aa bd a8 d3 19 3e 9d c4 ea bd
       -0.19019854 -0.08325241 0.15022147 -0.11463282
0001c0 ac d2 db bd 63 0a 09 be e9 cd 67 3e 45 ed de 3d
       -0.10733542 -0.13382868 0.22637142 0.10885099
0001d0 d1 51 a9 3e 65 13 ba 3d e0 0a ba bd a7 1f 34 bc
       0.33070233 0.090857305 -0.090841055 -0.010993875
0001e0 71 c2 cf bd a2 27 4e 3d 87 fd 79 3e 1c 75 89 be
       -0.10144509 0.050330766 0.2441312 -0.2684716
0001f0 92 1d bf 3d 1f d2 4b be fa f4 11 3e 54 70 24 3e
       0.09331812 -0.19904374 0.14253607 0.16058475
000200 6b 2e 20 bd 13 38 f0 3d a4 f6 4a be 43 da 55 be
       -0.039106768 0.11729445 -0.19820648 -0.20884041
000210 f5 4a 82 3e 8b 3b df 3c 9f 72 0d 3e 61 2b b4 be
       0.25447813 0.027250072 0.13813256 -0.35189345
000220 0a 7d 10 bd 7f af fa bd f0 75 ed 3d 2b 56 30 be
       -0.035275497 -0.122405045 0.115947604 -0.1722037
000230 11 5a 0f 3e 94 d6 4a 3e 53 c3 2c be b0 49 86 be
       0.13999201 0.19808418 -0.16871385 -0.26228094
000240 7d 80 40 3c 0b 5f 43 3e 36 f0 08 3e 14 cd 38 bc
       0.011749384 0.19079225 0.13372883 -0.011279363
000250 69 af b4 bd 61 7b 12 be 20 bb e4 bd 88 a7 0d be
       -0.08822519 -0.14304878 -0.11168504 -0.1383344
000260 bb 3b 12 be ea bd 94 3d f6 c9 ff 3d 89 89 fe bd
       -0.14280598 0.07262786 0.12489693 -0.124285765
000270 a2 67 1d be ef af 09 be 87 4f 7e 3d c5 07 61 be
       -0.15371564 -0.1344602 0.062087562 -0.2197562
000280 b8 ea 67 3e 80 ce 84 bd fd 9d 44 be b1 0d 57 be
       0.22648132 -0.06484699 -0.19200893 -0.21001317
000290 5e ab 36 be bd 59 3c 3e 71 09 67 3e 08 6a 23 3e
       -0.17838809 0.18393607 0.22562195 0.15958416
0002a0 9f 0e 5f bb 59 ec 32 be 95 5f 17 3e 05 e0 e4 3d
       -0.0034035814 -0.17472972 0.14782555 0.11175541
0002b0 4a 96 89 3e 2e 79 19 3d e3 2b bd bc aa 3b 84 bb
       0.26872474 0.03746908 -0.023092216 -0.004035433
0002c0 cb 04 3f be 3c 8b e5 3d d3 13 03 be 92 74 25 3e
       -0.18654172 0.112081975 -0.12800531 0.1615775
0002d0 a6 62 1d 3e 2f 50 ba 3d 3c bb 94 3e 6c d5 59 3e
       0.15369663 0.09097325 0.29049098 0.2127282
0002e0 34 11 cb 3d 97 be 29 3d 36 ee 0a 3e 6e 06 64 3e
       0.099153906 0.041441526 0.13567433 0.22268078
0002f0 e7 6b f6 bd 2f 0a 41 3e 38 c9 41 be 2c da cf 3d
       -0.120322995 0.18851541 -0.18924415 0.10149035
000300 ac a7 2c be 03 2e 6e bd 5e 9a 7c 3e b2 b9 16 be
       -0.16860837 -0.05814935 0.24668261 -0.14719275
000310 7e 9d 18 be 05 d6 0d 3e c4 1a 49 be 3a de 06 bc
       -0.14903829 0.13851173 -0.19639117 -0.008231694
000320 c3 51 b5 3d 99 4b 17 3e a9 0a 79 be ef ea 5d 3d
       0.088534854 0.14774932 -0.24320473 0.05417913
000330 a2 90 26 be 4d 20 45 be 51 ab 56 3e 1e 1f 8e 3e
       -0.1626611 -0.19250603 0.2096379 0.27758116
000340 1c 84 74 3e 8a d1 be 3d 73 eb 5b 3c b4 0f 81 be
       0.2387852 0.0931731 0.013422835 -0.25207293
000350 ef 83 79 3e a1 12 e1 bc ed 85 58 3d 2f 2a 0b 3e
       0.24366735 -0.027474703 0.052862097 0.1359031
000360 c8 22 6c bd ba d5 5f be 72 cf 4d be 76 04 d6 3d
       -0.057650357 -0.21858874 -0.20098665 0.104500696
000370 17 d5 89 be 6b 55 3d 3e 46 cf 69 be 24 9b 9d 3d
       -0.26920387 0.18489616 -0.22832975 0.07695606
000380 a1 60 f6 3c cd 2d 51 bd fa 41 d2 3d d9 09 f1 3d
       0.030075373 -0.05106907 0.1026649 0.117694564
000390 b6 b5 d6 3d 65 52 4d 3e d2 41 b9 bc e2 01 20 3e
       0.10483877 0.20050962 -0.022614393 0.15625718
0003a0 de ed 82 be e1 e9 41 3e 41 28 7f 3e 6a 9a 70 bd
       -0.25572103 0.18936874 0.249177 -0.05874101
0003b0 c4 c1 69 be 58 b0 fd bd 0f 12 36 be e5 94 3c be
       -0.22827822 -0.123871505 -0.17780326 -0.18416174
0003c0 ad 12 61 3e 3e 59 08 bd 59 1b 88 be 05 b2 20 3e
       0.2197978 -0.033288233 -0.26583365 0.15692909
0003d0 4c a7 76 3d 53 13 2f 3e 06 c7 3d be c6 f9 75 be
       0.06021814 0.17097215 -0.18532953 -0.24021062
0003e0 5b 06 0a be b6 ab 1a 3e b7 ff 29 be 2b b6 f2 3c
       -0.13478987 0.15104565 -0.16601454 0.02962788
0003f0 76 26 31 bd 1a 6a 64 be ba a2 ea 3c b9 85 a0 bd
       -0.04324957 -0.223061 0.028642047 -0.078380056

l1.bias f4 [256]
000000 5c a3 14 3c 54 d5 b3 3b 51 b4 b8 ba 47 4a f0 ba
       0.009072151 0.005488077 -0.0014091824 -0.0018332683
000010 2b 4d 87 3b fc e8 f1 bb 44 5f 95 bb f2 4b c7 3b
       0.004129072 -0.00738251 -0.0045584757 0.0060820514
000020 67 82 2c bc c4 a3 a7 3b 70 f8 d1 3b 99 81 7b 3a
       -0.010529137 0.005115958 0.00640779 0.00095942017
000030 0c dd 1c 3d 11 0f 0e bc e4 b4 6b bc 92 d6 46 3c
       0.038296744 -0.008670584 -0.014386389 0.0121361185
000040 98 c5 a4 3c 71 55 a0 bc 62 d4 a5 2e 53 62 9a 3b
       0.020113751 -0.019571992 7.541058e-11 0.004711428
000050 b2 3e 87 3c 18 c1 24 3b e1 43 41 3b 66 f5 fe 3c
       0.016509388 0.0025139507 0.0029489922 0.031122874
000060 13 09 8a bc 47 5d 08 3b 38 4b bf bc cf 0a 0f bc
       -0.01685003 0.002080755 -0.023351297 -0.008730604
000070 4e 15 66 bc eb 61 3f 3d 4b 3f fe ba c6 60 12 3a
       -0.014043165 0.04672424 -0.0019397525 0.00055838784
000080 9d 7e 86 39 ce ed 51 bc f3 c3 d5 3b b3 2a 01 bc
       0.00025652806 -0.012813045 0.006523603 -0.007883715
000090 33 a9 d0 bb 16 b0 25 b9 c4 5b 09 3d 23 5c 42 bc
       -0.0063678264 -0.00015801223 0.03353478 -0.011862787
0000a0 7f 2a 82 3c 18 90 82 bc 6e cf 38 3d 74 52 50 31
       0.015889404 -0.01593785 0.045119695 3.0314853e-09
0000b0 7f bb 8b 3c 06 c2 83 bc ac f0 02 3c 16 74 71 bb
       0.017057179 -0.016083729 0.007991951 -0.0036842874
0000c0 ed 12 99 3a 3c 56 dd b9 2f fa 7f bc 13 c5 9c 3c
       0.0011678614 -0.00042216654 -0.015623613 0.019136941
0000d0 d3 72 d0 31 4b 7c 8d bd 96 ba 39 3b a8 e7 98 bb
       6.0666507e-09 -0.069084726 0.0028339974 -0.0046662875
0000e0 1a 45 7a 3b 69 1d 34 3c 08 26 b3 ba ce ed 9a 3c
       0.003818816 0.01099334 -0.001366795 0.018912222
0000f0 cb ed 63 3c ef 1f 60 3c 73 00 91 3c 36 54 bc bb
       0.013911675 0.013679489 0.01770041 -0.0057473434
000100 b8 8f ad 3c 69 b9 53 3c 5c fa db 3a 11 67 af bc
       0.021186695 0.012922623 0.0016782987 -0.02141145
000110 f4 f6 2d 3b 31 a4 ab bb f2 38 64 bc d9 59 20 bd
       0.00265449 -0.005238079 -0.013929592 -0.039148185
000120 0c 00 70 bc 5e d3 16 bc 4e 44 a3 3c 4c 86 ec bb
       -0.014648449 -0.009205667 0.019930031 -0.007218158
000130 f6 8c 8f bb 51 a1 05 3c 7e bf 90 3b be af 25 3b
       -0.0043808175 0.008156137 0.004417359 0.0025281752
000140 6f 9b e8 bc 7d 29 5c bc de 52 33 3d 83 c8 83 3b
       -0.028394429 -0.013437626 0.0437802 0.0040217056
000150 16 e1 9b 3b 56 09 a3 3b 53 0a 5c ba 46 54 8d 3c
       0.004757057 0.004975478 -0.00083938724 0.017252099
000160 ac e2 a5 3c 07 25 bb 3b bf 71 04 bc c5 64 2f bb
       0.020249687 0.005711201 -0.00808376 -0.0026762944
000170 b3 dc 44 bc cb 7d 93 3a 06 b8 7f bc ce 95 3a 3c
       -0.012015509 0.0011252699 -0.015607839 0.011388255
000180 97 53 46 ba 4e f7 65 bc bf ca 0a bd 76 31 6d 3c
       -0.00075655564 -0.014036013 -0.03388476 0.014477124
000190 39 8d 08 3c a4 34 96 39 46 3f cd bc 87 80 5e 3c
       0.008334451 0.0002864945 -0.025054585 0.013580448
0001a0 83 c8 7c bc 1c c2 38 3d a1 64 81 3c cb 19 94 3c
       -0.015428665 0.045106992 0.015795054 0.018078705
0001b0 a6 73 37 bc 16 8a 3f 3b 5a 07 aa 3b 04 14 18 ba
       -0.011197006 0.0029226593 0.0051888647 -0.00058013224
0001c0 e5 31 56 3c ba e3 2c bc 23 e1 85 b9 fc 6f 50 3a
       0.013073419 -0.010552341 -0.00025535477 0.0007951257
0001d0 29 64 4c 3b cc 84 0b bc b5 65 fe 3b 03 4e 88 3c
       0.003118763 -0.008515548 0.0077635893 0.016638761
0001e0 53 b9 47 3b ce c6 81 3b 16 4c 96 3c 32 d2 0f bb
       0.0030475452 0.003960467 0.018346827 -0.0021945355
0001f0 97 79 ba bb 06 c5 2c 3d d0 76 f2 34 dd 96 2a b9
       -0.005690764 0.042180084 4.516246e-07 -0.00016268664
000200 0a e2 11 bc 7c b3 4f bc ac 31 52 bc 45 72 0a bc
       -0.00890399 -0.01267707 -0.0128292255 -0.008450096
000210 ee 22 85 33 2c 02 2e 3c e0 fd 4d 3b e1 66 d1 bb
       6.199649e-08 0.010620635 0.003143184 -0.006390438
000220 40 58 5e bc 52 ea 7d 3b 30 79 86 bb 70 20 4e 3c
       -0.013570845 0.0038744402 -0.004103802 0.012580976
000230 60 74 1f bc 03 e9 a4 3c d8 51 58 bb 63 be 7b 3c
       -0.009732336 0.02013064 -0.0033007767 0.015365216
000240 22 ac cf 3b 64 44 f3 3a c7 37 72 3d f5 db 8f bc
       0.0063376585 0.0018559811 0.059135225 -0.017560938
000250 27 dd d4 bc 3b 00 13 3b 3b 73 2a b8 3b 23 af 3c
       -0.02598436 0.0022430557 -4.0638475e-05 0.021379104
000260 e9 a3 3e bc 31 7f 8e bc 7a 9d 06 b2 a9 05 25 bc
       -0.011635759 -0.017394634 -7.835633e-09 -0.01007215
000270 5d 7a 96 3c a5 4a 33 3c ad 91 10 bc 07 de 59 3c
       0.018368894 0.01094309 -0.008823794 0.013297564
000280 8f 2b d0 bb dd cb f1 3b 8e 1c 5c 3c d2 01 99 3b
       -0.006352849 0.0073790387 0.013434542 0.0046694065
000290 da 6e a9 3b 55 5d 3e 3c 1f 4d 90 bc ba 98 44 bb
       0.0051706852 0.011618932 -0.0176149 -0.0029998259
0002a0 7d 61 3f bc 7c 7c 1b bd 49 c8 fc 3b 98 d6 c7 bc
       -0.011680958 -0.037960514 0.0077143055 -0.024394318
0002b0 a7 ab 21 3d 28 41 a1 3b dc 08 11 bb d7 a7 6e 3a
       0.03947034 0.0049210973 -0.0022130525 0.00091039896
0002c0 14 5e 5e bc 5c 88 5e 38 34 54 a3 bb 4f 1f 9d 3b
       -0.013572235 5.305592e-05 -0.004984403 0.004794992
0002d0 20 28 2b bd b4 d6 b6 bc 37 06 56 3c 46 13 02 3d
       -0.041786313 -0.022319175 0.013063005 0.03175666
0002e0 3a a0 7e 3c ed 18 62 bb f5 bb b1 3c f7 a7 e4 3b
       0.015541131 -0.003449972 0.02169607 0.006978031
0002f0 c3 f5 86 3c 1f 95 bb 3c b1 3b 38 3a 26 e4 9d b9
       0.01647461 0.022898255 0.00070279377 -0.00030115357
000300 54 33 43 3c 28 3e e6 bc a7 bb 63 3c 68 59 42 3c
       0.011914093 -0.02810581 0.01389972 0.011862136
000310 f4 89 7f bc 23 f2 fd ba a5 d7 fd 3c 12 43 7b 3c
       -0.015596855 -0.001937453 0.030986616 0.015335815
000320 7a 78 4e 3d 81 31 0d bc a8 5f 31 bb 66 98 70 3b
       0.050407864 -0.00861776 -0.0027065072 0.003671193
000330 13 dd 50 3c b1 65 83 bd b8 31 7f bc 99 6c 1c bc
       0.012748021 -0.064158805 -0.015575819 -0.009547376
000340 da 04 ec 3b 7d 7e 61 bb e3 5d 00 3b 1e 17 0c 3d
       0.007202727 -0.0034407668 0.001958721 0.034201734
000350 75 69 53 3c a1 65 9c bc 9e d2 99 bb 4c 65 3e bb
       0.012903561 -0.01909143 -0.004694297 -0.0029052077
000360 f8 2f 21 3b 38 1f ee 3c ca 22 91 bc d9 13 01 3b
       0.0024595242 0.02906762 -0.017716784 0.0019695668
000370 08 a7 13 3c 37 cd 2d 3c 9b aa 11 bc ee 7b b4 bc
       0.009011991 0.010608009 -0.008890773 -0.02203175
000380 67 77 92 3a 19 2d 05 bc 0d 8d 02 3d 1f 99 86 bc
       0.0011174501 -0.008128428 0.031872798 -0.016430436
000390 7f bb 67 bc 7f 12 c0 3b 71 4e 45 39 4a 07 1f 3c
       -0.014143824 0.00586158 0.00018816606 0.009706328
0003a0 f8 ed 8a 3c ae 19 ae 3a 1b b5 fd bb cc 7c 32 bc
       0.016959175 0.00132828 -0.0077425367 -0.010894012
0003b0 37 8d 81 3c 82 9c a1 bc 8e 96 37 3c 63 3d a4 3c
       0.015814407 -0.019727949 0.011205329 0.020048803
0003c0 3e b1 46 bc 84 05 2c 3d 8a aa f2 ba 98 5d 16 3d
       -0.012127219 0.041997448 -0.0018513959 0.03671035
0003d0 84 fb 98 37 e9 da 32 3c f6 5f 94 3c fe 01 55 3c
       1.8236933e-05 0.01091645 0.018112164 0.013000963
0003e0 19 c0 87 bc 74 b8 d0 bc 74 d5 87 3d e8 c2 88 bc
       -0.016571091 -0.02547858 0.0663251 -0.016694501
0003f0 24 8f 87 3a f7 62 12 3b 5f 8a 5e 3c 90 eb 1b ba
       0.0010342342 0.002233682 0.013582795 -0.00059478823
