code/save/model_delta/model_delta_repr_6.pt (torch, 356000 bytes, 4 tensors)

embed.weight f4 [59, 128]
00000000: eac8 2bbd c7d1 b1be c10f 92be 8d5f 0fbe
00000010: b818 83be 9109 733e b16e be3e 2324 2e3d
00000020: 79df 843e 8230 dc3d c513 793e acc7 19be
00000030: a333 d03e 7640 13be f46a 403d 5d9e 653e
00000040: 3535 c33e 6db0 86bd b376 89be b3e5 843e
00000050: 83fd 093e 6fa1 b83d f173 39be f958 b4be
00000060: cd8f bd3e 5755 b0be c0e9 223d e1fd d83d
00000070: fc29 353e ab50 17be c1a1 863e 83b6 4bbe
00000080: 9e0b 393e 0022 87be 211b 3a3e 8654 013d
00000090: b24d 873e 23c5 393e 258d 87bd 27c1 48be
000000a0: 432f b3bd 2019 813e 56ca a13e 33f9 603e
000000b0: a07b 363e f635 39be be7c 8cbe 933c b23e
000000c0: 1bf6 b9bd f3d6 97be e279 d53e d7f5 b2be
000000d0: 8d1d fc3d 8a21 bcbd 69be 6c3e efb4 8c3e
000000e0: 4cac 88be 1288 1c3e 3493 993c 161a 9bbe
000000f0: fad6 9d3e 87fe 963e 51e3 acbe 9e5f ca3d
00000100: 0ac6 c8be 77a7 f0bd d982 e2bd a83f 25be
00000110: d1f3 b2be cfd5 813e 5ea9 8b3e ad3f 8a3e
00000120: 0266 743e b748 9cbe 2327 ab3d 0244 683e
00000130: 33ed 8f3e 7653 73be 0bee 323e e8ce a53e
00000140: 2c25 e03e 99dc ef3d 460e 0cbe 3775 fabd
00000150: c9d0 26bd d0e4 d9be db8a 52bc 2939 92be
00000160: 17f2 853e c644 80be 3c6e a53d 0fa1 48bd
00000170: b652 443d cf21 47be 3a7f 573e 5472 973e
00000180: 141b 8ebe 7700 9d3d a946 c6be 17da af3e
00000190: 9dac 84bd 4e15 a7be 9931 21be 327c e33e
000001a0: 0679 6ebe b729 2c3e 3307 8fbe b1da 2e3e
000001b0: 401b 2a3e 3c67 adbd bec1 c2be d8b9 89be
000001c0: 89de 983e 8a2a 0d3d dd79 7c3e ce32 98bd
000001d0: ba74 c73e 783b a23e 7ecf 8f3e fdd3 86be
000001e0: 3ba2 2fbe 5e85 343e cd54 e4bc d7ac 98be
000001f0: bd35 933e c6eb 6abd b195 99be 0a30 893e
00000200: 4d02 94be 3843 833e b138 b63e 133d b83e
00000210: bb48 ca3e 3999 a33e 3705 00be fec0 2abe
00000220: 73a4 82be 6101 803e 8dee 2bbe c51c 77be
00000230: f7a0 3d3e 0202 2fbd 0992 91be 6dd2 79be
00000240: b662 be3e c641 833e 3856 a53d bde4 b13e
00000250: fcf0 bfbd a8cd 7bbe c40c 41be 1882 c33e
00000260: c5ea 78be 9097 8bbd 9642 993d c1ab 533e
00000270: 9577 af3e 5ebf b53d 5584 7bbe ffb3 cebe
00000280: 785e c4be 3cc5 58bd 5f75 253e 8130 c23d
00000290: dbcb 6abc b8a2 993e dba4 903e cdd6 a9be
000002a0: 38c2 4dbe a744 b43e 90e9 73bd 3980 853e
000002b0: 6cd8 b2bd 8fa3 48be 558c 8e3e 716f f9bd
000002c0: 463a 9bbe 58f3 05be c28f 84bd c7c7 3e3d
000002d0: 9320 d7bd 86b9 69be 30b5 f03c e189 53bd
000002e0: 2660 24be 8ce8 9bbe 3301 ba3e b5db 2e3e
000002f0: 6049 c6bd d829 c7be 0caa 903e 3d1a dc3e
00000300: f152 453d 2627 033e edcf 8ebe b7c9 c03e
00000310: 2108 343e 3cc4 37be 86bf c33e 7d14 9bbe
00000320: 9972 0fbe f93c 5c3e 75f0 9f3e b1db 2abe
00000330: ed3c 313e 52ab 743e 8c69 6b3e 722f 8cbe
00000340: 7370 833e 4a2a 6d3e 260a 5f3e 7208 adbe
00000350: 5eac 71be ef07 8b3e 22a0 4bbd c38d 98bd
00000360: 583d 863e b1d7 523e 3b2b 8abd e8d3 cabd
00000370: 8efd d4bd 4449 fa3e c86a 98be ddf3 0fbe
00000380: efb8 ddbd 18fd edbd 76b7 533e 39b0 4a3d
00000390: 6740 e8bc 165d 583e 337d 8abe 1b57 aabe
000003a0: 0779 95be 0c44 6f3e e7b4 50be f2e6 a1be
000003b0: e14c 263e d603 26be 0bc3 f83d a7d4 973e
000003c0: 57b3 89bb 2541 cdbe 1c18 8dbe f4e6 35be
000003d0: 10cc d1be 194c 8a3c 0d8f abbc 4416 8cbc
000003e0: af23 0cbe 0b86 8bbd f8ba af3e 38f8 693e
000003f0: af3c 5dbe 3f01 cc3e 614e 453e 464d a0bd
-0.041939653 -0.3473036 -0.28527644 -0.14001293 -0.25604796 0.23734118 0.37193826 0.04251493
0.25951746 0.1075144 0.24323948 -0.15017575 0.40664396 -0.14380059 0.046977 0.22423692
0.3812653 -0.06576619 -0.26848373 0.25956497 0.13475613 0.09015166 -0.18110634 -0.3522413
0.37023774 -0.3444011 0.039773703 0.105952986 0.17691797 -0.14776866 0.26295283 -0.19893841
0.18070838 -0.26393127 0.18174411 0.03157475 0.26426464 0.18141608 -0.06618718 -0.19604932
-0.08749249 0.2521448 0.31599683 0.21970062 0.17820597 -0.1808699 -0.2743892 0.3481184
-0.09080144 -0.2965618 0.41694552 -0.34953186 0.12310324 -0.091860846 0.2311951 0.2748179
-0.26693952 0.15286282 0.01874695 -0.3029334 0.30828077 0.29491064 -0.3376718 0.09881519
-0.39213592 -0.117506914 -0.110601135 -0.16137564 -0.34951642 0.25358436 0.27277654 0.27001706
0.23867038 -0.30524227 0.08357074 0.22682193 0.28110656 -0.23762307 0.17473619 0.3238442
0.4377836 0.117119975 -0.1367732 -0.12229388 -0.040726457 -0.42557383 -0.012850489 -0.28559235
0.26161262 -0.2505247 0.08077666 -0.048981722 0.04793044 -0.1944649 0.21044627 0.29579413
-0.27755034 0.07666104 -0.38725784 0.34346077 -0.06478236 -0.32633442 -0.15741576 0.4443069
-0.23288354 0.16812788 -0.2793518 0.17075612 0.16611958 -0.08466956 -0.3803844 -0.268996
0.2985728 0.034464397 0.24655862 -0.07431565 0.38956243 0.31685996 0.2808799 -0.2633361
-0.1715173 0.17629 -0.027872467 -0.29819366 0.28751937 -0.057353757 -0.29997018 0.26794463
-0.28908005 0.2563722 0.35590127 0.35984096 0.39508614 0.31952837 -0.1250199 -0.16675183
-0.2551609 0.25001052 -0.16790219 -0.24132068 0.18518434 -0.042726524 -0.28431728 -0.24396677
0.37184685 0.2563612 0.080730855 0.34744826 -0.09372136 -0.2459017 -0.18852526 0.3818519
-0.24308307 -0.06816018 0.074834034 0.20670988 0.3427092 0.08874391 -0.245622 -0.403717
-0.38353324 -0.052922472 0.16158055 0.09481908 -0.0143308295 0.30006957 0.28250775 -0.33171692
-0.2009362 0.35208628 -0.059548914 0.2607439 -0.087326854 -0.19593643 0.2784144 -0.12179459
-0.30317897 -0.1308111 -0.06472732 0.04657724 -0.1050426 -0.22824678 0.029383272 -0.051645163
-0.16052303 -0.30450857 0.3632904 0.17075999 -0.09681964 -0.38899112 0.28254735 0.42988768
0.048174802 0.12807903 -0.2789301 0.37653896 0.17581226 -0.17945951 0.38232058 -0.3028907
-0.1400856 0.21507634 0.31238142 -0.16685368 0.17308398 0.23893479 0.22989482 -0.27379948
0.2567173 0.23160663 0.21781215 -0.33795506 -0.23600909 0.2715449 -0.04971326 -0.07448914
0.26218677 0.20590092 -0.06746527 -0.09903699 -0.10399924 0.48884022 -0.29768968 -0.1405787
-0.10826289 -0.116205394 0.20675454 0.049484465 -0.028351022 0.2112926 -0.27048644 -0.3326958
-0.291939 0.23365802 -0.20381509 -0.3162151 0.16240264 -0.16212401 0.121465765 0.29654428
-0.004202287 -0.40088764 -0.27557456 -0.17763883 -0.40976 0.01688199 -0.020942235 -0.01710046
-0.13685487 -0.06812676 0.34322333 0.22848594 -0.2160518 0.398447 0.1926818 -0.07827239

unembed.weight f4 [59, 256]
00000000: b5db 613e ce7f e53d 5d49 01be b509 103e
00000010: 0ce9 663e 80dd 8fb7 5c5f 1db6 405f 7a3e
00000020: df8b eb3d 9369 413e 4ab6 963e a9e1 2537
00000030: ed76 b2be cb69 823e 22af 9fbe a8fb a63e
00000040: 55e8 973e c6b8 7eb6 a177 1f36 a635 8abe
00000050: 1de0 bd3c f129 8e3e 8d63 033e 7a6a a63e
00000060: dc11 e0be 1bda ffb2 3587 dfbe 070f 763e
00000070: c40d b8be aea1 b93d 4d49 b93e 4c23 38be
00000080: 73d4 8b3e c1f7 563e 9768 9bbe 8d06 96bc
00000090: 626b 83be ac83 98be abbc cfbb 24cb bcbe
000000a0: c659 edbd e07d a8bd 7be6 87b9 e9af 303e
000000b0: 18e3 c1be a0eb 0b3e 1366 563b 3980 8fbe
000000c0: 6244 163e 01a6 853e 18a2 a73e 63df 3d3e
000000d0: 85eb ad3d 3f94 62be 00a8 233e 4076 7d3e
000000e0: f820 bebd 7614 c6bd df30 65be e632 cc3e
000000f0: 5f63 a5b6 4751 debd f92c d63d db9f 053d
00000100: 977d 6b3e 8795 a5be 09de bcb6 58dc 893e
00000110: fcce ee3d 50cb e837 fc8d 723e 65cf abbe
00000120: 06ff 993d 301c aabc c9b8 b63e 47c0 af3e
00000130: af92 f7b9 5e42 133e 811b 8cbe 3ae9 8bbe
00000140: 076a fabd 7775 adbd e0c0 dab6 3d82 edbd
00000150: a30f bebe fb01 96be 8325 b5bd 677c df3d
00000160: f229 e9b7 157f a9be 69ad cfb7 7f5c 28be
00000170: 7cc0 5339 97c9 423e d36b c937 5690 32be
00000180: 9ed4 91be 3195 b5bd 42dc 572f 8902 8a3e
00000190: c7c7 1334 3148 473e 415f 773e fe0d 4ab8
000001a0: 9192 a33c 575b adbe 9b45 7a3e 6bd4 a53e
000001b0: fcf3 323d 2cc4 b7be 0b92 5f3e 5ffa d13d
000001c0: 9ce1 acbd 90c3 adbd 0888 b63d 5ba1 8fb6
000001d0: 26f4 5e3e 4190 ac35 b3a4 b83e e36f cf38
000001e0: 19e4 993e 0c13 78bd 62b9 5bbe 907b 3b3e
000001f0: c80c 65bd 1b49 223e e3e0 7734 329a 07be
00000200: 496c 8f3e 1609 e437 478e 71be b2b2 7237
00000210: 694c 933e 55d7 bbbd d8f9 a23e 8724 8fbd
00000220: 0660 e7b3 75a4 583b d2be 223e 9821 64be
00000230: b766 9a3e 9aae 1e3e 1b05 8a3e eea1 84b6
00000240: b844 823e 29e3 e53d f876 80b8 962b 45be
00000250: 3674 b03e eb25 9238 ad15 eabe 5b97 82be
00000260: 0243 febe 4539 583e 6c70 bbbd a470 2fbe
00000270: 500a 833e 364f 653e 632a b63d 7d6c 68b7
00000280: 1ceb a03d 8620 553e bd35 c8b3 addd 7c3e
00000290: 3105 603e e160 853e 253b 9db8 c928 623e
000002a0: 42e4 c6be 4be0 c63d 1d02 b63e f529 87be
000002b0: 0845 abbe 73d4 253e ae70 88bd fbf0 0b3e
000002c0: 2647 74bc 7b7f 82be ea0b 9d3d 8c1f 97b7
000002d0: 9eeb 993d 0989 7837 c315 9dbd e340 5e37
000002e0: 9d41 663e cd20 5f3e 9abd 1dbe 09ed 35bd
000002f0: a7e5 c1be 1ffb 593e e526 9e3e b532 3abe
00000300: 5572 3635 5167 773e 7c5a 81be a93d 4abe
00000310: f6cb cfbd 6a97 0a3e acc5 2437 6d8e adbe
00000320: d8e4 033e 48b5 17be 6104 a2be 4686 39bc
00000330: 039f 813e 14f7 76bd dfed 083e ef50 60be
00000340: efa3 7a37 983f 973e 4415 acbe 118e 4b3e
00000350: 7dd7 c63d 7d60 f83d 96c0 46be 6fd0 cfbe
00000360: 6eff bfbe 15a7 a03e 4237 973e 973f 3d3d
00000370: f32a 6b3e f22f c73d 2905 75be 38d2 133d
00000380: a615 02bd 53df 5b3e ca3b 35bd 625f 743e
00000390: 7b77 6dbe 8308 a13e 49ce 913e 7820 41be
000003a0: 4834 243e 6078 c2bd dd0a 653e 020e 95bd
000003b0: 67ba 4fbe 945a c637 c644 3abd c432 873e
000003c0: 9de6 42be 2a14 5f3e 7463 123e 35cd b1be
000003d0: 3997 adbe 73ec 68bd a7a1 443e 9336 723e
000003e0: 7cf4 a63e 4990 9b3d 53aa f5bd 7282 cfbe
000003f0: 8c4b 8338 e84d 2ebe 0ae2 72be 1bc9 8b3e
0.22056468 0.112060174 -0.12625642 0.14066203 0.22549838 -1.7150072e-05 -2.345033e-06 0.24450397
0.11501288 0.1888793 0.2943595 9.887307e-06 -0.34856358 0.2547134 -0.31188303 0.32613873
0.29669443 -3.7956502e-06 2.376248e-06 -0.26994056 0.023178155 0.27766374 0.12830944 0.3250311
-0.43763626 -2.978509e-08 -0.43657842 0.2402917 -0.35948002 0.09064041 0.36188737 -0.17982215
0.27310523 0.20992948 -0.30353233 -0.01831367 -0.25667864 -0.29787958 -0.0063396296 -0.36873734
-0.115893885 -0.08227134 -0.00025920928 0.17254604 -0.3786857 0.13664103 0.003271465 -0.28027514
0.14674523 0.26103213 0.32740855 0.18542247 0.084921874 -0.22126864 0.15982056 0.2475214
-0.09283632 -0.09671871 -0.22381924 0.39882582 -4.9289515e-06 -0.10855346 0.104577966 0.032623153
0.22997127 -0.32340643 -5.628685e-06 0.2692592 0.11660573 2.775123e-05 0.23686975 -0.33556667
0.07519345 -0.020765394 0.35687855 0.34326383 -0.000472208 0.14380786 -0.27364734 -0.27326375
-0.12227254 -0.0846967 -6.51936e-06 -0.115971066 -0.37121305 -0.29298386 -0.088450454 0.109124
-2.7795297e-05 -0.33104768 -2.4757073e-05 -0.16441534 0.00020194234 0.19022213 2.4011277e-05 -0.17437872
-0.28482527 -0.08866347 1.9632387e-10 0.2695506 1.376312e-07 0.19461133 0.2415743 -4.8173584e-05
0.01996735 -0.3385875 0.24440615 0.32388625 0.043689713 -0.35891855 0.21833055 0.102528326
-0.08441469 -0.08484566 0.08912665 -4.2805164e-06 0.21772823 1.2856982e-06 0.36063156 9.89137e-05
0.30056837 -0.06056504 -0.21457437 0.18308854 -0.055920392 0.158482 2.3085481e-07 -0.13242415
0.28012303 2.7183949e-05 -0.23589431 1.446593e-05 0.28769234 -0.09171931 0.3183124 -0.06989389
-1.0774242e-07 0.0033057008 0.15893105 -0.2227844 0.3015649 0.15496293 0.2695702 -3.9527577e-06
0.25443053 0.11224968 -6.125675e-05 -0.19254908 0.34463662 6.968885e-05 -0.45719662 -0.255061
-0.49660498 0.21115597 -0.09152302 -0.17132813 0.25593805 0.22393498 0.088948034 -1.3853537e-05
0.078573436 0.20813188 -9.323001e-08 0.24693938 0.2187698 0.26050475 -7.49736e-05 0.22085871
-0.38846022 0.09710749 0.35548487 -0.26399198 -0.33451104 0.16194324 -0.06662117 0.13666146
-0.014909541 -0.25487885 0.07668288 -1.8015293e-05 0.075156435 1.4813858e-05 -0.07670166 1.3247339e-05
0.22485967 0.21789856 -0.15404359 -0.044415507 -0.37870523 0.21287201 0.3088905 -0.18183406
6.796666e-07 0.24160506 -0.25264347 -0.19750084 -0.10146324 0.13534322 9.821186e-06 -0.33897725
0.12880266 -0.14815247 -0.31643966 -0.011323517 0.2531663 -0.060294226 0.1337199 -0.21905874
1.493933e-05 0.29540706 -0.33609974 0.19878413 0.0970907 0.12127779 -0.19409403 -0.4058871
-0.37499565 0.31377473 0.29534346 0.046203222 0.22965603 0.09725942 -0.2392775 0.036089152
-0.031758927 0.2147191 -0.044246472 0.2386451 -0.2319011 0.31451806 0.28477696 -0.18860042
0.16035569 -0.09495616 0.22367425 -0.072780624 -0.2028595 2.3645618e-05 -0.045475744 0.2640592
-0.19033284 0.21785036 0.14295751 -0.34726873 -0.33904436 -0.05686612 0.1920229 0.23653631
0.32608402 0.075958796 -0.119953774 -0.4052921 6.2606385e-05 -0.17021906 -0.2371904 0.2730187

l1.weight f4 [256, 256]
00000000: 101d 04be d0a2 17be 1326 b1bd 0d48 9d3e
00000010: 1e3f 033d 3e3a 633d eb59 813e d813 a6bd
00000020: 1874 df3d 8f45 6c3c ba57 723b 4464 c33d
00000030: dbce 0d3c 2f1a 4bbe 29ed d43d 7286 41bd
00000040: 25a6 533e 1524 463e ea86 67be a45f 5f3e
00000050: d7a1 613e 1c4c da3b 1573 5dbe 779e 7f3e
00000060: 1e82 4a3e 0c78 c9bd bc6d 453e 340d 1c3e
00000070: fb24 e0bd 9aea 393d 5a53 203e 2f09 d1bd
00000080: 9f2a fe3d 5171 0fbe 8414 10be 56bd 3d3d
00000090: cae8 f03d f100 2fbe f060 f73d f4f3 67be
000000a0: f26b d73d 0ced 903d 3b06 153e 2ae9 963e
000000b0: 299b bf3d 2696 b4bd db36 08bd 1b10 5e3e
000000c0: b8e3 54be 8521 d5bd 56b7 e33d 9b3d 5dbe
000000d0: 4c18 2bbe b597 d03d 59d7 303e be07 b5bd
000000e0: bb30 4d3e 37f9 98bd e869 2abe c538 6ebd
000000f0: 76c4 1dbe eab4 263e 54df 2c3e 986a 3c3e
00000100: 6068 d73d 07ce d23d 1d07 503d 4f4a 95bd
00000110: 07d8 e0bd 99a7 06be 33ce 203e 09b1 cf3d
00000120: 7eda 4ebe 8f65 4d3e 2dcb d23d 800c 833e
00000130: 4f9d 0c3e ee53 cb3d 0f3b 3e3d 67a3 503e
00000140: 452b 22be 3b4b 103e 2240 863e 7969 87be
00000150: 3472 5fbe a3d8 19bb 7605 193e 9bca a4be
00000160: 4726 08be 0304 823e 2a5a 07be f4d6 933d
00000170: 1e43 45be 56ce 443e 9a99 763d deae 36be
00000180: 8cb8 4abe 51da 29bd cac2 e23d 6e80 993d
00000190: 7a24 403e 4cbe 63be fdd1 b8be cee6 9c3e
000001a0: c67c 8abe d94d 203e 7762 43be 2c4c 97be
000001b0: be13 f1bc 5066 3f3d 4ca4 3dbe ed7a 273e
000001c0: c50e f03c 7349 f43c d3d8 3c3e ed8b 8dbe
000001d0: 00c7 96be 162b 0c3e 0bcf 09be e3b7 63be
000001e0: 8d16 28bd 4a83 753d 43f5 863e d853 48be
000001f0: 2ed3 6fbd a8f0 86be 31ef 2b3e 3b9b 85bd
00000200: f8ca 8bbd db0b 393e 6d1f ba3d b1ed 523d
00000210: 648f d63d d12d 43be 049d a23e 2199 6d3d
00000220: 8f55 a2bd a664 f23d df1f a13e a770 0cbe
00000230: 01d7 8d3e 9943 01be 8d9d 83be f072 81be
00000240: f9bc 90bd 3b57 4ebd 45a5 5a3d a937 c73d
00000250: 7075 5a3e d0c7 753e 5ba6 d9bd 16a4 1f3d
00000260: 174c 853c be11 37be 157a 7abe c0fb 67bd
00000270: c87a 2d3e 5927 6c3d 540e 16be afa8 54be
00000280: 4786 2fbe 4c41 8bbd fe3f 293e 4e38 313e
00000290: 1573 993d 5b07 0f3e cfd1 503e 4e98 88be
000002a0: 1f94 26be 2170 1a3e 7d34 34be d5d8 39bd
000002b0: 2971 56be fc49 243e 7784 0ebd 62bb 0dbe
000002c0: 4240 92bd f50c d5bb 2d81 223e 2173 4b3e
000002d0: e703 013e 1f89 4abe f523 90bc 1494 b9ba
000002e0: d528 6ebe f399 42be c940 2c3e 64b1 25be
000002f0: 7e96 463e a307 c93d c5f0 d63d cf67 213c
00000300: bd50 9c3d 2031 0a3d 4bc8 2cbe a546 6e3e
00000310: dc16 793e 5c71 403e 1b15 a63e 1faf 49be
00000320: 14cb 883e 7101 45be c2b5 34be 3847 333a
00000330: 2324 9e3e 1d43 8a3d 7f86 69be ffb4 92bd
00000340: 8140 583e 81ad 72bc 99ac 52be ba87 29be
00000350: a792 8ebd b1e2 24be 542c 7c3e 36df c93d
00000360: 0608 5b3e 92ec 24be 0fc0 2c3e 210b 5f3e
00000370: 6524 3ebe 7ac4 4a3e bcff 81bd 6784 763e
00000380: 5568 d03d 4fc9 593e 4413 4fbe e041 893e
00000390: db37 8fbd dd94 2b3e 0ee3 273e 1f99 0d3e
000003a0: d090 5abd 7d41 583e 0864 00bd 0b8a 043e
000003b0: 03ce f23d 02a0 9b3d bc44 48be fad5 72be
000003c0: 0324 b83d ecd3 b73d 3a62 dbbd 7b55 963d
000003d0: ff8c e5bc 7635 2f3e 69c8 e43d c8f9 3ebe
000003e0: 0158 5d3e 3bb4 41be 8793 343e 318b dfbd
000003f0: 7085 4ebe 7def 743e 4a16 b03d 2924 b53e
-0.12901711 -0.14808202 -0.0864984 0.30719033 0.032042615 0.055475466 0.25263914 -0.08109254
0.10910815 0.014420881 0.0036978559 0.095406085 0.008655275 -0.19834207 0.10396797 -0.047247358
0.20668848 0.19349702 -0.2261006 0.21813828 0.22034393 0.006661905 -0.21625932 0.24962793
0.19776198 -0.0983735 0.19280142 0.15239412 -0.109445535 0.04538975 0.15656796 -0.1020683
0.12410473 -0.1400807 -0.14070326 0.046323143 0.11763151 -0.17090203 0.12079036 -0.22651654
0.10518636 0.07076463 0.14553158 0.29474765 0.09355766 -0.08817701 -0.03325544 0.21685831
-0.20789993 -0.10406784 0.11118953 -0.21605532 -0.16708487 0.10185186 0.17269649 -0.08839367
0.2003812 -0.07469409 -0.16641963 -0.05815961 -0.15406975 0.1627995 0.16882068 0.18400037
0.10517955 0.10293203 0.050788034 -0.07289564 -0.10978704 -0.13149871 0.15703659 0.10141189
-0.20200536 0.20058273 0.10292659 0.25595474 0.13731883 0.09928118 0.04644304 0.20374833
-0.15836819 0.14091198 0.26220804 -0.26447657 -0.21820909 -0.0023475073 0.1494349 -0.32185826
-0.13295852 0.25393686 -0.13217989 0.072187334 -0.19263884 0.19219336 0.06020508 -0.17840144
-0.19796962 -0.04146797 0.11072309 0.07495199 0.18763915 -0.22240561 -0.36097708 0.3064484
-0.2704832 0.15654697 -0.1908053 -0.29550302 -0.02942836 0.046728432 -0.18519706 0.16355486
0.029303918 0.02982018 0.18442087 -0.27645817 -0.294487 0.13688311 -0.13457887 -0.22238116
-0.04103713 0.05993966 0.26358995 -0.19563234 -0.058551006 -0.2635548 0.16790463 -0.065237485
-0.068258226 0.18070929 0.09088025 0.05149621 0.10476568 -0.19060446 0.31760418 0.058007363
-0.07926475 0.118356034 0.31469628 -0.13714848 0.27703097 -0.12623443 -0.2570614 -0.25283003
-0.07067294 -0.05037616 0.05338027 0.09727413 0.21333861 0.24002004 -0.10627433 0.038974844
0.016271634 -0.17877862 -0.24460633 -0.056636572 0.16941369 0.057654712 -0.14653903 -0.20767473
-0.17141066 -0.06799564 0.16528317 0.17306635 0.07492653 0.1396765 0.20392536 -0.266787
-0.16267441 0.15081836 -0.17598148 -0.045372803 -0.20941605 0.16043848 -0.034794297 -0.13841012
-0.071411625 -0.0065017887 0.15869589 0.19868137 0.12599145 -0.1977887 -0.01759527 -0.0014158511
-0.23257764 -0.1900404 0.16821589 -0.1618095 0.19393346 0.0981591 0.10495142 0.00985141
0.07632587 0.033738256 -0.1687328 0.23269136 0.24325126 0.18793243 0.32437977 -0.1969571
0.26717436 -0.19238831 -0.1764746 0.00068389205 0.30886945 0.06751082 -0.22805212 -0.071634285
0.21118356 -0.014811874 -0.20573653 -0.16555682 -0.069615655 -0.16102101 0.24626285 0.09857027
0.2138978 -0.1610587 0.1687014 0.21781589 -0.18568571 0.19801512 -0.063476056 0.24073945
0.1017615 0.212682 -0.20222193 0.2680807 -0.069930755 0.16756006 0.16395208 0.13827942
-0.05336076 0.21118732 -0.031345397 0.12943284 0.118557 0.075988784 -0.1955747 -0.23714438
0.08991244 0.08975968 -0.107120946 0.07340523 -0.028021334 0.17110237 0.11171038 -0.18649971
0.21615602 -0.18916409 0.17634402 -0.109152205 -0.2016809 0.23919483 0.08598001 0.3537915

l1.bias f4 [256]
00000000: 64fa 87bb 4f31 8abc fbeb f6bb 10ff 733c
00000010: f274 a5bc 2328 9335 34ae 1234 e3dc b8bb
00000020: 3d07 97bb bc92 883c b005 8f3b 2306 acb4
00000030: b618 bbbc e58d ceb8 d871 953c 2994 253c
00000040: 96fb b63c 468f 5233 ac16 2fb4 353f 8dbb
00000050: ad0a a1bc 8825 523c f9ba b23b 7c39 92bb
00000060: 1a4c b0bc 4eea fc30 2ae4 9b3c 25a8 41bb
00000070: 5550 17bc 84ee 2d3c 26de 9c3d 9273 48bc
00000080: 85c0 85bc 6103 f2bb 8e08 e63c a9be 023c
00000090: 9e5b 46bc 755c 36bb d246 3f3b 32ab 4c3c
000000a0: f608 00bb e0a1 28ba 0696 2a36 26cb 2e3c
000000b0: 2504 043d 4a99 c03c 887f d63b 5658 6abc
000000c0: d410 5e3c f0a8 1dbc 89d6 0a3d 919f 3e3c
000000d0: 55d6 82bc 5f3a 943b 0546 5cbb 5c9d 323d
000000e0: 0ee2 983c 025f 2f3b f8b7 33bd 94f6 c33c
000000f0: 74da fd33 7159 b73b e9e8 5939 64f0 063c
00000100: d6ad 883d 56a0 673c 8acf 1d37 caa0 10bd
00000110: 4d72 2bb8 176b a436 d0c8 0fbb b657 92bc
00000120: e5ef 99b9 147c a9bc fe7c 6a3c 5817 f8bc
00000130: 3fd1 1437 d80c 2a3d 5cd8 7fbc 607d e4bc
00000140: aef0 2a3c a5f1 a03c 00f3 ceb3 4583 923c
00000150: cd01 4fbc 8b38 5a3b 5283 c93c 33cc 15bd
00000160: b9a3 bb36 67f4 8c3c 1777 9d34 de93 b33c
00000170: 6f70 ad37 056e 9a3b f38d a136 b2c6 6abc
00000180: f079 653b 03ab 4dbc 8c9a 9f2e b47a 9abc
00000190: cec5 ba32 d0b6 02bd 120b 45bd 5925 6f37
000001a0: 52e3 623a e98f f03b c455 d03c 16a0 203c
000001b0: 3d82 8fbc bbc5 b43b 072d 8bbb 2ca4 2ebd
000001c0: 50c6 503d b0b8 833b c153 84bb 5b1c da34
000001d0: 8269 b1ba 9859 1335 6bba 8abc bd2b 1137
000001e0: b6e0 a0bc 17d4 85b9 7cab dc3a dd9b 7dbc
000001f0: 06de 73bb ebbc a9bc 611b bc32 fb0e af3c
00000200: 927e 6e3c fb68 9536 37c3 83bb d6fd 5536
00000210: 793c a93c 22ae 50bc f9f9 023b 55f7 263c
00000220: 6a00 5032 c379 01bd 4e9f 4b3d 6282 26bd
00000230: 3a9e fc3c 5919 943c 3e62 50bc c303 7a34
00000240: bfd2 ce3a 7def 063c 7474 7537 0cb9 22bb
00000250: f436 6fbc cb37 8836 2e2e dbbb dc8b 01bd
00000260: 1688 2a3c 6d35 abbb 0f41 44bc ed0b 8b3b
00000270: 60cd 92bc 704f a5bb 7785 12bc 74a1 4a36
00000280: 7f0f 303d 9b0a 933b aebd dc32 94dc 733c
00000290: de60 703d 2864 1ebd c2c7 e43c 501f 8f3b
000002a0: c469 693b c91b 53bb b9d6 023d f3d5 6ebc
000002b0: 089e 0ebd 8970 4ebc 0477 b63c e1ce 09bc
000002c0: 4661 763c b6b4 a1bb c47c 973b 3521 ea35
000002d0: 9a5d ebbb 55ba 6535 cac2 21bd dad9 5b37
000002e0: 100d a9bb f03b f03a 31aa 923c 6d7c 1a3c
000002f0: bc3a 433d 56b7 143c 548e 0ebd f473 a43b
00000300: b09d 4132 1f00 2abb 2085 f5bb 2405 c43b
00000310: 1bb6 2d3c e1ef 503c 3dce d435 82e9 03bb
00000320: 51b7 833c fdd0 d6bb 9f94 48ba 78a2 183b
00000330: 90bf 92bc 0f1b 29bc 56d9 9c3a e2c0 e03c
00000340: 3145 24b5 3cb5 603c cb0e ddbc 6027 c1bb
00000350: d031 85bc bbee 6fbc 15f2 e2bc 4444 18bc
00000360: 3c89 5eb8 ee39 80bb 5ae3 98bb 215f 14bc
00000370: 1ca8 e23b 3c78 59bc 1a65 f43a 86c6 b2bb
00000380: 99d3 9f3c 102b ac3c 505c 1a3d 4f06 373b
00000390: 10e9 853b 7a16 063c b800 60bb 04bc 203a
000003a0: f9c0 25bc 9ff0 31bc 149a 623a c8f3 1a3b
000003b0: 1902 85bc 9076 b8b5 8b62 423c cf22 f73b
000003c0: c1f4 8c3b b77e 28bc b141 7abb 51e1 96bc
000003d0: 4aab 3b3c 8db7 8abc 4c10 333d ad22 4b3c
000003e0: 942b 9bbc 9f91 d93c e3f9 babc 11fb 933c
000003f0: b5e4 6836 8f8f b03b 4fbb 3fbc 7791 b7bc
-0.004149722 -0.016869215 -0.0075354553 0.014892355 -0.020197365 1.0964035e-06 1.3660684e-07 -0.005641566
-0.004609017 0.01667153 0.0043646917 -3.2041962e-07 -0.022838932 -9.8492754e-05 0.018242761 0.010106125
0.022336762 4.902474e-08 -1.6306393e-07 -0.0043105134 -0.01965841 0.012826331 0.005454418 -0.004462419
-0.021520663 1.8402007e-09 0.019029696 -0.0029549685 -0.009235461 0.010615949 0.07659559 -0.012234585
-0.016327152 -0.0073856567 0.028080251 0.007980027 -0.012106804 -0.0027826105 0.00291865 0.012491988
-0.001953659 -0.00064328127 2.54193e-06 0.010668552 0.032230515 0.023510594 0.0065459646 -0.0143032875
0.013553817 -0.009622797 0.033896003 0.011634723 -0.015971342 0.00452356 -0.003361107 0.0436071
0.018662479 0.002675951 -0.04387662 0.023921289 1.1820967e-07 0.005595379 0.00020781498 0.0082360245
0.066737816 0.014137348 9.406251e-06 -0.03530959 -4.0876028e-05 4.9000478e-06 -0.0021939762 -0.01786409
-0.0002936117 -0.020689048 0.014312027 -0.030284569 8.870206e-06 0.041516155 -0.015615549 -0.027891815
0.010433359 0.019646475 -9.636824e-08 0.01788486 -0.012634707 0.0033297862 0.024598751 -0.036571693
5.592094e-06 0.017206384 2.9330178e-07 0.021921095 2.0675563e-05 0.0047128224 4.814699e-06 -0.014329599
0.0035015307 -0.012552979 7.257936e-11 -0.018857338 2.1743201e-08 -0.031912625 -0.04810626 1.4254206e-05
0.0008655089 0.007341374 0.025431521 0.009803792 -0.017518157 0.0055167354 -0.004247311 -0.042637035
0.050970376 0.004019819 -0.0040383046 4.0626296e-07 -0.0013535472 5.4892143e-07 -0.016934594 8.652857e-06
-0.0196384 -0.00025525756 0.0016835774 -0.015479055 -0.0037211194 -0.020719966 2.1898531e-08 0.021369448
0.014556544 4.4527674e-06 -0.004021074 3.1887225e-06 0.020658718 -0.012736829 0.001998542 0.0101908045
1.2107288e-08 -0.03161026 0.04971247 -0.040651686 0.030837167 0.018078493 -0.012718735 2.3284433e-07
0.001577936 0.008235809 1.4630252e-05 -0.0024829535 -0.014600504 4.059611e-06 -0.0066888547 -0.03162752
0.010408422 -0.0052248747 -0.011978402 0.004243365 -0.017920196 -0.00504487 -0.008942953 3.0194324e-06
0.04298353 0.0044873483 2.5697627e-08 0.014884133 0.05868613 -0.038669735 0.027927283 0.0043677464
0.003561602 -0.0032212606 0.031943057 -0.014577377 -0.03481868 -0.012600073 0.022273548 -0.00841114
0.01503784 -0.0049348725 0.0046230275 1.7444023e-06 -0.007182789 8.5580297e-07 -0.039492406 1.310414e-05
-0.005159028 0.001832841 0.01790342 0.0094290795 0.047663435 0.009076914 -0.034803703 0.0050187055
1.12699325e-08 -0.0025940014 -0.0074926764 0.005982058 0.010602499 0.012752504 1.5855254e-06 -0.0020128195
0.016078623 -0.006555675 -0.0007651541 0.0023290198 -0.01791361 -0.010321393 0.0011966627 0.027435724
-6.119545e-07 0.013715085 -0.026984593 -0.0058945864 -0.016259104 -0.01464432 -0.027703324 -0.00929362
-5.3056734e-05 -0.0039131558 -0.0046657743 -0.009055884 0.006917013 -0.013273295 0.0018645853 -0.0054557947
0.019510077 0.021016628 0.037685692 0.0027927344 0.004086621 0.00818407 -0.0034180116 0.0006131532
-0.010116809 -0.010860591 0.0008644175 0.002364384 -0.016236352 -1.3743575e-06 0.011864315 0.0075419913
0.004301638 -0.010284117 -0.0038186128 -0.018417986 0.011454413 -0.016933227 0.043716714 0.012398404
-0.018941678 0.026558695 -0.022824233 0.018064054 3.470382e-06 0.0053882073 -0.011702373 -0.02240823
