code/save/model_gama_embeddings/model_gama_3.pt (torch, 649914 bytes, 6 tensors)

embed.weight f4 [59, 256]
000000 d9 5f f8 bc f2 54 ea 3d 9c c1 4e 3e 17 d3 e2 3c
       -0.030319141 0.11441983 0.20191044 0.027688546
000010 9b f8 3b 3e 79 87 0b 3e e0 df f5 bd fd d2 44 3e
       0.18356554 0.13625897 -0.120055914 0.1922111
000020 7f 1e c2 bd 3a 14 44 bd 92 b7 bc 3d db 25 bf 3c
       -0.09478473 -0.047870852 0.09214701 0.02333348
000030 e8 c3 70 3d a1 3e c0 3d a2 93 07 be ba 87 f8 3c
       0.05878058 0.093869455 -0.13239911 0.030338157
000040 6e 98 25 be ec a7 38 bd b3 b3 48 be d0 21 df 3c
       -0.16171429 -0.045082018 -0.195998 0.027237803
000050 30 51 11 3e ea fe 1d be 2b f7 25 3e 61 77 17 3d
       0.14191127 -0.15429273 0.16207568 0.036979083
000060 28 aa a9 3c 99 3a 07 3e 15 d7 24 3e 34 2d f2 bd
       0.02071102 0.13205947 0.16097672 -0.11825028
000070 02 93 a5 3c bf 32 c4 3d de fc 96 bd 5f 8a 4d 3e
       0.0202117 0.095799915 -0.07372449 0.20072316
000080 d6 a0 b7 3d d8 72 f1 3d f1 6d 33 be a2 96 4e bd
       0.08966224 0.11789483 -0.17522408 -0.050436623
000090 b4 3c df bd 65 9b 19 3d 0e f6 79 3d 15 7f bc bc
       -0.1090025 0.03750171 0.06102567 -0.023009816
0000a0 2a 4e c7 bd ac 47 49 bd 8b 36 0e bd 77 ee 4a bd
       -0.097317055 -0.049140617 -0.034719985 -0.049543824
0000b0 3b 35 66 3d 9a cc 3a 3e 05 f5 c8 ba cf 30 37 be
       0.05620311 0.18242112 -0.001533181 -0.17889713
0000c0 d5 11 20 be c6 9c 3b 3e ef b2 2b bd 74 16 60 3e
       -0.15631802 0.18321523 -0.04191869 0.21883565
0000d0 c7 d8 d8 bd fd 9d d9 3b 9b f1 2d 3d 99 f8 94 bc
       -0.10588222 0.006641148 0.04246674 -0.018184947
0000e0 ed 38 42 3e 43 09 55 3d e6 82 6f 3e 20 8f 32 3d
       0.18967028 0.052010786 0.23389778 0.043593526
0000f0 98 ff 54 bd 23 2b ba 3d fb f1 ba bd 23 ff 38 bc
       -0.052001566 0.09090259 -0.09128185 -0.011291298
000100 4c 5b dd bc fd f4 ca bc 5a b4 d0 bd 61 22 d6 3c
       -0.027021073 -0.024775023 -0.10190649 0.02613944
000110 ac d8 2d be f5 ce 6a 3d fd 8b 3b be 8e 25 f6 3d
       -0.16977185 0.057326276 -0.1831512 0.12018882
000120 c2 1a 0a be 73 be 06 bd 23 cd 8c 3c 64 f8 30 bd
       -0.1348677 -0.03289647 0.01718766 -0.043205634
000130 f6 be c8 3d 33 53 92 3c 9c 50 89 3d 53 ab 52 3e
       0.09802048 0.017861938 0.06704828 0.20573168
000140 93 2a e5 bd 8a 62 53 3e b6 a0 35 3e 2b b7 49 be
       -0.11189761 0.20643058 0.17737088 -0.1969878
000150 54 1c 6a 3c c9 d1 91 bc 80 66 1b be 93 20 e8 bd
       0.0142889805 -0.017800229 -0.1517582 -0.11334338
000160 26 80 8f 3c 7d ed 0b 3d 5a 24 e2 bd 89 02 1e bd
       0.01751716 0.034162033 -0.1104209 -0.038576636
000170 7f 08 b0 3d b5 1b 38 be 33 df ec bc 69 57 90 3d
       0.085953705 -0.1797932 -0.028915023 0.07047922
000180 33 ef 3d be 59 05 1e be bc bf 4d 3b 24 81 90 3d
       -0.18548279 -0.15431727 0.00313948 0.070558816
000190 62 96 21 bd ae 0b 30 3c c5 2e f1 3d 8c fc 00 3e
       -0.039450057 0.010744972 0.11776499 0.12596339
0001a0 01 5e ab 3d a7 55 98 bd fc 3b a9 b9 65 28 f3 bc
       0.08367539 -0.07438212 -0.00032278884 -0.029682348
0001b0 2e 74 22 3d aa db 15 be e9 03 8a bd 64 1e 8f bd
       0.03966158 -0.14634576 -0.06739027 -0.069882184
0001c0 a6 55 d5 3d 0f b3 34 bd 62 c9 2c 3e ab 22 06 bc
       0.10416727 -0.044116076 0.16873696 -0.008186976
0001d0 db 69 a3 bc e8 11 3d 3e bd bc 25 be 5a db 42 be
       -0.019947937 0.18463862 -0.16185279 -0.19028988
0001e0 30 f0 2a be d3 74 80 be 03 b5 50 be 0d c1 f1 3d
       -0.16693187 -0.2508913 -0.2038155 0.118044
0001f0 81 99 77 bd 5c d8 0b 3e 96 d7 df 3b 6e 3a 2d 3e
       -0.060449127 0.13656753 0.00683112 0.1691682
000200 b4 86 3c 3d bd a7 0c 3e 21 90 e6 3c 0b e2 22 be
       0.0460269 0.13735862 0.028144898 -0.15906541
000210 14 aa 3f 3d 68 af 2a 3e c5 6d 50 be e6 23 84 3d
       0.04679306 0.16668475 -0.20354374 0.064521596
000220 20 23 48 3e 92 35 37 be 0d 0f 12 be 7a 67 f2 3d
       0.19544649 -0.17891529 -0.14263554 0.11836143
000230 95 19 be bd f8 c4 96 3d 1d 9b f8 3d 93 cd 20 3e
       -0.09282223 0.073617876 0.121389605 0.1570342
000240 c2 cf dc bd 50 10 b6 3d 49 bf 59 bd 18 e3 2b 3c
       -0.10781814 0.0888983 -0.05316094 0.010491155
000250 ce aa c7 bc 2b dc fc bd b6 8c f9 3d 8e 20 48 be
       -0.024373438 -0.12346681 0.121850416 -0.19543669
000260 47 de 2f be ae f5 3a be 6f 7f 5a be 79 50 04 be
       -0.17174636 -0.18257782 -0.21337675 -0.12921323
000270 fa 1b 59 3c ff d0 1f bd c0 2c 11 3d 63 03 12 3e
       0.013251299 -0.039017674 0.035443068 0.14259104
000280 d6 f7 44 3d c5 b6 03 be e9 b7 82 bd 0c 53 77 3e
       0.048087917 -0.1286269 -0.06382734 0.24152774
000290 52 f7 7b bd 22 82 08 3e 6b 1b e1 bd e7 36 2f be
       -0.06151516 0.13330892 -0.10991558 -0.17110787
0002a0 15 1b 26 be 48 65 23 be 92 8d 2c bb 8c ce 1a 3e
       -0.16221268 -0.15956604 -0.00263295 0.15117854
0002b0 d5 97 c1 bd b2 00 fe 3b 97 91 26 3e 96 d2 ec bd
       -0.09452788 0.0077515477 0.16266476 -0.115636036
0002c0 d0 e1 23 3e 6f 6c 31 bd 4e b4 24 3e df bc 18 3e
       0.1600411 -0.0433163 0.16084406 0.14915799
0002d0 09 49 65 3d 65 f4 29 be 64 91 fd 3d 84 f0 e8 3d
       0.055977855 -0.16597135 0.12381247 0.11374
0002e0 d8 ce 3a be 81 4b b7 bd 32 3a 21 be 27 61 ca 3c
       -0.18242967 -0.08949948 -0.15744856 0.024704529
0002f0 62 0b dc bc 09 db 04 be 63 3c 38 3e 17 83 05 be
       -0.026860896 -0.1297418 0.17991786 -0.13038288
000300 0e ba 0b be e3 ee 65 bc 46 6f df bd 7e b9 14 be
       -0.13645193 -0.014034006 -0.109098956 -0.14523885
000310 9c a9 4f bd 29 58 c1 bd e7 5b 58 3d dc 58 e7 bc
       -0.05069886 -0.09440643 0.05282202 -0.028240614
000320 23 dc d2 bc 9f 39 aa bd 83 02 07 3e 48 6e 44 3e
       -0.025739735 -0.083117716 0.13184552 0.19182694
000330 f2 ae 91 bd 15 75 28 3e 12 fa c5 3d 83 89 7d bd
       -0.07113446 0.16450913 0.09666838 -0.06189872
000340 64 2d 02 be 3e 65 2a 3e e5 98 16 be c0 20 4b 3e
       -0.12712628 0.16640183 -0.14706762 0.19836712
000350 6a 62 f0 3d a4 ee 44 be 74 29 72 3d 3d 4c 9b 3d
       0.11737521 -0.19231659 0.059121564 0.07582901
000360 65 9f 10 be a6 3f 19 3e 7c 8c b9 3d c5 cd dc bd
       -0.14123304 0.14965686 0.090599984 -0.10781435
000370 19 14 96 3d 1a fd 39 be 6c 01 98 bd b6 83 79 3e
       0.07328052 -0.18162957 -0.07422146 0.2436665
000380 e7 cb d3 3d b7 f9 32 3e b2 a2 40 3e c6 36 07 3e
       0.10341626 0.17478071 0.18812063 0.13204488
000390 f3 65 70 3d 02 5d 89 bb 88 d0 24 3e 2d 7c 55 bd
       0.058690976 -0.0041919956 0.16095173 -0.052120376
0003a0 06 ef 8d 3d 58 75 e6 3d 77 f8 d7 3d cf 2a 42 3e
       0.06930356 0.1125285 0.10545438 0.18961643
0003b0 b7 16 bb 3c b5 6b 35 bd 5d fe d8 3d 8f ad 24 be
       0.02283798 -0.04429217 0.10595391 -0.16081832
0003c0 24 33 24 be 55 3f 2d 3d 37 83 99 bd 2e fd a2 bd
       -0.16035134 0.042296726 -0.0749573 -0.079584464
0003d0 5f 53 5a 3e c4 9f f7 bc cd 50 06 be 52 0b e1 bd
       0.21320866 -0.03022755 -0.1311676 -0.10988487
0003e0 9e 28 1f bd 25 bf 16 3e ec 2e 2e be a8 8e 6e bd
       -0.038857095 0.14721353 -0.17010087 -0.058241516
0003f0 80 2e 07 3e ac 48 68 bd aa 52 5a be 7c 96 a5 3d
       0.13201332 -0.05670993 -0.21320596 0.08085343

unembed.weight f4 [59, 256]
000000 8b 67 f6 bd db 97 6e 3e b0 35 c6 3d 88 e7 a0 3d
       -0.12031468 0.23300116 0.09678209 0.07856661
000010 aa 48 a4 bd 3d 75 9a bb ec fa 2a 3e 1e 74 1b bd
       -0.08021672 -0.004713683 0.16697282 -0.037952535
000020 40 0d 2e be 31 78 3c 3d 16 47 2c be 14 68 18 be
       -0.16997242 0.04601306 -0.16823992 -0.14883453
000030 2a 1b 9e 3d fc b5 e2 3d 7c 71 ca bc a6 77 3e be
       0.07720025 0.11069867 -0.024712317 -0.1860033
000040 52 60 99 3c f6 16 72 bd 27 28 54 3c ed 5a ca 3c
       0.018722687 -0.05910393 0.012949026 0.02470156
000050 70 14 0d 3e 45 e6 55 3e 77 16 68 3e 3c 78 db 3d
       0.13777328 0.20888622 0.2266482 0.10716292
000060 88 bc 01 3e d0 f4 39 be 2d f9 5d bc 7a 80 a0 3d
       0.12669575 -0.18159795 -0.013548178 0.07837005
000070 ea 32 0c 3d c5 47 47 be 02 a2 18 3e 27 86 29 3d
       0.034228243 -0.19460972 0.14905551 0.041387703
000080 41 c8 11 3e 38 0f e7 bd 0a e1 1c be ff 14 4b 3c
       0.14236547 -0.112821996 -0.1532022 0.012395143
000090 0c 4d 37 3e e1 3f 6b 3c d0 4d 23 be 69 c3 b3 bc
       0.17900485 0.014358492 -0.15947652 -0.021943765
0000a0 5b 4f 69 3e 8f 70 9f 3d 93 e2 56 bc 5a b2 d9 bd
       0.22784178 0.07785141 -0.013115543 -0.10629721
0000b0 7d cd 80 3d 65 b7 59 3e 93 9c 57 3e 37 7e 5f 3d
       0.06289194 0.21261366 0.21055822 0.054563727
0000c0 85 77 0c be e1 27 81 3e 6c a1 c5 bd 4a 5c 0b be
       -0.13717468 0.25225738 -0.096499294 -0.13609424
0000d0 66 28 47 3d 89 88 e9 3d c1 4e 2f be 3d d9 fc bb
       0.04862251 0.11402995 -0.17119886 -0.0077163265
0000e0 cd cb 04 3d 1b 57 2b bd d8 1b 04 bd 02 6b 45 be
       0.032420922 -0.041831117 -0.032253116 -0.19279101
0000f0 85 66 40 3e 9e 05 61 bd 6e 42 57 3d 40 f2 0c 3e
       0.18789108 -0.054936998 0.052553587 0.13764286
000100 e8 b9 95 bd 8a 21 a8 3d 3f 58 ed bd 11 8f 95 3d
       -0.073108494 0.08209522 -0.11589097 0.073026784
000110 4f bb 1e be 1f 3c 47 be 68 45 d3 bd f3 a4 2b 3e
       -0.1550114 -0.19456528 -0.103159726 0.16762142
000120 4f bc b1 bd b5 42 4b 3d d3 db 34 3e a3 e7 cf 3d
       -0.08678495 0.049624164 0.17661981 0.10151603
000130 94 35 14 3e 48 e3 a0 3d 2b 6a 14 be 64 22 11 be
       0.14473563 0.078558505 -0.14493625 -0.14173275
000140 1a 8c 38 be 72 22 30 be 3b 02 ff bb 05 25 0d 3e
       -0.18022195 -0.1720064 -0.0077822483 0.13783653
000150 b8 1a 3b 3c 05 d1 05 bc 61 f4 93 3d bc 59 8d 3c
       0.011419944 -0.00816751 0.07224346 0.017254703
000160 35 b3 f8 3c 06 75 46 bd 43 87 b0 3d c3 d9 b9 bb
       0.03035889 -0.048451446 0.08619549 -0.005671711
000170 67 80 4d 3e 52 95 3f 3d 52 2b 97 bd 0b a0 f8 3d
       0.20068513 0.046773262 -0.073813096 0.12139901
000180 be 84 9f bd 11 65 4e 3e 82 d2 00 3e 82 15 52 be
       -0.077889904 0.20155741 0.12580302 -0.20516017
000190 ad 52 79 3a a8 0b c0 3c 4d 08 e3 bd a1 5c 0f 3e
       0.0009510916 0.023443058 -0.110855676 0.14000179
0001a0 ed b8 2b 21 80 e6 1d bc 9f d7 d0 3c b2 29 86 bd
       5.81818e-19 -0.009637475 0.025493441 -0.065509215
0001b0 1e 00 34 3d ea 2b 35 3d 21 81 ea bd 98 99 ac bd
       0.043945424 0.044231333 -0.11450411 -0.08427733
0001c0 fe e3 38 3e 93 d5 65 3e 54 01 7e 3d 2b e5 fb bd
       0.18055722 0.22444753 0.062012985 -0.1229957
0001d0 e2 bd 96 3d 06 36 4b bc 8c 52 2e be 74 8b 53 3d
       0.07360436 -0.012403017 -0.17023677 0.051646665
0001e0 e9 9b 71 3d 4f 0f 49 3e e0 f8 6b bd fb 55 3f 3c
       0.058986578 0.19634746 -0.057610393 0.011678214
0001f0 60 80 bf 3d da b9 28 3e c9 37 31 be 19 7f 2d be
       0.093506575 0.16477147 -0.17306437 -0.16943015
000200 33 ee 37 3d fa f9 1e 3d 5d be 62 3e eb 61 87 bd
       0.0449049 0.038812615 0.2214293 -0.06610473
000210 a2 1b 7c bd b6 5c 1c be 96 45 81 bd 34 0b af 3c
       -0.06154979 -0.15269741 -0.063121006 0.021367647
000220 3e 73 4c be d2 56 bb 3d 1e 0a 6e bd 4c 6e 0b 3e
       -0.19965836 0.09147419 -0.058115117 0.13616294
000230 ee 81 ff 3d 6c 7a ae 3d ee 58 d8 bd 51 04 85 bc
       0.12475954 0.08519444 -0.10563837 -0.01623741
000240 5b da 14 3e 5b 4d a9 3d 05 1c d6 bc 6b a0 d5 3d
       0.14536421 0.082667075 -0.026136408 0.10430988
000250 9c 25 c1 3d 31 ca 31 be a9 3c b1 bd 8b 42 0e 3d
       0.094310015 -0.17362286 -0.08654148 0.03473143
000260 e3 8c ab bb e0 95 2a be 0d b0 40 be 11 43 21 be
       -0.005235301 -0.16658735 -0.18817158 -0.1574824
000270 67 0a 60 bd 4e 0f 22 be f2 41 0c be 4f 3f cb bd
       -0.05469742 -0.15826151 -0.13697031 -0.099241845
000280 50 41 a6 3d 32 e2 b1 3d 27 a1 b2 bd bd bc ef bd
       0.08117926 0.086857215 -0.087221436 -0.11705921
000290 1c 6d 4a 3d 47 bc 31 be cc da ce bd 23 75 e1 3d
       0.04942046 -0.17356978 -0.10100326 0.1100867
0002a0 07 2f 80 3e 1b ee 1b be ac e6 a9 3d 78 54 46 bd
       0.2503588 -0.15227549 0.0829595 -0.0484204
0002b0 7a 19 da bd 00 7a 39 bd bc 5e 76 3d 64 a5 e3 bd
       -0.106493905 -0.045282364 0.06014894 -0.1111553
0002c0 10 76 2f be b9 06 32 be 93 bc 16 be 37 73 79 bd
       -0.17134881 -0.17385377 -0.14720373 -0.060900893
0002d0 e9 db a0 bd 93 6e da bc 0e 46 8f 3c 4f 92 39 3d
       -0.078544445 -0.026664054 0.01748946 0.045305546
0002e0 6a 8f 94 bd 34 a5 3b 3e a3 c2 1d 3e ec f7 1d bd
       -0.072539166 0.18324739 0.1540628 -0.038566515
0002f0 aa 57 a5 3b 5a 55 1c bd ac d4 1a be e1 97 3d bd
       0.0050458508 -0.038167335 -0.1512019 -0.04628742
000300 cc ea 2d 3c 56 7c 13 be d6 1f 0a 3e 3d 5f 72 bd
       0.010615062 -0.14402899 0.13488707 -0.059172858
000310 d2 9c be 3b 53 d6 36 be b8 a7 85 3d a6 43 7e bd
       0.0058170343 -0.17855196 0.065261304 -0.062076233
000320 d4 72 2c 3d d1 72 9c 3d 2f e9 1d 3d 50 62 8f bd
       0.042101696 0.07639087 0.03855246 -0.070011735
000330 4a 14 24 bd 77 ff cc 3d cb 2e 9f bd 24 94 00 3e
       -0.04005841 0.100096636 -0.07772597 0.12556511
000340 cd 22 c2 bc e7 f1 26 be ca b5 f8 3d d5 96 8b bd
       -0.023698235 -0.16303216 0.121440485 -0.06815878
000350 34 ee 27 bd 4f 2b 77 bd a1 b8 24 bb c5 33 ae 3c
       -0.040998653 -0.060344037 -0.0025134461 0.02126492
000360 62 c8 b3 bd 96 6d 0a be 92 75 de bc 73 0b ff bd
       -0.08778454 -0.13518366 -0.027155671 -0.12453356
000370 cf 9c dd 3d 01 d2 39 be 38 75 25 3e eb f5 2a 3e
       0.108209245 -0.18146516 0.16157997 0.16695373
000380 1e f7 8f 3d eb aa 3c 3e 2f 93 22 be 13 88 a1 bc
       0.07029556 0.18424575 -0.15876459 -0.019718206
000390 3a 65 80 3e 14 db ac 3c a5 c6 f1 3d b9 09 d2 3d
       0.2507723 0.021100558 0.118054666 0.10255761
0003a0 f3 e5 38 3e c8 81 4d bd 82 80 ca bd d1 8e 42 be
       0.18056469 -0.050172597 -0.09887792 -0.18999793
0003b0 6f 58 46 bd f7 12 40 be 7f 60 91 bc 59 37 8e bc
       -0.04842418 -0.18757235 -0.017746208 -0.017360376
0003c0 c5 8a 3a be 4a 07 3a be 51 d3 ce bc e9 87 8e bd
       -0.18216999 -0.18166843 -0.025247248 -0.069595166
0003d0 da 8d 35 3e cd e9 fb bd cd 47 33 be f3 d8 0b 3d
       0.17729893 -0.12300453 -0.17507859 0.034142446
0003e0 47 fb 3b 3e 15 7c 5f 3e ba ee a4 bb b3 e0 d2 bb
       0.18357573 0.21824677 -0.0050333412 -0.0064354776
0003f0 66 f2 80 a0 da 64 00 3e 1c a2 83 bc 3b 01 bb bd
       -2.184445e-19 0.12538472 -0.01606851 -0.09131094

l1.weight f4 [256, 256]
000000 80 85 e0 3b 01 59 4d bd 44 4e 00 3d 75 38 51 bd
       0.006851852 -0.05013371 0.03132464 -0.051079232
000010 6b 26 c2 3d b3 a6 9b bb ac dc 2c bd 9d e6 84 bd
       0.09479984 -0.0047500967 -0.042202637 -0.064892985
000020 ca 0a 33 bd 50 18 6b bd b1 0e c1 3c de 53 a9 bc
       -0.04371146 -0.057396233 0.023566576 -0.020669874
000030 1b d5 c8 3d 3d 45 75 3d a0 b0 e1 3d 9a 56 c4 bc
       0.09806272 0.059880484 0.11020017 -0.023967076
000040 73 43 0f bd a0 00 8f 3d 5a 59 60 bd 93 6f 47 bd
       -0.034976434 0.06982541 -0.054772712 -0.04869039
000050 a7 73 46 3a 60 c6 aa bd 24 5c 2a bc 8a 6e 9a 3c
       0.0007570334 -0.08338618 -0.010397945 0.018851537
000060 e2 d9 e2 bc e7 fb 92 3c 47 db 35 bd 70 62 8d 3d
       -0.027691785 0.017942382 -0.044398572 0.06903541
000070 b5 be 19 3d 2f bb 65 bc f4 49 72 3d 10 fb 02 bb
       0.037535388 -0.014021679 0.05915256 -0.001998607
000080 23 02 a6 bd 8e d8 6e bc c3 d3 dc 3c 21 58 0e 3d
       -0.08105876 -0.014577998 0.026956445 0.034752015
000090 93 de 9c 3c 39 87 b0 bc db b9 b4 3d f6 2c 28 3c
       0.0191491 -0.021548854 0.088245116 0.010264626
0000a0 ef 6d c2 3c 75 8c 90 bc ac 89 a1 3c c2 cd 1f 3d
       0.023734061 -0.0176451 0.019718967 0.039014585
0000b0 e8 0a 70 3d ee 65 8c bd c6 e3 cd 3d 7d 5d 2a 3d
       0.05860415 -0.06855379 0.1005321 0.041593064
0000c0 d7 ac 86 3d 92 b2 81 bd d1 ab 00 bb f6 62 b3 bd
       0.06575935 -0.06332888 -0.001963366 -0.0875911
0000d0 83 ad 21 bd 09 13 0a bc f5 03 05 bd b9 db 6d bd
       -0.039472114 -0.00842739 -0.032474477 -0.058070872
0000e0 f7 aa 10 3c 99 df 5c bd 66 50 54 bd 92 90 e9 3c
       0.008829824 -0.053924177 -0.051834486 0.02851132
0000f0 8e a4 88 3d 1e d4 f1 bd b3 61 35 3d 46 f5 14 bd
       0.06672011 -0.11808036 0.044282626 -0.036366723
000100 6c 58 c3 3c 23 70 cd 3d cf 36 58 3d 16 33 a9 bd
       0.023845874 0.10031154 0.052786645 -0.08261697
000110 a3 32 79 bd bd ab 8e bc 97 fd 17 3d e4 76 6f bc
       -0.060839307 -0.017415876 0.037107076 -0.014615748
000120 99 d5 90 3d 40 30 82 3d 94 71 71 3d 8c e9 d7 3c
       0.070719905 0.06356859 0.058946207 0.026356481
000130 57 4b 24 3c 3b 55 86 3d 3a 2b f7 3d 4f 98 be 3c
       0.010027728 0.06559225 0.12068792 0.023265986
000140 8f 62 9c 3d f2 a0 bc bd 11 28 02 be 76 71 bd bb
       0.07635986 -0.092103854 -0.12710597 -0.005781348
000150 3c d2 f4 bc 3d 9c e6 3d 77 fe 68 3c 64 2b 07 bd
       -0.029885404 0.11260269 0.014220825 -0.033000365
000160 c1 45 5a 3d 69 42 de bc 41 bd 1c bd bc af 04 3d
       0.05328918 -0.027131276 -0.038266424 0.032394156
000170 5a 75 81 bd 18 76 27 bc 5b 25 1c bd 06 e9 ac 3d
       -0.06321211 -0.010221027 -0.038121562 0.08442883
000180 9d 81 53 3d 31 1d aa bc 9e fa 10 bd 0e cb c2 ba
       0.05163728 -0.020765873 -0.035395257 -0.001486154
000190 41 b5 43 bd 3e 72 28 3d eb e1 81 3d 61 9e 94 bc
       -0.04778028 0.041124575 0.063419186 -0.018141927
0001a0 b9 b0 b4 bd 19 2d a3 3d e8 9d 8e bd 7f ac be bc
       -0.0882277 0.07967586 -0.06963712 -0.023275612
0001b0 61 31 eb bd a7 13 0f 3e 98 30 c3 bd ec 89 95 b9
       -0.11484028 0.1397234 -0.09530753 -0.00028522254
0001c0 20 05 45 bd e1 45 13 3d d9 5d 85 bd 23 b9 92 bd
       -0.04810059 0.035955314 -0.06512041 -0.07164218
0001d0 10 be 85 3c a1 39 8f bd 06 b4 ae bd 00 c4 b4 3d
       0.01632598 -0.06993414 -0.085304305 0.088264465
0001e0 86 64 51 3d 84 43 8d 3d 74 6c ad 3d 92 10 a1 bd
       0.051121257 0.06897643 0.084679514 -0.07864489
0001f0 f1 8a 84 bd 8e b9 f5 bd b5 bd 34 bd 16 51 e4 bd
       -0.064718135 -0.119982824 -0.04412623 -0.111482784
000200 9b 34 bd 3d 3e 28 48 bd 00 f0 12 3e 42 53 50 bd
       0.09238549 -0.048866503 0.14349365 -0.05086065
000210 35 af c9 3d b1 ed 95 bc 50 d7 84 bc d4 d9 90 3c
       0.09847871 -0.018301817 -0.01621595 0.017681994
000220 9b a4 b8 bc 57 33 5d bd 78 18 7c 3d b6 ef 12 bd
       -0.022539428 -0.05400404 0.061546773 -0.035873137
000230 db 93 62 3d 3b 48 34 bd cf 2b 45 3d 81 47 fc bd
       0.055316787 -0.044014197 0.048137482 -0.12318326
000240 75 1c 9c 3d 4b 4b 45 3d ec c2 56 3d a3 e2 88 bd
       0.07622615 0.048167508 0.052431986 -0.066838525
000250 5e 07 ba bd 2b 4c 1a bd 04 ad 14 bd e8 cd 86 3d
       -0.090834364 -0.037670296 -0.036297813 0.06582242
000260 69 81 c2 3d 94 58 ad 3a e4 ef f9 3c ab 26 82 3d
       0.09497339 0.0013225251 0.030509897 0.063550316
000270 b7 e5 47 bd 4f 9a 3f 3c 3a f7 aa bc 0f 43 83 3d
       -0.048803058 0.011694505 -0.02086984 0.06409275
000280 5f 0f 6a bc d8 1d 0a 3d 5c 26 27 bd 1b a4 81 bd
       -0.014285891 0.033719867 -0.040808067 -0.06330129
000290 7a 60 a7 bd f7 db 2a 3b 5d 66 e1 bd 27 85 3a 3d
       -0.08172698 0.002607105 -0.11005852 0.04553714
0002a0 80 ba 8d 3d 63 74 9f 3d de b7 27 3d 85 4c fa bd
       0.06920338 0.07785871 0.040946834 -0.12221626
0002b0 9d c4 80 bd 9a 8f 83 3d a3 e0 58 bc 08 96 01 3e
       -0.06287501 0.06423874 -0.013237151 0.12654889
0002c0 d2 9b 68 3d 34 a4 30 3d b1 e0 58 3d 66 9a eb 3c
       0.056789227 0.043125346 0.052948657 0.028760146
0002d0 96 40 cd bd 17 f6 3d 3c fa c9 bd bd 25 de 7b bc
       -0.100220844 0.011594317 -0.092670396 -0.015372788
0002e0 03 18 e2 3d 46 ce 9f bd d8 2c 6a bd f2 cc 58 bb
       0.11039736 -0.078030154 -0.057171673 -0.0033081141
0002f0 64 7d 5a 3c 8e 27 99 3d fd 42 8a 3d 83 19 1a 3d
       0.0133355595 0.074782476 0.06751058 0.037621986
000300 13 d9 86 bd d8 b9 ba 3c bc 9f 61 bd 1c 84 0a 3e
       -0.06584372 0.022793695 -0.055083975 0.13526958
000310 92 b1 9e bc 65 f8 45 bc 8d 4f ab bc 16 9f db 3d
       -0.019371781 -0.012083148 -0.020911956 0.107237026
000320 f2 0e 8e bd 08 c9 73 bd e7 29 2f 3d ff c4 71 3d
       -0.06936444 -0.05951789 0.04276457 0.05902576
000330 f1 29 95 3d 84 a7 76 3c d9 b3 46 bd fa 04 d8 bd
       0.0728339 0.015054587 -0.04851136 -0.10547824
000340 f3 c9 19 3d bc 05 a2 3d ed 56 75 3d 82 73 7d bb
       0.03754611 0.0791125 0.059897352 -0.0038673584
000350 63 6d d7 bd 91 ba 74 3d 3e 2c dc 3c af 12 60 bd
       -0.10518911 0.059748236 0.026876565 -0.054705318
000360 c8 60 86 3d 2d 07 0d bd fc be 8a bc d0 3b fe 3d
       0.06561428 -0.03443067 -0.016936772 0.12413752
000370 32 fb 50 3c ee ab 7c 3d ce 44 af 3d 7c 3d 0d bd
       0.012755202 0.061687402 0.08558045 -0.034482464
000380 34 37 92 bd 92 13 42 bd 6b de d2 bd ce df 7c bb
       -0.071394354 -0.047381945 -0.10296329 -0.0038585546
000390 0a 66 d2 bc 52 92 a9 bd da 04 94 bd 85 6b 22 bd
       -0.025683422 -0.082798615 -0.07227488 -0.03965332
0003a0 b6 3f 0c 3d ac 3c c7 3d 67 92 22 bd 0a 52 29 3d
       0.034240447 0.09728369 -0.0396904 0.041338004
0003b0 55 e7 79 bd 96 f8 9b bd 44 50 ab bc 5f 5b df 3d
       -0.06101163 -0.076157734 -0.020912297 0.109060995
0003c0 b5 9b 30 3d 4c 97 81 bd d0 73 87 bd cc 8e e4 3b
       0.043117244 -0.06327686 -0.06613886 0.0069750305
0003d0 e0 02 98 bd bf e5 db bd 5f 79 52 3d 3d 19 c6 3d
       -0.07422423 -0.1073718 0.05138528 0.096727826
0003e0 f7 b3 fc 3c e6 d6 2d bd 1a 9e 40 3d 42 04 57 bb
       0.030847533 -0.04244127 0.047025777 -0.0032808934
0003f0 85 0a cb 3c db d4 c1 3d 88 c7 a8 3d f5 55 d6 3d
       0.02478529 0.09464427 0.082411826 0.10465614

l1.bias f4 [256]
000000 3a ca b7 3d a6 e1 49 3d 2b 57 f3 3d 39 a1 a0 3d
       0.089741185 0.04928746 0.1188186 0.07843251
000010 3a 5e 81 3b 0b c6 b0 3d f9 d4 20 3e 59 4e 4b 3d
       0.0039480003 0.08631524 0.15706243 0.049635265
000020 40 a9 a5 3d ed 81 e0 3d 98 c7 e4 3b fb af ec 3d
       0.080889225 0.109622814 0.0069818012 0.11557003
000030 3f 11 a4 3b 66 cb e2 3d 89 46 01 3d b0 00 44 3d
       0.0050069387 0.110739514 0.03156141 0.04785222
000040 73 d4 b3 3d 6d 43 a0 3d 0b 8d 6f 3b 18 95 05 3d
       0.08780756 0.078253604 0.0036552574 0.03261289
000050 98 74 39 3b 20 0f eb 3d d9 e2 08 3e 7d 10 22 3b
       0.0028298255 0.11477494 0.13367786 0.0024729066
000060 b1 08 af 3d 4d b6 1e 3c 7f bf 01 3e c7 bd a0 3d
       0.0854658 0.009687019 0.12670706 0.07848697
000070 cb 81 73 3d 74 a4 ed 3d 1a a2 0d 3e 0f 24 11 3e
       0.059449952 0.116036326 0.13831368 0.14173912
000080 f8 c9 a6 3d 59 ea 73 3d 7f 7e a7 3d ab d5 0d 3d
       0.08143991 0.059549663 0.08178424 0.034627598
000090 1c a5 c4 3d 88 71 8c 3d 5e 1d 0b 3e 2d 53 8f 3d
       0.096018046 0.06857592 0.13585421 0.069982864
0000a0 b6 6e 0a 3e bc 25 e6 3d 9d 95 00 3e 31 1c 6d 3d
       0.13518795 0.11237666 0.12557073 0.057888214
0000b0 a1 91 c0 3d 57 a3 bb 3c 8e 47 23 3e 26 36 7a 3d
       0.094027765 0.022905035 0.15945265 0.061086796
0000c0 e3 d0 b3 3d 18 4f ba 3d 7b 61 8b 3c 47 be 75 3d
       0.08780076 0.09097117 0.017014256 0.059995916
0000d0 c3 67 a2 3d 1f 0d 88 3d 14 20 8f 3c 7e 66 b0 3d
       0.07929947 0.06643128 0.01747135 0.08613299
0000e0 99 39 d0 3d 70 a8 33 3d 5d b7 19 3e 74 6e 15 3c
       0.10167236 0.043861806 0.15011354 0.009120572
0000f0 72 6e 36 3d 04 39 7e 3d 8d c4 e6 3d f2 82 83 3d
       0.044538923 0.062066093 0.11267958 0.0642146
000100 d6 7f ef 3d 7d b6 81 3d 90 9b de 3c be 7d 6e 3d
       0.11694305 0.06333635 0.027173787 0.058225386
000110 88 4e 06 3c ec 99 0c 3e eb 4d ba 3d a7 6a ee 3d
       0.008197434 0.13730592 0.09096893 0.11641436
000120 59 61 95 3d 63 21 e2 3d 66 ba fb 3d 6e 6a 4b 3d
       0.07293958 0.11041524 0.12291412 0.049662046
000130 29 c4 e0 3d 2e 56 ff 3d b9 c9 a4 3d 6d 46 36 3e
       0.109749146 0.12467609 0.08046288 0.17800303
000140 b9 95 f1 3d 95 a5 2c 3c ad 5c db 3d 81 17 08 3e
       0.117961355 0.010537525 0.10711036 0.13290216
000150 81 e6 21 3e 1c e9 36 3e bf ec e7 3d 87 ce 7c 3d
       0.15810587 0.17862362 0.113244526 0.061720397
000160 10 e3 fd 3c 77 34 9d 3d 01 33 da 3d f0 a1 2c 3d
       0.03099206 0.076760225 0.106542595 0.042146623
000170 33 d9 da 3d 2f e6 9f 3d a4 85 d3 3d 66 cb 9e 3d
       0.10685959 0.07807576 0.10328224 0.07753639
000180 98 47 c7 3d 89 cc da 3d 46 4e 17 3e d9 4d 11 3d
       0.09730452 0.10683543 0.14775953 0.035474632
000190 ee c4 07 3c 98 8a 1a 3e c4 5a 83 3c 31 1e f3 3d
       0.008286698 0.15091932 0.016034491 0.11870993
0001a0 6b 8d 93 3b f2 a6 9d 3d 45 61 25 3e b1 29 8d 3d
       0.0045029423 0.07697858 0.16150387 0.06892718
0001b0 ad 78 7a 3d 57 ab fa 3d ac 6b 80 3d 36 d7 89 3d
       0.06115024 0.12239712 0.06270537 0.06730501
0001c0 4b 74 87 3d 93 ec 91 3d 27 4a 30 3c f2 38 2e 3e
       0.06613978 0.07125201 0.010759867 0.1701391
0001d0 2d e1 8a 3d 16 d5 e4 3d 04 ff 0c 3d 06 21 11 3e
       0.0678123 0.111734554 0.03442289 0.14172754
0001e0 6c e6 9b 3d a8 8c a9 3d 15 72 ab 3d df df fb 3d
       0.07612309 0.08278781 0.08371369 0.122985594
0001f0 6e c8 bd 3d d3 12 a5 3d 49 fd fc 3d bc 73 00 3e
       0.092667446 0.08060231 0.12352998 0.12544149
000200 21 5b 5b 3d a0 78 b1 3d cc 6a c8 3d e0 c3 e0 3d
       0.053553704 0.086655855 0.09785995 0.1097486
000210 6c 3a 75 3d 0b a0 96 3d 43 b0 01 3e 18 34 11 3d
       0.05987017 0.073547445 0.12664895 0.03545007
000220 3c 88 17 3e 33 61 53 3d b8 8d 7e 3d 2e 70 bb 3d
       0.14798063 0.05160637 0.062146872 0.09152256
000230 3b ea bd 3d eb 88 75 3d 9e fa cd 3d b1 2a c5 3d
       0.092731915 0.05994503 0.10057567 0.09627283
000240 d0 98 5d 3d 39 7e f2 3d 9d d3 01 3e da ef ba 3c
       0.05410081 0.11840481 0.1267838 0.022819448
000250 55 b5 96 3d 13 ac af 3d 22 fc 07 3e 92 e3 d2 3d
       0.07358805 0.085777424 0.13279775 0.10297312
000260 b9 1d 79 3d f0 ab e1 3b a1 cc 90 3d c3 4f 09 3e
       0.06081936 0.0068869516 0.0707028 0.13409333
000270 30 6b 28 3e eb 65 03 3e 61 80 07 3e 2b 5c c0 3d
       0.16447139 0.12831847 0.13232566 0.0939258
000280 94 8f 68 3d 29 ce 9e 3d 09 41 11 3d 54 b7 7b 3d
       0.05677755 0.07754166 0.035462413 0.061454132
000290 df 13 c6 3d 6c 3c 0a 3e a4 62 a6 3d 4c e2 83 3d
       0.09671759 0.13499612 0.08124283 0.06439647
0002a0 79 2c 8e 3c 4e 2b b3 3d 6d 03 99 3d 0c 6f 1e 3e
       0.01735519 0.08748494 0.074713565 0.15472049
0002b0 d8 fb 2f 3e d6 03 da 3d 55 66 99 3d 08 ae de 3c
       0.17185915 0.10645263 0.074902214 0.027182594
0002c0 86 d3 f4 3d b7 78 14 3e 07 60 c6 3b 14 97 01 3e
       0.119544074 0.14499174 0.006053928 0.12655288
0002d0 8c b0 1d 3d 4e 5f c9 3c 97 fe a1 3d 43 c2 7e 3c
       0.038498446 0.024581578 0.07909887 0.015549245
0002e0 45 7f b2 3d 68 0c ce 3d 4f 24 19 3e 2b 30 c5 3d
       0.08715681 0.1006096 0.14955257 0.09628328
0002f0 61 92 c2 3d e4 ac a2 3d 3e 10 0e 3e 8d ad 5a 3d
       0.09500576 0.079431325 0.13873383 0.053388167
000300 a4 1e 89 3d cc ac 00 3d d4 2b 07 3e 0b e3 f5 3d
       0.06695297 0.031414792 0.13200313 0.12006196
000310 54 91 0a 3e 81 f8 14 3e da c4 f7 3c 59 a1 c7 3d
       0.13532001 0.14547922 0.030245233 0.097475715
000320 ff e4 3e 3d 9f 1c e9 3d f8 82 e7 3d 03 2f fd 3d
       0.046605106 0.11382412 0.11304277 0.123624824
000330 78 66 11 3e 19 63 10 3e 2d 9e 78 3d 2f 14 06 3e
       0.14199245 0.14100303 0.060697723 0.13093637
000340 c7 0a 1c 3d a9 76 00 3e c5 93 93 3d 9c 07 2a 3e
       0.038096216 0.12545265 0.07205919 0.16604465
000350 8d bc 12 3e 0f e2 85 3d b0 10 b4 3d 8f 7d 24 3e
       0.14329739 0.06537258 0.087922454 0.16063522
000360 2c 2f c4 3d 00 95 65 3d f9 ea eb 3d 8e 99 d8 3d
       0.0957931 0.0560503 0.11519427 0.10576163
000370 75 54 aa 3d 25 ff a9 3b 03 af c5 3d bc 4e 8d 3d
       0.0831689 0.0051878863 0.096525215 0.06899783
000380 55 1a 30 3d f2 d3 ca 3c eb 9b d1 3d b9 d9 c3 3d
       0.042993862 0.024759267 0.10234817 0.09563012
000390 dc 8c 5c 3d 6b c6 98 3d 8e 78 ea 3d 29 e1 bb 3d
       0.05384527 0.0745972 0.11448775 0.09173805
0003a0 6d e2 89 3d 9c 76 b8 3c 79 e5 b8 3d fd 2c 4a 3d
       0.067326404 0.022517495 0.090281434 0.04935931
0003b0 ea 17 30 3d 27 a1 0c 3d c1 8a 50 3c 16 60 ff 3d
       0.042991556 0.034333374 0.012728394 0.12469499
0003c0 85 ef e0 3c fa 25 bc 3d 96 d7 00 3e 55 56 db 3d
       0.027457962 0.09186931 0.1258224 0.10709826
0003d0 36 de b9 3d 81 40 92 3d 3b f5 cd 3d 01 a9 03 3e
       0.090755865 0.071412094 0.100565396 0.12857439
0003e0 6d 48 15 3e 72 ad b9 3d b0 bb 15 3d 25 e7 8e 3d
       0.1457841 0.09066285 0.036555946 0.06977681
0003f0 70 8c 86 3c a8 d8 30 3d c2 7f 80 3d 53 84 34 3d
       0.016424388 0.04317537 0.06274368 0.044071507

l2.weight f4 [256, 256]
000000 69 0f 6f 3c 2f c8 3a 3c 61 ff 90 38 7a 2a 62 3c
       0.014591076 0.011400267 6.914023e-05 0.0138040725
000010 95 a4 a2 3a c4 4b d5 3c 1a 66 b2 bc 4e 69 08 3b
       0.0012408668 0.026037104 -0.021777201 0.002081472
000020 ea d3 bb 3b 54 da 96 3c 7f 8b b0 3a 9b 65 bc 3c
       0.0057320492 0.018414654 0.0013469307 0.022997668
000030 1c 9b f6 3a 73 62 e6 3b ac 32 ea 3b cc 64 82 3b
       0.0018814537 0.007030779 0.007147154 0.003979301
000040 ff 3d 89 ba 31 8d d8 3b ce cd c5 39 94 d2 b4 b6
       -0.0010470747 0.006608628 0.00037728105 -5.3889325e-06
000050 ad 19 b6 b9 0d 90 ad 3d e2 15 fd bc f0 c6 5c 3a
       -0.00034732875 0.08474741 -0.030894224 0.0008421978
000060 64 c0 8e 3c 81 97 19 3b 8a 6b 3c 3a 2a 4f 10 ba
       0.017425723 0.002343625 0.00071876554 -0.00055049604
000070 84 5d a5 3c c0 ec c5 bc f9 2f 0a bd 22 e9 2c 3d
       0.020186193 -0.024160743 -0.033737157 0.04221452
000080 d5 c4 89 3c 33 6c 81 3c 4a 1e 5f 3b 76 58 e9 3a
       0.01681749 0.015798664 0.0034045153 0.0017802853
000090 dd 6b 4d 3c ec 2b 0c 3c d0 5c ee 3b e3 42 aa 3b
       0.012537924 0.008555394 0.0072742477 0.005195962
0000a0 95 a9 76 bc 03 02 be 3d d6 fb 37 3d 43 3d 68 3b
       -0.01505508 0.092777275 0.044917904 0.0035436905
0000b0 da ef cc 3d a2 f6 9e b9 e9 0d 9b bd e4 6e a1 3b
       0.100066856 -0.00030319864 -0.075710125 0.0049265493
0000c0 cd e9 00 ba 47 ca 2b 3d 9b 5f cd 3a b1 37 84 3c
       -0.00049176515 0.041940954 0.0015668751 0.016139837
0000d0 1a cd 01 3c 72 fd 13 3c 29 cf fd b9 90 0e 88 3c
       0.007922435 0.009032594 -0.00048410267 0.016608506
0000e0 b1 13 82 3c 2d 42 e3 3b 52 35 61 bd 47 f7 c5 3a
       0.01587853 0.006935379 -0.05498249 0.0015103602
0000f0 21 7a 7e 3c 37 21 46 3a c6 d7 6b 3b 24 97 66 bc
       0.0155320475 0.000755805 0.0035986765 -0.014074121
000100 6b a0 ad 3d 7b 2b 06 bb 72 ce c4 3c b8 8b f4 38
       0.08477863 -0.0020472694 0.024024222 0.00011660851
000110 05 4a d8 b9 b7 13 6c 3a ec 8e 0b ba d2 28 f1 3b
       -0.0004125388 0.0009005623 -0.0005323726 0.0073596025
000120 25 e7 16 bd bb 05 54 3c 45 f6 fa 3c c5 61 ff ba
       -0.03684153 0.012940819 0.030635009 -0.0019484094
000130 15 c2 24 3c a2 10 bb 3d 29 37 09 ba 8b d3 79 3b
       0.010056038 0.09134032 -0.0005234355 0.0038120474
000140 68 51 f5 bc 93 f1 74 3a da 67 96 3c f9 ff e0 3c
       -0.029946044 0.00093438587 0.018360067 0.027465807
000150 ae 19 cc b9 33 3b 35 3c 8f 59 84 3c 21 8c 4f bc
       -0.00038929045 0.0110614775 0.016155986 -0.012667687
000160 f5 0f ae bb bd 75 df 3b e4 a0 10 3d 06 4d 8f ba
       -0.005311961 0.0068194554 0.035309687 -0.0010932989
000170 36 f5 e0 3c 71 45 e0 bb 4b a1 7f bc 68 ab e9 3c
       0.027460676 -0.0068442156 -0.01560242 0.028524116
000180 fa e7 3c bc 78 3c 4b bd 8b fc 82 39 68 a7 09 3c
       -0.011529917 -0.049618214 0.0002498369 0.008401729
000190 84 71 65 3a c3 95 cb 3d 7d 00 f5 3a ca 52 e2 bb
       0.0008752572 0.09940674 0.0018692162 -0.006906842
0001a0 a9 23 81 b9 44 88 95 bb 99 34 12 3c a3 64 14 3c
       -0.00024631366 -0.0045633633 0.008923673 0.009057197
0001b0 22 54 da bb 3e 6d 89 bc 50 0b 17 3b 33 de 84 3c
       -0.0066628614 -0.016775724 0.0023047514 0.016219234
0001c0 d8 81 29 bb 9e 68 06 bb 69 22 19 bb ae 68 e2 ba
       -0.0025864746 -0.0020509134 -0.0023366457 -0.0017273629
0001d0 7f c8 4f 3c d9 b6 24 3d 98 d9 96 ba 91 92 68 bd
       0.012682079 0.04021344 -0.001150894 -0.0567804
0001e0 ab 64 12 ba e0 6e 4e 3c 14 f6 3d 39 c9 98 a0 3c
       -0.00055844587 0.012599677 0.00018116116 0.019604104
0001f0 19 15 89 3c 20 63 5d 3c 71 44 fe 3b 68 3e 35 3d
       0.016733693 0.013512403 0.0077596237 0.04424897
000200 6f d1 ac bb be 39 97 3c aa 54 f2 bc ca c0 3a 3c
       -0.00527399 0.01846015 -0.029581387 0.011398504
000210 55 cb 19 3c 86 33 c9 3c c7 b7 67 3d 84 c4 1a 3b
       0.009386857 0.024560701 0.056571748 0.0023615668
000220 a3 74 e1 3d dd 1f aa 3c 45 fd 39 3b f9 32 a0 b8
       0.11008575 0.020767147 0.002837972 -7.638889e-05
000230 c6 41 34 bb 1e c0 75 3c 85 7c 2f bc 5e 4d 97 3c
       -0.0027505024 0.014999418 -0.01071084 0.018469509
000240 cf e4 39 3c 13 a7 c7 ba f6 43 fc 3b 96 8e 4a 3c
       0.011346056 -0.0015232287 0.0076985313 0.012363097
000250 fe 6c e9 3a 57 9a 6b 3c 7e 97 2b bd 5e 5b 5c 3c
       0.0017808971 0.014380059 -0.04189252 0.013449518
000260 4d f2 a0 3c 42 50 81 35 95 d3 1c bc 02 2f d4 3d
       0.019646788 9.634607e-07 -0.009571929 0.103605285
000270 d9 22 b8 3c 5d bd b0 3b 53 0d a5 3a b2 3d 71 3c
       0.022477554 0.0053936676 0.0012592472 0.014724182
000280 15 29 4a bc 79 c5 db 3a 91 6b 9e bb ef a9 c6 bb
       -0.012338896 0.0016767225 -0.0048346003 -0.006062738
000290 01 2d a1 3b be ca 17 3c 02 2f 50 bb 78 73 4f 3b
       0.004918695 0.009264646 -0.00317663 0.0031654518
0002a0 ef 26 31 3b 00 af 21 3d a3 00 d9 b9 0b 22 aa 3d
       0.0027031263 0.039473534 -0.0004138994 0.083072744
0002b0 89 cd f1 3b af ae 88 bd da be 50 bc 97 0e 28 3b
       0.007379238 -0.06673943 -0.012740815 0.0025643462
0002c0 08 6b fc 3c cf 16 da 3d 10 13 3e b9 c2 12 ad bd
       0.030812755 0.10648882 -0.00018126913 -0.084508434
0002d0 6f b2 c1 b6 17 b2 2c 3c 83 50 cd 3c 27 5a 37 3b
       -5.7726206e-06 0.010540507 0.025062805 0.002797732
0002e0 f5 f0 02 bc 0f e9 0c bc 7c 52 cb bd f6 df da 39
       -0.007992019 -0.008600487 -0.09927842 0.00041747064
0002f0 51 98 e5 3c af cb 8c ba 83 36 c3 3b 55 d5 98 bb
       0.028026732 -0.0010741855 0.005957426 -0.004664103
000300 9c f9 d4 3c 80 c8 2a b9 7b cd d3 bc eb 48 ea 3b
       0.02599793 -0.00016287155 -0.025854817 0.007149806
000310 60 5b d3 3c 2c 0d 98 3d 45 06 ac bb d1 bc 25 b8
       0.025800407 0.07424387 -0.005249771 -3.9514915e-05
000320 94 13 c7 3a 22 68 60 3c 15 0a dc 3c 60 01 26 3c
       0.001518833 0.013696702 0.026860276 0.010132164
000330 91 4f 82 bd dd bb 28 3c 73 37 1f 3b 85 32 38 bc
       -0.06362832 0.010298696 0.0024294525 -0.011242514
000340 ba b9 27 3a eb 48 0b 3b d9 cb 7b 3c 36 2a a2 3c
       0.000639822 0.002125318 0.015368425 0.019795518
000350 b9 e0 e2 3c 1f 10 7a bb 4b 56 37 3c 98 e7 af bd
       0.027695047 -0.0038156582 0.011190007 -0.08589095
000360 27 2b 82 3c f6 ac 46 bb c3 9f 2e 3b 9d 42 75 3c
       0.015889717 -0.0030315495 0.0026645518 0.014969495
000370 2b d7 5c ba a9 f6 6f 37 83 fc 6f 3b 00 f4 14 3c
       -0.00084243965 1.430294e-05 0.0036619015 0.009091377
000380 6f 19 6a ba cc 26 ee bb 8f a8 8d 3c 61 c1 a9 bd
       -0.00089301815 -0.0072678085 0.017292289 -0.08288837
000390 7c 6d 62 3c af c5 0a 3b f4 cf 27 3b 3f ad 99 bc
       0.013820048 0.0021174958 0.0025606127 -0.018759368
0003a0 48 fb d7 39 0b d1 b6 3b ec cd 0d 3b 5e b6 b8 3c
       0.00041195215 0.005579119 0.0021637632 0.022547897
0003b0 89 bd 0f bb 07 07 c3 ba e6 89 0d 3c e4 e0 3d 3c
       -0.002193304 -0.0014879414 0.008638835 0.011589263
0003c0 37 ef c9 bb d2 4a 0d 3d 39 2e db bc 4c fc cd 3c
       -0.00616255 0.034495182 -0.02675544 0.025144719
0003d0 6e ad 95 ba 4a 0d 3e 3c 89 bb 6c bb f2 95 a7 bd
       -0.0011419484 0.011599848 -0.0036122522 -0.08182897
0003e0 06 97 ef 3b 5f 15 ea bb 92 60 b7 3b 01 f5 a8 3a
       0.0073117046 -0.007143661 0.005596229 0.00128904
0003f0 7f 17 a7 3a ca 64 d8 bb b6 ca 1f 3c f8 7f a0 3b
       0.0012748091 -0.006603812 0.00975292 0.0048980676

l2.bias f4 [256]
000000 cf 22 af 3c 9e 32 34 3d e8 82 0c 3d ee a2 6e 3d
       0.021378903 0.043993585 0.03430453 0.05826085
000010 11 f3 41 3d 5a 4f 76 3d 86 91 5c 3d fd 39 2d 3d
       0.047350947 0.06013427 0.05384972 0.04229163
000020 bd 6c 66 3d 1d 92 1f 3d c6 bd 2c 3d df 96 5e 3d
       0.056256045 0.038957704 0.04217317 0.0543431
000030 36 f7 3b 3d 27 7d 24 3d 6d ca 37 3d 96 64 47 3d
       0.045890056 0.040158417 0.044870783 0.04867991
000040 5d a8 61 3d 0e 96 4f 3d 2f fa 5d 3d 5d c8 24 3d
       0.055092204 0.050680213 0.05419367 0.040230144
000050 e5 5e 8b 3d d6 25 39 3d 60 ef 41 3d 86 85 32 3d
       0.06805209 0.0452021 0.047347426 0.04358437
000060 78 df 3f 3d 2d c0 6a 3d b4 f2 26 3d 9b 3a 68 3d
       0.046843976 0.05731218 0.040758803 0.056696516
000070 65 d4 33 3d 88 7e 30 3d f5 fd 43 3d b3 4d 66 3d
       0.043903727 0.04308942 0.047849614 0.056226443
000080 35 4c 18 3d 3e 2e 2d 3d ac 07 54 3d 6e a1 78 3d
       0.03718205 0.042280428 0.05176513 0.060700826
000090 c2 ea 53 3d ef 05 64 3d f2 6e 50 3d 21 bf 37 3d
       0.051737554 0.05566972 0.050887056 0.04486001
0000a0 6b 0f 38 3d f5 66 76 3d 80 67 3b 3d 3d 5d 83 3d
       0.04493658 0.06015678 0.045753002 0.06414268
0000b0 55 f6 1d 3d a6 f7 13 3d 9a d9 39 3d bf 37 39 3d
       0.038565 0.036124848 0.045373537 0.04521918
0000c0 a4 96 60 3d 70 df 76 3d 9a 60 2e 3d 5d 03 58 3d
       0.054831162 0.06027168 0.042572595 0.052737582
0000d0 88 ba 48 3d 55 de 72 3d f7 d0 55 3d c9 51 5e 3d
       0.049006015 0.059294064 0.052201238 0.054277215
0000e0 9d c2 43 3d b9 6b 67 3d 98 65 30 3d fa 0d 38 3d
       0.04779302 0.056499217 0.043065637 0.044935204
0000f0 ee e9 69 3d 38 e2 2a 3d 30 f8 26 3d c4 7a 85 3d
       0.05710786 0.041719645 0.040764034 0.06517556
000100 38 31 5e 3d 08 25 35 3d 72 96 86 3d 6f 9c 38 3d
       0.054246157 0.04422477 0.06571664 0.04507106
000110 46 35 48 3d 04 8f 24 3d 1e 59 52 3d 19 3c 2c 3d
       0.04887893 0.040175453 0.05135452 0.0420495
000120 16 26 4f 3d 95 5b 4c 3d b9 6c 22 3d d0 c3 5f 3d
       0.05057343 0.049892027 0.039654467 0.0546301
000130 34 a8 34 3d 46 fd 3b 3d e8 5a 64 3d 2e 80 20 3d
       0.044105724 0.045895837 0.055750757 0.03918474
000140 52 8f 68 3d 87 15 40 3d 17 5d 52 3d 54 55 85 3d
       0.056777306 0.04689553 0.05135831 0.06510416
000150 aa c9 4a 3d 65 5e 56 3d 3f a4 23 3d 4d 2d 43 3d
       0.049508728 0.052336115 0.03995156 0.047650624
000160 b8 84 82 3d 1a 9a 29 3d 43 de 64 3d 42 7e 57 3d
       0.0637297 0.04140673 0.055876028 0.052610643
000170 6d 2d 7b 3d 2a 54 4a 3d bf ab 38 3d 41 d7 73 3d
       0.06132262 0.04939667 0.045085665 0.059531454
000180 ee 12 8a 3d 10 3b 4d 3d dc 77 30 3d 96 b6 62 3d
       0.06741892 0.050105155 0.043083057 0.05534991
000190 ea 4d 5b 3d de 06 1e 3d 1f 97 57 3d ff 84 92 3d
       0.0535411 0.038580768 0.052634355 0.07154273
0001a0 2b 11 12 a0 45 9b 23 3d a9 c4 0b 3d 3b b8 26 3d
       -1.2372361e-19 0.039943 0.034123097 0.04070304
0001b0 f3 16 3f 3d 37 ee 5c 3d ea c6 3b 3d a4 94 83 3d
       0.046652745 0.053938117 0.045843996 0.06424835
0001c0 bc 72 41 3d f3 20 29 3d 79 b3 3f 3d b9 cd 3b 3d
       0.04722856 0.04129119 0.046802018 0.04585049
0001d0 cb 7c 55 3d e2 ad 4b 3d 7f 44 6f 3d c4 6b 61 3d
       0.052120965 0.049726374 0.058414932 0.055034414
0001e0 13 ae 3a 3d 52 b4 25 3d 28 8c 5b 3d f8 60 46 3d
       0.045576166 0.04045517 0.05360046 0.04843232
0001f0 9f df 1f 3d d4 ac 58 3d 74 f5 1f 3d a7 8a 17 3d
       0.03903162 0.052899197 0.03905244 0.036997464
000200 be cd 77 3d 1d 89 41 3d ca 12 34 3d db f4 70 3d
       0.060498945 0.047249902 0.04396323 0.058827262
000210 90 36 65 3d cb c5 37 3d 26 4e 0b 3d eb 15 87 3d
       0.055960238 0.044866364 0.034010075 0.065959774
000220 98 9a 36 3d 52 f7 65 3d 52 7e 35 3d 77 73 7e 3d
       0.044581026 0.056144066 0.04430992 0.062121835
000230 bd 3d 50 3d 62 f1 22 3d 24 b5 81 3d 47 25 65 3d
       0.05084013 0.03978098 0.06333378 0.055943754
000240 a7 b6 66 3d 2c 1b 22 3d 03 bb 60 3d b1 79 35 3d
       0.056326535 0.039576694 0.05486585 0.044305507
000250 78 ca 85 3d 17 1e 7a 3d 87 a7 5b 3d 1d 2a 5e 3d
       0.065327585 0.061063852 0.053626563 0.05423938
000260 6c 0e 3e 3d 66 55 66 3d 1a e8 28 3d 0e 3e 45 3d
       0.046400473 0.056233786 0.041236974 0.048154883
000270 e2 ab 2e 3d 2e f6 29 3d b7 6c 5e 3d d3 e3 6e 3d
       0.04264439 0.04149454 0.054302897 0.05832274
000280 1b 1e 3e 3d ff 41 4c 3d a0 49 50 3d 26 f2 5b 3d
       0.04641543 0.049867626 0.050851464 0.053697728
000290 a5 45 39 3d df 39 8a 3d 0e 9a 50 3d 6a 90 2e 3d
       0.045232434 0.06749319 0.050928168 0.042618193
0002a0 3d aa 5d 3d 47 5b 57 3d 64 59 48 3d fd a9 32 3d
       0.05411743 0.052577283 0.048913375 0.043619145
0002b0 24 70 36 3d cf 17 77 3d 7a 4e 41 3d a8 49 72 3d
       0.04454054 0.06032544 0.04719398 0.059152275
0002c0 56 12 6b 3d 5a a2 2b 3d a2 f6 50 3d 63 04 2d 3d
       0.057390533 0.041902877 0.051016457 0.04224051
0002d0 61 88 26 3d 5e 92 3e 3d ec b0 2a 3d b7 c6 51 3d
       0.040657405 0.046526305 0.041672632 0.0512149
0002e0 8c e9 7b 3d a8 8c 60 3d a0 d1 38 3d 41 da 56 3d
       0.061502025 0.05482164 0.04512179 0.052454237
0002f0 7e 6b 58 3d ed f1 5f 3d 44 f5 5b 3d fe ed 2f 3d
       0.052836888 0.054674078 0.0537007 0.042951576
000300 e8 7a 42 3d 4c e2 65 3d 43 0c 23 3d b1 67 eb 3c
       0.047480494 0.056124017 0.039806616 0.028735967
000310 99 e5 5a 3d be cb 62 3d 0e 6b 5b 3d bf f2 51 3d
       0.053441618 0.055370085 0.053568892 0.05125689
000320 35 ff 46 3d d9 05 4c 3d 3e 3a 67 3d 7c 75 42 3d
       0.04858323 0.049810264 0.05645203 0.047475323
000330 0a 29 41 3d 98 da 4c 3d dc 01 4e 3d d9 d3 6b 3d
       0.04715828 0.050013155 0.050294742 0.05757508
000340 eb 2a 3f 3d d1 31 86 3d 4e d5 24 3d f7 fe 33 3d
       0.04667179 0.065524705 0.040242486 0.043944325
000350 56 63 51 3d f4 85 4b 3d 29 38 75 3d 3e a6 72 3d
       0.051120125 0.049688295 0.05986801 0.059240572
000360 a6 e4 3f 3d 10 4f ef 3c 4c e6 5b 3d 4e 56 80 3d
       0.046848916 0.029212505 0.053686425 0.06266461
000370 c2 29 3d 3d ea a4 4e 3d 0c 01 55 3d 22 02 81 3d
       0.0461824 0.050450243 0.05200295 0.06299235
000380 b0 95 17 3d 76 dd 24 3d 95 62 44 3d fb b2 34 3d
       0.037007987 0.040250264 0.047945578 0.044116
000390 d0 e2 7e 3d 10 6c 11 3d 2f 44 33 3d 82 3d 37 3d
       0.062228024 0.035503447 0.043766197 0.044736393
0003a0 5e 8a 46 3d e8 dd 5e 3d 45 03 1a 3d 33 2b 26 3d
       0.0484718 0.054410845 0.037600774 0.04056854
0003b0 95 26 32 3d f5 da 4e 3d 5b 05 49 3d e0 ba 7c 3d
       0.043493826 0.050501782 0.049077373 0.061701655
0003c0 ea f8 43 3d 3a 1e 44 3d cd 1c 6c 3d 67 46 36 3d
       0.047844805 0.04788039 0.057644654 0.044500735
0003d0 72 6e 3e 3d cf ee 43 3d d6 e8 46 3d 15 b2 79 3d
       0.046492048 0.047835167 0.048561893 0.060960848
0003e0 8b 2e 82 3d 23 9e 5b 3d e5 d1 3b 3d 62 1a 8c 3d
       0.063565336 0.053617608 0.045854468 0.068409696
0003f0 e8 95 82 a0 42 3c 57 3d 7c 10 65 3d cb b1 3d 3d
       -2.2122056e-19 0.0525477 0.055923924 0.046312135
