code/save/model_gama_embeddings/model_gama_2.pt (torch, 649914 bytes, 6 tensors)

embed.weight f4 [59, 256]
-0.15828831 0.032884784 0.21456984 0.10938675 0.14512755 -0.106176265 -0.0044393046 -0.06663483
-0.15820158 0.06563924 0.14107527 0.11299476 -0.0020987494 0.206744 0.04877634 -0.10222181
-0.14839073 0.021541907 -0.20865853 -0.0174736 0.059659384 0.02010976 0.12417724 0.12253406
0.026896534 -0.11475183 -0.03445407 0.11717322 0.1654652 -0.101025455 0.14181912 0.028584812
-0.08943297 -0.10723748 -0.027165173 0.15796302 -0.0762353 -0.22747408 -0.15619251 -0.018066281
0.021461098 0.16560537 0.15181462 -0.030997591 -0.11485424 -0.0899197 0.071399264 -0.069949225
0.10166311 0.164932 -0.11126999 -0.08676575 0.014287505 -0.16223966 -0.061824575 0.03691145
0.12419027 0.11467215 0.01363602 -0.119558245 0.093954824 -0.17039156 -0.016803179 0.02587252
-0.10039793 0.028455662 0.12313246 -0.23972516 0.06835985 -0.11715312 0.01581244 0.13645361
0.06483677 -0.044436958 0.016063558 -0.11338108 -0.10474615 -0.14068854 -0.10873268 0.07102075
-0.119996056 0.18764618 0.07922759 0.071771435 0.09909826 -0.1356393 -0.11673135 0.08769007
0.16887982 -0.057260692 -0.16743924 -0.04323066 -0.17784266 -0.0059041698 -0.053486638 0.006058452
-0.17041399 0.096270956 0.21416178 0.081871904 -0.0008918985 -0.12790486 0.20661907 -0.053067856
-0.17176953 0.13518862 -0.032829586 0.21392351 0.055197056 -0.08076442 -0.027088603 0.017237559
-0.052712668 0.2005142 -0.08019522 0.03445977 0.12597838 0.09321753 -0.12351544 0.08962589
0.05541918 -0.113916315 -0.17552616 -0.09486859 -0.13887967 0.11422261 0.13935947 0.042972904
0.10055751 0.027531564 -0.1196754 -0.176197 0.19792087 -0.18080236 0.04527436 0.02218082
-0.21245624 -0.116756976 0.051152345 -0.02422453 0.036274396 0.06331129 0.15322429 0.037386395
-0.029625135 0.17404638 0.03686762 -0.12221409 -0.010841861 -0.1365993 -0.18239714 0.1569182
-0.073976815 0.07165073 -0.0807088 -0.16521488 -0.021372892 -0.0068887305 0.10396974 -0.02236802
0.1424439 0.18780366 -0.10123379 -0.01944305 -0.18470278 -0.092209004 0.17224336 0.033330116
-0.15110996 0.21646117 -0.14249824 0.1600437 0.18695255 -0.22164446 0.21514933 -0.12713024
0.10636122 -0.105686486 0.013706994 -0.08674446 -0.095857844 0.014612666 0.08701357 -0.02688034
0.011545671 0.020641817 0.10238213 0.13461854 -0.16988814 -0.0048523094 -0.010298464 0.20297167
-0.17074424 0.1489595 0.22235394 -0.18527006 0.20697801 -0.018832207 -0.047711726 0.20107904
-0.14197485 -0.11397204 0.21520707 -0.16101637 -0.11469762 0.035648398 -0.084144935 -0.11580385
0.20285986 -0.17472754 -0.04552912 0.018620148 0.1546522 0.19783844 -0.15681307 -0.17704348
-0.24566245 0.16445066 -0.14756596 0.16021073 -0.07642651 0.0010555892 -0.19303429 0.03670124
-0.12787281 -0.038124908 -0.053221494 0.16564935 0.11800247 -0.16082871 0.037806526 0.1348863
-0.11675897 0.014669775 0.061285403 -0.038698442 -0.15420666 0.13373978 0.17760435 -0.12664306
-0.008543332 -0.07183367 -0.15028131 0.13583612 -0.13895778 -0.06001752 -0.07715486 -0.14889777
-0.029701388 -0.14851576 0.1301501 0.1823653 -0.055204194 -0.06945616 -0.0521566 -0.0011424777
00000000: 5516 22be 32b2 063d 32b8 5b3e 2906 e03d
00000010: 519c 143e f172 d9bd 9677 91bb d777 88bd
00000020: 98ff 21be de6d 863d 0976 103e cc69 e73d
00000030: 2c8b 09bb b3b4 533e b3c9 473d ab59 d1bd
00000040: bdf3 17be a778 b03c 95aa 55be cc24 8fbc
00000050: 665d 743d 39bd a43c a350 fe3d 23f3 fa3d
00000060: 1f56 dc3c 0203 ebbd b61f 0dbd 83f8 ef3d
00000070: b66f 293e 6fe6 cebd 0839 113e b22a ea3c
00000080: a228 b7bd 539f dbbd 7f89 debc 0fc1 213e
00000090: 4121 9cbd f7ee 68be eef0 1fbe bdff 93bc
000000a0: 2fcf af3c 7494 293e 4b75 1b3e a9ee fdbc
000000b0: b338 ebbd d227 b8bd c739 923d 8a41 8fbd
000000c0: c034 d03d efe3 283e 85e1 e3bd 3eb2 b1bd
000000d0: 2416 6a3c 2722 26be c43b 7dbd 7630 173d
000000e0: 7857 fe3d 3bd9 ea3d 9d69 5f3c f4da f4bd
000000f0: 636b c03d 207b 2ebe d2a6 89bc 9bf2 d33c
00000100: 6e9d cdbd d91b e93c df2c fc3d 837a 75be
00000110: 4000 8c3d faed efbd 1789 813c 7fba 0b3e
00000120: 24c9 843d 8703 36bd b997 833c 5734 e8bd
00000130: 2685 d6bd a810 10be 3daf debd 5473 913d
00000140: 7ec0 f5bd 5226 403e 1342 a23d e7fc 923d
00000150: 07f4 ca3d 07e5 0abe d910 efbd da96 b33d
00000160: d5ee 2c3e 308a 6abd 3175 2bbe a212 31bd
00000170: 631c 36be c477 c1bb ce14 5bbd fb85 c63b
00000180: 0181 2ebe b529 c53d 3a4d 5b3e 75ac a73d
00000190: 4cce 69ba 7ef9 02be f393 533e ae5d 59bd
000001a0: 5ae4 2fbe e36e 0a3e 5178 06bd c40e 5b3e
000001b0: 4f16 623d d167 a5bd ebe8 ddbc c835 8d3c
000001c0: 3de9 57bd 9853 4d3e 643d a4bd b025 0d3d
000001d0: 7a00 013e d5e8 be3d aaf5 fcbd c78d b73d
000001e0: 39ff 623d f54c e9bd 21bd 33be 774a c2bd
000001f0: 7936 0ebe 8bed e93d 40b4 0e3e 5b04 303d
00000200: 19f1 cd3d e089 e13c 6018 f5bd fd6c 34be
00000210: c5ab 4a3e 4124 39be 9b71 393d 8db4 b53c
00000220: 218e 59be 481e efbd 1f85 513d 8672 c6bc
00000230: 7694 143d 5aa9 813d d4e6 1c3e 7a22 193d
00000240: 69b0 f2bc 3739 323e 8002 173d 614b fabd
00000250: 10a2 31bc b0e0 0bbe 51c6 3abe 2aaf 203e
00000260: 2881 97bd 9ebd 923d a84a a5bd 172e 29be
00000270: 3416 afbc dcba e1bb 16ee d43d 233d b7bc
00000280: d0dc 113e 9a4f 403e a953 cfbd 0847 9fbc
00000290: ba22 3dbe 13d8 bcbd 9060 303e 2985 083d
000002a0: 92bc 1abe ffa7 5d3e 0feb 11be 7fe2 233e
000002b0: 7d70 3f3e c4f6 62be 1b50 5c3e 6e2e 02be
000002c0: e9d3 d93d 2872 d8bd 4d93 603c 14a7 b1bd
000002d0: 1e51 c4bd f769 6f3c 2c34 b23d 2934 dcbc
000002e0: 0e2a 3d3c 0719 a93c b9ad d13d 71d9 093e
000002f0: 28f7 2dbe 1f00 9fbb e4ba 28bc ced7 4f3e
00000300: 94d7 2ebe d788 183e c0b0 633e 6fb7 3dbe
00000310: 0bf2 533e 0046 9abc 5f6d 43bd aae7 4d3e
00000320: db61 11be 2c6a e9bd 3e5f 5c3e 7ae1 24be
00000330: 96e6 eabd 0e04 123d 2e54 acbd 922a edbd
00000340: 7fba 4f3e c7eb 32be be7c 3abd 4889 983c
00000350: 255d 1e3e 2996 4a3e 9b93 20be e34a 35be
00000360: f08e 7bbe c165 283e 881b 17be 480e 243e
00000370: 8185 9cbd b25b 8a3a c8aa 45be 0a54 163d
00000380: 17f1 02be dd28 1cbd c8fe 59bd fc9f 293e
00000390: 47ab f13d 48b0 24be 04db 1a3d a21f 0a3e
000003a0: 541f efbd 7f59 703c 6706 7b3d 4282 1ebd
000003b0: 5ae8 1dbe 15f3 083e eadd 353e b8ae 01be
000003c0: 55f9 0bbc 881d 93bd 58e3 19be a018 0b3e
000003d0: f34a 0ebe eed4 75bd 5e03 9ebd a878 18be
000003e0: 5350 f3bc 8414 18be 1146 053e f8bd 3a3e
000003f0: cb1d 62bd 083f 8ebd 29a2 55bd 31bf 95ba

unembed.weight f4 [59, 256]
-3.2227014e-19 0.14396627 -0.09577214 -0.11890915 -0.20765662 0.07422052 -0.091332346 -0.19178882
0.13501182 0.06191283 -0.068297155 0.060743943 0.05707702 -0.039086983 -0.11966815 -0.003236131
0.16669877 -0.06875644 0.03001607 -0.20013472 -0.058349304 0.06515731 -0.025001759 0.1772869
0.1748912 0.100821935 0.1759632 -0.026445897 0.026631555 0.14339808 -0.1910976 -0.005827894
-0.07893784 0.16801658 -0.09563747 -0.1439987 -0.11341318 0.04481513 0.04043926 0.1059217
-0.16775344 -0.13176282 0.14031331 -0.0880589 -0.01698987 0.0010849498 -0.00015627046 -0.08128268
-0.025290236 -0.17443168 0.16365464 0.08561859 -0.12622662 0.01709921 -0.04268839 0.19085407
0.12543717 0.03400173 0.16101587 -0.10999943 -0.16575928 -0.18564636 0.015153335 -0.14311795
-0.19733052 -0.18314113 -0.056020528 0.15840068 -0.02540875 0.1169073 0.07228593 0.10199152
-0.13393395 -0.079579115 -0.13856834 -0.04838357 0.12886898 0.20780863 -0.16305365 0.19466709
0.041609727 0.062344633 0.17389989 0.09403069 -0.12212005 -0.05042177 0.09815804 -0.02018409
0.14049299 0.17666262 -0.0723184 0.15411991 0.12508439 -0.17891721 0.19276416 -0.060909905
-0.13779883 -0.059248853 -0.18069267 0.06761089 0.005014181 -0.12919033 0.11016224 0.11743846
-0.17771505 -0.21193871 -0.19182496 0.059886575 0.019492112 0.11061853 -0.06682985 -0.16255748
0.10639002 6.439533e-05 0.003222158 0.0397066 -0.1813821 -0.13375941 0.18276489 -0.063719526
-5.012198e-20 0.113781884 0.07190825 -0.1515389 -0.016363258 0.099354364 0.016190149 -0.07822707
-0.008803244 -0.14710434 0.04952886 0.22099057 0.14995557 -0.091983 0.0770528 -0.15930729
0.026730144 0.02789324 0.19237955 -0.16882572 0.07868449 -0.065120116 0.024553796 -0.081270635
0.07347021 0.14380184 0.112667695 0.11361893 -0.071793765 0.048761316 -0.065599725 0.08632443
0.052647714 -0.14504172 0.06514685 -0.0013177284 0.10381952 0.09653118 0.21170926 0.13677163
-0.16586965 0.09121653 -0.15235464 0.1375115 0.11958339 -0.13943759 0.10965443 0.11264223
0.00039705634 -0.025013832 0.12597653 0.15016042 0.14319569 0.114200465 -0.053288747 -0.16989326
-0.08222204 -0.110190645 -0.036751825 -0.00031809293 0.12590688 0.08013297 -0.1648327 0.013346783
-0.15158005 -0.041409805 0.09042749 -0.036302995 0.0885544 0.0637383 -0.15345557 -0.19742331
-0.1366354 0.024334218 0.15727353 -0.058294613 0.02338356 0.13054365 -0.0046798144 0.0037251487
0.16651082 0.060985263 -0.21651368 0.09169014 0.00075125945 0.04858617 0.10210067 -0.10316657
0.19319439 -0.18366224 -0.10670843 -0.030368598 -0.012195719 -0.041330375 -0.18056254 0.14029036
-0.045120317 -0.20359054 0.082816616 -0.104145125 -0.058185484 -0.14822638 -0.113496386 0.056723673
-0.1652116 0.20427844 -0.18037683 0.003846044 -0.17230298 0.024123088 -0.12830783 0.06794514
-0.11483233 -0.15732077 0.16474065 -0.07210033 0.19841346 0.14757979 0.024253508 0.19207266
-0.085729115 -0.060170986 0.116361886 -0.15805045 -0.11808379 0.20208943 -0.06743878 0.19324099
-0.1332882 0.052265473 -0.08692498 -0.07628548 0.069409706 0.12506261 0.043392375 -0.020286486
00000000: 163c bea0 e56b 133e 2f24 c4bd a486 f3bd
00000010: f0a3 54be ee00 983d 740c bbbd 4a64 44be
00000020: 8a40 0a3e 4f98 7d3d 61df 8bbd a4ce 783d
00000030: 98c9 693d ac19 20bd 9314 f5bd 4515 54bb
00000040: 15b3 2a3e 2dd0 8cbd 43e4 f53c 1ef0 4cbe
00000050: aeff 6ebd 3271 853d 7dd0 ccbc b28a 353e
00000060: ae16 333e bb7b ce3d b22f 343e 11a5 d8bc
00000070: 6b2a da3c f2d6 123e 17af 43be ebf7 bebb
00000080: 2aaa a1bd 8a0c 2c3e 94dd c3bd 6574 13be
00000090: 2b45 e8bd 1290 373d a3a3 253d 7aed d83d
000000a0: 8fc7 2bbe d5ec 06be 4bae 0f3e 3958 b4bd
000000b0: 572e 8bbc e034 8e3a 88dc 23b9 8977 a6bd
000000c0: 782d cfbc 389e 32be 1595 273e cd58 af3d
000000d0: 8d41 01be a413 8c3c 05da 2ebd 406f 433e
000000e0: 9a72 003e 6645 0b3d 58e1 243e 6247 e1bd
000000f0: cdbc 29be 141a 3ebe b245 783c 838d 12be
00000100: 0311 4abe 5989 3bbe c875 65bd ca33 223e
00000110: 0326 d0bc 186d ef3d a50a 943d eee0 d03d
00000120: fb25 09be 60fa a2bd dce4 0dbe da2d 46bd
00000130: 3bf6 033e c9cb 543e 89f7 26be cf56 473e
00000140: f66e 2a3d 165d 7f3d d012 323e 2a93 c03d
00000150: 141a fabd 0f87 4ebd 1507 c93d 1b59 a5bc
00000160: 65dd 0f3e 0ce7 343e ab1b 94bd 9cd1 1d3e
00000170: 1f16 003e 1336 37be f863 453e aa7c 79bd
00000180: 231b 0dbe edae 72bd 8007 39be 9477 8a3d
00000190: 004e a43b 784a 04be be9c e13d 9383 f03d
000001a0: effa 35be 7606 59be c36d 44be a04b 753d
000001b0: ecad 9f3c f88b e23d 17de 88bd 7875 26be
000001c0: 03e3 d93d fb0b 8738 d72a 533b 63a3 223d
000001d0: 3bbc 39be 3af8 08be b826 3b3e 627f 82bd
000001e0: c1b1 6c9f 7a06 e93d a244 933d 032d 1bbe
000001f0: 3d0c 86bc 4d7a cb3d 34a1 843c 8435 a0bd
00000200: 7b3b 10bc 85a2 16be c6de 4a3d 5a4b 623e
00000210: f48d 193e 9561 bcbd dccd 9d3d 7321 23be
00000220: 2df9 da3c 5d80 e43c 25ff 443e a6e0 2cbe
00000230: 5525 a13d b25d 85bd 0b25 c93c 3871 a6bd
00000240: 8d77 963d ca40 133e 52be e63d 0bb1 e83d
00000250: 9c08 93bd f2b9 473d 2659 86bd ddca b03d
00000260: 21a5 573d d185 14be b66b 853d a1b7 acba
00000270: 549f d43d 24b2 c53d 50ca 583e dd0d 0c3e
00000280: bcd9 29be bbcf ba3d db02 1cbe d1cf 0c3e
00000290: 23e8 f43d bac8 0ebe 8092 e03d f8b0 e63d
000002a0: 002c d039 cfe9 ccbc feff 003e a7c3 193e
000002b0: e4a1 123e efe1 e93d 4d45 5abd 80f8 2dbe
000002c0: 0764 a8bd a2ab e1bd 1589 16bd b6c5 a6b9
000002d0: bced 003e c11c a43d e7c9 28be 77ac 5a3c
000002e0: cd37 1bbe 549d 29bd 0c32 b93d 73b2 14bd
000002f0: 025c b53d 3a89 823d 7523 1dbe 5629 4abe
00000300: 26ea 0bbe 8e58 c73c 500c 213e 55c6 6ebd
00000310: e18e bf3c 3cad 053e 2159 99bb a021 743b
00000320: d081 2a3e afcb 793d c3b5 5dbe 0ac8 bb3d
00000330: 2bf0 443a 4b02 473d 281a d13d ff48 d3bd
00000340: c0d4 453e f411 3cbe f389 dabd 91c7 f8bc
00000350: 8ed0 47bc 0a4a 29bd 63e5 38be 47a8 0f3e
00000360: 15d0 38bd 0a7a 50be c29b a93d 0a4a d5bd
00000370: e753 6ebd a8c8 17be cb70 e8bd 1557 683d
00000380: 3b2d 29be 5e2e 513e b4b4 38be e90d 7c3b
00000390: 3170 30be c89d c53c 2163 03be d226 8b3d
000003a0: 362d ebbd b218 21be c6b1 283e 56a9 93bd
000003b0: e62c 4b3e 281f 173e 4baf c63c b2ae 443e
000003c0: bf92 afbd da75 76bd 244f ee3d fad7 21be
000003d0: ead5 f1bd 88f0 4e3e 581d 8abd f7e0 453e
000003e0: b47c 08be 5214 563d b905 b2bd 903b 9cbd
000003f0: ad26 8e3d 6a10 003e 34bc 313d d82f a6bc

l1.weight f4 [256, 256]
0.05346089 -0.024963122 -0.035227187 0.0017446157 -0.08551623 -0.12685215 0.004288447 0.11424477
-0.022687534 0.076441295 -0.1628074 0.111313984 0.10393208 0.0066052675 0.093210354 -0.11649081
0.06483415 -0.079769306 0.07438153 -0.12178752 -0.04740708 -0.1553943 0.094823785 0.06878899
-0.083960325 0.011888669 -0.051234145 -0.1103002 -0.037366804 -0.019801818 0.12615979 0.018670686
-0.15449196 -0.050480492 -0.08445979 -0.10291375 0.09777493 -0.067222185 -0.09954538 -0.029270774
0.0074197003 -0.025480539 0.095850706 0.12628998 -0.120683104 -0.082947046 -0.07930036 -0.052934106
0.053774964 -0.07135996 0.06580788 -0.056821343 0.12786293 0.12422008 -0.12761949 -0.03295038
0.16187406 -0.1071193 0.0853578 0.016410505 0.071627215 -0.08454626 -0.015022621 -0.14982982
-0.10570128 -0.123759694 0.055592064 -0.060950164 -0.055373043 0.10125895 0.0040618484 -0.07613554
0.18267573 -0.06390472 0.049203604 -0.06663387 0.030784441 0.11508958 -0.0029073132 -0.13901615
-0.09119719 0.11213124 0.14819908 -0.0070493123 -0.060858876 0.015802475 0.08962375 0.11717253
-0.052242264 0.070493594 0.12128805 -0.058563404 0.07881319 0.034940947 0.03852284 -0.09086911
-0.044923216 0.15397994 -0.023210293 0.11651164 0.08373067 -0.13891649 -0.01748362 -0.16620894
0.06137858 0.1282322 0.063091874 0.020262165 -0.027488112 -0.14073029 0.0679681 -0.026693996
-0.077866055 0.0031018571 0.10036216 -0.0009760383 0.16250564 0.052270222 -0.013513805 0.13406025
0.06836289 0.11900581 -0.043506682 0.0026841667 -0.13403405 -0.12310805 -0.1612856 0.13335033
-0.10654289 0.017864393 0.09309529 0.10140736 0.121895716 0.13663013 -0.011222323 -0.06359982
0.00023070403 0.0027359817 0.12812942 -0.026459562 -0.11788642 -0.099431954 -0.12224139 0.09765505
-0.05298419 -0.0096674245 0.024263028 -0.03915694 0.14463115 0.084928125 0.11456904 -0.015871948
0.111421645 0.01433534 0.056066126 -0.11920599 -0.14009114 0.047271516 -0.078458264 -0.05710293
-0.061897773 0.17160523 -0.028982524 -0.096323 0.1276533 -0.14783195 0.06225487 -0.1233885
-0.13175967 -0.033184458 0.009725318 -0.12968355 -0.06777725 -0.14070576 0.0036659173 -0.07273551
-0.029833408 -0.044527095 -0.11882237 -0.10602314 0.1557315 -0.13779503 0.02731735 -0.12981358
-0.07627379 -0.14824602 0.07655376 -0.041554976 0.072071634 0.1366439 -0.14334826 0.04536729
-0.10940464 -0.0436215 -0.1098892 -0.04007426 -0.021032933 -0.019434102 0.030938627 0.08743835
0.015060722 0.084928274 -0.12068114 -0.022765491 0.07944128 -0.037070625 -0.11500578 -0.13463202
-0.076230094 0.035580903 -0.092272535 -0.04011571 -0.035030168 0.14768696 0.12038731 0.0846498
-0.08117677 -0.10809011 0.07115632 0.14328733 -0.0074932147 -0.106009625 0.01608608 -0.045445982
0.04156615 -0.10083073 0.008269574 0.054646324 0.11167917 0.025992876 0.0019377451 -0.14070834
0.1307571 0.1053633 -0.013100902 -0.0618787 0.07187457 0.111105785 0.06013449 -0.09512058
0.046297465 -0.10870426 0.11451811 -0.056807972 -0.018346371 0.0065158703 -0.11798282 -0.08183398
0.10426776 0.08035477 -0.022640279 -0.13508226 -0.016032059 -0.090103135 -0.047138713 0.11171118
00000000: cef9 5a3d 767f ccbc 624a 10bd 97ab e43a
00000010: 2223 afbd 88e5 01be 1a86 8c3b 29f9 e93d
00000020: 35db b9bc 418d 9c3d fcb6 26be 96f8 e33d
00000030: 58da d43d 0071 d83b 12e5 be3d bc92 eebd
00000040: c4c7 843d 175e a3bd 5855 983d bc6b f9bd
00000050: ed2d 42bd af1f 1fbe f932 c23d 3ee1 8c3d
00000060: 64f3 abbd b1c8 423c e5da 51bd 12e5 e1bd
00000070: ef0d 19bd 6c37 a2bc 0830 013e 44f3 983c
00000080: 2433 1ebe a2c4 4ebd 41f9 acbd 72c4 d2bd
00000090: 393e c83d c9ab 89bd 73de cbbd 43c9 efbc
000000a0: f520 f33b 90bc d0bc 604d c43d 2952 013e
000000b0: b428 f7bd 24e0 a9bd 3a68 a2bd 6fd1 58bd
000000c0: 2343 5c3d 2c25 92bd 48c6 863d 7fbd 68bd
000000d0: 80ee 023e 1967 fe3d afae 02be faf6 06bd
000000e0: 50c2 253e 5d61 dbbd 12d0 ae3d 536f 863c
000000f0: 4ab1 923d 9726 adbd 7021 76bc fd6c 19be
00000100: ea79 d8bd b975 fdbd 81b4 633d e1a6 79bd
00000110: d8ce 62bd da60 cf3d 4119 853b f3ec 9bbd
00000120: 590f 3b3e 7ae0 82bd b889 493d 5777 88bd
00000130: a72f fc3c 16b4 eb3d 9f88 3ebb 405a 0ebe
00000140: 98c5 babd 10a5 e53d 80c1 173e ebfd e6bb
00000150: 2847 79bd 3174 813c a88c b73d 27f8 ef3d
00000160: fcfb 55bd f25e 903d df65 f83d 2ee0 6fbd
00000170: cf68 a13d 3d1e 0f3d 20ca 1d3d 9519 babd
00000180: 6801 38bd ebac 1d3e 8323 bebc a89d ee3d
00000190: fc7a ab3d 2040 0ebe cf39 8fbc ad32 2abe
000001a0: 1b68 7b3d 4d4f 033e 5036 813d d7fc a53c
000001b0: c02e e1bc 9a1b 10be dc32 8b3d 5ead dabc
000001c0: 3d78 9fbd 8748 4b3b ad8a cd3d d2dc 7fba
000001d0: e167 263e 4d19 563d 0269 5dbc 1747 093e
000001e0: d801 8c3d 51b9 f33d 1034 32bd d8e8 2f3b
000001f0: 3940 09be 1320 fcbd 0d28 25be fd8c 083e
00000200: 2933 dabd 5958 923c bea8 be3d a9ae cf3d
00000210: 76a4 f93d c5e8 0b3e d6dd 37bc 9f40 82bd
00000220: 24e9 7139 284e 333b 5c34 033e b9c1 d8bc
00000230: 6f6e f1bd fba2 cbbd b259 fabd 5fff c73d
00000240: f305 59bd 1e64 1ebc 42c3 c63c 0763 20bd
00000250: 301a 143e ccee ad3d 2ca3 ea3d e305 82bc
00000260: 0831 e43d c6de 6a3c 98a5 653d 4522 f4bd
00000270: 0d74 0fbe c79f 413d baae a0bd c3e4 69bd
00000280: 8588 7dbd 48b9 2f3e c26c edbc fe44 c5bd
00000290: 8cb7 023e 4261 17be f6fe 7e3d 1cb3 fcbd
000002a0: 02ec 06be 6dec 07bd f156 1f3c c4cb 04be
000002b0: cdce 8abd 2c15 10be e33f 703b 5bf6 94bd
000002c0: 3165 f4bc 0b62 36bd 2559 f3bd a922 d9bd
000002d0: 1478 1f3e 241a 0dbe a3c8 df3c daed 04be
000002e0: 6f35 9cbd cecd 17be 38c8 9c3d 8d35 2abd
000002f0: 4b9a 933d 61ec 0b3e e3c9 12be 0dd3 393d
00000300: 8a0f e0bd 75ac 32bd 970d e1bd e824 24bd
00000310: 424d acbc 4434 9fbc 0173 fd3c e112 b33d
00000320: 3fc1 763c e0ee ad3d ac27 f7bd b27e babc
00000330: 1cb2 a23d 5ed7 17bd 2688 ebbd fadc 09be
00000340: 861e 9cbd 48bd 113d 62f9 bcbd 5f50 24bd
00000350: cb7b 0fbd 403b 173e 9f8d f63d e05c ad3d
00000360: 0240 a6bd 595e ddbd 68ba 913d eab9 123e
00000370: a489 f5bb 931b d9bd f4c6 833c 9125 3abd
00000380: 4441 2a3d 5780 cebd 1b7d 073c d3d4 5f3d
00000390: 0cb8 e43d 03ef d43c f0fb fd3a d915 10be
000003a0: 30e5 053e b7c8 d73d 2aa5 56bc 8574 7dbd
000003b0: f932 933d 6e8b e33d 954f 763d 94ce c2bd
000003c0: 69a2 3d3d 57a0 debd 7988 ea3d 7aaf 68bd
000003d0: 214b 96bc 1583 d53b faa0 f1bd 9398 a7bd
000003e0: 568a d53d 0b91 a43d 1b78 b9bc 0153 0abe
000003f0: aa55 83bc fe87 b8bd 8614 41bd d5c8 e43d

l1.bias f4 [256]
0.11931603 0.14202939 0.085866615 0.06859147 0.089829825 0.06975124 0.05191151 0.10070081
0.08397478 0.1142481 0.11578553 0.07504407 0.11804442 0.13337749 0.0688946 0.09099191
0.11059309 0.100320496 0.10490006 0.011978554 0.10589164 0.022962065 0.06632461 0.096844554
0.23506485 0.0940614 0.05074944 0.028380228 0.109000556 0.07400145 0.0939728 0.1157017
0.06513907 0.09757997 0.06535606 0.05893056 0.11775587 0.09239399 0.13077278 0.19604738
0.1571645 0.100278825 0.103560664 0.12632914 0.12223694 0.09314771 0.09516697 0.0594969
0.00021448132 0.10748053 0.0975539 0.06320641 0.08577602 0.069734916 0.10137421 0.15050605
0.11678277 0.08073823 0.096596286 0.05609398 0.109194 0.08357861 0.11324758 0.08099638
0.016922012 0.14940463 0.23413141 0.15469246 5.56199e-05 0.12411108 0.0918262 0.0015266873
0.14505509 0.008075645 0.096454576 0.086165644 0.13898507 0.0003574268 0.17656693 0.004318298
0.08261116 0.110456884 0.20546025 0.07222007 0.13906586 0.098535016 0.07509563 0.07365766
0.08603541 0.1574443 0.09498599 0.0020125594 0.13395365 0.07525481 0.07375715 0.100720614
0.11581732 0.07935751 0.12801285 0.0075743436 0.087772295 0.10606205 0.13265514 0.06960608
0.0978366 0.103041135 0.08273127 0.0062736734 0.0042387266 0.10125373 0.09164269 0.12933803
0.066557094 0.074133195 0.10186855 0.17843843 0.0052430267 0.07802228 0.13163757 0.076063454
0.1587489 0.0043666973 0.08474501 0.080049716 0.095118426 0.11938113 0.0026912647 0.07166482
0.115790725 0.17026815 0.0011269188 0.090659946 0.10811929 0.071994506 0.110388786 0.029692786
0.10868615 0.07784196 0.11433109 0.15502597 0.07433539 0.14490144 0.09880937 0.09924386
0.089495756 0.10182569 0.02023875 0.10655892 0.07490237 0.12405401 0.096047685 0.11606205
0.117698446 0.08744477 0.10714432 0.06837908 0.0981945 0.08765181 0.011838728 0.0011705634
0.09306201 0.120382465 0.08342349 0.1494502 0.079847395 0.10281351 0.08004273 0.14087173
0.16487183 0.097908005 0.022511743 0.1442442 0.11015295 0.07881752 0.07984744 0.0034560184
0.113148704 0.10238426 0.13259372 0.020959776 0.0057828496 0.14284343 0.13417321 0.10860385
0.14539227 0.10684131 0.13852243 0.15072396 0.11466894 0.12021689 0.09592764 0.09039549
0.085318305 0.08455365 0.02013528 0.12648235 0.10047982 0.07996797 0.063748024 0.02252659
0.06765492 0.013857833 0.11269143 0.13796213 0.109254576 0.1109464 0.08599637 0.0723433
0.074301645 0.106236406 0.11289403 0.07317156 0.05507469 0.0039485516 0.15778854 0.09570526
0.11146251 0.14770158 0.07859403 0.082891636 0.13177067 0.10015863 0.0791371 0.00036146122
0.05532704 0.078434214 0.12904517 0.098267525 0.1143905 0.15459435 0.06969016 0.0025181489
0.10589305 0.101049945 0.11840974 0.122335486 0.09773079 0.0703059 0.082827516 0.07437904
0.10147777 0.051800128 0.09993359 0.054205213 0.1000402 0.15760759 0.102167696 0.07871608
0.07072328 0.07981423 0.08280252 0.09956201 0.116814494 0.09936973 0.020548549 0.04510322
00000000: f65b f43d 2770 113e d6da af3d af79 8c3d
00000010: b3f8 b73d bdd9 8e3d 2aa1 543d 3a3c ce3d
00000020: f8fa ab3d e8fa e93d f720 ed3d b5b0 993d
00000030: 46c1 f13d 1c94 083e 9d18 8d3d f759 ba3d
00000040: a17e e23d d574 cd3d d8d5 d63d b241 443c
00000050: b7dd d83d f11a bc3c 32d5 873d 7056 c63d
00000060: d7b4 703e 43a3 c03d a5de 4f3d a77d e83c
00000070: af3b df3d 128e 973d d074 c03d 03f5 ec3d
00000080: a267 853d 02d8 c73d 66d9 853d 2c61 713d
00000090: fd29 f13d 0f39 bd3d 4de9 053e a5c0 483e
000000a0: bbef 203e fc5e cd3d 9d17 d43d 6d5c 013e
000000b0: 5c57 fa3d 3ac4 be3d e6e6 c23d 05b3 733d
000000c0: 64e6 6039 c11e dc3d 57ca c73d 5d72 813d
000000d0: 57ab af3d 2ed1 8e3d 489d cf3d 421e 1a3e
000000e0: ce2b ef3d 165a a53d 46d4 c53d cdc2 653d
000000f0: 1ba1 df3d 432b ab3d 59ee e73d 6ee1 a53d
00000100: 08a0 8a3c 87fd 183e 25c0 6f3e b367 1e3e
00000110: 6a49 6938 f32d fe3d 600f bc3d 201b c83a
00000120: 5289 143e b64f 043c fa89 c53d 9d77 b03d
00000130: 1a52 0e3e 0365 bb39 f6cd 343e 8280 8d3b
00000140: 0a30 a93d 3837 e23d 2c64 523e 1ee8 933d
00000150: 4867 0e3e bacc c93d bdcb 993d d4d9 963d
00000160: 5533 b03d 1439 213e 0488 c23d 25e5 033b
00000170: 252b 093e 321f 9a3d fd0d 973d 9c46 ce3d
00000180: a231 ed3d 3186 a23d cd15 033e 3332 f83b
00000190: f6c1 b33d 0f37 d93d c0d6 073e a28d 8e3d
000001a0: 8e5e c83d 3b07 d33d 036f a93d 6393 cd3b
000001b0: 04e5 8a3b 1e5e cf3d 2aaf bb3d 3071 043e
000001c0: 164f 883d 25d3 973d 75a0 d03d 90b8 363e
000001d0: b2cd ab3b 25ca 9f3d 00cc 063e 28c7 9b3d
000001e0: 128f 223e 8316 8f3b cb8e ad3d 1bf1 a33d
000001f0: 73cd c23d 187e f43d ee5f 303b 01c5 923d
00000200: b023 ed3d c65a 2e3e 1fb5 933a ecab b93d
00000210: a56d dd3d db71 933d 8413 e23d 493e f33c
00000220: d896 de3d 9b6b 9f3d 6b26 ea3d 21bf 1e3e
00000230: 273d 983d 0b61 143e 915c ca3d 5d40 cb3d
00000240: 8d49 b73d fd89 d03d bccb a53c 903b da3d
00000250: 6a66 993d 0710 fe3d a6b4 c43d f1b1 ed3d
00000260: e20b f13d 3e16 b33d 7b6e db3d 550a 8c3d
00000270: 331a c93d cb82 b33d 39f7 413c 976d 993a
00000280: 4c97 be3d 158b f63d efd9 aa3d 7909 193e
00000290: 0887 a33d e48f d23d 71ed a33d ae40 103e
000002a0: 29d4 283e fe83 c83d 8c6a b83c c0b4 133e
000002b0: df97 e13d 146b a13d 0e87 a33d 5e7e 623b
000002c0: 82ba e73d d7ae d13d a6c6 073e d6b3 ab3c
000002d0: 0f7e bd3b 8c45 123e b464 093e b26b de3d
000002e0: b6e1 143e 9ecf da3d d3d8 0d3e 6257 1a3e
000002f0: 8dd7 ea3d 4634 f63d b675 c43d 4521 b93d
00000300: 5dbb ae3d 772a ad3d bef2 a43c 9784 013e
00000310: 5dc8 cd3d 3fc6 a33d 538e 823d af89 b83c
00000320: aa8e 8a3d f70b 633c c4ca e63d f245 0d3e
00000330: ddc0 df3d de37 e33d dd1e b03d b928 943d
00000340: 762b 983d 7992 d93d fc34 e73d f9da 953d
00000350: 0096 613d da62 813b 5293 213e 1f01 c43d
00000360: 7546 e43d 153f 173e e8f5 a03d 17c3 a93d
00000370: e4ee 063e f81f cd3d a212 a23d 8182 bd39
00000380: 9b9e 623d 1ea2 a03d 6b24 043e 7c40 c93d
00000390: 9145 ea3d fb4d 1e3e b7b9 8e3d 8707 253b
000003a0: 75de d83d 46f3 ce3d ce80 f23d 078b fa3d
000003b0: 1527 c83d 8afc 8f3d 79a1 a93d 0a54 983d
000003c0: 94d3 cf3d 5f2c 543d fba9 cc3d 4906 5e3d
000003d0: e0e1 cc3d e263 213e 4c3d d13d e535 a13d
000003e0: 5ed7 903d a575 a33d 5e94 a93d 2be7 cb3d
000003f0: 703c ef3d 5b82 cb3d 6e55 a83c 27be 383d

l2.weight f4 [256, 256]
-1.7475524e-19 -2.9517658e-19 2.924073e-20 -1.9589368e-19 1.3522415e-19 -1.3790566e-19 5.068884e-20 -9.34057e-20
-1.5990175e-19 -2.169285e-19 1.738989e-19 3.7353454e-20 3.689838e-20 -1.4734368e-19 8.45029e-20 1.3713272e-19
1.8770848e-19 1.747118e-19 -1.8256906e-19 -1.297657e-19 -2.4787853e-19 -4.5242056e-20 -7.478197e-20 -1.3355305e-19
-7.2526757e-20 -8.159552e-20 -1.9957164e-19 1.7805041e-19 -1.3205409e-19 9.1188494e-20 -6.2303754e-20 -3.0526606e-20
-8.798265e-20 7.4816367e-20 -2.5036986e-19 -1.204698e-19 -2.8958916e-19 2.9384056e-20 7.059628e-20 -2.349369e-20
8.113434e-20 -8.2806395e-20 -3.1663462e-20 1.4055762e-19 -4.5606122e-21 9.0942776e-20 -1.2433613e-19 -1.158498e-19
-1.3239812e-19 -5.7989704e-20 -1.8663001e-19 1.6899869e-19 -1.2265927e-19 1.6393271e-19 -6.3259574e-20 -2.758487e-20
-6.7936815e-20 -2.3928298e-19 -1.0737573e-19 6.3639515e-20 -9.299144e-20 -1.8006155e-20 -1.1926342e-19 -3.080185e-19
-2.5261494e-19 -3.89968e-20 -2.669528e-19 -1.7634435e-19 -4.263201e-20 6.901906e-20 -1.6167042e-19 1.9989671e-19
-1.2886373e-19 8.962516e-20 1.9411955e-20 -1.9427649e-19 1.5206484e-19 1.5125871e-19 -3.0906042e-19 3.0165842e-20
-1.9215845e-20 2.58908e-21 6.868587e-20 -2.5589357e-19 1.7830611e-19 1.9808904e-19 -2.7892491e-19 -1.357959e-20
-1.04081985e-19 -4.0629406e-20 -1.0280134e-20 -1.9091075e-19 2.2860416e-19 1.6979045e-19 1.2043098e-19 1.081908e-19
2.954009e-20 -9.227047e-20 -7.763146e-20 1.5780254e-19 3.6964902e-20 1.901266e-19 -1.2975041e-19 1.1826115e-19
-3.197105e-19 -8.7443557e-20 -1.3369595e-19 7.708256e-20 -1.7307418e-19 -8.203477e-20 -1.8302574e-19 -2.620403e-19
6.3456443e-20 -2.812412e-19 9.153592e-20 1.06624344e-19 1.1507324e-19 -1.5514787e-19 -5.2694307e-20 -1.7630603e-19
-5.3679007e-20 9.087711e-20 -8.650457e-20 -2.54154e-19 5.0137498e-20 8.374447e-20 9.7088024e-20 -1.6682586e-19
-1.9716456e-20 -2.5872372e-19 1.9819637e-19 1.7472029e-20 2.1159399e-19 -2.3965594e-19 -4.1254615e-20 2.0281294e-19
1.9396574e-20 -9.4465344e-20 4.471135e-20 1.9847224e-19 -1.2595438e-19 -5.926224e-20 1.1143767e-19 -1.668354e-20
-2.9611843e-19 -2.797032e-19 1.5359779e-19 -1.6696928e-20 1.9834932e-19 -2.2488112e-19 -2.4228668e-19 -2.1427442e-19
-2.3115973e-19 7.269857e-20 -8.651738e-20 -2.1395955e-19 1.8999523e-19 -1.7397404e-19 -5.072926e-20 -1.6949854e-19
2.5309218e-20 -1.3642694e-19 -1.0594073e-19 1.7758637e-19 2.784348e-20 8.195633e-20 -8.5881665e-20 -7.389805e-20
-2.1546543e-19 -1.7771201e-19 -3.1840265e-19 -4.7639057e-20 1.2367383e-19 -8.3634816e-20 -2.1512756e-19 -2.2807742e-19
4.0634543e-20 -2.795706e-20 -3.3195808e-20 -3.1802398e-19 1.4861012e-19 -2.0546182e-19 1.70983e-19 -2.2298786e-19
-9.782464e-20 -1.5891471e-19 -2.4583218e-19 -4.4144364e-20 1.7140766e-19 -6.970713e-20 -1.7548976e-20 -1.889997e-19
3.5734555e-20 -4.77695e-20 -7.9549417e-20 2.9469343e-20 1.5535553e-19 1.8589849e-20 -1.2241138e-19 -1.5725633e-19
-2.4147444e-19 -2.2837914e-19 1.4594785e-19 8.958365e-20 -1.371393e-19 -1.9346485e-19 -1.1324538e-19 -1.273682e-19
-2.869005e-20 -1.0879692e-19 2.0793898e-19 -1.4665999e-19 5.3081146e-20 1.1962368e-19 1.2885971e-19 2.5329266e-20
2.717629e-20 -1.3858447e-19 1.1102761e-20 -1.2461373e-19 4.1769315e-20 -1.2161345e-19 -1.01280175e-19 6.5678936e-20
-1.8545303e-19 -1.5707073e-19 8.2504474e-20 -1.5682794e-19 1.2765902e-19 -3.146866e-19 -3.2755515e-20 6.8221275e-20
-2.3231174e-19 -2.1277726e-19 -7.214855e-20 -2.3168422e-19 -2.0376891e-19 -2.541226e-19 1.6126439e-19 1.1447323e-19
3.8283014e-20 -4.166631e-20 2.1272108e-19 3.9287118e-20 -1.1403504e-19 1.5921734e-19 1.8488269e-20 -2.901925e-19
-4.8640905e-20 -2.4483373e-20 -1.2009585e-19 9.392984e-20 -1.2524851e-19 -9.1804285e-20 -1.520209e-19 1.4772271e-19
00000000: 8850 4ea0 d33d aea0 e015 0a1f 3b45 67a0
00000010: fea4 1f20 6ecf 22a0 0c5f 6f1f 488c dc9f
00000020: 57c7 3ca0 4f0d 80a0 b84d 4d20 8e65 301f
00000030: 673f 2e1f e5f3 2da0 de86 c71f d2e5 2120
00000040: 689b 5d20 6743 4e20 1d8a 57a0 4733 19a0
00000050: 5852 92a0 4aa6 559f ed92 b09f efab 1da0
00000060: bc3f ab9f 77a9 c09f d49c 6ba0 6f34 5220
00000070: e6e6 1ba0 1050 d71f 4f1c 939f 6728 109f
00000080: 40be cf9f b8a7 b01f d3ca 93a0 c339 0ea0
00000090: 7af1 aaa0 25c3 0a1f d5b0 a61f 42e4 dd9e
000000a0: b392 bf1f 6585 c39f c786 159f eff0 2520
000000b0: 894b ac9d 89bb d61f 4aca 12a0 74c5 08a0
000000c0: e04e 1ca0 a0ec 889f 7655 5ca0 b884 4720
000000d0: 7dcf 10a0 9f89 4120 115e 959f 1044 029f
000000e0: 4969 a09f 6c3f 8da0 a588 fd9f ba43 961f
000000f0: e091 db9f 3610 aa9e 28cd 0ca0 71d2 b5a0
00000100: 171e 95a0 3d28 389f c494 9da0 cf30 50a0
00000110: f052 499f 76f7 a21f e3dd 3ea0 13ff 6b20
00000120: ac22 18a0 169f d31f 3a57 b71e 775c 65a0
00000130: c786 3320 2493 3220 e46f b6a0 4474 0e1f
00000140: 107d b59e 17a0 431d 102e a21f 8b0d 97a0
00000150: b781 5220 bddc 6920 f1a5 a4a0 6f41 809e
00000160: b3c1 f59f f0dd 3f9f ad2f 429e 3c63 61a0
00000170: aff1 8620 0474 4820 082e 0e20 5375 ff1f
00000180: c77f 0b1f 14de d99f 574d b79f e44c 3a20
00000190: d38f 2e1f 3d76 6020 a82e 19a0 3d9e 0b20
000001a0: 49b9 bca0 6378 ce9f 1fd7 1da0 8c01 b61f
000001b0: 7654 4ca0 fab2 c19f 2314 58a0 69ae 9aa0
000001c0: 11d5 951f f803 a6a0 1222 d81f 76c2 fb1f
000001d0: c1da 0720 912a 37a0 82d7 789f 3a25 50a0
000001e0: f07d 7d9f d893 d61f ce40 cc9f ab06 96a0
000001f0: 84c4 6c1f 6dbc c51f 1c3e e51f 06f4 44a0
00000200: 7737 ba9e 39b9 98a0 2dfd 6920 c604 a51e
00000210: 5cce 7920 c877 8da0 c5d1 429f 7370 6f20
00000220: 0a32 b71e cc0c df9f b524 531f 8e50 6a20
00000230: 60b3 14a0 d3ed 8b9f f88f 0320 5392 9d9e
00000240: 27cc aea0 8d1b a5a0 1556 3520 b2b2 9d9e
00000250: 672b 6a20 13bf 84a0 5405 8fa0 78f8 7ca0
00000260: df73 88a0 97a7 ab1f 8c48 cc9f 4e99 7ca0
00000270: 894e 6020 6d64 4da0 ea8f 6f9f ca1b 48a0
00000280: ef09 ef1e 8310 21a0 3e25 fa9f 30a8 5120
00000290: b47c 031f 9083 c11f 48c8 ca9f a17c ae9f
000002a0: 6e60 7ea0 29ce 51a0 a6f3 bba0 16f8 609f
000002b0: 1f02 1220 257a c59f 51fa 7da0 16a2 86a0
000002c0: 26e4 3f1f 0306 049f 45c3 1c9f 6dba bba0
000002d0: a772 2f20 0691 72a0 71dc 4920 f9a0 83a0
000002e0: 5efb e69f 069d 3ba0 1c1d 91a0 4377 509f
000002f0: c95c 4a20 6097 a49f d2be a59e a821 5fa0
00000300: 6dc0 281f c895 619f acd4 bb9f 402a 0b1f
00000310: 5469 3720 7f93 af1e 9284 10a0 cfa7 39a0
00000320: 968a 8ea0 aecf 86a0 084e 2c20 fe85 d31f
00000330: cfe7 21a0 2a67 64a0 51b2 05a0 ad5e 16a0
00000340: 247c 079f da71 00a0 b37d 7520 4325 2da0
00000350: 2bab 7a1f 0a3a 0d20 7521 1820 683a ef1e
00000360: 1e56 001f 969c 23a0 a8b9 511e 301e 13a0
00000370: 0140 451f 6993 0fa0 1c24 ef9f 7b14 9b1f
00000380: bdf1 5aa0 b76f 39a0 e5ce c21f 5626 39a0
00000390: 92b6 1620 18c2 b9a0 fdae 1a9f 3b15 a11f
000003a0: f521 89a0 fb33 7ba0 1f5b aa9f 21c3 88a0
000003b0: 6091 70a0 ec01 96a0 2c63 3e20 6925 0720
000003c0: 53c9 341f 7ac3 449f 0023 7b20 3687 391f
000003d0: faa0 06a0 7df8 3b20 e49d ae1e a74c aba0
000003e0: 3fb3 659f 2a3d e79e bec8 0da0 1bc9 dd1f
000003f0: 0ade 13a0 49c4 d89f 7f79 33a0 7366 2e20

l2.bias f4 [256]
-2.2846863e-19 0.04847172 0.03301524 0.047448244 0.059908606 0.05088922 0.0635541 0.042396817
0.057343844 0.048839316 0.047051128 0.045843475 0.055697683 0.04031833 0.05198087 0.04748324
0.05575764 0.054065213 0.05594806 0.04970804 0.04444133 0.039667442 0.05078222 0.060937297
0.0609763 0.048747044 0.05808982 0.048657283 0.055294197 0.051600225 0.04983085 0.050610382
0.052773815 0.048142128 0.045514468 0.04852967 0.048074525 0.05324426 0.0333595 0.05052467
0.04502418 0.05614213 0.05241101 0.053544454 0.05141376 0.03675633 0.047645073 0.053189952
0.048583064 0.056912664 0.04561971 0.06387976 0.04115495 0.05067853 0.0531293 0.04819534
0.04669247 0.044246584 0.058420617 0.049832467 0.05540554 0.052160256 0.052504163 0.05281427
0.05664666 0.04523603 0.060116548 0.060366344 0.048305444 0.048445415 0.06591917 0.06215831
0.042229228 0.058812007 0.0477945 0.05511926 0.038840253 0.06278361 0.05576705 0.04989707
0.048454292 0.06181309 0.053129688 0.056075294 0.041301176 0.062403265 0.056241885 0.051918596
0.059699807 0.050089676 0.04805102 0.058705587 0.038647328 0.046337973 0.061078757 0.054796405
0.043609038 0.052937675 0.060260694 0.04290816 0.057007868 0.033067394 0.058207937 0.04633662
0.051037494 0.05569151 0.05378993 0.052745845 0.06193515 0.056257226 0.06568248 0.060531497
0.049364932 0.065152325 0.047429394 0.0488898 0.063197955 0.043094028 0.05380251 0.04263287
-2.8498838e-19 0.043541208 0.050971083 0.043976277 0.053315416 0.056066178 0.055775516 0.04048064
0.055551022 0.03930992 0.065537065 0.061178 0.046623077 0.044883523 0.057233807 0.048829783
0.07000828 0.05669984 0.06167574 0.05501979 0.04968478 0.05416758 0.039854724 0.06935308
0.05029247 0.045977276 0.051001552 0.04111749 0.053125784 0.052809894 0.050134264 0.06005662
0.04479518 0.060646854 0.04619884 0.055870946 0.04506815 0.05436573 0.059350837 0.05079023
0.05412452 0.051524576 0.046793684 0.04354899 0.042342063 0.055369686 0.043452583 0.036853675
0.055092067 0.05661193 0.04514957 0.057678852 0.051578935 0.054499093 0.04924871 0.050314218
0.053820282 0.05168366 0.050804295 0.038486492 0.046349354 0.05977862 0.053613715 0.04537932
0.044271257 0.0522293 0.048614353 0.060605764 0.05066125 0.044580217 0.036586244 0.06464862
0.06432701 0.046519414 0.051473055 0.04957557 0.04740224 0.0504339 0.040746994 0.062188454
0.05290979 0.045579247 0.066149384 0.057812158 0.051675018 0.06498497 0.048276212 0.050340224
0.06356518 0.050488807 0.052696362 0.0477384 0.0503526 0.056756623 0.04496472 0.04914324
0.04250755 0.065052174 0.047310542 0.048040804 0.053352736 0.05079486 0.055835333 0.05691324
0.055587962 0.051402718 0.058001988 0.05248226 0.046313528 0.04842873 0.05793142 0.054075915
0.048515607 0.057728853 0.057088036 0.053455636 0.07275003 0.04813754 0.047346674 0.045065716
0.051878687 0.057973843 0.05440592 0.05481171 0.0664774 0.05168117 0.051291507 0.056221843
0.053200804 0.044182118 0.051862806 0.05268433 0.06130594 0.05186303 0.057343956 0.06404306
00000000: 34dd 86a0 488a 463d fd3a 073d 1759 423d
00000010: ba62 753d 3771 503d a728 823d 49a8 2d3d
00000020: 61e1 6a3d bc0b 483d afb8 403d 5ec6 3b3d
00000030: 4123 643d d524 253d e5e9 543d c97d 423d
00000040: 2062 643d 7c73 5d3d cb29 653d a89a 4b3d
00000050: 1d08 363d 547a 223d 0401 503d 6399 793d
00000060: 49c2 793d fbaa 473d 97ef 6d3d dc4c 473d
00000070: 2b7c 623d c25a 533d 6f1b 4c3d d54c 4f3d
00000080: 5b29 583d ae30 453d 616d 3a3d 0cc7 463d
00000090: cbe9 443d a716 5a3d f9a3 083d f5f2 4e3d
000000a0: 466b 383d 4af5 653d edac 563d 6e51 5b3d
000000b0: 3c97 523d ce8d 163d 7b27 433d b5dd 593d
000000c0: 09ff 463d 411d 693d bcdb 3a3d 64d3 823d
000000d0: 1892 283d 4a94 4f3d 1c9e 593d 7a68 453d
000000e0: 9a40 3f3d e83b 353d 754a 6f3d 211d 4c3d
000000f0: ebf0 623d fea5 553d 9b0e 573d c753 583d
00000100: 5406 683d 6a49 393d c53c 763d b342 773d
00000110: eedb 453d b36e 463d a100 873d b699 7e3d
00000120: 8ef8 2c3d dce4 703d 2ac4 433d bcc4 613d
00000130: f516 1f3d b194 803d fd6b 643d df60 4c3d
00000140: 0278 463d b92f 7d3d 849e 593d 35af 653d
00000150: 6c2b 293d 919a 7f3d e45d 663d 98a8 543d
00000160: c987 743d d52a 4d3d 25d1 443d 4575 703d
00000170: a94c 1e3d e3cc 3d3d b82d 7a3d 3272 603d
00000180: 649f 323d 2dd5 583d ebd3 763d 77c0 2f3d
00000190: 1581 693d ad71 073d 726b 6e3d 78cb 3d3d
000001a0: b10c 513d c81c 643d d452 5c3d 070c 583d
000001b0: b6af 7d3d fa6d 663d 8984 863d e0ef 773d
000001c0: e232 4a3d 956e 853d 5345 423d ac40 483d
000001d0: ee6d 813d 5d83 303d 0560 5c3d ce9f 2e3d
000001e0: 3a3a a8a0 4458 323d 0ec7 503d 7820 343d
000001f0: 4461 5a3d a6a5 653d de74 643d 07cf 253d
00000200: 7889 633d 7003 213d 4c38 863d c895 7a3d
00000210: d7f7 3e3d c9d7 373d ff6d 6a3d bd01 483d
00000220: 8060 8f3d 173e 683d b39f 7c3d 6e5c 613d
00000230: 4582 4b3d d3de 5d3d b53e 233d fd08 8e3d
00000240: 7aff 4d3d ab52 3c3d 01e7 503d d06a 283d
00000250: 6c9a 593d 304f 583d 9659 4d3d eefd 753d
00000260: 277b 373d d668 783d ff3a 3d3d efd8 643d
00000270: 6199 383d 9aae 5e3d dd19 733d 6b09 503d
00000280: acb1 5d3d 6f0b 533d bcaa 3f3d 6d60 323d
00000290: df6e 2d3d 53cb 623d 56fb 313d e1f3 163d
000002a0: 38a8 613d e9e1 673d c1ee 383d a940 6c3d
000002b0: 6f44 533d 713a 5f3d 04b9 493d 4816 4e3d
000002c0: a872 5c3d 3fb2 533d 2a18 503d 03a4 1d3d
000002d0: d2d8 3d3d 6dda 743d 0e9a 5b3d aadf 393d
000002e0: c755 353d 64ee 553d d81f 473d c03d 783d
000002f0: 2c82 4f3d bf99 363d 75db 153d 7f66 843d
00000300: e1bd 833d 248b 3e3d 69d5 523d c10f 4b3d
00000310: da28 423d c793 4e3d 52e6 263d 52b9 7e3d
00000320: f0b7 583d 4eb1 3a3d 5479 873d 71cc 6c3d
00000330: 2fa9 533d d716 853d 47bd 453d 8d31 4e3d
00000340: 762e 823d 5acd 4e3d 24d8 573d 5789 433d
00000350: 873e 4e3d a279 683d ed2c 383d 6c4a 493d
00000360: 661c 2e3d 133a 853d b3c8 413d 6fc6 443d
00000370: 6688 5a3d 450e 503d 97b3 643d dc1d 693d
00000380: 34b0 633d a88b 523d 7e93 6d3d a3f7 563d
00000390: 41b3 3d3d 345d 463d 7f49 6d3d b57e 5d3d
000003a0: 4db8 463d 1775 6c3d 25d5 693d 4cf4 5a3d
000003b0: f8fd 943d df2b 453d 96ee 413d d496 383d
000003c0: bf7e 543d fb75 6d3d bed8 5e3d 3e82 603d
000003d0: 4e25 883d a2af 533d 0b17 523d e048 663d
000003e0: 16e9 593d 4ff8 343d 186e 543d 86cb 573d
000003f0: f01b 7b3d 546e 543d 7fe1 6a3d 0229 833d
