code/save/model_beta/model_beta_repr_10.pt (torch, 649974 bytes, 6 tensors)

embed.weight f4 [59, 256]
00000000: 6817 2e3d 6137 24be d2f7 12bd 7c53 ffbd
00000010: 6729 3cbe 3e7d f8bd 8d4c 133d 5dfe 0e3e
00000020: ba3c a63d 0141 c3bd 315e 393e abac 8e3c
00000030: 952c 933c a32a 5f3e 84cb b53d 0102 83ba
00000040: e48d 1b3e 9d89 e43b 2abd 41be c818 9f3d
00000050: 5dae 18be 0848 efbd b687 c43d 49a4 103e
00000060: 09f5 2b3e c832 b33b f20f e9bd e22e 57be
00000070: 0613 2e3d 28d8 3e3e e898 e1bc 5157 29be
00000080: 1f96 dfbd b426 4cbe 66bb 2c3e 1012 853d
00000090: d000 a9bd 49e0 47bc 594d 00be 137d 1f3e
000000a0: d39c ebbc 80ae 293c fb72 293e 4221 c43c
000000b0: c26b 94bc 3674 44be 8d88 503e c9c2 303d
000000c0: 1217 27be e71d 8b3d 73e1 453e eb15 4fbe
000000d0: 6b4c 2e3e 750d 1abe 1fc7 7cbd ff32 493d
000000e0: 23bc 1b3e a059 203e 4c43 17bb 7c65 a73b
000000f0: 7b56 a7bd 6a8c 3cbe dafa 4fbe 0de0 e93d
00000100: 1d89 5a3e c43e 0ebe c7ee 323d 21b6 3b3d
00000110: 935a 47be d5b8 753e eacb a1bb 388a 4c3c
00000120: 4782 2cbd ac6c c73d 957c 6fbe f56c 91bd
00000130: c9c3 1a3c 9ee7 24be 4f09 1d3e d9bb 3d3e
00000140: bf9d 103d 9244 0fbe 8cc6 9fbd 0345 b0bd
00000150: b54b a73c b626 0d3e 06b5 cdbd 695f 2abe
00000160: 80f1 27be ef40 17bd c6a7 1c3e 20d1 23be
00000170: 3bc6 913d 937d 28be a378 0e3d c6ce f1bd
00000180: 983c 093c 1e6b 1b3e 1e72 2d3e bd98 163b
00000190: 96cd 763d 1c73 9a3d 0df2 acbd 71b6 3e3e
000001a0: 553c 9e3d 2348 183e c09a 3bbe 1f61 60be
000001b0: 6dc5 27be 6491 98bd ae19 78bd bf89 36be
000001c0: 9f9a 2abe 2cc3 c6bd f890 5cbd 1b21 413d
000001d0: fdce 96bd 66e2 02bd 0bcb 2bbe 834b 5b3e
000001e0: cc83 f3bd 9890 273d 845b 8dbd 27df 363d
000001f0: 4209 9c3c eb82 0abe 9d6a e93c dd22 e13d
00000200: 3ebb a1bc fc0d 9c3d 262e 29be e999 053d
00000210: 04fd 243e df99 fcbc 03cd e1bc 257e 2d3e
00000220: 8822 623d f1bf 953d f068 c83d c30e 1abe
00000230: 1634 b6bd ea54 d73d bd87 583d 267a 0f3d
00000240: 7d64 91bc 80e1 94bd 0878 4b3d 9451 8ebc
00000250: 5490 03bd 39a5 a23b 7b29 98bd fcf9 c43d
00000260: 16fc b3bd 0734 8e3d 59b6 f8bc 27a5 48be
00000270: 05e5 04bc cce0 27bd 6b68 c5bd 7bab bf3d
00000280: d0ff 2abe 3c46 8d3c 019d e73c 299d bc3d
00000290: a135 59bd 75f9 50be bb05 1b3e 9aaf 053c
000002a0: b022 15be bf2f 1c3d 7201 8cbd f4d1 5bbe
000002b0: 64c5 f03a 3c60 b43b 4c70 e23c 7d19 263e
000002c0: 1b70 233c 37d8 1fbe 8e20 463e b73d 4cbd
000002d0: 5f6c 043d 6e35 0e3e 5215 263e 39c6 00bd
000002e0: 14f3 c83d 616e 23be 6fe0 0c3d 50ff 58be
000002f0: 481a 0b3e 17f1 50be 9471 70bd 3555 3e3e
00000300: 78be 1fbe 0ca6 3bbe 7651 6f3d 5cf4 e53c
00000310: d1bc af3d 8834 193e 2618 253d 8888 00be
00000320: 15db 7a3e 38b0 093e cf44 b73d 62da 6a3e
00000330: b2d2 45bc 27f4 97bd c261 a43d 1a80 0f3e
00000340: dd55 193d 8f47 4e3e 347b 0f3e 29f9 95bb
00000350: 8f85 d43d 7f3e 4abe fd87 e1bd f23e c2bd
00000360: 6fd1 2ebe 576d 013e b4a4 bc3d 462f 24be
00000370: 04c3 c5bd d5cc 993d 98d2 1a3e d768 073e
00000380: 8b1b b63d 5102 f8bd ba65 06be 3c01 49bd
00000390: ee27 013e dd49 073e c419 1c3e 6724 d13d
000003a0: 9b90 483e 5492 2f3e 99a6 7e3d 1d76 f5bd
000003b0: aca0 09bd 5a3f 30be 9298 16be 7a42 39bd
000003c0: 00b2 283e 66f7 a23d 63a1 7abd a158 ef3b
000003d0: f525 38bc 25c9 033e 284b 86bd d01d 083d
000003e0: 4121 8a3c 7eda b53c 5c6f b2bd 3281 1fbd
000003f0: bf47 13be d64a 57bd b61f fb3d fbc1 2abe
0.04250279 -0.1603675 -0.03588087 -0.12467095 -0.18375169 -0.12133263 0.035961676 0.1396422
0.081170514 -0.09533883 0.18102337 0.017416319 0.017965594 0.21793608 0.08876708 -0.0009995104
0.15190846 0.0069744126 -0.18919817 0.077683985 -0.14910264 -0.11683661 0.09596197 0.1412517
0.16792692 0.0054687 -0.113799945 -0.21013978 0.04249861 0.18637145 -0.027538732 -0.16537215
-0.10917305 -0.19936639 0.16868362 0.06497586 -0.08252108 -0.01219947 -0.12529506 0.15575056
-0.028761303 0.010356545 0.16547768 0.02394164 -0.01811779 -0.19184956 0.2036459 0.04315451
-0.16317394 0.06792813 0.19324283 -0.20223205 0.17021339 -0.15044196 -0.061713334 0.0491209
0.15208487 0.15659189 -0.0023080884 0.0051085334 -0.08170792 -0.18412939 -0.20310536 0.114196874
0.21341367 -0.1389113 0.043684747 0.04582799 -0.19468145 0.23996289 -0.0049376385 0.012484126
-0.04211643 0.097375244 -0.23387368 -0.0710086 0.009446093 -0.1610398 0.15335582 0.1852869
0.03530669 -0.13991001 -0.07801542 -0.08606913 0.020421842 0.13784298 -0.10044293 -0.16637959
-0.16400719 -0.03692716 0.15298375 -0.15997744 0.071178876 -0.16454153 0.034783017 -0.11807017
0.008376263 0.1517758 0.16938064 0.0022979223 0.060254656 0.075414866 -0.08444605 0.18624283
0.07726351 0.14871268 -0.18320751 -0.21912049 -0.16383906 -0.07449606 -0.060571365 -0.17825983
-0.16660546 -0.09705195 -0.05384919 0.047150712 -0.07363699 -0.03195419 -0.16776673 0.21415524
-0.11890373 0.04090938 -0.06902221 0.04464641 0.019047383 -0.13526504 0.02849322 0.10992978
-0.019742604 0.07619855 -0.1652151 0.032617483 0.16112143 -0.03083509 -0.027563578 0.16942652
0.055208713 0.073120005 0.0978564 -0.15044694 -0.08896653 0.10514243 0.052863825 0.0350286
-0.017748112 -0.07269573 0.049675018 -0.017372884 -0.032120064 0.0049635437 -0.07429787 0.09617993
-0.08788316 0.06943517 -0.030360388 -0.1959425 -0.008111243 -0.040985867 -0.09639057 0.09358879
-0.16699147 0.017245404 0.028273107 0.092096634 -0.05302966 -0.2040766 0.15138905 0.008159542
-0.14564013 0.03813147 -0.06836213 -0.2146681 0.0018369374 0.005504636 0.027641438 0.1622066
0.0099754585 -0.15609823 0.19348356 -0.049863543 0.032329913 0.1388757 0.1621907 -0.03143904
0.098119885 -0.15960075 0.034393724 -0.21191144 0.13584244 -0.20404468 -0.058702067 0.18587191
-0.15600002 -0.1832506 0.058427297 0.028070621 0.08580936 0.14961445 0.040306233 -0.12552083
0.24497636 0.13446128 0.08948671 0.22934869 -0.012074159 -0.07419615 0.08026458 0.1401371
0.0374354 0.20144485 0.14011842 -0.0045768213 0.10377037 -0.19750403 -0.11012266 -0.09484662
-0.1707208 0.12639366 0.09211102 -0.16033658 -0.09656337 0.07509772 0.15119398 0.13223587
0.08891972 -0.12109817 -0.13124743 -0.049073443 0.12612888 0.1321177 0.15244204 0.10212021
0.19586413 0.17145663 0.0621706 -0.11985419 -0.033600494 -0.17211667 -0.14706638 -0.045229413
0.16474152 0.07957344 -0.061189067 0.0073042666 -0.011239518 0.128697 -0.06557304 0.033231556
0.01686156 0.022198912 -0.08712646 -0.03894157 -0.14382838 -0.052561603 0.12261908 -0.1667556

unembed.weight f4 [59, 256]
00000000: 6a47 fabc bb2e 6f3d 8e37 03be c977 943b
00000010: 483c 553e 6f6e 0cbe c147 183e 91c5 a01f
00000020: 4be5 cfbd 1b5a f23c 404d 3fbe a3d0 dfbd
00000030: f9dc 913d e750 2f3e 7a6a b53d a7ac 29be
00000040: 2111 5b3e b953 c9bd 2f11 89a0 a677 febd
00000050: ec84 e3bd 9db1 333d c179 a3bd e120 2fbe
00000060: c7e9 623d dae3 53be ae3f a3bd 1d6b 9c3d
00000070: 5a56 6c3e 1040 9639 50f3 b13d 63d5 a93b
00000080: 0ce7 2fbe 6702 4fbe 4c74 b0bd 6b15 113e
00000090: 9a11 4dbc 31f1 17bd b16a ad3d 4f36 f0bc
000000a0: a62c bdbd ee1e 34be 216b e53d ed48 f7bc
000000b0: 7f41 47be 566b fc3c 35b9 f4bd f5a6 22bd
000000c0: 8c8b db3d d7eb 523d 4cef 2c3e 4d8a 38bc
000000d0: 2631 f73d 444f fb3c bef3 023e 6930 693c
000000e0: 2a93 b13d edcf 29be 9f95 b1ba 687f 8d3d
000000f0: 96e0 f1bd 854e d83d 89ec 82bd 6aa2 c83d
00000100: 5a5f 5e3e a44a ac3c 3b51 47bd 0c70 0cbe
00000110: 2a8e af3d f76b 983d f708 9e3d 2467 b7bd
00000120: bb25 1e3e 5656 3e3e 58ce f7bd 774e 54be
00000130: fc1f 2f3e 093e 023e 9bee fb3d aee7 2c3e
00000140: 5435 eabb 354b 283e 2b4d 8bbd 4162 b0bc
00000150: 0a2b 1d3e edd0 2fbe 8913 22be 581c f73c
00000160: 7e1c 2c3c 7f28 a13d c68b f63d 5313 283d
00000170: 873f d7bd db7d 32be a853 44be bace 82bd
00000180: 7ab7 8c3c 9d60 743c 9b21 843d 8af1 5ebc
00000190: e498 023e fdb6 03be 9a58 163e 5f5f f23d
000001a0: 7dee 443d f0c1 cd3d 144f 3c3d 9214 32be
000001b0: b870 193e d391 3a3d f0c1 a53d 047e 34be
000001c0: 4d4e 413e 9855 043e 838c 7fbd d66d 533d
000001d0: c454 1f3e 49f6 fbb9 2173 3bbe ddac b3bd
000001e0: 2efc e53d fddd 1e3e 77ad 1dbe 0ee0 12be
000001f0: 6d9c 4dbe 13a7 e23d a2fa 32be d0e2 cbbd
00000200: f243 ac3d 4745 02be dcb1 f73d 98ad 173e
00000210: feae eebd f7a5 32be a01f f0b8 9009 f13d
00000220: 5058 cd3d a901 f3bd 3b37 163e f87e 2fbe
00000230: 536f 563c 00f2 efbd e100 1bbe 5ab9 24be
00000240: 265e 00be dfce 183e 13e8 803b 48f2 09be
00000250: 9dc1 9f3d 48bf 233e e09d 70bc 538b 483e
00000260: 3efe f73c 832a f4bd c037 3f3c 2d03 16be
00000270: 0d45 82bc e2e2 e0bd 2770 133d bad2 593e
00000280: c335 29be 2722 303e 351f f4bd 7e50 b73d
00000290: cf80 173e 28cf cc3b 1ed8 fdbb d6f8 9b3d
000002a0: dbaf 52bd d9f3 363d 5816 bb3d 266f 1b3e
000002b0: 775d 1fbe 68cd be3d ee7a 54bb 01a2 ab3b
000002c0: 15d6 d53c 0cde d43c 4618 05be d2eb a53d
000002d0: 64f2 36bd fcac 24bc c577 ec3c e1d4 8fbb
000002e0: a3c1 9e3d 00a8 3cbd f906 e3bd 4dc9 f93c
000002f0: 7996 1cbd 8d58 4cbe 6e43 493e c9ce 9c3d
00000300: bdfe 76bd d0ba 8e3d 04e4 0cbe 46e3 c2bd
00000310: 5772 8fbd a70f 5e3e c48b 393e 2446 acbd
00000320: c0de 0dbc fa8b a2bb fc3d 33be 0b60 0cbe
00000330: 2270 643e 7178 043e 6d5f 34be 7b57 20be
00000340: ab52 b2bd a0fe d53d 2ee3 803b 4801 15be
00000350: d46d e8bd 9388 d93d eeb9 323e ada1 1c3e
00000360: 8c13 1abe ab9e 073e 63e3 f53c 5f18 51bb
00000370: cd5c 34be 43ff 403e 85b8 51be d348 76bd
00000380: 48b4 053d cb28 82bd e492 8abd fcb3 c4bd
00000390: 5126 4ebd 06a2 753e ff3a bebc 76ab a53c
000003a0: 4f14 0fa1 762e dcbd 7870 2f3e e0c7 27be
000003b0: b3ce 3a3e bb8d 4c3e 67a3 a7bd 439b f6bc
000003c0: 8355 133c e334 5dbd 3ab4 093e 6511 5ebd
000003d0: dc3d 83bd 6597 acbc eac6 4cbe 2db0 103e
000003e0: a0e2 683e b1ff 0cbd ef55 03bd 9779 ca3d
000003f0: 8d5e f0bd d899 51bd 58ec 0abe 5124 b03c
-0.030551631 0.058394175 -0.12814161 0.004530881 0.20823777 -0.13714002 0.14871122 6.808948e-20
-0.10151156 0.029583981 -0.18681812 -0.10928466 0.07122225 0.17120706 0.088581994 -0.16569768
0.21393253 -0.09830422 -2.3220074e-19 -0.12425165 -0.11109337 0.043870557 -0.07982207 -0.17102386
0.05539873 -0.20692387 -0.0797113 0.07637618 0.23079816 0.0002865796 0.08688986 0.0051829084
-0.17177981 -0.2021576 -0.08615932 0.14168327 -0.012516404 -0.037095252 0.084676154 -0.029322771
-0.09237032 -0.17589924 0.11202074 -0.03018614 -0.19458579 0.0308129 -0.11949388 -0.039710004
0.10719976 0.051494446 0.1688816 -0.011263442 0.12069921 0.030677445 0.12788293 0.014232733
0.086706474 -0.16583224 -0.0013548619 0.069090664 -0.118104145 0.105618514 -0.06392772 0.09796603
0.21716061 0.021031685 -0.04866145 -0.13714617 0.085720375 0.07442468 0.07716554 -0.089552194
0.1544408 0.18587622 -0.12099904 -0.20733057 0.17102045 0.12718977 0.1230137 0.16885254
-0.0071474705 0.16434939 -0.06801828 -0.021531226 0.1534845 -0.17169543 -0.15827765 0.030164883
0.01050484 0.07869052 0.120383784 0.041034054 -0.10510164 -0.17430823 -0.19172537 -0.06387086
0.017177332 0.0149156125 0.06451722 -0.013607392 0.12753636 -0.12862773 0.14682236 0.11834597
0.048079003 0.10046756 0.045973852 -0.1739066 0.14984405 0.045549225 0.08093631 -0.17626196
0.18877526 0.12923276 -0.06238986 0.05161842 0.1555968 -0.00048057947 -0.18305637 -0.087732054
0.1122974 0.1551437 -0.15398203 -0.14343283 -0.20079203 0.11067023 -0.17478421 -0.099553704
0.08411397 -0.1272174 0.12094471 0.14812315 -0.11654471 -0.17446123 -0.000114499824 0.11769402
0.1002661 -0.11865551 0.14669506 -0.17138278 0.013088065 -0.1171608 -0.15137054 -0.16086331
-0.12535915 0.14922665 0.0039339154 -0.13471329 0.07800601 0.15990937 -0.014686078 0.19584398
0.0302726 -0.11922171 0.011671007 -0.14649649 -0.015902067 -0.109807745 0.03599563 0.21271792
-0.16524415 0.17200528 -0.11920015 0.089508995 0.1479523 0.006250281 -0.0077467104 0.07615821
-0.05143724 0.044666145 0.09135121 0.15179119 -0.15562998 0.09316522 -0.0032421905 0.005237818
0.026103059 0.025984786 -0.12997541 0.0810162 -0.044664755 -0.010051008 0.028865704 -0.004389391
0.07751777 -0.046058655 -0.11085314 0.030491496 -0.03822944 -0.19955654 0.19654629 0.07656629
-0.06030153 0.069692254 -0.13758856 -0.09516005 -0.070042305 0.21685658 0.18119723 -0.08411816
-0.008659065 -0.004960534 -0.17504114 -0.13708512 0.223084 0.1293657 -0.17614527 -0.15658371
-0.08707174 0.104489565 0.003933332 -0.1455127 -0.11349073 0.106217526 0.17453739 0.1529605
-0.15046519 0.13244121 0.030015653 -0.0031905395 -0.17613526 0.18847375 -0.20480545 -0.060128044
0.032642633 -0.06355437 -0.067662984 -0.09604642 -0.05032951 0.23987588 -0.02322149 0.02022336
-4.8477163e-19 -0.10751049 0.17132747 -0.1638484 0.18242912 0.19975941 -0.081854634 -0.030103331
0.008992556 -0.054005515 0.13447657 -0.054215807 -0.06408283 -0.021068284 -0.19997755 0.14129706
0.227427 -0.034423534 -0.032064375 0.09886473 -0.11736784 -0.051172107 -0.1356672 0.021501692

l1.weight f4 [256, 256]
00000000: 0754 c13d 3ae8 a03c 7989 a33d 0b31 dfbc
00000010: c688 173d 51bc 7fbd 4cc1 a1bd b12c 8ebd
00000020: b701 44bc b2f2 c0bc a349 463d 2185 a93d
00000030: 2801 cabc aedb ae3b cf28 2cbd 0a48 3b3d
00000040: 9b56 2f3b 40bd e1bc 4a98 c5ba dff2 bf3b
00000050: 60f5 473d 4e17 8abd 1a38 a4bd 34aa b63b
00000060: 1986 b6b9 f5f9 9f3d 1e1c ffbc fcdc 6d3d
00000070: c40c 613d eceb a53c 9211 7abc fd55 8b3d
00000080: 9d49 bf3c 60c5 88bd a727 5fbc 1e15 4fbd
00000090: 7911 9a3d 6902 dfbc ee84 88bd 242e 61bd
000000a0: 4dfd 9fbc 5845 3fbd a953 e23c b34c c03c
000000b0: 67cc 0abd 5750 4b3d ce7a 403d 4fcb ad3b
000000c0: 5f4d 44bd d84f 79bd 5744 993d 3f79 f53b
000000d0: c4d8 4e3c 7d73 d73b d93a afbd a4d8 f8bc
000000e0: 2234 3f3d c1c8 5a3b 3a6a b839 2466 f53b
000000f0: 06c7 b93c 011d 87bd 1628 8abd a7c2 a7bc
00000100: abf1 30bd 5aaa 7e3d e4d1 053c 618d 6bbd
00000110: a3af b63c 656c 05bd a362 1bbd 4fdb 9bbc
00000120: 13c4 e5bc dcba 80bd bc10 4b3c 8d10 ae3d
00000130: 336c 323c 2d7a cdbd 2b74 453d 3bf2 223d
00000140: f158 06bd ed09 23bd 81d4 8bbd 8628 9b3d
00000150: 7e4f bf3c 4e81 afbc 6b22 5dbd 4c08 723d
00000160: 1671 983d bbf7 3abd 05a3 2bbd 7160 26bd
00000170: ac7e 58bd fb83 4abc e2fc af3c b020 3abc
00000180: a172 87bd 998c a3bc 55ea 29bc 032d e6bc
00000190: 11dd 8abc d9da 87bd 30ec 6ebd 6218 ba3d
000001a0: c691 463c 96ea 43bd 7ddc f6bc eff8 4fbd
000001b0: 3d8f 0abc a4d0 463c ad72 14bd 41a3 e43c
000001c0: 77e0 913c 9ac2 a03d e10d 093c 31b6 f1bc
000001d0: 6f9d ae3c 3e0f 11bc 03d1 a73c 35a4 bd3d
000001e0: 3da4 5cbd 7981 7abd 5ee7 613d 17a0 82bd
000001f0: baac 6fbd 5846 3d3d 2482 cebd 7fc2 d63d
00000200: 6913 503d 3cdf 08bd 72eb b43c ab2c a93d
00000210: 241d 923d f620 b53d a0a1 9fbd ad9a b4bc
00000220: c86e 24bd f5b9 8d3d f5cd 03bd 80ba 8d3c
00000230: 9d8b da3c 847b bc3c 0228 c0bd 8023 ad3d
00000240: f6fa 15bc dc21 90bb 602b 163d 24d6 7c3c
00000250: 8141 e93c cbeb f9bc af07 73bc 296a 0fbd
00000260: 621f 36bc abab 0ebd c314 57bd eaac 8fbd
00000270: 276d 643d 5401 94bd dbac bb3d a805 273d
00000280: 86a0 bd3c d27e 42bd 5335 853d c43c 24bd
00000290: f68c 1c3c d284 11bd 46da 403d ad80 ccbb
000002a0: 11e4 0d3d b53f 823d d739 a23d 2495 cbbb
000002b0: bc5c 8abc 5588 c23c 5094 a33d a196 293d
000002c0: 4cbc 763d 917d fc3c 86f8 83bb aea3 443d
000002d0: 67a7 57bc 74b9 a03d 119e f83c 5756 5ebd
000002e0: aa40 de3c 2ff6 2dbd 771d 963d d6cc e7bc
000002f0: fc6a 7a3b 0026 e8bc f03a 92bd 9dd2 1e3d
00000300: 6a1a bfbd b492 033d 4ec2 0e3d 04fa b53d
00000310: eac1 18bc d356 17bd e9c7 7e3d 50f0 5dbd
00000320: 3a3a bc3d 8d6a b1bd 14e9 e3bc baeb ca3c
00000330: f3f4 63bd 73c8 953c 1ebd 91bd 2a7a 63bc
00000340: d936 dbbc baec 85bd 79ff 4cbc 292d 64bd
00000350: 99ff ffbc 1043 2b3d ee52 183d 7968 883b
00000360: 5b7c 4e3c 807c 8a3d 9d54 3e3b 0626 283c
00000370: 9396 fb3c ef77 18bd 54a5 97bc 6584 cb3d
00000380: 4701 083d ba61 043c aa4c 583d 6456 a3bd
00000390: 2e74 ad3c 63fc 04bd 9dc4 9e3d 5c53 893c
000003a0: eb7a 25bc d580 07bb 0398 973d 240a 933d
000003b0: 1e83 b63d 8208 fabc 1edc a63c 233e b2bc
000003c0: 4032 94bd 366a 513d 8d77 c5bc 1288 49bc
000003d0: 0bd7 3d3d 88f9 2dbc 6f0f cabd 87b0 033d
000003e0: 0589 123b 35c8 89bd 1da8 8cbd ef5a 813d
000003f0: fc64 2abd 39ed 743d 09eb 863c 3634 4f3d
0.09439855 0.019641984 0.07985205 -0.027245065 0.03699567 -0.062435452 -0.078981966 -0.06942118
-0.0119632995 -0.023553226 0.04841007 0.082773454 -0.024658754 0.0053362465 -0.042031106 0.045723
0.0026754502 -0.027556062 -0.0015075293 0.00585781 0.048817992 -0.06742726 -0.08018513 0.005574489
-0.00034813656 0.078113474 -0.031141337 0.058072075 0.054943815 0.020254098 -0.015262978 0.0680351
0.023350531 -0.06678271 -0.013620294 -0.05055725 0.07522864 -0.027222829 -0.06665979 -0.054975644
-0.019529963 -0.04669699 0.027627783 0.023474073 -0.03388634 0.049637165 0.046992116 0.0053037773
-0.04792535 -0.06086716 0.07483738 0.0074912603 0.012624923 0.0065750466 -0.08556146 -0.03037674
0.046680577 0.0033383819 0.0003517436 0.0074889828 0.02267791 -0.06597329 -0.06745927 -0.02047856
-0.043199223 0.06217418 0.008167718 -0.057507876 0.022300547 -0.032574076 -0.037935864 -0.019025473
-0.028047597 -0.062856406 0.0123941265 0.084992506 0.0108900545 -0.10033069 0.04820649 0.03978179
-0.032799665 -0.039804388 -0.06827641 0.075760886 0.023353335 -0.021423962 -0.0539879 0.059089944
0.074434444 -0.04564641 -0.041903514 -0.040619317 -0.05285518 -0.012360568 0.021482889 -0.011360332
-0.066136606 -0.019964503 -0.0103708105 -0.028097635 -0.016951116 -0.06633539 -0.058330715 0.09086682
0.012119716 -0.04783114 -0.030134434 -0.05077451 -0.008457002 0.012134705 -0.036242176 0.027909877
0.017807228 0.07849617 0.008365125 -0.029505821 0.021315305 -0.008853732 0.020485407 0.09259836
-0.053867567 -0.06115863 0.05515229 -0.06378191 -0.058514334 0.046209663 -0.10083416 0.10486316
0.05079976 -0.033416018 0.022084925 0.08260473 0.071344644 0.088441774 -0.077944994 -0.022046411
-0.04014471 0.06920234 -0.032178838 0.017300844 0.0266779 0.023008116 -0.09382631 0.08454037
-0.009154072 -0.0043985676 0.03666246 0.0154319145 0.028473618 -0.030507943 -0.014833375 -0.03501335
-0.011115881 -0.034831684 -0.052510034 -0.070154026 0.05576816 -0.07226816 0.09163829 0.04077688
0.023147833 -0.047484227 0.065043114 -0.040097013 0.009555092 -0.035527058 0.04708316 -0.0062409253
0.03464133 0.063598074 0.07921188 -0.0062128473 -0.016889922 0.023746649 0.07987273 0.041403417
0.060238168 0.030821593 -0.004027429 0.04800766 -0.01316247 0.078478724 0.03034881 -0.05428156
0.027130444 -0.042471107 0.07329839 -0.028295916 0.003821074 -0.028338432 -0.07140148 0.038775075
-0.0933121 0.03212233 0.034853272 0.08885577 -0.009323576 -0.036948036 0.062202368 -0.054184258
0.09190793 -0.08662901 -0.027821101 0.024770606 -0.055653524 0.018284058 -0.07116149 -0.013884107
-0.026759552 -0.06539293 -0.012512081 -0.05570713 -0.031249808 0.041812003 0.037188463 0.0041628447
0.012602891 0.06762028 0.0029042133 0.010262972 0.030711448 -0.037223753 -0.018511452 0.09937362
0.033204343 0.00807994 0.052807488 -0.07975462 0.021173563 -0.032467257 0.07752345 0.016763382
-0.010100107 -0.0020676155 0.07402041 0.071796685 0.08911727 -0.030521635 0.020368632 -0.021758145
-0.07236147 0.05112668 -0.024104858 -0.012300508 0.04634766 -0.010618575 -0.09866225 0.03215077
0.0022359502 -0.067276396 -0.068680026 0.06316172 -0.041600212 0.059796546 0.016469495 0.0505869

l1.bias f4 [256]
00000000: 337d b53d 5356 2b3e 7964 5e3c 670e 9039
00000010: c4ce 333e 3bce 503e 96c6 1d3e 2f35 113e
00000020: 3285 e53d 7a47 0e3e 4ecb 223e 3a7d 2f3e
00000030: 55b4 4f3e 80c3 673e dea5 d33d d02c 273e
00000040: 866a 3d3c 2f7b 173e 195e 1b3e 1b30 1c3d
00000050: bc50 7539 fc71 183e 60e2 e93d d051 b03d
00000060: af55 db3d 5252 193e c385 2d3e 75b4 203e
00000070: 75f2 053d 6ddf 093e 900e 0e3e fa81 e73d
00000080: d675 2d3e d62f 2d3e 5ea8 1e3e d699 d53c
00000090: 2543 a53d 7f73 bf3c 4ba9 593e e3a8 9c3d
000000a0: d819 543e 52c6 153e 9064 413e 4a53 053e
000000b0: 1f84 323b 3b41 2b3e fdcd eb3d 18b2 b43d
000000c0: 132e d63d 98ed 143e 6db7 2c3e d4f8 153e
000000d0: 4bfa cf3d 7080 0d3e 44df 003e 55bd bd3d
000000e0: 2c42 f13d e058 0a3e dc01 083e 2c0a ea3d
000000f0: 6047 013e b7fa 2a3e 1838 483e 2949 413e
00000100: 6571 1b3e a692 363e 5376 233e 3dd2 1d3e
00000110: 435f de3d fbbd ba3d c548 363e 7a0f 373e
00000120: ca8e 593e c923 fd3d d6e5 043e edc3 163e
00000130: b90e 453e 5ff3 f63d d045 ed3d f23f 183e
00000140: fd70 5e3c 41ed 8a3d e054 a53d c975 003d
00000150: e17b 0c3e 0375 093e 5089 0e3e 3d3a f73d
00000160: 0bd6 fa3d 4cbe 1c3e 9e46 823c 89d1 ff3d
00000170: c683 4d3e 25c8 433e 5c2d 7a3e a32b 4d3d
00000180: 51bb 5c3e 4afa 2a3e fd85 cf3d ebc0 603e
00000190: e406 b83b fcf5 673e 84e4 113e b7cf 8a3d
000001a0: 7d7e b63d 1f16 a33b a6f7 153d 793c a43d
000001b0: 3c75 883c 693f de3d 159a e33d d639 ae3d
000001c0: 4084 633e 3eac 1c3e 67a5 013e abfd f53d
000001d0: 5921 a93c f83d 0c3e ddd0 2d3e df2c 9d3b
000001e0: b135 b73b a8d5 e13d 3dc7 583e 9007 193e
000001f0: ab96 013e 91bc cd3a fe39 043e c6ca e43d
00000200: f4d2 e13d 5066 0f3e d4f7 b73b 7262 843e
00000210: 68bb 2e3e a485 833d 3ac8 153e 3a57 283e
00000220: ff30 1b3d 054d 203e 200e 443e 1585 da3c
00000230: a7a2 5a3e b9a7 073e 563e be3d b6b6 253e
00000240: 42fe ef3d 4949 423e a4e8 143e 9d4d 343e
00000250: 7138 073e f6f7 313e da5e 053e c087 f03b
00000260: 82bf 203e 99b2 013e f784 1a3e 38be f93b
00000270: 8560 f03d 0cb2 bc3d cc45 0d3e 9553 3e3e
00000280: fca5 083e ef60 a83d 404e c03d f5c0 c33d
00000290: b8ae f53d 164a 513e 06fa c73d 444c 0c3e
000002a0: 3d38 173e b1f9 1d3e fe57 103e e04f e93d
000002b0: 8003 b53d d1ca 313e 11d2 d53d dbb7 ad3d
000002c0: 25d0 1c3e 2911 323e 0b24 0f3e a028 ee3b
000002d0: b77e 4b3a 4e1f fc3d e996 f13d 48c7 093e
000002e0: a2d9 3f3e 1e4a 3e3e aa0c a23d f465 5d3e
000002f0: 06da 413e 1e17 de3d 2950 0d3e 3d70 4c3e
00000300: 37f6 c13d 46f8 4a3e 9f4d fe3d 4d79 203e
00000310: 3125 f13d a1ef 323e 5cdb 2e3e e88e 523e
00000320: d4b8 3c3d fd7c 023e de2d 083e 5586 3e3e
00000330: 2c7e 193e 5a4e 6a3e 8a5e 923d 4f42 d13d
00000340: 3682 8539 efdb 633e 93b4 c43d c0d2 423e
00000350: d3b7 773d e38b 0b3b d94b 463e 10d9 213e
00000360: c651 ca3d 3c40 453d 708e 293e 9c81 0e3e
00000370: 6580 223e 86b0 403e b298 293e 8f46 4e3e
00000380: 0488 9e3d 7b20 4b3e e6c2 4e3e 1a15 f43d
00000390: 0973 2c3e 6afa 453e 279f 003e 4f91 473e
000003a0: 595b bf3d 7939 133e 8477 e43c 4b3c 0c3e
000003b0: 01c8 023e efd8 e43d 5315 5c3e c0aa 123e
000003c0: fcb8 003e e2bf 083e 1277 1e3e 6857 343e
000003d0: 3b07 603e d96f 823d ea42 303e 1252 523e
000003e0: 5655 603d f8f8 143a 11e8 763d b14b 253e
000003f0: 0575 c43d ac7e 3e3e 540e 163e 12ac 1e3e
0.088617705 0.16732149 0.013573759 0.0002747655 0.17559344 0.2039117 0.15407786 0.14180444
0.112070456 0.13894454 0.15897867 0.17137614 0.20283635 0.22633171 0.10334371 0.16325688
0.011561042 0.14793085 0.15172614 0.038131814 0.00023395097 0.14887232 0.11420131 0.086093545
0.10709702 0.14972809 0.16945557 0.15693839 0.03270193 0.13464136 0.13872743 0.11304088
0.16939482 0.16912779 0.15493914 0.026074331 0.080694474 0.023370503 0.21255986 0.076494
0.20712984 0.14626434 0.18886018 0.13020054 0.0027239395 0.16724102 0.115138985 0.08823031
0.10458007 0.1454376 0.16866846 0.14645702 0.101551615 0.13818526 0.12585169 0.09264628
0.117801994 0.13510466 0.1328196 0.114277214 0.12624884 0.16697203 0.19552648 0.18875565
0.15179975 0.1782938 0.15963106 0.15412231 0.108580135 0.09118267 0.17801197 0.17876998
0.21245876 0.12360341 0.129783 0.14723177 0.19243897 0.12058138 0.11585581 0.14868143
0.013576743 0.06783534 0.08072829 0.03136233 0.13719131 0.13423543 0.13919568 0.12071655
0.12247857 0.15306967 0.015902814 0.124911375 0.20069799 0.19119318 0.24431366 0.050090443
0.2155583 0.1669704 0.10132978 0.21948592 0.005616056 0.2265243 0.14247328 0.067779
0.089108445 0.0049770023 0.03661313 0.08019347 0.016657464 0.10851938 0.11113373 0.08507125
0.22218418 0.1530008 0.12660752 0.12011274 0.020645784 0.13695514 0.16974206 0.004796609
0.0055911173 0.1102708 0.21169753 0.14944291 0.12655132 0.0015696456 0.12912747 0.111714885
0.11026564 0.14003873 0.00561426 0.25856358 0.17063677 0.06421974 0.14627162 0.16439524
0.037888523 0.1565438 0.19146013 0.026674787 0.2135111 0.13247575 0.092892334 0.1618298
0.11718418 0.18973269 0.1454187 0.17607732 0.13205124 0.17379746 0.13024464 0.0073404014
0.15698054 0.12665786 0.15089785 0.007621553 0.1173716 0.09213647 0.13796157 0.18586572
0.13344568 0.082216136 0.09389925 0.09558288 0.119962156 0.20438418 0.09764485 0.13700968
0.14767547 0.15427281 0.14096066 0.11392188 0.08838558 0.17362525 0.104404576 0.08482333
0.15313776 0.17389359 0.13978593 0.0072680265 0.00077627174 0.123106584 0.11796362 0.13454926
0.18735364 0.18582961 0.07912572 0.21620923 0.18930826 0.10844253 0.1380011 0.1996469
0.0947079 0.19821271 0.12417149 0.15671273 0.11774672 0.17474224 0.17075866 0.20562327
0.046074703 0.12742992 0.13298747 0.18605931 0.14989537 0.22881451 0.07146938 0.102177255
0.00025464752 0.22251867 0.09604754 0.19025707 0.060478043 0.0021293096 0.19364871 0.15805459
0.09878878 0.04815696 0.16558242 0.1391663 0.15869291 0.18817338 0.16562155 0.20144103
0.07740787 0.19836609 0.20191535 0.11918087 0.16840757 0.19333807 0.12560712 0.19489025
0.09343595 0.14377393 0.02788902 0.13694875 0.12771608 0.11174189 0.2149251 0.14322948
0.12570566 0.13354447 0.15475109 0.17611468 0.21877758 0.063689895 0.17213026 0.2053912
0.054768883 0.0005682851 0.06027991 0.16142155 0.09592632 0.18603009 0.14653903 0.15495327

l2.weight f4 [256, 256]
00000000: 57e0 503c 7a1c 21bb d575 653b ee34 1038
00000010: 8511 193b 78e4 c83c e9a4 a83c a9db 0b3d
00000020: 334d 38bd fec7 183d 0537 863b 181f 023b
00000030: eceb 743c cc01 983c 7bb6 c9bb abe0 623c
00000040: d274 02ba e21b e53c 586a 843d 17d3 773a
00000050: 30b6 1cb7 0e26 bd3c 50cd 08bc 8cd0 163c
00000060: 703a 5bbc 2d23 523c 8bcf b2bb 6a0d 57bb
00000070: afa6 4c3a a37e 0b3d efc2 fd3b 90f8 743d
00000080: 7206 633c 9a1d b4bb 69b4 eabc 8467 2f3a
00000090: 0e9c aa39 7a82 5e3a 178c 643d e0ba 523c
000000a0: 8721 7c3c cdf3 8e3c 2e4f f0bc d654 0c3b
000000b0: 5eb0 1cb8 50f1 b63c 6fd5 02bd a94d 073b
000000c0: be8f 02bd 2352 cb3c 8efb 4a3c 6868 823c
000000d0: e34e f73b 99c0 1fbc fedc 4abd b58e 483d
000000e0: ea78 9f3d 2538 083a 855c efbb e71f 753d
000000f0: 20ac babb 5c5f 7d3c 75f5 7e3c 8527 5b3c
00000100: 4cc1 f5bb 1246 86bc 9296 e8bb 1b29 163d
00000110: 0a74 dc3a d692 ed3b e790 04bd 6c64 7fbb
00000120: 1b7a 24bd 3f0c 6c3d 4cdc c1b9 7189 dbbc
00000130: 681b b33c ce07 aa3c bc71 adbb 3fe2 5f3c
00000140: 9c04 15ba d3b5 19bb 19c8 27bb 4441 acba
00000150: 2766 c4bc 2ff1 9b3c 663b 963d 73c6 57bd
00000160: 9762 ab3c e8df 073d 2017 6cba 489e 7dbc
00000170: 8926 b53b 92f1 1b3d 9113 14bd 3ec0 7f3c
00000180: dab2 463d 1150 303c 5aba 40ba 437d 35bd
00000190: 4470 ed3a 2a17 08bb eff8 7a3d cf15 d53b
000001a0: ff7d 083d 09da 8639 a339 05ba b686 983c
000001b0: 9cdf 78b9 84a5 693c 5e41 733c 459a 85bb
000001c0: e39c 25bd aad6 18bc 011a 85bb 861f 363c
000001d0: be54 a838 96e6 3b3b e26c 133b 3da7 e439
000001e0: f00b 5f3a 3119 193d a89b 16bc 4b14 82ba
000001f0: f794 c63b f641 07b9 b97c 6b3c c4c7 cb3c
00000200: 6df0 583c 80ee 393b 5864 2c3a 21c9 803d
00000210: 953d 9c3c bad2 aa3b 6cd3 a53c f1b6 8a3c
00000220: d3aa 0d3c 7f00 fbba 34ec 1b3d 416f 07b8
00000230: 626c 883b 1a81 4c3c cfad f13a 27e9 ca3b
00000240: a943 2dbc 3a0c 16bc 8b8e 5a3c ba40 a8b8
00000250: 3825 4b3c c2c4 10bb 2e95 313c f56f 4a3a
00000260: 72f5 1dbc 5019 23bd 4bf2 463d 7f2b 943a
00000270: 5eb5 66bd 1e05 5ebc dbfb cbbb 821e 9a3a
00000280: e44d 1d3c 23c9 62bd 1238 91bb 6db3 07bb
00000290: cc1a b73c 6247 ad3b 6037 4c3a edc1 19bb
000002a0: 4cc9 853d c20f d73b c4db 0e3d ba10 383b
000002b0: a132 e3ba 746c 41bb a241 2f3c 2263 5cbc
000002c0: 0e46 733c e2bc f6bb 0c15 73bc cb21 fdba
000002d0: 0308 ae38 82e9 883b d7fa 12bd cbc1 cdbc
000002e0: eee2 5f3c 7ab2 42b9 8a96 783c ecae 06bd
000002f0: e716 dabb 1cfe 08bd 5336 463d 9a9d 4f3d
00000300: 3c12 293c 740c 803b 84ca aebb a6cd 95bb
00000310: a777 6f3d af5a 783c 22bc 59b9 e3d7 37bd
00000320: c09f 3cbc f239 1ebd 627c e8bc 6517 7f3b
00000330: fc86 2b3d 229f cf3c 9bd7 a13b 4b3f 31bd
00000340: c67b 59b7 5877 3d3d ca2e d1bb 4a59 86bc
00000350: 6cf5 fc3b d829 8537 199d ddbb 6235 92bc
00000360: 5da5 08bd 7554 0a3c 2ad5 1b3d 0d50 ddbc
00000370: 9bd5 093d 765c 213c 6a03 553c 8fab 603c
00000380: f518 47ba 38d6 0abc 2d96 c33c fca1 6dbb
00000390: d5f3 023d 157e 0e3d 1da5 21bd 88b9 303d
000003a0: 24f8 ab3c 8f96 e93b f6e6 493a f166 04bb
000003b0: 423b 5c38 7220 2abc 1085 07bb f212 c2bc
000003c0: ed7c 063d 2023 793a 9a38 873d 30ec 0bbc
000003d0: c97f d03c b64e 273c 8575 67bc 2929 e4bb
000003e0: a15d 93ba 824b 3637 d6f7 233b b25b 0fbb
000003f0: eac9 033d 6b81 97ba cba7 23bd 50d6 1abc
0.012748799 -0.0024583624 0.003501286 3.438157e-05 0.002335639 0.024523005 0.020586448 0.03414503
-0.044995498 0.037300102 0.0040959143 0.001985496 0.014948826 0.018555544 -0.0061557866 0.01384751
-0.0004976514 0.027967397 0.06465596 0.0009453757 -9.340743e-06 0.023089435 -0.008349732 0.009204995
-0.013380632 0.012825769 -0.00545687 -0.0032814392 0.000780682 0.034056317 0.007744185 0.05980736
0.013856517 -0.005496693 -0.02865048 0.0006691145 0.00032541197 0.00084880705 0.055797663 0.012861937
0.015388853 0.017450238 -0.02933463 0.002141287 -3.7357553e-05 0.022331864 -0.031941827 0.0020645654
-0.031875364 0.02481944 0.012389077 0.015918925 0.007547246 -0.009750509 -0.04952716 0.04896422
0.077867344 0.00051963545 -0.0073047304 0.059844878 -0.0056967884 0.01546463 0.015561451 0.013376121
-0.0074998494 -0.016390834 -0.0070980275 0.036660295 0.001681925 0.00725017 -0.032364752 -0.0038969768
-0.04015551 0.057628866 -0.00036975963 -0.026798936 0.021863654 0.020755675 -0.005293099 0.013664781
-0.0005684586 -0.0023454323 -0.0025601445 -0.0013142009 -0.023974491 0.019035904 0.07335548 -0.05267949
0.020921035 0.033172518 -0.00090061314 -0.015479632 0.0055282754 0.038072176 -0.036151472 0.015609799
0.04851041 0.010761277 -0.00073519873 -0.044308912 0.0018115123 -0.002076576 0.061272558 0.006502844
0.033323284 0.0002572092 -0.0005082136 0.018618923 -0.00023734424 0.014260653 0.014847128 -0.0040772283
-0.040432822 -0.009328524 -0.004061938 0.011115914 8.026649e-05 0.0028671375 0.002249532 0.0004361215
0.0008508554 0.03737754 -0.009192385 -0.0009924261 0.0060602385 -0.00012899176 0.014372998 0.02487553
0.013240916 0.0028370917 0.00065762317 0.06288362 0.019072333 0.005213109 0.020242415 0.016932936
0.008646685 -0.0019149928 0.038067058 -3.229012e-05 0.004163311 0.012481952 0.001843864 0.0061923447
-0.0105752135 -0.0091581885 0.013339649 -8.0229205e-05 0.01239901 -0.0022089933 0.01083879 0.00077223714
-0.009641038 -0.03981906 0.048570912 0.0011304467 -0.05632531 -0.013551025 -0.006225092 0.001175836
0.00960109 -0.0553676 -0.004431733 -0.0020706311 0.022351645 0.0052880505 0.0007790234 -0.0023461536
0.06532535 0.006563158 0.034877554 0.0028086142 -0.0017333814 -0.0029514106 0.0106968 -0.0134513695
0.014848245 -0.007529841 -0.014836561 -0.0019312439 8.298459e-05 0.004178227 -0.03588375 -0.025116822
0.013664944 -0.0001856777 0.01517261 -0.032881662 -0.006655562 -0.033445463 0.04839165 0.05068741
0.010319289 0.0039077345 -0.0053342003 -0.0045716343 0.05846372 0.015158339 -0.00020764818 -0.04488362
-0.011512697 -0.03862948 -0.028379623 0.0038923856 0.041876778 0.025344435 0.0049390323 -0.04327325
-1.2963026e-05 0.046256393 -0.0063837515 -0.016399998 0.0077196863 1.587432e-05 -0.0067631123 -0.01784772
-0.033360828 0.008442988 0.038045086 -0.02701571 0.033650976 0.009848705 0.013001302 0.013712778
-0.00075949664 -0.008473925 0.02387532 -0.003625988 0.031970818 0.03478821 -0.039464105 0.043145686
0.020992346 0.0071285437 0.00077019574 -0.002020296 5.2507276e-05 -0.010383712 -0.0020678677 -0.023690674
0.032833982 0.000950383 0.06602593 -0.008540198 0.025451558 0.010211637 -0.01412714 -0.0069629145
-0.0011243114 1.0865626e-05 0.0025019548 -0.0021874723 0.032174982 -0.0011558955 -0.03995494 -0.00945051

l2.bias f4 [256]
00000000: b542 833c 4a7d 7a3d 4ba2 523d d668 6a3d
00000010: b668 5e3d 8fc8 8c3d e807 583d 43cb 85a0
00000020: a2f0 393d c6fa 443d f273 6e3d 5df2 783d
00000030: 83e3 503d 973e 613d dce2 3f3d 5c06 5c3d
00000040: 86e3 793d f13f 4d3d c0bd 46a0 a23c 773d
00000050: 3ff6 5e3d 4709 213d 01be 7f3d 23c3 513d
00000060: 7463 783d 0398 7c3d 5275 713d 5d1c 393d
00000070: 7e13 7b3d b37a 9e39 1cf8 533d 7f4d 353d
00000080: 603f 4a3d 3bb3 7f3d 3a33 833d f082 653d
00000090: b026 303d 4fbb 2d3d 314a 353d b06d 743d
000000a0: b307 503d 6ee2 633d 08bf 8c3d f2c5 6f3d
000000b0: ff40 673d e45b 7f3d 8bdb 343d 30ba 833d
000000c0: 7040 403d 304d 3e3d 41d1 703d f9ed 503d
000000d0: 0096 6b3d b318 633d bcb7 7f3d 9543 543d
000000e0: c020 3c3d eacf 8a3d c0ec 0e3d 6276 363d
000000f0: 65db 4d3d f50a 473d 0bd5 523d 8245 5a3d
00000100: d551 673d 2a53 523d 8df6 843d d33c 603d
00000110: 9496 5e3d 78e5 223d 38cb 3f3d d9ba 563d
00000120: 924b 763d 3990 5c3d 0dab 2a3d 6c25 833d
00000130: b2f8 453d 3e85 8a3d 165f 743d a028 3b3d
00000140: 9edb 413d e7fe 893d 3bd4 583d 1a46 823d
00000150: 0f12 733d 4cc1 713d 6a1c 3e3d 6ff1 4c3d
00000160: 780d 133d 2813 2d3d 7cec 643d f9c1 623d
00000170: a769 453d 4728 653d ac24 493d ea74 2e3d
00000180: a218 4c3d bc8f 6a3d 5c01 4d3d aef9 783d
00000190: d65b 623d 7205 593d f54b 353d 0a68 313d
000001a0: 7ecc 613d 42e1 7b3d fcdc 853d 82e0 843d
000001b0: b742 793d eb11 4e3d 604e 393d e047 5a3d
000001c0: 4b06 663d d7d5 653d 0ad1 943d 9470 8e3d
000001d0: 42c7 603d d026 e438 5420 613d 74cd 823d
000001e0: 6bec 893d bd34 903d dcd4 823d 6a43 873d
000001f0: debd 743d d882 383d 4d6e 403d 9e7a 823d
00000200: 1544 833d 4b46 5e3d d4cd 2f3d 05f0 863d
00000210: 3053 903d f327 593d 7676 5a3d 8a2b 6a3d
00000220: 796f 5a3d 3ddc 503d ad22 453d 3d13 2b3d
00000230: b7e6 133d 9a5f 5e3d c3f5 6c3d bd1a 533d
00000240: ffc2 683d fdc2 803d f99a 323d 4f75 5c3d
00000250: 19e7 783d 4b31 923d d4e6 483d 0622 313d
00000260: b2b8 5a3d 3d37 863d 53da 343d 3ada 733d
00000270: 3b15 673d c3a8 613d ebfd 6c3d 1d28 663d
00000280: 33b3 163d d77e 913d 2493 473d f1db 6f3d
00000290: e488 5b3d 069a 883d 4ac7 723d b959 7f3d
000002a0: 7dd2 803d f753 3d3d 8be8 7e3d f2d9 5b3d
000002b0: 8fa2 4a3d b8dd 7f3d 9690 8e3d 491a 633d
000002c0: c115 743d 27c2 713d c91a 783d e128 8e3d
000002d0: 2f29 5a3d 9269 483d c75c 893d f68c 223d
000002e0: 53b5 273d 5c9b 583d 3e1a 453d 58bf 963d
000002f0: cafd 863d 43c0 6d3d dbe7 583d 6895 4f3d
00000300: 99ec 693d a1b9 583d d480 7f3d daeb 4b3d
00000310: 1f25 553d 8496 3e3d 6976 463d b11b 803d
00000320: 6144 193d 5362 153d 7cc0 5b3d 8966 8e3d
00000330: ae57 5f3d 73ee 693d 5acd 3c3d da84 7f3d
00000340: 1e78 4b3d c1d6 3c3d a434 403d 9808 993d
00000350: 78b0 663d dd71 6e3d 5145 893d 064c 603d
00000360: c9db 883d 41eb 933d 0455 213d 1cb1 323d
00000370: 7066 683d 0ae1 843d 015a 7b3d 0c98 703d
00000380: 9d0e 733d d029 2f3d 3409 6f3d 4459 483d
00000390: b756 473d 47ed 5e3d 69ef 593d 6537 5f3d
000003a0: 3749 9fa0 4dd1 453d 9598 353d 4ad2 8a3d
000003b0: 29f2 6f3d 0b3c 5b3d a067 513d 03dc 7c3d
000003c0: 43f4 6f3d 4d63 7c3d 381b 803d a485 573d
000003d0: 63f8 573d 2217 0f3d c0ec 503d 0d48 6a3d
000003e0: 653b 603d b287 723d 6fc1 783d edcf 263d
000003f0: 74e6 3d3d 141b 4c3d 342a 2c3d 5b5d 523d
0.01602302 0.06115464 0.051424306 0.057228886 0.05429908 0.06874191 0.052741915 -2.2665584e-19
0.0453955 0.04809072 0.058216043 0.06077801 0.050998222 0.05499133 0.04684721 0.053717002
0.061008 0.050109807 -1.6834035e-19 0.06036056 0.054434057 0.03931549 0.06243706 0.051211488
0.06064172 0.061668407 0.058949776 0.045193065 0.061297886 0.00030227526 0.051750287 0.04426336
0.049376845 0.062426787 0.06406255 0.056033075 0.043005645 0.04241496 0.044260208 0.05967492
0.050788593 0.055635862 0.06872374 0.058538385 0.05645847 0.062343493 0.044154685 0.06431997
0.046936452 0.04646033 0.05879331 0.0510082 0.057516098 0.055443477 0.062431082 0.051822264
0.04592967 0.06777938 0.03489375 0.044546492 0.05025806 0.048594434 0.051472705 0.053288944
0.056474525 0.051348843 0.06492338 0.054745506 0.05434282 0.03976962 0.046824664 0.052424286
0.060130663 0.05384848 0.041667033 0.06403622 0.048332877 0.06763695 0.059660994 0.04569304
0.047328584 0.06738072 0.052936774 0.06361027 0.059343394 0.059022233 0.046413817 0.050034937
0.035901517 0.042254597 0.05588959 0.055360768 0.04819646 0.055946615 0.04910724 0.042591967
0.04982818 0.057265982 0.050050125 0.060784988 0.055263363 0.05298371 0.04426189 0.04331211
0.05512666 0.06149412 0.0653629 0.06488134 0.06085464 0.050310057 0.04524076 0.0532912
0.056158345 0.056112137 0.072664335 0.06955066 0.054877527 0.000108791166 0.05496247 0.06386843
0.06734546 0.07041309 0.06388256 0.06604655 0.059751384 0.045046657 0.04698019 0.063710436
0.0640947 0.054266255 0.042920902 0.06588749 0.07047117 0.053016614 0.05333563 0.05717043
0.053328965 0.050991286 0.048128773 0.041766394 0.0361087 0.05429039 0.057851564 0.05153917
0.056826588 0.06287191 0.043604825 0.05382281 0.060767267 0.07138308 0.04904826 0.043245338
0.053398795 0.065535046 0.044153523 0.05953429 0.05641673 0.055092584 0.057859343 0.0561906
0.03679199 0.07104271 0.04872431 0.05855936 0.053597346 0.06670003 0.059272088 0.062341426
0.062901475 0.046222653 0.06223349 0.053674646 0.049471434 0.062467307 0.06961171 0.05544499
0.05959106 0.05902305 0.06057242 0.06941391 0.053261932 0.048928805 0.06707149 0.039685212
0.04094441 0.052882537 0.04812073 0.07360715 0.06591375 0.058044683 0.05295549 0.050679594
0.057110403 0.052911405 0.06237872 0.049785472 0.052037355 0.04653026 0.04845277 0.06255282
0.037418727 0.036470722 0.053650364 0.06953151 0.054526977 0.05711217 0.046094276 0.062382556
0.0496751 0.046103243 0.046925202 0.07472342 0.056320637 0.058214057 0.06702674 0.05476
0.06682546 0.072226055 0.039387718 0.043625936 0.056738317 0.06488235 0.06136513 0.058738753
0.05934011 0.042764485 0.058358386 0.048913255 0.048666682 0.054425504 0.053206835 0.054496188
-2.6984097e-19 0.048295308 0.044334967 0.06778391 0.05858055 0.05352406 0.051124215 0.061733257
0.058582556 0.061618138 0.062551916 0.052617684 0.052727114 0.03493417 0.051007032 0.05719762
0.054744143 0.05921144 0.060731348 0.040725637 0.046362355 0.04983051 0.042032436 0.051358562
