code/save/model_beta/model_beta_repr_6.pt (torch, 649964 bytes, 6 tensors)

embed.weight f4 [59, 256]
0.14023669 -0.19726267 0.1262312 0.090993814 0.04853716 0.19034092 -0.012926953 -0.10930309
0.04733605 -0.12610629 -0.08236674 0.05036853 0.05058967 -0.0056936387 0.11775707 -0.17119302
-0.017853426 -0.060546394 0.08610706 0.13195527 0.041895997 -0.19271085 -0.092558704 -0.18640201
-0.18334211 0.027698617 -0.086652644 -0.166415 0.022329202 -0.14085682 0.041032843 0.04503383
-0.0031075818 -0.066490196 0.005193816 -0.08599347 0.20893875 0.043286715 0.09720379 0.023521403
-0.10438774 -0.14018422 0.026983714 -0.0051539317 -0.06647348 0.12226595 -0.09994444 0.2075989
0.05566256 -0.032039054 -0.107186064 -0.21382459 -0.23586404 0.16043311 -0.03920452 -0.16938218
0.037115183 0.0453656 0.13364854 0.11042605 0.06543448 -0.11506583 -0.11275398 0.072944686
0.01127978 -0.09852946 -0.03944295 -0.16294318 -0.070500426 0.20892543 0.030049654 -0.061677594
-0.082949854 0.16986449 0.008823414 0.19261923 -0.036066167 -0.1310768 -0.0019658615 -0.045330174
0.12147993 0.20779903 0.05675149 -0.019979952 0.02676688 0.038540952 -0.058984835 0.2083225
0.1678519 -0.07098708 0.13591634 -0.06721381 0.12986974 0.011085553 0.16021004 -0.14415845
-0.06710016 0.1235113 0.11486978 -0.074794784 -0.036875967 -0.056836665 0.23545195 0.03102798
-0.0830843 0.07891107 0.12555827 0.17110087 0.023435045 -0.15277867 0.030896042 0.104250856
-0.07248016 -0.24742565 -0.14821813 -0.13445902 0.18282963 -0.021373564 0.115654714 0.10010689
0.082991116 -0.096725255 0.012767719 0.04465071 -0.18034087 -0.21679015 0.16918448 -0.18846305
-0.059648164 -0.14412294 0.15721479 0.19558279 0.17684796 -0.1613018 -0.08578719 0.046369467
-0.10175531 -0.039701965 0.027973736 0.04583324 0.16219103 -0.14695284 0.008473046 0.1407791
0.026234137 0.15577056 0.005351232 -0.001816837 0.074412234 -0.0765246 0.029522676 -0.0035739609
0.23445785 -0.1538414 0.20367004 -0.06865246 0.19568881 0.13139406 0.18992993 -0.098133065
0.066144854 -0.02044329 -0.1675538 -0.067239694 0.041289106 -0.027473656 0.040800635 -0.16334918
-0.07620791 -0.077085614 -0.2083308 -0.034176487 -0.031341743 0.026813386 0.09166406 0.11811855
0.013547792 -0.10851838 0.22881618 -0.042486075 -0.16923255 0.044282716 -0.21449758 0.11864805
0.085521966 -0.16019554 -0.0007341585 0.17519195 -0.12064971 -0.06379472 0.15286203 0.030122345
-0.09592933 -0.014562818 -0.04604067 -0.10116506 0.11150837 -0.19707337 0.025260273 0.054384287
0.014073988 0.0052646147 -0.040618703 0.14581831 0.120273754 0.11684362 0.17370017 0.17195563
0.13362099 0.08827632 0.036679152 0.21025161 -0.044645082 0.0006857976 0.18949653 0.10887529
-0.12894945 0.01885419 0.13456552 -0.066711724 0.03956088 0.07581485 0.087314844 0.22794153
0.093357615 0.14167742 0.1099469 -0.05272289 0.12800276 -0.12225295 -0.016012784 -0.12249855
-0.08975177 -0.035240956 0.054214448 -0.022749403 0.024604378 -0.07139843 0.15904948 -0.083929494
-0.06622776 -0.018539846 -0.21334206 -0.2084563 0.17383346 -0.1107866 -0.17296155 -0.07530873
0.08744422 -0.25376883 -0.20124108 0.06814464 -0.017229911 -0.15585354 0.1585836 0.16732085
00000000: 359a 0f3e 3aff 49be c042 013e f75a ba3d
00000010: e7ce 463d bbe8 423e 92cb 53bc 4cda dfbd
00000020: 72e3 413d 0222 01be e5af a8bd 3b4f 4e3d
00000030: 1d37 4f3d b491 babb 9e2a f13d 394d 2fbe
00000040: 5941 92bc 7fff 77bd e658 b03d 481f 073e
00000050: 239b 2b3d fe55 45be 6b8f bdbd 2be0 3ebe
00000060: 09be 3bbe 36e8 e23c f176 b1bd b268 2abe
00000070: bbeb b63c c53c 10be 0e12 283d 6575 383d
00000080: 92a8 4bbb 032c 88bd e330 aa3b 581d b0bd
00000090: 0af4 553e 694d 313d c812 c73d f5af c03c
000000a0: 3dc9 d5bd 748c 0fbe f30c dd3c 50e2 a8bb
000000b0: 3f23 88bd 9266 fa3d acaf ccbd ce94 543e
000000c0: 6dfe 633d 623b 03bd 5e84 dbbd d5f4 5abe
000000d0: 5886 71be 9448 243e eb94 20bd 8672 2dbe
000000e0: 1706 183d 48d1 393d 2adb 083e 0e27 e23d
000000f0: 8302 863d a2a7 ebbd 8feb e6bd 0664 953d
00000100: d4ce 383c d0c9 c9bd ee8e 21bd 94da 26be
00000110: 8762 90bd 8cf0 553e b12a f63c a5a1 7cbd
00000120: 9de1 a9bd f5f0 2d3e 1590 103c fa3d 453e
00000130: 1eba 13bd ff38 06be afd5 00bb 22ac 39bd
00000140: 78ca f83d 45c9 543e 4074 683d ffac a3bc
00000150: 3746 db3c 1edd 1d3d 159a 71bd 7e52 553e
00000160: 5ee1 2b3e ad61 91bd a72d 0b3e 65a7 89bd
00000170: 93fc 043e 2ea0 353c 1a0e 243e 469e 13be
00000180: cf6b 89bd 7ef3 fc3d d940 eb3d 022e 99bd
00000190: 410b 17bd 90cd 68bd 511a 713e 642e fe3c
000001a0: 1a28 aabd 219c a13d 5992 003e 1135 2f3e
000001b0: dafa bf3c 0372 1cbe b219 fd3c 7981 d53d
000001c0: 7a70 94bd 265d 7dbe 7ec6 17be a0af 09be
000001d0: b137 3b3e 9d17 afbc 61dc ec3d d704 cd3d
000001e0: 3ff7 a93d e417 c6bd b22f 513c aae3 363d
000001f0: 47ab 38be 3dfe 5dbe b23e 2d3e 75fc 40be
00000200: a251 74bd f794 13be eafc 203e db46 483e
00000210: a217 353e 4d2c 25be 32b1 afbd e9ed 3d3d
00000220: 1765 d0bd 879e 22bd 2d29 e53c a3bb 3b3d
00000230: 6815 263e ce7a 16be 88d2 0a3c 6528 103e
00000240: f9e8 d63c 5182 1f3e 6359 af3b ef22 eeba
00000250: 7165 983d eeb8 9cbd 8ad9 f13c 1d39 6abb
00000260: b815 703e 9a88 1dbe e18e 503e a999 8cbd
00000270: a662 483e 2a8c 063e fe7c 423e fdf9 c8bd
00000280: f476 873d b078 a7bc 3993 2bbe f7b4 89bd
00000290: c41e 293d 6f10 e1bc 911e 273d 0245 27be
000002a0: e512 9cbd 10df 9dbd ab54 55be a5fc 0bbd
000002b0: 3360 00bd bfa7 db3c 5eba bb3d 23e8 f13d
000002c0: 8ff7 5d3c e23e debd ca4e 6a3e e105 2ebd
000002d0: 4c4b 2dbe cb61 353d 41a5 5bbe c0fd f23d
000002e0: 2426 af3d 4d0a 24be 8b74 40ba 8565 333e
000002f0: 3217 f7bd cea6 82bd dd87 1c3e 23c3 f63c
00000300: 9976 c4bd e398 6ebc 2495 3cbd a12f cfbd
00000310: 805e e43d 9acd 49be a2ee ce3c 0fc2 5e3d
00000320: 9696 663c ca82 ac3b cc5f 26bd 6551 153e
00000330: 1652 f63d b54b ef3d 75de 313e 2315 303e
00000340: f1d3 083e 37ca b43d e13c 163d 334c 573e
00000350: c3dd 36bd 19c7 333a 610b 423e 02fa de3d
00000360: 530b 04be 1a74 9a3c 8bcb 093e 28a0 88bd
00000370: 970a 223d d144 9b3d 20d2 b23d 8169 693e
00000380: 4732 bf3d e313 113e d72b e13d f5f3 57bd
00000390: 2813 033e c15f fabd 3e2d 83bc 85e0 fabd
000003a0: c7cf b7bd d258 10bd f80f 5e3d f55c babc
000003b0: 1f8f c93c 5739 92bd dedd 223e 3ae3 abbd
000003c0: 6ba2 87bd e0e0 97bc 5776 5abe 9175 55be
000003d0: 6601 323e 16e4 e2bd d51c 31be 773b 9abd
000003e0: f515 b33d fded 81be 2412 4ebe 6b8f 8b3d
000003f0: be25 8dbc 1298 1fbe bd63 223e 2856 2b3e

unembed.weight f4 [59, 256]
-0.15973204 0.0061767693 -0.1625212 0.03252389 0.10471796 0.17101403 -0.1563683 0.15221252
-0.14406876 0.023896111 -0.16778919 0.02745352 -0.02642385 0.24150436 0.096256055 -0.12618427
-0.11558686 0.025017137 0.10725119 0.087468505 -0.027512692 0.09099292 -0.16853584 -0.10306277
-0.1880316 0.16104652 0.08347469 -0.038916692 0.06735454 -0.053416073 0.020310432 0.035118528
-0.14893603 -0.08776915 0.12847835 0.17752422 0.1121106 1.3810662e-19 -0.13032092 -0.02381675
0.1452563 -0.00062795804 0.04333009 -0.16274096 -0.17590901 0.17721646 -0.092979535 -0.1256493
0.04359573 0.055554535 -0.0022349402 -0.0028635 -0.062012598 -0.16270801 -0.13710256 0.037171543
0.18968104 -0.017923761 -0.16779163 -0.1877165 0.07279729 0.010313121 0.012697818 -0.20671204
0.021448852 -0.051136583 0.015556803 0.18094505 -0.09951017 0.13104045 -0.081296526 -0.11008533
-0.0670859 0.05818385 0.0019105149 -0.17400305 -0.0997747 -0.013269245 -0.07271585 0.11029792
0.24167255 -0.073597856 0.022697626 0.075238496 0.09538153 -0.10086407 -0.059812713 -0.13715011
0.101502724 -0.10882046 0.096770905 -0.18853866 0.034113917 -0.063214615 -0.050019648 -0.056307413
0.10844769 0.12001272 0.09096368 0.06762836 -0.012138549 0.2172759 0.1460732 -0.06300395
0.12389607 -0.16247298 0.11934408 -0.047687445 -0.07592197 0.22996795 0.12756419 -0.0038552391
-0.0011639236 0.047799166 0.10705602 0.06907936 0.014558847 0.09298983 -0.16916192 -0.061651766
0.11895795 0.14489323 -0.12430864 -0.017179385 0.09695585 0.06645034 -0.07336313 -0.042074088
0.17812718 -0.2160478 0.09627105 0.013481125 -0.1625431 -0.053559065 -0.13135545 0.15239076
0.122781985 -0.16159062 -0.16529891 -0.06742828 -0.16755794 -0.19682625 -0.112496465 -0.08769895
0.08412533 0.019210326 -0.16813359 0.1826526 0.120866805 -0.116113774 -0.067598954 -0.1954962
-0.011991927 0.20071156 0.016502148 0.21744944 0.08541703 0.14161871 0.13559277 0.0043508913
-0.023325246 0.07792643 -0.18186735 -0.15539642 0.075743556 0.11336456 -0.035294402 0.017102305
-0.17802323 -0.20445102 0.18892184 0.07928692 -0.15106581 -0.08622525 -0.15661646 -0.01612588
0.124494724 -0.037403293 0.032995462 0.11850401 0.15344355 -0.03628762 0.09899184 0.19995569
0.11067814 -0.016561378 0.18945748 -0.064672746 0.155272 0.12129857 0.21241423 0.051056985
0.043171443 0.0038346916 0.057856653 -0.19724907 3.1978632e-19 -0.032185875 0.026421914 0.25175282
0.10059196 -0.19680373 -0.15506148 -0.011798218 0.08710365 -0.16484454 0.06621637 0.0954279
-0.08049826 -0.051001012 0.05579542 -0.12849207 0.12865716 0.13305481 0.046556395 -0.04500769
-0.12158268 0.030222308 0.12761979 0.026095584 0.019695176 -0.00013387475 0.02135637 0.0950784
0.032316945 0.007927773 -0.067486525 0.0013437755 0.10530688 0.077782646 -0.07711426 -0.18053457
-0.08823351 0.029557785 -0.061298493 -0.09087713 0.13482122 -0.22684261 -0.05614354 0.15791674
0.12542227 0.056168966 0.05377126 -0.06885662 -0.1369733 -0.2137274 -0.057358515 -0.054035794
-0.12897107 0.08384123 0.1444682 -0.16192973 0.029392378 -0.22128884 0.011478363 0.03232756
00000000: cc90 23be 7f66 ca3b f56b 26be c537 053d
00000010: 5f76 d63d 4d1e 2f3e 031f 20be 99dd 1b3e
00000020: c386 13be c7c1 c33c eed0 2bbe 34e6 e03c
00000030: d476 d8bc eb4c 773e e521 c53d 7336 01be
00000040: ceb8 ecbd bdf0 cc3c 83a6 db3d b022 b33d
00000050: 4c62 e1bc 7f5a ba3d a994 2cbe 9312 d3bd
00000060: 5b8b 40be 61e9 243e c7f4 aa3d 1c67 1fbd
00000070: 2df1 893d d0ca 5abd 1062 a63c 72d8 0f3d
00000080: b082 18be 50c0 b3bd d48f 033e e9c8 353e
00000090: 3e9a e53d 2a0c 2320 d972 05be 581b c3bc
000000a0: 11be 143e 8d9d 24ba e47a 313d 91a5 26be
000000b0: 7e21 34be 3b78 353e 0e6c bebd 36aa 00be
000000c0: 7091 323d 278d 633d 1378 12bb 8fa9 3bbb
000000d0: ec00 7ebd ee9c 26be 9d64 0cbe 3041 183d
000000e0: bf3b 423e dad4 92bc 92d1 2bbe c138 40be
000000f0: bf16 953d 5df8 283c 820a 503c 52ac 53be
00000100: 81b5 af3c 9874 51bd f6e1 7e3c a949 393e
00000110: fdcb cbbd 782f 063e cb7e a6bd 6b74 e1bd
00000120: 5564 89bd 3052 6e3d 3e6a fa3a db2d 32be
00000130: ae56 ccbd 3f67 59bc 0cec 94bd e0e3 e13d
00000140: 0279 773e 79ba 96bd 5ff0 b93c a416 9a3d
00000150: 6457 c33d d291 cebd 2dfe 74bd 1471 0cbe
00000160: a9e0 cf3d 43dd debd d32f c63d 4710 41be
00000170: 09bb 0b3d aa76 81bd 67e1 4cbd 9aa2 66bd
00000180: d319 de3d 3bc9 f53d 2a4b ba3d bd80 8a3d
00000190: c4e0 46bc 937d 5e3e 3794 153e 3708 81bd
000001a0: 39bd fd3d 515f 26be ab6a f43d e953 43bd
000001b0: fa7c 9bbd b87c 6b3e 30a0 023e 2ea8 7cbb
000001c0: cc8e 98ba 0fc9 433d 3040 db3d 7b79 8d3d
000001d0: 3b88 6e3c 7471 be3d c838 2dbe 9086 7cbd
000001e0: 3aa0 f33d e45e 143e 8795 febd c8bb 8cbc
000001f0: ca90 c63d 1e17 883d 693f 96bd e155 2cbd
00000200: f966 363e a23b 5dbe c229 c53d f0df 5c3c
00000210: b371 26be c060 5bbd 0b82 06be 530c 1c3e
00000220: 1f75 fb3d 0378 25be 1e44 29be d717 8abd
00000230: 4f94 2bbe d28c 49be 8c64 e6bd 829b b3bd
00000240: e749 ac3d f95e 9d3c 362b 2cbe 4809 3b3e
00000250: 0489 f73d 0fcd edbd 5271 8abd 2830 48be
00000260: ca79 44bc 5587 4d3e 832f 873c 11ab 5e3e
00000270: 20ef ae3d 7f04 113e d5d8 0a3e ec91 8e3b
00000280: 9614 bfbc e497 9f3d 6f3b 3abe 3d20 1fbe
00000290: 701f 9b3d ae2b e83d dd90 10bd 221a 8c3c
000002a0: b94b 36be 9c5b 51be ba74 413e 2e61 a23d
000002b0: ffb0 1abe dd96 b0bd 1160 20be 6c1a 84bc
000002c0: 17f7 fe3d 3234 19bd 4026 073d 3bb2 f23d
000002d0: 4e20 1d3e 54a2 14bd 3cbc ca3d 2fc1 4c3e
000002e0: 38ab e23d baab 87bc 2401 423e 2573 84bd
000002f0: a0ff 1e3e 626b f83d 1e83 593e 2121 513d
00000300: 8ad4 303d 734f 7b3b 19fb 6c3d a9fb 49be
00000310: bec4 bc20 56d5 03bd c572 d83c bfe5 803e
00000320: 2803 ce3d eb86 49be 70c8 1ebe 504d 41bc
00000330: 6663 b23d 02cd 28be 739c 873d b46f c33d
00000340: 46dc a4bd 70e6 50bd bd89 643d 6d93 03be
00000350: b4be 033e 853f 083e ebb1 3e3d fc59 38bd
00000360: 5700 f9bd c694 f73c c3ae 023e 68c6 d53c
00000370: c757 a13c bb60 0cb9 8ef3 ae3c 77b8 c23d
00000380: c65e 043d 7de3 013c 6036 8abd a021 b03a
00000390: 22ab d73d 824c 9f3d 15ee 9dbd 0ede 38be
000003a0: c5b3 b4bd 2b23 f23c 2114 7bbd ca1d babd
000003b0: 930e 0a3e 6e49 68be c5f6 65bd edb4 213e
000003c0: b26e 003e 6e11 663d 413f 5c3d b304 8dbd
000003d0: bb42 0cbe 5bdb 5abe c3f0 6abd a354 5dbd
000003e0: fe10 04be f3b4 ab3d 79ef 133e e8d0 25be
000003f0: 49c8 f03c 8b99 62be be0f 3c3c e769 043d

l1.weight f4 [256, 256]
-0.0032142277 0.002503664 -0.00046175325 0.0011915216 -0.0017715938 0.00064374023 0.0022164118 0.00070962845
-0.0013315148 0.0028998398 -0.0010933384 0.002920499 0.000908726 -0.0017452897 -0.00057215133 0.0016771058
0.0013912079 -0.00010122697 -0.0015431728 -0.0022109353 0.0023636678 0.00044571044 -0.0011762179 -0.00035620655
0.002637814 -0.0035042297 -0.0011469909 0.0005889122 -0.0017648237 0.0020764426 0.0005858428 -0.0012209467
0.0012465367 0.0013413196 0.0010216531 0.0015377554 0.0014534143 -0.0015381589 -0.00048195155 0.00027183804
0.0016368311 0.00023208279 0.0020875025 -0.0015563197 0.0035895705 0.0024158694 0.00077715045 -0.003723553
0.0008492911 0.0012854661 -0.00022228812 0.0017871388 -0.0006134419 -0.002014488 0.0031145245 0.0001415229
0.004030897 0.000566626 -0.0017503917 -0.0036116724 -6.9767426e-05 -0.000356397 -0.00053575187 -0.0036245089
-0.00059580477 -0.00022946093 0.0003748973 0.0024080074 -0.0021802078 0.00022260957 -0.0020165408 0.002105165
0.0005343433 -0.0012418499 -0.00076439633 -0.0010261697 0.0013949295 -0.0022586908 -0.0015677026 -0.002490914
-0.0007883965 -0.0021485214 5.588748e-05 -0.00023133385 -0.004546197 0.00037308034 -0.003215969 -0.0024262362
0.0028336036 0.0034113636 -0.002785008 0.001605178 0.001120871 0.0007759271 0.0024421106 -0.0011632323
-0.00091651024 -0.0014787324 -0.0022162355 0.0008196313 -0.00028574988 0.0040871827 -0.0026847047 -0.0011611575
-0.0005283433 0.0014092972 -0.00020352226 -0.0038665163 -0.0004784749 -0.0004389354 -0.0021374186 0.0022611395
0.0014188117 0.0016753236 0.0008437793 0.0007686914 -0.0020106733 0.00091699284 -0.003252215 0.00019849949
-0.0026853487 0.0033065428 -0.0041775582 0.004116293 0.00212251 0.0006886871 0.0010540552 0.0013405917
0.0030069523 0.0020694267 0.00022043241 -0.003154367 0.0020339317 0.0008359018 0.0031026683 0.0006305212
0.0010361499 0.0016480512 -0.0010559188 0.0017396201 -0.0027735808 -0.0008074092 0.00054807385 -0.0005963826
0.002545249 -0.003220271 -0.0017391844 0.003590767 -0.0024732929 -0.0006173658 0.001048308 -0.00046139225
-0.00060228864 -0.00018271271 -0.0020843835 0.00032617143 0.00049958454 -0.0012750751 0.0005536782 -0.0013760331
-0.0029427293 -0.00013595045 0.0009809383 0.0006650086 -3.8115308e-05 -0.00022776358 -0.00037020494 -6.895485e-05
0.0011700216 -0.000915718 0.00025580323 -0.00038046815 0.001604819 0.00013693346 0.00028731098 -0.0028579102
-0.0015543071 0.0021860532 0.00013286564 0.0023103643 0.0024023443 -0.00069657393 0.0004687 -0.0012676558
-0.00042188764 0.0009414259 -0.00022677887 -0.0010384428 0.00034063763 0.0030603346 0.0012971952 -0.00015063811
0.0007440657 0.0004639066 0.0015008012 0.0006161247 0.0022388594 0.0029249797 0.00030013465 -0.002973706
-0.0014024131 -0.0017634523 -0.0011605868 0.00085296185 -0.00048332862 0.00095726823 -0.0014638223 -0.003960575
-0.0024974814 -0.0009574985 -0.00028659662 -0.0011188216 -0.0009901149 0.0007016335 -0.0027934154 2.5291763e-05
-0.0010742665 -0.0009515666 0.0023656895 0.0018986838 -0.00062661443 0.0022575196 0.00041659514 0.0006310892
0.0014716035 0.0013090966 -0.0018926505 0.0006474695 0.00035470453 -0.0011452622 -0.003329415 0.0009308936
0.001783726 -0.0027651319 -0.0034338448 0.001541305 0.00043241645 -0.0024725962 -0.0020169432 0.0015965763
0.0015430857 0.0016967775 0.0010317588 0.0005033811 -0.002700872 -0.0019040679 -0.0006277502 0.0010831921
0.00030756983 0.0022933013 0.0009823749 0.0019814838 0.0002475789 0.0017898086 -0.0006661989 -0.0026544444
00000000: cba5 52bb 8314 243b 7917 f2b9 d52c 9c3a
00000010: d334 e8ba adc0 283a 3841 113b 5c06 3a3a
00000020: 3986 aeba 3d0b 3e3b 594e 8fba d865 3f3b
00000030: 9237 6e3a 34c2 e4ba 6dfc 15ba 55d2 db3a
00000040: 3159 b63a d149 d4b8 4944 caba 57e5 10bb
00000050: c4e7 1a3b 3eae e939 532b 9aba 3cc1 bab9
00000060: 2ddf 2c3b 38a7 65bb a156 96ba 3b61 1a3a
00000070: a851 e7ba ed14 083b 3f93 193a 2c08 a0ba
00000080: d562 a33a 38cf af3a fde8 853a 828e c93a
00000090: 7e80 be3a 0c9c c9ba 71ae fcb9 7c85 8e39
000000a0: f08a d63a 405b 7339 7bce 083b 6cfd cbba
000000b0: 003f 6b3b 9053 1e3b afb9 4b3a da06 74bb
000000c0: f6a2 5e3a 167d a83a 0316 69b9 6d3e ea3a
000000d0: 64cf 20ba 8005 04bb 0d1d 4c3b c465 1439
000000e0: 9d15 843b a189 143a 666d e5ba cfb1 6cbb
000000f0: 1a50 92b8 ccda bab9 b371 0cba 2b89 6dbb
00000100: c82f 1cba 739b 70b9 dd8d c439 a9cf 1d3b
00000110: d1e1 0ebb 4d6c 6939 f127 04bb cff6 093b
00000120: 2c13 0c3a 91c5 a2ba c561 48ba 8b80 86ba
00000130: 11d6 b63a 8b06 14bb 5f7b cdba 9a3e 23bb
00000140: 65ac 4eba 35ce 0cbb ba68 6a38 3592 72b9
00000150: 44f8 94bb ff99 c339 02c3 52bb 7d01 1fbb
00000160: fbb3 393b 2f91 5f3b ae84 36bb d664 d23a
00000170: 31ea 923a 9667 4b3a d10b 203b 9977 98ba
00000180: f641 70ba 07d2 c1ba 433e 11bb 87dc 563a
00000190: b3d0 95b9 c6ed 853b dff1 2fbb fb31 98ba
000001a0: 8580 0aba 2bb8 b83a 9768 55b9 6165 7dbb
000001b0: d0db fab9 ea20 e6b9 ef13 0cbb a02f 143b
000001c0: 6cf7 b93a 8896 db3a 1231 5d3a 0282 493a
000001d0: 80c5 03bb 5962 703a 1d23 55bb 4d24 5039
000001e0: adfc 2fbb 95b2 583b e6e3 88bb f8e1 863b
000001f0: cf19 0b3b 0289 343a 3928 8a3a cbb6 af3a
00000200: 4a10 453b 389f 073b e023 6739 7fb9 4ebb
00000210: b64b 053b 6c20 5b3a 2356 4b3b 9049 253a
00000220: 6ccf 873a 6c03 d83a c166 8aba f703 e43a
00000230: f7c4 35bb 50a8 53ba 9dac 0f3a 8f56 1cba
00000240: 31ce 263b 2f0b 53bb 58f5 e3ba 1353 6b3b
00000250: f816 22bb b8d6 21ba 6167 893a 05e7 f1b9
00000260: e8e2 1dba 9296 3fb9 279a 08bb fd01 ab39
00000270: 8df6 023a 6c20 a7ba b724 113a 025c b4ba
00000280: ceda 40bb ec8d 0eb9 d492 803a f953 2e3a
00000290: 00de 1fb8 d2d3 6eb9 1118 c2b9 da9b 90b8
000002a0: 695b 993a cb0c 70ba 541d 8639 9279 c7b9
000002b0: ca58 d23a cc95 0f39 3aa2 9639 c74b 3bbb
000002c0: e4b9 cbba e343 0f3b d951 0b39 7b69 173b
000002d0: a670 1d3b 499a 36ba d9bb f539 7827 a6ba
000002e0: cd30 ddb9 06ca 763a 7dcb 6db9 5c1c 88ba
000002f0: 9c97 b239 e58f 483b a606 aa3a 9cf4 1db9
00000300: 670d 433a 7d38 f339 88b6 c43a 6e83 213a
00000310: d4b9 123b 04b1 3f3b 645b 9d39 82e2 42bb
00000320: 2dd1 b7ba a423 e7ba d51e 98ba 4d99 5f3a
00000330: 4567 fdb9 2ff1 7a3a badd bfba b6c7 81bb
00000340: c9ac 23bb a300 7bba 5942 96b9 6ca5 92ba
00000350: bec6 81ba d4ed 373a bc11 37bb a629 d437
00000360: 67ce 8cba 8e72 79ba af09 1b3b 42dd f83a
00000370: 6243 24ba e5f2 133b 746a da39 ae6f 253a
00000380: d2e2 c03a fe95 ab3a d012 f8ba f1ba 293a
00000390: a3f7 b939 9f1c 96ba 5132 5abb 3607 743a
000003a0: eacb e93a 3737 35bb 5b0a 61bb 9d05 ca3a
000003b0: f4b5 e239 480b 22bb b12e 04bb 3644 d13a
000003c0: 5d41 ca3a 6866 de3a 153c 873a 55f5 033a
000003d0: 1d01 31bb eb91 f9ba 9a8f 24ba e5f9 8d3a
000003e0: 5341 a139 364b 163b 08c3 803a c8db 013b
000003f0: 7acd 8139 0398 ea3a daa3 2eba 30f6 2dbb

l1.bias f4 [256]
0.004510725 0.19157994 0.022847356 0.22972727 0.028173283 0.17696847 0.0003371477 0.0367653
0.018065656 0.1794691 0.14927022 0.047726113 0.16928911 0.0085546775 0.045406472 0.22544296
0.02635872 0.18013102 0.023688013 0.22961126 0.20960371 0.126531 0.04975285 7.216694e-07
0.015477217 0.039777417 0.13715282 0.117925644 0.16773473 0.19452618 0.07010552 0.037294425
0.03440959 0.04451648 0.00071189855 0.19911864 0.11354541 0.2355752 0.14371522 0.2150824
0.18525231 0.19426739 0.0021217456 0.028782783 1.5730619e-08 0.22127035 0.16149333 0.122034
0.21924542 0.07469201 0.20927559 0.054968674 0.112748265 0.21647865 0.20836647 0.13563982
3.286492e-05 0.18447337 0.16635388 0.11463401 0.1715559 0.0593152 0.15104854 0.03756453
0.16595444 0.022610696 0.0054336283 0.0015096086 0.17915817 0.11026252 0.038316112 0.21334678
0.20482394 0.14912204 0.1624989 0.1801109 0.17983654 0.037910976 0.12878625 0.14814195
0.21194278 0.2026767 0.01899303 0.0018987049 0.25546777 0.05913497 0.18775003 0.19563866
0.07415475 0.04426808 0.1138486 0.024831811 0.13998365 0.01328277 0.17217757 0.00028314505
0.050906625 0.1894326 0.17341168 0.1788318 0.20310803 0.22895157 0.051021144 0.19683385
0.22012994 0.0012784874 0.14584775 0.16436428 0.06752485 0.2029657 0.04034096 0.1924032
0.1892671 0.039103277 0.08418535 0.16610885 0.046510864 0.14887168 0.06304441 0.016121527
0.16532668 0.006116984 0.23613824 0.15444054 0.061863966 0.18730152 0.17777348 0.18548685
0.048809085 0.1462722 0.02293055 0.17615554 0.036576796 0.00046959805 0.057098903 0.027882833
0.017704558 0.19263664 0.060460355 0.15849498 0.0018969667 0.13243888 0.19233504 0.1580929
0.24431413 0.0017843232 0.03184214 0.23189531 0.17529583 0.0044007027 0.10571446 0.028438067
0.002980096 0.17659558 0.034832716 0.18207961 0.031401526 0.13717343 0.17102258 0.20991942
0.15341425 0.03710703 0.21281773 0.045404978 0.12792087 0.15563256 0.19632554 0.14391655
0.17497423 0.20751414 0.18876337 0.2323252 0.19939217 0.23961815 0.17960417 0.23149247
0.0051454874 0.0063659106 0.029441148 0.0005935079 0.19187619 0.18350102 0.19596794 0.028756604
0.1697045 0.13682559 0.05398483 0.00031136262 0.17790048 0.17601542 0.005468451 0.18749462
0.059296377 0.0005680867 0.19487415 0.19649231 0.16638313 0.16022174 0.012124203 0.1810044
0.17699534 0.14998567 0.22489992 0.051247574 0.18625756 0.16603398 0.16752778 0.17243096
0.11781228 0.20271322 0.12415526 0.16875459 0.007311116 0.18096587 0.2134187 0.032862574
0.072423615 0.17458083 0.021369573 0.18263789 0.03583564 0.15227935 0.18401663 0.24234056
0.04914792 0.14632475 0.07086579 0.0001924836 0.15891062 0.14587894 0.06574294 0.18946405
0.10910939 0.057102937 0.20634416 0.18219289 0.051700577 0.033680633 0.13664426 1.875142e-05
0.16777249 0.11760004 0.19662228 0.20608556 0.17445654 0.19961876 0.008466956 0.025224272
0.033045553 0.1487801 0.18874794 0.17982307 0.19236486 0.17984134 0.14155924 0.2297952
00000000: b4ce 933b 882d 443e 612a bb3c a03d 6b3e
00000010: a8cb e63c 3937 353e 33c3 b039 3697 163d
00000020: 6dfe 933c bfc6 373e 4bda 183e 757c 433d
00000030: 205a 2d3e eb28 0c3c 23fc 393d 85da 663e
00000040: 3eee d73c 4474 383e 5d0d c23c 371f 6b3e
00000050: 5ba2 563e 5891 013e a5c9 4b3d beb8 4135
00000060: 2794 7d3c a5ed 223d ca71 0c3e 0083 f13d
00000070: a7c2 2b3e df31 473e 7c93 8f3d 0ac2 183d
00000080: 12f1 0c3d ea56 363d b49e 3a3a c2e5 4b3e
00000090: 7f8a e83d a03a 713e 152a 133e 903e 5c3e
000000a0: c8b2 3d3e 08ee 463e fc0c 0b3b dfc9 eb3c
000000b0: ff1f 8732 b294 623e 825e 253e f6ec f93d
000000c0: df81 603e 20f8 983d 574c 563e d526 613d
000000d0: 90e8 e63d 94ac 5d3e 055e 553e 2ae5 0a3e
000000e0: 70d8 0938 96e6 3c3e ac58 2a3e 3cc5 ea3d
000000f0: 5aac 2f3e 7ff4 723d 78ac 1a3e 44dd 193d
00000100: f6ef 293e 113a b93c 940c b23b 0fde c53a
00000110: 3d75 373e 51d1 e13d 5bf1 1c3d 9477 5a3e
00000120: 5ebd 513e 73b3 183e 1d66 263e fe6e 383e
00000130: 1227 383e 8a48 1b3d 8be0 033e 86b2 173e
00000140: 8707 593e 7b8a 4f3e 4597 9b3c f7dd f83a
00000150: accc 823e 8337 723d 8b41 403e 8055 483e
00000160: 72de 973d 7252 353d 7429 e93d 156c cb3c
00000170: e057 0f3e fa9f 593c 514f 303e 1673 9439
00000180: 7783 503d 9ffa 413e d592 313e af1f 373e
00000190: 8dfb 4f3e 4872 6a3e 8cfb 503d d08e 493e
000001a0: be69 613e eb92 a73a 1d59 153e 1c4f 283e
000001b0: 784a 8a3d 3ed6 4f3e 903c 253d 5805 453e
000001c0: 3ccf 413e c22a 203d 5e69 ac3d 7018 2a3e
000001d0: 2d82 3e3d d171 183e 6d1d 813d 4b11 843c
000001e0: 664b 293e fb70 c83b 39ce 713e a925 1e3e
000001f0: 1265 7d3d f8cb 3f3e 400a 363e 44f0 3d3e
00000200: 09ec 473d 61c8 153e d9d8 bb3c 1e62 343e
00000210: 8dd1 153d 6234 f639 8ae0 693d 8a6a e43c
00000220: 2609 913c 8a42 453e 47a5 773d 824c 223e
00000230: a4a3 f83a 0f9e 073e 7af3 443e 1be3 213e
00000240: 7c2d 7a3e f4df e93a e76c 023d f775 6d3e
00000250: c080 333e c533 903b d380 d83d f3f6 e83c
00000260: b74d 433b 79d5 343e c0ac 0e3d 1473 3a3e
00000270: e39e 003d 3177 0c3e 8b20 2f3e 1ef5 563e
00000280: a018 1d3e 8bfd 173d e4ec 593e 92fa 393d
00000290: b0fd 023e 245e 1f3e 9009 493e dc5e 133e
000002a0: 722c 333e 967e 543e 2f4b 413e a8e6 6d3e
000002b0: 762d 4c3e 765e 753e 28ea 373e 5d0c 6d3e
000002c0: 7a9b a83b 2199 d03b 902e f13c a495 1b3a
000002d0: 317b 443e b1e7 3b3e d2ab 483e f892 eb3c
000002e0: 04c7 2d3e 021c 0c3e 321f 5d3d 623e a339
000002f0: 8b2b 363e 633d 343e b130 b33b 97fe 3f3e
00000300: c2e0 723d a7eb 143a 178d 473e 4835 493e
00000310: 5760 2a3e 2b11 243e 98a4 463c 3859 393e
00000320: 443e 353e d895 193e 2a4c 663e fae8 513d
00000330: 4dba 3e3e d004 2a3e 678c 2b3e be91 303e
00000340: 9147 f13d 0e94 4f3e 1d45 fe3d 01ce 2c3e
00000350: 1692 ef3b 1e4f 393e 6f8a 5a3e e89a 063d
00000360: d552 943d 51c5 323e 3e0f af3c 6d05 3b3e
00000370: 64c8 123d 1eef 1b3e db6e 3c3e 2028 783e
00000380: 544f 493d 28d6 153e 1522 913d 6cd5 4939
00000390: 77b9 223e 4a61 153e 3ca4 863d dd02 423e
000003a0: be74 df3d c5e4 693d e24b 533e c690 3a3e
000003b0: fcc3 533d b4f4 093d 79ec 0b3e 5e4c 9d37
000003c0: 8dcc 2b3e 4ad8 f03d 5a57 493e 1808 533e
000003d0: bca4 323e dc68 4c3e fdb8 0a3c 22a3 ce3c
000003e0: c65a 073d cf59 183e 2447 413e 8a23 383e
000003f0: 4bfb 443e 5428 383e e8f4 103e 6f4f 6b3e

l2.weight f4 [256, 256]
-0.0013547011 -0.06953904 -0.00318281 0.11375067 0.006813948 -0.027527569 3.448442e-05 0.0027106954
-0.0022647516 -0.03850832 0.05100449 0.0026768784 0.11003669 0.002357418 -0.0028007017 0.13072017
0.008266083 0.07699502 0.008361489 0.13006325 -0.08871222 0.030357411 0.0025220818 1.4889159e-07
0.005502941 0.0014800177 0.051334776 0.019635268 -0.040220134 0.0026622748 0.058181 -0.0026932866
0.0056874002 0.0013221047 0.00018280264 0.09598926 0.037991792 -0.09414227 -0.038532555 0.115358055
0.10080269 -0.019855265 -0.00030795843 0.0070966017 5.9147185e-09 0.06570748 -0.061962172 -0.07250867
0.11313822 0.014468078 0.046054017 0.005819602 0.03748947 0.07196905 0.09051296 0.07611048
-3.8873936e-06 0.060401622 -0.044712428 -0.01956669 -0.011099996 0.028970664 0.0321238 -0.00093809474
0.013291729 -0.002163904 0.001172695 -0.00017864825 -0.05151301 -0.0226538 -0.004470545 0.10203572
-0.03817638 -0.01784441 0.017830748 0.007617766 0.14961907 4.1750325e-05 0.077338435 -0.03506178
0.09328735 -0.007594798 -0.0030010296 -2.1711969e-05 -0.0096146725 0.0012701341 -0.04205841 -0.15375705
-0.024605379 0.017340388 0.027163565 0.01292412 0.0053295614 -1.5880216e-05 -0.0066723716 0.000120112825
-0.014989698 -0.0717109 -0.034012336 -0.06561542 0.11216413 -0.1063954 0.019760529 0.014520358
0.15355699 -0.000121158824 -0.12124488 -0.03432397 0.007984856 0.06177715 -0.005757783 0.05167784
0.08733102 -0.0044152127 0.0137299495 0.026412288 0.006474705 -0.053943615 0.002124507 0.0013815156
0.04960484 -0.000596256 0.15072252 0.055243567 0.019094015 0.055526104 -0.02224148 -0.047085058
0.0033477244 -0.02079452 0.0015304614 0.05003392 0.006793437 0.00020528339 0.0052124592 0.0034682062
0.005066379 -0.075283185 0.04644808 0.02033416 -0.000107539105 0.063069195 -0.097438395 -0.03372071
-0.16387711 0.0002103065 0.011921242 0.061866876 -0.044262573 0.0012410723 0.060847636 -0.005585015
-0.0006793096 0.09515857 -0.0025833703 -0.007965048 0.016940186 0.0650123 -0.02515823 -0.10008218
-0.0655562 0.0036677897 0.09980365 0.01761493 -0.019873993 -0.023985313 0.018125739 0.013701181
0.044871233 -0.0065632844 0.1648659 -0.10717043 -0.028540244 0.17118807 -0.021700243 0.10845602
0.0027823867 0.004177721 0.009903278 0.00014683515 0.07129402 0.04326246 -0.0041871574 0.003958622
-0.05414358 -0.044986676 0.0132304095 3.0788106e-05 0.017972976 0.11728518 0.0005306217 -0.07007826
0.0013958397 -7.950386e-05 0.068713814 0.10365903 -0.048289206 0.06794543 -0.0021260502 -0.04368589
-0.055015706 -0.030155519 -0.11238114 0.0011647015 0.0067860726 0.17314437 0.062292673 0.003953661
-0.039135426 0.06766291 -0.02007348 0.086450286 -0.0011829188 0.034486897 0.034108326 0.008317334
0.0265992 0.0033064107 -0.001921965 0.08269219 -0.0034563122 -0.02738552 0.04201516 -0.1498428
0.0287103 0.0083440235 0.0056688013 3.7855305e-05 0.103059284 0.16010158 0.021802576 0.13553968
0.053883154 0.008443822 0.118107766 0.04273713 -0.0036939012 -0.002275894 0.03773583 -1.325314e-06
-0.044860337 -0.014486523 -0.024902483 0.122608006 -0.007355118 0.06934763 0.0007849458 -0.002267702
-0.0005496714 0.03913615 0.08909387 -0.036473162 0.052595325 -0.19030783 0.048213627 0.13104609
00000000: 3a90 b1ba 7c6a 8ebd b196 50bb 1cf6 e83d
00000010: 8a47 df3b 7f81 e1bc 5da3 1038 eca5 313b
00000020: 3a6c 14bb e6ba 1dbd 16ea 503d 916e 2f3b
00000030: eb5a e13d e97e 1a3b fa8b 37bb 82db 053e
00000040: 776e 073c 91af 9d3d a0fe 083c 4d2f 053e
00000050: c1ae b5bd 1bb0 f83c 8349 253b 02df 1f34
00000060: 0452 b43b 27fd c13a 6a44 523d 24da a03c
00000070: debd 24bd 8f79 2e3b 334f 6e3d da81 30bb
00000080: 5f5d ba3b 794a ad3a b6ae 3f39 0496 c43d
00000090: 489d 1b3d aacd c0bd 50d4 1dbd d840 ec3d
000000a0: a471 ce3d 82a7 a2bc 7b75 a1b9 9c8a e83b
000000b0: 6a3a cb31 a591 863d 0ccc 7dbd 6d7f 94bd
000000c0: 03b5 e73d 840b 6d3c 23a3 3c3d 5cb2 be3b
000000d0: 8f8e 193d 8264 933d dc5e b93d d0df 9b3d
000000e0: 7570 82b6 b167 773d 6124 37bd 534a a0bc
000000f0: c2dc 35bc e353 ed3c 3f94 033d 79ea 75ba
00000100: 8dc5 593c 49d0 0dbb 1db5 993a 8653 3bb9
00000110: 4eff 52bd 7694 b9bc a67d 92bb 1bf8 d03d
00000120: d65e 1cbd 712e 92bc ca11 923c 749e f93b
00000130: be35 193e 121d 2f38 9d63 9e3d f19c 0fbd
00000140: 700d bf3d c9dd f8bb ecac 44bb 1922 b6b7
00000150: dc86 1dbc a17a a63a 7045 2cbd 7d72 1dbe
00000160: 3891 c9bc 6e0d 8e3c 2086 de3c b0bf 533c
00000170: 9aa3 ae3b 8136 85b7 e9a3 dabb 15e5 fb38
00000180: 5a97 75bc 2add 92bd 8550 0bbd 6161 86bd
00000190: 4fb6 e53d d5e5 d9bd d5e0 a13c cce6 6d3c
000001a0: 0b3e 1d3e a616 feb8 3c4f f8bd 4b97 0cbd
000001b0: ead2 023c 090a 7d3d c9ab bcbb 25ac 533d
000001c0: 9bda b23d 7dad 90bb 95f3 603c 955e d83c
000001d0: c329 d43b fbf3 5cbd 503b 0b3b f913 b53a
000001e0: 722e 4b3d 104e 1cba 0157 1a3e 1447 623d
000001f0: 0d6b 9c3c 576f 633d c433 b6bc 43dc 40bd
00000200: 7f65 5b3b 4559 aabc c399 c83a 5ef0 4c3d
00000210: 7b9b de3b 5741 5739 47cd aa3b d84a 633b
00000220: de03 a63b 122e 9abd 5840 3e3d d393 a63c
00000230: 9e86 e1b8 6c2a 813d c88d c7bd ba1e 0abd
00000240: 67cf 27be b985 5c39 5051 433c 1f68 7d3d
00000250: ac4c 35bd 7aab a23a 5f3b 793d 8002 b7bb
00000260: b213 32ba 7fe2 c23d c34d 29bb d57f 02bc
00000270: 25c6 8a3c 2b25 853d a218 cebc e3f7 ccbd
00000280: 5442 86bd 4d5f 703b db65 cc3d 304d 903c
00000290: c9ce a2bc d97c c4bc 6e7c 943c eb7a 603c
000002a0: e6ca 373d d210 d7bb 9bd2 283e 2c7c dbbd
000002b0: 3bcd e9bc ed4b 2f3e b5c4 b1bc 311e de3d
000002c0: b458 363b 44e5 883b 5c41 223c c3f7 1939
000002d0: 9902 923d fa33 313d 6c34 89bb 54b7 813b
000002e0: a9c5 5dbd f343 38bd 5cc4 583c 7a22 0138
000002f0: 103c 933c 3633 f03d 6b19 0b3a 3185 8fbd
00000300: 9cf4 b63a 4fbb a6b8 d4b9 8c3d 2f4b d43d
00000310: e7ca 45bd f926 8b3d 3455 0bbb faef 32bd
00000320: 2658 61bd b508 f7bc 1528 e6bd e6a8 983a
00000330: b45d de3b c24c 313e 9a26 7f3d b68d 813b
00000340: 784c 20bd da92 8a3d 2471 a4bc d90c b13d
00000350: 2b0c 9bba 2242 0d3d 2cb5 0b3d 6d45 083c
00000360: 91e6 d93c 5eb0 583b 72ea fbba 865a a93d
00000370: 4c83 62bb 9957 e0bc 1718 2c3d 6470 19be
00000380: dd31 eb3c 5fb5 083c 5ac1 b93b d3c6 1e38
00000390: bf10 d33d abf1 233e 519b b23c eaca 0a3e
000003a0: 95b4 5c3d f557 0a3c 7ce2 f13d 210d 2f3d
000003b0: 6115 72bb 2a27 15bb e390 1a3d 71e1 b1b5
000003c0: 79bf 37bd e258 6dbc 4b00 ccbc e819 fb3d
000003d0: 3403 f1bb 2106 8e3d d2c4 4d3a ba9d 14bb
000003e0: d317 10ba 3a4d 203d d976 b63d e264 15bd
000003f0: 326e 573d 0ee0 42be a77b 453d f230 063e

l2.bias f4 [256]
0.056418926 0.05938436 0.06190805 0.06951822 0.04272461 0.047104172 0.04856112 0.06312676
0.054319445 0.049409743 0.06215006 0.03545823 0.060465824 0.047112856 0.04534823 0.054404188
0.05490386 0.053387776 0.030760214 0.061897825 0.05640558 0.059482913 0.055320233 0.046887267
0.054398462 0.045274533 0.07541493 0.06220931 0.045335747 0.050016545 0.05006896 0.057721965
0.060907837 0.05431637 0.06099121 0.046421718 0.055405486 -2.2373736e-19 0.04991619 0.054099936
0.057611898 0.060040236 0.051295776 0.05365488 0.06757875 0.048181552 0.036401246 0.06888866
0.06395894 0.059066337 0.049387187 0.038652077 0.06265163 0.04542255 0.060094792 0.045503125
0.045969915 0.062658586 0.038534127 0.056317575 0.062353283 0.056200728 0.04234086 0.062030677
0.055837885 0.04027134 0.055693008 0.04149554 0.05725366 0.05563433 0.051871445 0.053127084
0.038855642 0.05558276 0.050980162 0.06284265 0.031793658 0.048052184 0.045210995 0.061069775
0.05786404 0.05459109 0.050217215 0.044103634 0.054832358 0.051151987 0.043016843 0.06312218
0.05289654 0.06352987 0.046887595 0.05563529 0.073501974 0.03533162 0.05386969 0.06893379
0.04839152 0.038422216 0.057249766 0.04632468 0.041677564 0.04285745 0.060229056 0.039714374
0.03553794 0.06051891 0.04780185 0.06368198 0.051147755 0.055102896 0.060180258 0.05471631
0.05867676 0.07281618 0.04679394 0.058598083 0.054760557 0.053151205 0.06793201 0.055835083
0.055546377 0.052125707 0.06775316 0.06016929 0.053076647 0.047765516 0.05351273 0.059513994
0.05971795 0.067271 0.070360206 0.056508955 0.051943075 0.0525799 0.06295505 0.0450161
0.04421205 0.053628325 0.07414365 0.06220656 0.04839291 0.069198735 0.05297612 0.041417558
0.043975674 0.06533998 0.058809936 0.044434223 0.04019892 0.06349716 0.05298406 0.058506493
0.059004363 0.051584344 0.056916278 0.055609573 0.03316584 0.0650183 0.061936606 0.06602426
0.036953386 0.036851592 0.06346795 0.054935414 0.0532815 0.046730265 0.059525173 0.062373888
0.06451982 0.05222026 0.05535145 0.032458805 0.057817094 0.06426776 0.039343353 0.047550783
0.047549702 0.052558083 0.050523296 0.04048519 0.05699632 0.04178127 0.06201606 0.03609651
0.041396018 0.03559169 0.054223742 0.051483855 0.04254745 0.05047566 0.05161096 0.05753206
0.051540196 0.059953593 0.059602823 0.055873934 -2.111532e-19 0.05232229 0.054326195 0.05639056
0.054410845 0.0744295 0.05688412 0.0700314 0.051220965 0.05499447 0.06295534 0.059568066
0.046619564 0.06405418 0.060772043 0.05700814 0.043024726 0.0574346 0.046571955 0.046677157
0.041942097 0.042886775 0.06480767 0.059441715 0.05805154 0.07113689 0.06498109 0.05605075
0.049173273 0.04241991 0.05191834 0.07535406 0.060037486 0.047300875 0.044639263 0.05132556
0.062145494 0.0608575 0.060895883 0.05250911 0.03999839 0.06341213 0.037808634 0.06457911
0.068516634 0.05158839 0.052532688 0.06976127 0.05544666 0.052360915 0.048805766 0.05580125
0.039676864 0.05005425 0.044419367 0.05318796 0.072648905 0.06640228 0.03493029 0.050784353
00000000: 8817 673d 043d 733d 4c93 7d3d 925f 8e3d
00000010: 0000 2f3d 4ef0 403d 06e8 463d 9a48 813d
00000020: 117e 5e3d df61 4a3d 1091 7e3d a63c 113d
00000030: 03ab 773d 69f9 403d 11bf 393d edd6 5e3d
00000040: dfe2 603d 24ad 5a3d d8fc fb3c 9388 7d3d
00000050: 8a09 673d 5ba4 733d 7897 623d dd0c 403d
00000060: ecd0 5e3d ca71 393d 2573 9a3d 30cf 7e3d
00000070: fab1 393d 26de 4c3d 1c15 4d3d de6d 6c3d
00000080: 7f7a 793d d87a 5e3d ebd1 793d b324 3e3d
00000090: ddf0 623d 3c12 84a0 eb74 4c3d e597 5d3d
000000a0: 74fa 6b3d c0ec 753d 851b 523d 38c5 5b3d
000000b0: ba66 8a3d 055a 453d 7919 153d 7f15 8d3d
000000c0: e8fc 823d 8bef 713d 384a 4a3d a451 1e3d
000000d0: 7f4f 803d ff0c 3a3d f525 763d 7c61 3a3d
000000e0: f34a 3c3d 2553 803d f6d5 1d3d 42ad 663d
000000f0: 2866 7f3d bc32 663d 9c6d 2d3d e113 7e3d
00000100: 44b6 643d 90f3 243d 5a1e 643d 3af7 293d
00000110: d082 6a3d d3e0 633d 2777 543d c99b 593d
00000120: 1827 1f3d c0aa 633d 93d0 503d a6b3 803d
00000130: 113a 023d 5ed2 443d 2a2f 393d 4d24 7a3d
00000140: d802 6d3d e89a 5f3d 91b0 4d3d 03a6 343d
00000150: e597 603d bf84 513d 6e32 303d 3446 813d
00000160: 0baa 583d f31b 823d 350d 403d d4e1 633d
00000170: 3488 963d e4b7 103d 77a6 5c3d 292d 8d3d
00000180: 3036 463d 9d60 1d3d bb7e 6a3d f3be 3d3d
00000190: 18b6 2a3d 4b8b 2f3d beb2 763d 8aab 223d
000001a0: 3b90 113d ade2 773d dfcb 433d b36b 823d
000001b0: 4f80 513d 93b3 613d 937f 763d 361e 603d
000001c0: 0b57 703d a620 953d 01ab 3f3d 8b04 703d
000001d0: 9b4c 603d 14b5 593d f01f 8b3d 54b3 643d
000001e0: 9984 633d c481 553d 2bc2 8a3d 1374 763d
000001f0: e666 593d c6a5 433d 2a30 5b3d f2c4 733d
00000200: cf9a 743d 61c5 893d 0319 903d ef75 673d
00000210: 43c2 543d 055e 573d 94ee 803d cd62 383d
00000220: b217 353d 60a9 5b3d a0d8 973d 4ecc 7e3d
00000230: a537 463d 11b8 8d3d 7dfd 583d 75a5 293d
00000240: d61f 343d f8d0 853d b0e2 703d a900 363d
00000250: 9fa7 243d cd0a 823d d005 593d 81a4 6f3d
00000260: 8fae 713d 1b4a 533d 0b21 693d ddc6 633d
00000270: e7d8 073d 5128 853d 3db1 7d3d ba37 873d
00000280: 6f5c 173d b2f1 163d 7cfb 813d f503 613d
00000290: b43d 5a3d 3c68 3f3d abd0 733d c37b 7f3d
000002a0: f822 843d e9e4 553d 34b8 623d 86f3 043d
000002b0: 9ed1 6c3d d19e 833d 7f26 213d 9cc4 423d
000002c0: 7ac3 423d 2547 573d 84f1 4e3d ccd3 253d
000002d0: f974 693d d622 2b3d 8d04 7e3d efd9 133d
000002e0: df8e 293d 98c8 113d b719 5e3d bce0 523d
000002f0: 3c46 2e3d 91bf 4e3d 0466 533d bda6 6b3d
00000300: d01b 533d e691 753d 1722 743d 11dc 643d
00000310: 2449 79a0 e64f 563d 2585 5e3d caf9 663d
00000320: e8dd 5e3d 7e6e 983d 53ff 683d 9f6c 8f3d
00000330: 13cd 513d e241 613d bbee 803d a5fd 733d
00000340: 28f4 3e3d d72e 833d 1bec 783d 5e81 693d
00000350: b23a 303d 8b40 6b3d 3cc2 3e3d 8c30 3f3d
00000360: 7acb 2b3d 0baa 2f3d e2b9 843d 2879 733d
00000370: 74c7 6d3d 38b0 913d ce14 853d 7995 653d
00000380: ea69 493d 80c0 2d3d 53a8 543d 3b53 9a3d
00000390: dee9 753d 90be 413d a9d7 363d c03a 523d
000003a0: 468c 7e3d b745 793d f66d 793d cb13 573d
000003b0: 5ad5 233d 38de 813d 3add 1a3d 0d42 843d
000003c0: 7352 8c3d 594e 533d 842c 573d ffde 8e3d
000003d0: 091c 633d 6678 563d 8ee8 473d da8f 643d
000003e0: 3584 223d af05 4d3d 15f1 353d 9edb 593d
000003f0: f3c8 943d ebfd 873d 1013 0f3d 4103 503d
