code/save/model_alpha/model_alpha_repr_2.pt (torch, 386216 bytes, 4 tensors)

embed.weight f4 [59, 256]
000000 1b be 43 3e 3b b6 47 be 94 95 45 3e 7a c5 f8 bd
       0.19115488 -0.19503109 0.19295341 -0.12147041
000010 3c 67 8c 3d 07 dd b8 bd a4 7b 52 be 17 07 8c 3e
       0.06855628 -0.090265326 -0.20554978 0.2734916
000020 4d 6a 95 be b9 01 9f bd f2 6d 7d 3e 27 19 81 3e
       -0.29182664 -0.077640004 0.24748972 0.25214502
000030 0b eb 1f 3e 07 5a 1e 3e 12 2f 06 3e 30 0e 97 3e
       0.15617006 0.1546403 0.13103893 0.29503012
000040 95 61 92 bd 9a fc 80 3e 24 81 69 3e 78 d7 ce bd
       -0.071475185 0.2519272 0.2280317 -0.10099691
000050 15 69 e3 3d 75 80 ca bd 87 9c 1c be 9b cc 70 be
       0.11104027 -0.098877825 -0.15294085 -0.23515551
000060 63 17 05 3c 5e 23 1d 3e 02 97 66 3e 85 c8 35 3e
       0.008123252 0.15345523 0.22518542 0.17752273
000070 2d f6 db bb 0a 4c 1d 3e c5 ac 2f be fd d6 0d be
       -0.006712696 0.15361038 -0.1715575 -0.13851543
000080 c2 07 1e 3e 50 37 8e 3d 5b 12 dc 3d d9 35 49 be
       0.15432647 0.06944144 0.107456885 -0.19649448
000090 46 de 64 be 28 ea 53 be 17 d4 2a 3e 24 57 73 3e
       -0.22350416 -0.20694792 0.16682468 0.2376371
0000a0 7d ec 52 3e 0e 95 01 be 9e 8b 80 be 92 2c 12 3c
       0.20598026 -0.12654516 -0.2510652 0.008921759
0000b0 19 55 c5 be 68 bd 32 3e a8 ee 95 3d 91 40 13 3e
       -0.38541487 0.17455065 0.07320911 0.14380099
0000c0 26 d5 83 3e 4a bb 46 be 7c b0 9b 3d 8a 46 59 be
       0.25748557 -0.19407383 0.07602021 -0.21218315
0000d0 19 93 3b 3e 6e 44 77 3d 2f b0 bb bd 07 56 5c be
       0.18317832 0.060367994 -0.09164464 -0.21517192
0000e0 de 22 45 be 31 c9 49 3d d3 4c e7 bd 05 4f 3c 3c
       -0.19251582 0.049264137 -0.1129395 0.011493449
0000f0 8b 35 79 3e 06 37 7f be cf 10 37 3e e6 2f 31 be
       0.24336831 -0.24923334 0.17877506 -0.17303428
000100 5f 24 d6 3d 2d 56 ba 3d 51 3a 85 3e 0d d2 86 be
       0.10456156 0.09098468 0.26021054 -0.2633213
000110 0b cf 9d 3e 78 0d 53 be b1 b7 0a 3e 85 33 2b 3e
       0.30822024 -0.20610607 0.13546635 0.16718872
000120 b8 69 4c 3e bf e1 69 be c5 6e 71 3e e9 43 51 be
       0.19962204 -0.22840022 0.23577411 -0.20436062
000130 07 47 75 3e ef bc 04 3e 6d c9 36 3e 3a 42 97 3e
       0.23952876 0.12962697 0.17850275 0.29542714
000140 fb df 30 be 68 2e 44 be 36 75 4a 3e 0d e3 0b 3e
       -0.17272942 -0.19158328 0.19771275 0.13660832
000150 cd be 41 be 45 0f 9f bd 91 de 5f be 16 8d 1a 3e
       -0.18920441 -0.07766584 -0.21862246 0.15092883
000160 52 0c 19 3e d8 50 67 be 90 28 60 3e f1 e3 6c be
       0.14946106 -0.22589433 0.21890473 -0.23133828
000170 4d 2b f8 3d 6f b7 26 3e 94 92 ee bd e7 74 2d bd
       0.12117634 0.16280912 -0.11649051 -0.042347815
000180 4d 73 8f 3e ab 63 80 3e 6b 46 84 be d3 24 1b bd
       0.28017655 0.2507604 -0.25834975 -0.037876915
000190 09 b3 57 be 53 d9 0c be c6 d0 44 3e e2 86 de 3d
       -0.2106439 -0.13754778 0.19220266 0.108655706
0001a0 a4 26 87 3e fa bd 8a 3e a7 c3 9c be 87 66 60 3e
       0.26396668 0.27098066 -0.3061802 0.21914111
0001b0 82 c6 11 3e 64 be ff 3d 98 c2 01 be 6c 4e 8b bd
       0.14235881 0.12487486 -0.12671888 -0.06802067
0001c0 6b e9 7c be f6 0e 31 3e 6c 23 5c 3e 80 04 85 3e
       -0.24698417 0.17290863 0.21497887 0.25979996
0001d0 52 d8 6d 3e a2 a3 68 bd 3b b2 71 be 8d 55 96 bd
       0.23227051 -0.056796677 -0.23603146 -0.07340536
0001e0 6e ef 91 3e f3 d7 56 be 19 e4 04 3e f3 fc 8d 3e
       0.28502983 -0.20980816 0.12977637 0.27732047
0001f0 11 0c aa 3e db ab 30 bd 5a 9e 94 bd 8f c8 8c be
       0.3321233 -0.043132644 -0.07256766 -0.27496764
000200 25 1e 5c 3e d9 b0 42 3e 87 56 46 be 91 e4 ef bc
       0.21495874 0.19012775 -0.19368945 -0.029283794
000210 83 66 95 3e c1 f9 b3 be 5d 5d 30 be 77 be 7e 3e
       0.29179773 -0.35151485 -0.17223115 0.24877344
000220 5a f5 07 be 4b 5f 8d be 84 b2 f7 bd a2 8e 89 be
       -0.13277188 -0.27611765 -0.12094596 -0.26866633
000230 19 f4 ed 3d 61 ba 7a 3c 1f ce 77 3e 93 fd 3a be
       0.116188236 0.015303225 0.24199723 -0.18260793
000240 63 3c 8c 3e 9e 31 4c be da e2 35 3e 03 b9 d4 3d
       0.2738982 -0.19940802 0.17762318 0.10386851
000250 ce 8e 3c be d8 c2 7a 3c 46 67 61 be 9a 45 63 3e
       -0.1841385 0.015305243 -0.22012052 0.2219452
000260 59 c7 33 be c0 e2 1b 3e 73 1a 6e 3e 18 69 15 be
       -0.17556514 0.15223217 0.23252277 -0.14590871
000270 d3 3d b1 3d 29 33 63 3e 41 75 80 3e 95 54 83 be
       0.0865437 0.22187485 0.25089458 -0.25650468
000280 12 34 11 3e a2 d0 45 3e d3 9e 86 be 55 e1 56 3e
       0.1418002 0.19317868 -0.26293048 0.20984395
000290 66 0f 75 be 86 04 68 3e aa a4 6a 3e 97 8e 34 3e
       -0.23931655 0.22657976 0.22914377 0.17632519
0002a0 1d e7 9b 3e 39 92 1a be 2f 36 8b bd b6 1b 07 be
       0.30449763 -0.15094842 -0.06797444 -0.13194165
0002b0 a7 4c 1e be 1e 09 06 3e 76 8d 03 be b3 a3 0e 3e
       -0.15458928 0.13089415 -0.12846932 0.13929634
0002c0 fc 50 e2 3d 3e fb 1b 3e db c1 5a 3e 3c 74 63 be
       0.11050603 0.1523256 0.21363012 -0.22212309
0002d0 8b 87 20 be a9 ad 75 be 2c 82 1a 3e 38 f3 3e 3c
       -0.15676706 -0.23992027 0.15088719 0.011654668
0002e0 c6 20 c3 3d 3d 3a 80 be b4 da 08 be d1 26 f7 3d
       0.095277354 -0.25044432 -0.13364679 0.120679505
0002f0 2a b5 25 be 3a 36 f8 3d 83 fd 15 3e 7d 8c 55 be
       -0.1618239 0.12119718 0.14647488 -0.20854373
000300 b8 5e be bd 26 fe 21 be b9 11 8c 3e 15 c6 81 3e
       -0.0929541 -0.15819606 0.2735727 0.25346437
000310 07 b4 6b 3e 93 6f 64 3e 19 1b 69 be c1 bb 84 3d
       0.23017894 0.22308187 -0.22764243 0.06481124
000320 8d 62 07 be 83 b2 7b 3e 78 0a 5d be 5a bb 49 3e
       -0.13221188 0.24579816 -0.21586025 0.19700375
000330 8b a6 44 3d c4 7e 8d 3e e5 a2 42 be 93 e1 7b 3e
       0.04801039 0.27635777 -0.19007452 0.24597768
000340 fd 19 82 be 3a 7d 98 be 34 87 2c 3e 23 3b 43 be
       -0.25410452 -0.2978304 0.16848451 -0.19065528
000350 9b c1 2c 3e 74 47 aa bb 82 0a 0b 3e 62 a9 39 3e
       0.1687073 -0.005196506 0.13578227 0.1813102
000360 3f ee 94 3e e2 26 ea 3d 4d 31 33 3e af 87 d3 3d
       0.29088017 0.114331976 0.17499276 0.10328614
000370 c5 50 9f be 03 86 c6 3d 97 ee 23 be 78 e8 9f 3e
       -0.3111631 0.096935295 -0.16008984 0.31232047
000380 7c 5c 3c be e3 1b b4 be 49 f2 7a be 1c 66 2b be
       -0.18394655 -0.35177526 -0.24506487 -0.1673817
000390 23 40 57 3e 2d 0b 91 be 3d 48 03 be e6 80 31 be
       0.2102056 -0.2832884 -0.12820525 -0.17334327
0003a0 f3 c1 65 be 44 d9 88 3d 89 ca 9f be 87 10 7e be
       -0.22437267 0.06682065 -0.3120921 -0.24810992
0003b0 33 14 1d bd c7 e5 92 bd 77 ce 58 be 8e b6 69 3d
       -0.03834934 -0.07172733 -0.2117251 0.057058863
0003c0 a0 00 4e bd 34 18 2d 3e 00 1c 47 be fd 55 5d be
       -0.050293565 0.16903764 -0.19444275 -0.21614833
0003d0 09 40 3c be d5 65 fa 3d 3a 07 30 be 73 1c 63 bd
       -0.18383802 0.12226454 -0.17190257 -0.055447053
0003e0 30 91 1c be 58 2b c3 3e 80 c3 53 3e 05 93 69 3e
       -0.1528976 0.38119006 0.20680046 0.2280999
0003f0 45 60 1c 3e 33 83 f8 3d 15 e0 8c be 64 18 23 bd
       0.15271099 0.12134399 -0.2751471 -0.039818183

unembed.weight f4 [59, 256]
000000 82 67 5e 3e 0b 60 65 be 05 08 ba bd 15 2c ab bd
       0.21719173 -0.22399919 -0.09083561 -0.08358017
000010 e3 80 51 bc 11 e2 36 b4 4f 0b 8c be c1 2d 2a be
       -0.012787077 -1.7032313e-07 -0.27352378 -0.16619016
000020 a1 81 00 3b 67 6d e3 3d 74 c5 19 3e d7 20 38 3e
       0.0019608515 0.11104851 0.15016729 0.17981277
000030 db f7 4e be b7 2b a1 3e 61 a0 d4 38 50 a6 69 3e
       -0.20211737 0.31478664 0.00010138821 0.2281735
000040 46 e1 a9 3e 9e 9d 85 3e 5d 48 03 3e b5 f7 85 3e
       0.33179682 0.26096815 0.12820573 0.26165548
000050 5a 21 17 ba 02 bc 71 be 6b bd 2d bd 71 2d 37 be
       -0.00057651626 -0.23606876 -0.04241697 -0.17888428
000060 af bd 21 bd 25 9a 2d be 02 f1 9c be 5a e8 84 be
       -0.039487537 -0.16953333 -0.30652624 -0.2595852
000070 a9 85 38 3e 8c 2d 38 3e 09 8c 44 3e d0 8a 20 3e
       0.18019737 0.17986125 0.19194044 0.15677953
000080 ed b4 4f be 05 40 19 3e 14 00 86 bd 2f c5 73 3e
       -0.20283861 0.14965828 -0.06542984 0.23805688
000090 9f 6f 0f 36 c2 3b cb be 56 23 57 be 50 ca b4 3e
       2.1373633e-06 -0.3969403 -0.21009573 0.35310602
0000a0 c5 40 c0 bc 98 94 7c be 9e be 01 3c d5 07 ac 3d
       -0.023468385 -0.24666059 0.007918982 0.08399931
0000b0 2e c2 41 be c4 55 9a 3e 37 85 78 3e 08 64 08 be
       -0.1892173 0.3014356 0.24269567 -0.13319409
0000c0 e0 06 88 3e 26 1a 81 3e 9a b1 3b 3d ad 03 6c be
       0.26567745 0.25215262 0.04582367 -0.23048277
0000d0 62 25 1c 3d 5e f7 0b 35 ec 20 2e be 0f 1e 44 be
       0.03812159 5.21415e-07 -0.17004746 -0.19152091
0000e0 3b af 94 be 70 a3 61 3e 1e e8 45 bd cd 19 bd be
       -0.2903994 0.22035003 -0.048317067 -0.36933747
0000f0 a6 ef 9e 3d 6e e0 96 3d 9a 92 41 3e 54 13 86 39
       0.07760553 0.07367025 0.1890358 0.00025572872
000100 96 a3 87 3c b2 53 92 be 54 54 39 3e d4 10 90 3d
       0.016557496 -0.2857948 0.18098575 0.0703446
000110 7d 35 6b 30 8d 59 4a 3e 90 db 9a 3e 1a 5e 81 be
       8.5568513e-10 0.19760723 0.30245638 -0.25267106
000120 71 90 e5 3c 72 a0 02 38 ed 51 7b 3e 15 68 77 bd
       0.028022977 3.114384e-05 0.24542971 -0.060401995
000130 0f 3f 55 3e a9 fd ba 3e f2 87 4a be 96 01 58 3e
       0.20824836 0.36521652 -0.19778422 0.21094355
000140 a6 85 9b bd 76 b5 3c 3d 47 e2 3c 3e ad e7 ae 3d
       -0.07593851 0.046071492 0.18445693 0.085402824
000150 37 05 44 3e 86 4e 8e 3e 54 5f d4 3d 2e 66 d8 33
       0.19142614 0.27794284 0.10369745 1.007687e-07
000160 c7 2c 84 3d 35 c7 47 3e 66 1f 51 bd 0d cf 24 3b
       0.06453853 0.19509585 -0.051055335 0.0025147826
000170 bf ec 4c 3e 4f bd f3 bc 5a 27 d6 be d3 97 9b be
       0.20012186 -0.029753355 -0.41826898 -0.3038927
000180 34 87 2b bc 66 dc b1 3d 4c 2c 3c be 09 b1 5b be
       -0.010469247 0.08684616 -0.18376273 -0.21454252
000190 16 60 96 be b2 28 33 be 3c 9b 00 be 61 ca 6a 3e
       -0.29370183 -0.17495993 -0.12559217 0.22928764
0001a0 bb 44 32 3e 7a e1 28 be 48 d2 8a 3e d3 26 5f 3e
       0.17409031 -0.16492262 0.27113557 0.21792154
0001b0 de 03 38 3e f0 01 0b bd 8a c6 b5 3b f0 21 12 3e
       0.17970225 -0.033937395 0.0055473493 0.14270759
0001c0 3a cd a9 3d b7 fb 10 3e ed 04 a3 34 f6 47 05 3d
       0.08291097 0.14158522 3.03647e-07 0.03253933
0001d0 91 5e c6 be 05 87 ed 3d 6b 6a 1b 3e 4c 31 28 be
       -0.38744023 0.115980186 0.15177314 -0.16425055
0001e0 a1 17 d4 3d da 7e a5 bc 46 9c bf 3d e1 cc 37 be
       0.10356069 -0.02020209 0.09355979 -0.17949249
0001f0 cd ee 4a 3e 16 cf a1 3c 68 1f 8c bc 0c e0 8e be
       0.19817658 0.019752067 -0.01710482 -0.2790531
000200 17 96 bb 37 f1 c7 36 be 0a a4 01 be 4a 13 de 39
       2.2362028e-05 -0.17849709 -0.12660232 0.0004235751
000210 94 03 22 3e 90 10 9b 3e d8 39 ad 3d 72 9d 76 be
       0.15821677 0.30286074 0.084582984 -0.24083498
000220 48 85 0a b9 1b 82 85 bd 02 cc 48 be 11 f8 c2 3d
       -0.00013210357 -0.06518956 -0.19609073 0.09519971
000230 aa 19 9a 3b 9b c4 de bd 7f 34 24 bd a6 e2 f2 bc
       0.0047027664 -0.10877343 -0.040089127 -0.02964909
000240 b5 f8 21 be 86 be 8d be 1c de 83 3e 90 8b b5 bd
       -0.1581753 -0.2768442 0.25755394 -0.0886451
000250 1c fb 8e 3e b0 28 cc be 5d cb 80 3e c9 2e b2 3d
       0.27925956 -0.39874792 0.25155154 0.0870033
000260 fd c0 cf bd e9 33 c1 3b e3 ef fd bd e1 66 52 be
       -0.101442315 0.0058960808 -0.123992704 -0.20547058
000270 77 13 b9 3b 1a 05 31 3e 7f 05 a3 3d b4 15 ad 3e
       0.0056480723 0.17287102 0.07960033 0.3380562
000280 6c f5 3b be 02 19 8d 3e 4a 65 7e bd d2 fd 83 3e
       -0.1835534 0.27558142 -0.062108316 0.25779587
000290 cc 39 a0 be e5 76 e1 3b 81 7f 20 bd 12 c6 65 be
       -0.31294096 0.0068806284 -0.039184097 -0.22438839
0002a0 d7 4c 4d be c5 ca a8 39 69 c0 9c be 0a a2 87 3e
       -0.20048843 0.00032194532 -0.30615547 0.26490813
0002b0 64 d2 b9 3b 99 f3 a4 3e a4 b2 8a bd 38 d4 12 bc
       0.0056708325 0.322171 -0.06772354 -0.00896173
0002c0 b5 be 2c be a9 66 09 3d 81 c1 65 3e ed c9 af 3d
       -0.16869624 0.03354517 0.22437097 0.08583436
0002d0 e0 59 76 be 9f a4 30 bd df b0 3e 3e 89 28 25 be
       -0.24057722 -0.043125745 0.18622158 -0.16128744
0002e0 cb fd 12 be 78 40 49 3e 4b 4c 91 3d ca f9 b0 be
       -0.14354627 0.19653499 0.0709463 -0.34565574
0002f0 79 8c 75 3e 11 b4 93 3e e9 52 88 be 63 94 c7 bb
       0.23979367 0.28848317 -0.26625755 -0.006090687
000300 a0 b5 a4 3e b6 f8 34 3e 9a a3 93 be c2 c0 e0 3d
       0.3216982 0.17673 -0.28835756 0.10974266
000310 e2 17 ee 3d a0 3a bf be c9 b1 74 3e f0 cd 2f 3e
       0.11625649 -0.37349415 0.23895945 0.17168403
000320 e3 82 a5 bd 78 a8 4a bd 9a 4e fa 3a f3 a6 ae bd
       -0.08081605 -0.04947707 0.0019096911 -0.08527937
000330 77 9e 7a 3e 95 e7 92 bd 2c 81 10 be ba 37 ce 3d
       0.24474512 -0.07173077 -0.14111775 0.10069223
000340 4d 7e 93 bc e0 09 87 be af d1 3e 3e 54 c4 bd be
       -0.01800456 -0.26374722 0.18634675 -0.3706385
000350 35 a8 0e be 24 14 21 3d f7 f0 de 3b 73 0d 2e bd
       -0.13931353 0.03932585 0.0068036276 -0.042493295
000360 c5 2f 0b be 6e 9b 50 3e e2 41 d2 bd de 1c 50 be
       -0.13592441 0.20371792 -0.102664724 -0.20323512
000370 a6 27 94 3e ba 7e 54 3d 0e 7e ff 3d 63 18 0f be
       0.289365 0.05187867 0.12475215 -0.13974147
000380 78 96 b5 bd 80 91 42 be 8a 54 c3 bd d4 55 39 3e
       -0.0886659 -0.19000816 -0.09537609 0.18099147
000390 21 e9 09 be f3 a4 44 3e f0 3d ae 3d 5b a0 88 be
       -0.13467838 0.19203548 0.085079074 -0.26684842
0003a0 cb 8a 38 b7 5d 96 71 3e b6 16 90 be 08 4b 48 3e
       -1.099957e-05 0.23592515 -0.28142327 0.19559872
0003b0 9b bb c1 3d b8 03 44 3e d2 99 48 3e da b3 f3 bd
       0.09459611 0.19142044 0.19589928 -0.11899538
0003c0 f3 58 51 3d 48 48 26 38 f0 03 92 bb 25 7c 35 b8
       0.05111022 3.96448e-05 -0.004456036 -4.326938e-05
0003d0 bd 09 20 3d d1 10 cb 3d 50 c0 f8 3d c0 f6 3f 3e
       0.039071787 0.09915317 0.12146056 0.18746471
0003e0 40 30 8f 3e 95 5e 02 be c5 4d 79 bd 2b 0e b6 bd
       0.279665 -0.12731393 -0.060865182 -0.08889421
0003f0 f3 21 5c 3e 38 cb 98 3e d2 bf 07 3e 48 e0 6b be
       0.21497326 0.29842544 0.13256767 -0.23034775

l1.weight f4 [256, 256]
000000 45 9b 80 bd c1 8b f2 3c 38 04 59 be 98 02 ce 3d
       -0.06279615 0.029607655 -0.21193016 0.100590885
000010 3b 8d f0 3d 7a a6 d6 3d 75 0b 67 be 3a 73 03 be
       0.117456876 0.10480972 -0.22562964 -0.12836924
000020 2d 10 3c 3e d6 54 3e be ab 14 07 be 57 03 08 3e
       0.18365546 -0.1858705 -0.13191478 0.13282524
000030 ea 88 11 be 05 60 68 3e 03 87 60 3e 13 7b a7 3a
       -0.14212385 0.22692879 0.21926503 0.0012777768
000040 c9 b7 44 be c4 40 fe 3d 20 69 c5 bd e8 4d 11 3e
       -0.19210733 0.12414697 -0.09639192 0.14189875
000050 c9 f5 0c be 01 5d 2d 3e dc 94 41 3e 3a c9 4a 3e
       -0.13765635 0.1693001 0.18904442 0.19803324
000060 a2 53 5a 3e 7f df 06 be 37 a3 11 be 5a 64 38 be
       0.21320966 -0.13171194 -0.14222418 -0.18007031
000070 4f 1a 18 3e 79 3e 16 3e 24 51 0a 3e 82 70 3c be
       0.14853786 0.14672269 0.13507515 -0.18402293
000080 2c 50 ff bd eb ca b5 bd f3 15 ce 3d 3b 6b 22 3d
       -0.124664634 -0.08876594 0.1006278 0.039653044
000090 09 c9 c6 3d d3 a9 ff 3d 91 81 1f be 7d 74 2e be
       0.09706313 0.12483563 -0.1557677 -0.17036624
0000a0 24 d4 10 be 2c 74 a1 3d 64 e4 8d bd e6 c8 4a 3e
       -0.14143425 0.07883486 -0.06928328 0.19803199
0000b0 33 6e a3 bb 23 f0 98 bb df 61 d8 bd dc 47 59 be
       -0.004987502 -0.0046672984 -0.105655424 -0.21218818
0000c0 36 57 df bd 0a ad 29 3e 8a 50 1b be eb 09 34 3e
       -0.10905306 0.16569915 -0.15167442 0.17581908
0000d0 78 87 c8 bc 63 83 43 3e c6 d7 a9 bd 80 ac 52 3e
       -0.024478659 0.19093089 -0.08293109 0.20573616
0000e0 42 1c e8 3d 3e f3 33 be 63 7b 9c 3c 32 14 2a 3e
       0.11333515 -0.17573258 0.019101804 0.16609266
0000f0 36 94 0d 3d 1b 37 17 3e 1a f1 cd bc cb c0 da bd
       0.034565173 0.14767115 -0.02513938 -0.106813036
000100 84 94 90 bd e6 92 f8 bd 84 74 24 be 30 6c 3d 3e
       -0.07059577 -0.12137394 -0.16060072 0.18498302
000110 05 4d a2 3d 45 1e d2 bd d7 36 20 be 77 5d b8 3d
       0.079248466 -0.1025968 -0.1564592 0.09002202
000120 9e 1e 5d be 58 4f ee 3d 6c 39 97 3d 89 b0 d3 3d
       -0.21593711 0.11636227 0.07383999 0.10336406
000130 f1 41 82 bd 8d d6 b8 bd 9c f3 34 3e 5e 00 4d bd
       -0.063602336 -0.09025297 0.17671055 -0.05004918
000140 59 24 89 3d b4 8c 00 3e 22 16 8b bc 2d 95 81 bd
       0.06696386 0.12553674 -0.016978327 -0.06327281
000150 32 c4 b8 3c 36 8d 7d 3c 35 f2 2b 3e b9 5d 46 3e
       0.02255449 0.015475562 0.16791613 0.1937169
000160 90 13 d1 3d 7e 3e 2a 3e aa bc 3b be 11 b7 0a 3e
       0.102088094 0.16625401 -0.18333688 0.13546397
000170 2c a8 35 be 3b 91 9f bd 60 77 36 3e 09 d9 b6 bd
       -0.17739934 -0.077913724 0.17818975 -0.08928115
000180 75 c6 48 be 0d be 31 be dc 1a d5 3d 1a e3 2c 3c
       -0.19606955 -0.17357655 0.10405514 0.010552192
000190 68 f0 b4 3d 6f 5e 35 be c7 d9 68 3b dc 04 36 be
       0.08834916 -0.17711805 0.0035530196 -0.17775291
0001a0 ee dd 4f bd 7b e7 8c 3c 75 13 eb 3d f2 16 27 be
       -0.050748758 0.017200222 0.114783205 -0.16317347
0001b0 8e 68 49 3e 48 46 3b 3e 95 6f 40 3d a1 0a 5c be
       0.1966879 0.18288529 0.046981413 -0.2148843
0001c0 31 9f 5b be fc e7 61 be 7b 16 52 3e a7 8c 6d bd
       -0.21447445 -0.22061151 0.20516388 -0.057995465
0001d0 f1 0f 90 bd 62 fc 18 be 52 93 e8 bd 4f 5a 81 3d
       -0.070342906 -0.14940026 -0.11356224 0.06316053
0001e0 0d 97 80 be 15 aa 31 bd 7e da 86 3d be 3b 55 be
       -0.25115243 -0.043375093 0.06584643 -0.20823571
0001f0 52 e8 9f bd 6b c0 22 3d 30 60 0e 3e 3f 64 fd bd
       -0.078079835 0.039734285 0.1390388 -0.12372636
000200 a7 95 1a be 25 f2 c5 bd 0c 90 2e bd 96 e6 e0 3d
       -0.1509615 -0.09665326 -0.042617843 0.10981481
000210 0a 0f 37 be 52 99 ac 3d 8c 15 e9 3d 05 7d 3f be
       -0.1787683 0.08427681 0.11381063 -0.18700035
000220 c0 c7 ab 3d 58 cf eb 3d 66 b5 68 3e 46 2a 22 be
       0.08387709 0.11514157 0.22725448 -0.15836439
000230 8c 37 92 3d d9 66 18 3e d4 2c 0c be 46 32 76 bd
       0.07139501 0.14882983 -0.13688976 -0.06010654
000240 2d ee 97 bd ac 0b 5e 3e 86 76 53 be 46 95 72 bd
       -0.07418475 0.2168414 -0.20650682 -0.05922439
000250 90 36 12 be 74 3a d9 3d bc 40 3d 3e ae 93 1e 3e
       -0.14278626 0.10606852 0.18481725 0.15486023
000260 ca e6 fb bd af bf 46 bc 04 46 1b be 1d 60 e7 3d
       -0.12299879 -0.012130662 -0.15163428 0.11297629
000270 ba 43 32 3e a7 53 5a 3d c5 ee c3 bd 82 64 1c 3e
       0.17408648 0.053302433 -0.09567026 0.15272716
000280 9c e7 cb 3d c5 c0 a4 3d 8e bd 31 be b4 75 94 bd
       0.09956285 0.0804458 -0.17357466 -0.072490126
000290 9a 51 df 3c ee 69 0e be 3f 84 0f 3e 46 f8 e9 bd
       0.02726059 -0.13907596 0.14015292 -0.114243075
0002a0 48 69 43 be d9 08 ab 3d 9f 3e 75 bd 4d 30 e7 bd
       -0.1908313 0.08351297 -0.059874173 -0.112885095
0002b0 a6 40 3d bd b0 eb 31 3e 78 1a 24 bc 4d e0 86 3b
       -0.04620423 0.17375064 -0.010016076 0.004116094
0002c0 de c8 1b 3e b0 23 9f 3d 86 14 c0 3d bd a3 db bc
       0.15213344 0.07770479 0.093789145 -0.026811475
0002d0 57 ad 69 3e 9b d3 c2 3d 0d 6e 52 3e fc 2b ff 3d
       0.2282003 0.09513017 0.20549794 0.12459561
0002e0 1c 7c 79 3e cc 25 6f 3d 20 93 da 3d 00 8a 05 3e
       0.2436375 0.058385655 0.10672593 0.13040924
0002f0 07 91 81 3d 6b 8d 42 3d 60 c8 a6 3d 15 ab b7 3c
       0.0632649 0.047498148 0.08143687 0.022420445
000300 14 8b 06 be ce 0f ed 3c 3c bf 14 bd bf 7c 1c 3e
       -0.13138992 0.0289382 -0.036315188 0.15281962
000310 5f 1e 0f be d7 de 32 3e ea 4e 0b 3d 12 a8 c5 bd
       -0.1397643 0.17467819 0.034010805 -0.096511975
000320 5b bc 99 bd ec 75 8a 3c 98 a0 53 3c 9d d5 b4 bc
       -0.07506629 0.016901933 0.0129167065 -0.022074515
000330 8c 80 3f be 45 2c cf bd 84 e8 03 3e c0 5a 22 be
       -0.1870138 -0.101158656 0.12881666 -0.15854931
000340 e9 88 24 3e bb 66 fa 3d c5 7f 63 bd 6c 22 dd 3d
       0.16067852 0.122266255 -0.055541772 0.10797581
000350 71 1b 32 be 23 90 38 be 34 8b 31 3e 16 34 6b 3d
       -0.1739328 -0.18023734 0.17338258 0.05742272
000360 22 08 30 3e bc 05 1c be 2b fa 27 3e 07 9a d6 bd
       0.17190602 -0.15236562 0.16404025 -0.10478597
000370 e1 f3 7c bd 5c 56 3c 3d d1 40 ed 3d 42 56 68 be
       -0.06175602 0.045980796 0.115846284 -0.22689155
000380 a7 65 2c 3e f3 e0 7e bd 31 ff 29 be 5f 3c 23 be
       0.16835652 -0.062226247 -0.16601254 -0.15940998
000390 0f ea 3b be be 17 23 3e a5 21 18 be d1 61 0b 3e
       -0.18351005 0.15927026 -0.14856584 0.13611533
0003a0 a4 67 09 be 02 8b 38 bd 33 bc 31 3d b5 9d e1 3c
       -0.13418442 -0.045054443 0.04339237 0.02754102
0003b0 65 36 1c be 29 db 11 bd 1a 9c 84 bd fe d4 28 be
       -0.15255125 -0.035609398 -0.064750865 -0.164875
0003c0 da aa e4 3d 62 e7 1b 3b e4 27 1b 3e 0c 7f e8 3d
       0.111654 0.0023789038 0.15151936 0.11352357
0003d0 a5 e6 b7 bd 92 f4 24 3d 9e d9 11 3e 8f 47 cb bc
       -0.08979539 0.040272303 0.1424317 -0.024814395
0003e0 b7 d0 ba 3d ad a1 36 be 8f 64 4d be 20 4b 1a 3d
       0.091218404 -0.17835112 -0.20057891 0.0376693
0003f0 55 5e 23 3d 7c 8c 3b be 84 68 27 bd 63 c4 14 3e
       0.039884884 -0.1831531 -0.04087116 0.1452804

l1.bias f4 [256]
000000 dd 4f 42 3e 4f c3 22 3e 42 cd 9e 3d aa 19 20 3e
       0.18975778 0.15894817 0.077539936 0.1563479
000010 6f 33 37 3d 19 fc d8 33 d5 30 15 3e 3d 2d cd 3d
       0.044726785 1.010414e-07 0.14569409 0.10018394
000020 c0 dd 2f 3e 13 55 81 3d 1c 66 61 3c fa 21 b9 3d
       0.17174435 0.06315055 0.013757255 0.09039684
000030 d2 73 0b 3e 81 69 5b 3e a3 2c 9b 3a e1 3a 93 3e
       0.136184 0.21426965 0.0011838864 0.2875586
000040 fc c5 33 3e 78 a5 33 3e 4e 46 88 3e 7a 43 c4 3d
       0.17555994 0.1754359 0.26616138 0.09583183
000050 e5 e6 e0 3c 94 2c 52 3e a4 16 88 b9 2d a2 ff 3c
       0.02745385 0.20524818 -0.0002595681 0.031205261
000060 d2 58 2e 3c 00 34 a9 3d d3 02 b0 3d 18 41 97 3d
       0.010641294 0.08261871 0.08594289 0.073854625
000070 9e 29 50 3e bc 8b b9 3d 6c 18 cf 3d ba 36 49 3e
       0.20328376 0.09059855 0.1011208 0.19649783
000080 86 ff ff 3d 21 d3 0d 3e be 74 29 3d 3f ab ab 3d
       0.12499909 0.1385007 0.0413711 0.08382272
000090 a9 5e 65 36 77 71 97 3e ca 67 85 3d fa 9b a0 3d
       3.4178759e-06 0.29578754 0.06513937 0.0784225
0000a0 c4 ed a6 3d 70 2c 5d 3e 9f 6c 09 b9 b2 ea d0 3d
       0.08150819 0.21598983 -0.00013105803 0.102010146
0000b0 bd ed 2f 3e 69 ad 96 3d c3 f1 53 3e ff bd 38 3d
       0.17180534 0.07357294 0.20697694 0.04510307
0000c0 75 06 74 3d 4e b8 30 3e e3 a7 6e 3e 7d a3 f1 3d
       0.05957647 0.17257807 0.23306231 0.11798761
0000d0 f1 7a 81 3e 25 68 16 33 0a 6d 42 3e fe 8a 86 3e
       0.2528911 3.5019315e-08 0.18986908 0.26277918
0000e0 d4 78 44 3e 63 ed 34 3e 31 14 50 3e 9a a1 02 3e
       0.19186717 0.17668681 0.20320202 0.12756959
0000f0 2e f3 21 3e 33 d2 1f 3d 6c 90 30 3e db d1 fe 39
       0.15815422 0.03901882 0.17242593 0.0004860301
000100 58 a1 d1 3c 85 c7 25 3e bd 5a 71 3e a6 1b ac 3d
       0.02558963 0.16189392 0.2356977 0.08403711
000110 bf 43 54 33 31 85 3c 3e e3 fd 8c 3e 03 95 48 3e
       4.942171e-08 0.18410183 0.2753745 0.19588093
000120 fd 16 b4 3d e9 01 68 b4 79 fa 87 3c 28 f8 86 3e
       0.08793447 -2.1607379e-07 0.016598927 0.26361203
000130 d8 37 c1 3d 40 ad ad 3d 75 6e d4 3d 6f db 19 3e
       0.094344795 0.084803104 0.103726305 0.15025114
000140 03 c9 5f bc 1f fb 1d 3e fa f9 d6 3d 39 7b ad 3d
       -0.013658765 0.15427826 0.10496898 0.084707685
000150 a9 17 ed 3d 0f 99 c9 3d 4b a2 0d 3e 5e 95 9f 32
       0.115767784 0.09843647 0.13831441 1.857796e-08
000160 72 be df 3c 67 d6 b4 3d 16 88 34 3b cc 4d 30 b9
       0.027312491 0.088299565 0.0027546934 -0.0001681365
000170 15 72 7b 3e cc 8c 6b 3d ad 80 de 3d 32 00 a5 3d
       0.24555238 0.05750732 0.10864387 0.08056678
000180 c4 77 59 3e 28 2c 07 3e c1 9e ee 3d 9a 36 cc 3d
       0.21237093 0.13200438 0.11651374 0.09971352
000190 53 52 ea 3d b5 f3 19 3e bb d8 59 3e 30 5a 04 3e
       0.11441483 0.15034373 0.21274082 0.12925029
0001a0 61 75 b8 3d e0 72 67 3d 96 4f 2d 3e 1e aa 71 3e
       0.09006763 0.056506038 0.16924891 0.23600051
0001b0 92 eb 47 3e d0 8d f4 3d 8a f7 f4 3a 90 7c 6a 3e
       0.19523457 0.11941111 0.0018689495 0.2289908
0001c0 78 8a 3c 3d 57 e4 a5 3d ed 8f 61 34 33 ea 2a 3d
       0.04603049 0.08100193 2.1007118e-07 0.041727256
0001d0 74 76 e9 3d cf e6 b4 3d 8d 03 7b 3e d1 20 a9 3e
       0.11399546 0.08833086 0.24513073 0.3303285
0001e0 6a 7e 22 3e 17 2a 0d 3e af 26 13 3d a7 f9 9e 3d
       0.15868536 0.13785587 0.035925563 0.07762461
0001f0 3c 65 ba 3d df 4d 1b 3e d8 7d 34 3e 6e 4c 73 3e
       0.0910134 0.15166424 0.1762613 0.23759624
000200 0a 13 9a 3b a2 f8 43 3e fe 8a 52 3e 61 16 d8 b6
       0.0047019767 0.19137815 0.20560834 -6.439907e-06
000210 aa af b2 3d c4 b3 90 3e 7b fd b4 3d 4e 09 6b 3e
       0.087249115 0.2826215 0.0883741 0.22952768
000220 7e 78 13 36 bd 46 26 3e 2c 8d 2e 3e a5 2b 66 3d
       2.1974843e-06 0.16237922 0.1704604 0.056193966
000230 33 7f 31 3e db fa 3b bc 63 96 1b 3e eb 6d 91 3e
       0.17333679 -0.011473383 0.15194087 0.28404173
000240 c9 41 10 3e ca f7 6b 3e 33 9d 8f 3e ac a2 8c 3e
       0.14087595 0.23043743 0.2804962 0.2746786
000250 ee 13 4a 3e 8f 23 bf 3e 94 7e cf 3c 03 2a 9f 3d
       0.19734165 0.37331817 0.025328912 0.07771685
000260 20 24 02 3e f0 ea c8 3d 4c d5 02 3e 08 8f 86 3d
       0.12709093 0.09810436 0.12776679 0.0657025
000270 f4 5d 8f ba 63 08 5c 3e 2e 02 ae 3c d0 12 80 3e
       -0.0010938034 0.21487574 0.021241274 0.25014353
000280 9d 39 51 3d eb 53 60 3e b9 03 bd 3d 8e 56 92 3e
       0.051080335 0.21907012 0.09229226 0.2858166
000290 39 69 51 3e 45 e2 a2 ba 3c c2 97 3d b7 76 04 3e
       0.20450296 -0.0012427053 0.07410094 0.12935911
0002a0 15 fd 0a 3e 70 b4 60 39 4a 06 42 3e 52 1d 08 3e
       0.13573106 0.00021429523 0.18947712 0.13292435
0002b0 af 56 a9 3a 0b 2d 88 3e 61 13 cf 3c 85 7f d8 3d
       0.001291951 0.26596865 0.025277795 0.105711974
0002c0 39 5e 31 3d 18 f3 4a 3e 62 72 53 3d 33 91 08 3e
       0.04330275 0.19819295 0.051622756 0.13336639
0002d0 6c 87 5f 3d 93 e4 a6 3d de ec ad 3d fb aa 56 3e
       0.054572508 0.08149066 0.084924445 0.20963661
0002e0 23 61 c0 3d c8 9b ef 3d ad 4e 1f 3d 01 bd fd 3d
       0.09393527 0.11699635 0.03889339 0.12389565
0002f0 17 0f 0a 3e ee d4 0a 3d 21 78 0e 3e 28 c0 c4 3c
       0.13482319 0.03389447 0.13913013 0.024017408
000300 a2 9b 05 3e 16 01 0d 3d 8c 6f 1a 3e 39 42 6a 3e
       0.1304765 0.034424864 0.15081614 0.22876824
000310 92 c2 5d 3c f6 b9 af 3d 59 bf 74 3e 68 f7 24 3e
       0.013535159 0.08580391 0.23901118 0.16110003
000320 55 be 34 3e 7e c8 2f 3e 4c ea 24 3b 7c 1f 0c 3e
       0.17650731 0.17166325 0.0025164066 0.13683885
000330 25 ac fe 3d 64 64 c8 3b 21 60 92 3d 5c 7d c4 3d
       0.12435178 0.006115483 0.071472414 0.09594223
000340 96 b2 45 3e 3d 27 97 3e 77 1d 06 bb 7b cd 18 3e
       0.19306406 0.29522124 -0.002046434 0.14922135
000350 23 94 d1 3d d8 40 de 3d d0 47 cb 3a c8 30 14 3e
       0.10233333 0.10852212 0.0015509073 0.14471734
000360 1c 65 48 3e 2e 14 ff 3c ca 9d 80 3c 22 89 e6 3d
       0.1956982 0.031137552 0.01570024 0.11256625
000370 96 5c 54 3d 7a 0a e3 3d 69 83 71 3e 45 56 83 3e
       0.05184611 0.110859826 0.23585285 0.25651756
000380 5f c9 fc 3d 23 fb 15 3d 15 8f de 3d 2b 5b 10 3c
       0.12343096 0.036616456 0.108671345 0.008810799
000390 cd 66 df 3d af 45 2a 3e 15 2e ad 3d 14 69 97 3d
       0.109082796 0.16628145 0.08456055 0.07393089
0003a0 2f d1 8f 38 ae 8c 0e 3e 50 75 7e 3e f9 dc 95 3d
       6.857735e-05 0.13920853 0.24849439 0.07317538
0003b0 64 a8 1c 3e 5f d7 4b 3e c1 9d 4d 3e fc e3 06 3e
       0.15298611 0.19906376 0.2007971 0.13172907
0003c0 74 bf 64 3d 70 30 12 38 93 1b 5d 3e e9 04 db 37
       0.055846646 3.4854223e-05 0.2159255 2.610912e-05
0003d0 c2 d1 ac 3c f7 6d b5 3d 9e a7 f6 3d 28 2f 5c 3e
       0.021096114 0.08858865 0.12043689 0.21502364
0003e0 05 2b 5b 3e 03 f7 2c 3e b2 6c 3f 3e 35 35 72 3e
       0.2140313 0.16891102 0.18693808 0.2365311
0003f0 1a 38 64 3e 77 5c c3 3d 9d b6 8c 3d 9c 1b eb 3d
       0.22287026 0.09539121 0.06870768 0.114798754
