code/save/model_alpha/model_alpha_repr_8.pt (torch, 386216 bytes, 4 tensors)

embed.weight f4 [59, 256]
-0.2959067 -0.19147451 0.013998543 0.22993481 -0.059042007 -0.32512116 0.31316215 -0.23913746
0.023480857 -0.23723124 -0.14891364 -0.27717906 0.09954722 0.20200717 0.09286584 -0.17855377
-0.30252308 0.26106903 0.085743226 -0.15316968 0.35648772 0.19176301 0.20377015 0.2822571
-0.25306588 0.25147632 0.14186181 0.078451164 -0.13604768 -0.11631948 0.13105996 -0.12122323
-0.097674154 0.08057725 -0.010608402 0.04799591 -0.30291235 -0.2940135 -0.17393997 0.08521912
0.19698381 0.104705274 -0.26834142 0.046373557 -0.21913926 -0.09789539 0.2574623 -0.23379414
-0.2567157 -0.026150566 -0.14665127 0.31608033 -0.19219707 -0.24544151 -0.3442226 -0.24420111
0.048688512 0.21843018 0.3336452 0.261523 0.24347414 0.30446807 -0.23508942 -0.07496493
0.37010694 0.25421774 0.20122983 -0.14631024 -0.19472466 -0.15357828 0.11128617 -0.17857862
-0.13489929 -0.11570652 0.15273298 -0.27221054 -0.15355365 0.0070244446 -0.171107 -0.20783003
-0.23719564 0.24024996 -0.23973991 0.2239573 -0.09560176 0.13916 -0.016585032 -0.22832605
-0.20294662 -0.15080304 -0.24919097 0.24128127 0.24393922 0.24746215 -0.15830824 -0.22298734
0.152529 -0.29185286 0.08284393 0.23796833 -0.099317 0.22818156 -0.26502183 0.19587624
-0.1713493 0.13533641 -0.18359926 -0.043492053 0.21318966 0.12045074 0.26640224 -0.32033464
0.18105358 -0.11761399 0.17274651 0.19059691 0.18528086 -0.01011247 -0.13386941 -0.12415693
-0.3286271 0.2656677 0.23424141 -0.2956534 -0.24071951 -0.11012869 -0.015989719 0.047954503
-0.29012746 0.25232336 -0.17426363 0.07165489 -0.12702167 -0.2227255 -0.14648807 0.25293007
0.27615267 -0.13864598 0.19991215 -0.286065 0.14384514 -0.10645245 0.20922308 -0.081313156
0.15302908 0.2706807 -0.17770311 -0.16483338 -0.26839286 0.20890726 0.27407008 -0.09776064
0.03572935 -0.2895283 -0.32358992 -0.1391096 0.04392887 -0.29197538 -0.18970753 0.23479228
-0.2225923 0.13883023 -0.16181754 -0.1991706 -0.2488593 -0.14610781 -0.18150327 -0.17649607
-0.28456336 -0.29602578 0.14386824 0.021263704 -0.11614844 0.024299886 0.19165523 0.20603639
0.25251314 -0.11825458 0.18609922 0.28129217 0.16163981 -0.2489263 -0.17881899 0.29354507
-0.053305335 -0.14008136 0.3583846 0.07735285 -0.057233725 -0.14885873 -0.22958328 -0.004545229
0.18710907 0.23806751 0.22364654 0.27778068 -0.00072442857 -0.04527964 0.059578124 0.2223003
-0.0044386666 -0.24569593 -0.22627108 -0.1819809 0.102231346 0.25270575 -0.24820587 0.23839371
0.08943618 0.14251289 0.25832105 -0.24872442 0.10539627 -0.217469 -0.13836937 0.25673985
-0.06681695 0.17866799 0.15454878 0.22181463 -0.021139078 0.28750902 0.2231053 -0.0017687854
-0.107879765 -0.14160642 -0.20020705 0.12558833 -0.28406927 0.2375021 -0.21407145 0.19149044
-0.22887518 -0.25278786 -0.22457337 -0.05493502 0.010018385 -0.29051542 -0.16892546 0.08478933
-0.21833967 0.32145593 0.20073123 -0.25304177 -0.22140422 -0.32395098 0.13495742 0.13219489
0.27190423 0.21861842 -0.059384134 0.1700452 0.30834174 0.22783506 0.1086257 -0.084228404
00000000: 1581 97be e511 44be 255a 653c 0874 6b3e
00000010: 08d6 71bd 4876 a6be ca56 a03e 73e0 74be
00000020: ed5a c03c bfec 72be d17c 18be 6aea 8dbe
00000030: 6adf cb3d f8da 4e3e 7230 be3d cdd6 36be
00000040: 4ee4 9abe d7aa 853e 259a af3d 83d8 1cbe
00000050: 8f85 b63e 865d 443e 1fa9 503e 0184 903e
00000060: da91 81be 81c1 803e 3944 113e 01ab a03d
00000070: 1550 0bbe e838 eebd 9534 063e e343 f8bd
00000080: 6309 c8bd af05 a53d ddce 2dbc 5c97 443d
00000090: 5417 9bbe f088 96be 521d 32be 5d87 ae3d
000000a0: 20b6 493e b86f d63d 0c64 89be 33f2 3d3d
000000b0: 0b66 60be 617d c8bd 19d2 833e bb67 6fbe
000000c0: 3d70 83be b639 d6bc c02b 16be 48d5 a13e
000000d0: 4fcf 44be 0555 7bbe f23d b0be db0f 7abe
000000e0: 9b6d 473d 29ac 5f3e 8bd3 aa3e 58e6 853e
000000f0: 4951 793e 3de3 9b3e 48bb 70be 3787 99bd
00000100: a87e bd3e d428 823e 310f 4e3e 5ad2 15be
00000110: e765 47be a043 1dbe 01ea e33d 50dd 36be
00000120: 0a23 0abe 8af7 ecbd 0966 1c3e 2e5f 8bbe
00000130: 2b3d 1dbe 502d e63b ac36 2fbe 65d1 54be
00000140: 6ae3 72be 1604 763e 617e 75be 1055 653e
00000150: dbca c3bd f67f 0e3e 55dd 87bc 4ece 69be
00000160: 3dd1 4fbe 1d6c 1abe eb2b 7fbe 7012 773e
00000170: 34cb 793e b866 7d3e 8e1b 22be cb56 64be
00000180: 9030 1c3e bd6d 95be 14aa a93d f8ad 733e
00000190: b666 cbbd 6da8 693e f1b0 87be c893 483e
000001a0: 3176 2fbe a195 0a3e 7201 3cbe b924 32bd
000001b0: 644e 5a3e e1ae f63d e065 883e e702 a4be
000001c0: 1c66 393e 9bdf f0bd 76e4 303e d62b 433e
000001d0: 44ba 3d3e c6ae 25bc 1015 09be fd45 febd
000001e0: d041 a8be 9905 883e fbdc 6f3e e25f 97be
000001f0: 2d7f 76be 278b e1bd dffc 82bc f16b 443d
00000200: 968b 94be 8730 813e 2a72 32be cdbf 923d
00000210: f811 02be 2712 64be f800 16be 0d80 813e
00000220: e263 8d3e 36f9 0dbe c5b5 4c3e 1d77 92be
00000230: 244c 133e be03 dabd 933e 563e 8387 a6bd
00000240: a8b3 1c3e a996 8a3e cef7 35be 15ca 28be
00000250: ca6a 89be c9eb 553e ea52 8c3e bb36 c8bd
00000260: f058 123d 0e3d 94be 94ad a5be bf72 0ebe
00000270: c2ee 333d cc7d 95be b142 42be 636d 703e
00000280: 3cef 63be 8329 0e3e 7fb3 25be 61f3 4bbe
00000290: f9d4 7ebe 499d 15be fedb 39be 63bb 34be
000002a0: 4ab2 91be b190 97be 3252 133e 3831 ae3c
000002b0: 3cdf edbd 8e10 c73c 4541 443e 34fb 523e
000002c0: 6749 813e 752f f2bd cb90 3e3e 8705 903e
000002d0: e884 253e 89e6 7ebe 531c 37be 8a4b 963e
000002e0: b256 5abd 7d71 0fbe 307e b73e 2c6b 9e3d
000002f0: e96d 6abd 6c6e 18be e117 6bbe 25f0 94bb
00000300: 8599 3f3e f8c7 733e 9903 653e 4539 8e3e
00000310: 94e7 3dba 2577 39bd 3108 743d b1a2 633e
00000320: 3c72 91bb b797 7bbe 9bb3 67be 3359 3abe
00000330: ab5e d13d a662 813e ae29 7ebe 7b1d 743e
00000340: 512a b73d e6ee 113e a842 843e 9db1 7ebe
00000350: 00da d73d 32b0 5ebe b3b0 0dbe 6873 833e
00000360: 53d7 88bd bef4 363e 0942 1e3e 6023 633e
00000370: dc2b adbc 6234 933e b775 643e 97d6 e7ba
00000380: 11f0 dcbd 4601 11be 1403 4dbe 3a9a 003e
00000390: 8771 91be c033 733e 8c35 5bbe 1216 443e
000003a0: 415e 6abe 696d 81be 90f6 65be 8b03 61bd
000003b0: 2724 243c 70be 94be ccfa 2cbe 07a6 ad3d
000003c0: 6f94 5fbe df95 a43e 7d8c 4d3e b18e 81be
000003d0: cab7 62be e7dc a5be 4732 0a3e 195e 073e
000003e0: 0837 8b3e 82dd 5f3e c73c 73bd 5420 2e3e
000003f0: f8de 9d3e 984d 693e 2777 de3d f17f acbd

unembed.weight f4 [59, 256]
0.17249614 0.3353924 5.9416738e-08 0.08385786 -0.04407007 -0.12932539 0.10972994 -0.2762972
-0.01128572 0.006117533 -0.14210051 0.2684334 0.29653892 -0.27804527 0.24025004 0.16284736
0.19281591 -0.097627066 -0.24756119 0.19541983 -0.2985693 0.049100704 -0.22096908 0.13576701
-3.1884836e-10 -0.30663592 -0.22936904 1.1271921e-05 0.2015192 -1.34075935e-05 0.023455622 -0.0386927
-0.11920842 0.00036241833 0.17655526 0.22853363 1.9687306e-07 0.086548604 0.21497025 0.38393947
5.3846934e-06 -0.27625406 0.038377136 0.2213821 -0.21172018 -0.13936168 -0.1966987 -0.02307124
0.22500893 -0.19663146 0.26097828 -0.14055647 -0.2222254 0.30843765 0.08978539 0.2528055
-0.21485122 0.2511414 -0.12678428 -0.11635723 0.33212128 -0.26817742 0.26912916 -0.37837577
-0.10254565 0.15954351 -2.730782e-09 0.21778193 0.00022991512 0.0042348043 1.15683125e-08 0.1909348
0.2350096 -0.23146302 1.1448325e-07 -0.23592724 -0.26009408 -0.3114364 -0.3535818 0.0071248
-0.14269347 0.26367685 -0.054238886 -8.859662e-09 -0.22988866 0.27512968 -8.6245665e-05 0.38231584
0.023421578 0.0040515265 0.11233258 0.20763452 0.20966539 0.13160609 0.17687033 -0.053630225
-0.24526097 -5.8609356e-07 -0.3119382 -0.04872799 -0.2152987 -0.24674895 -8.216481e-05 0.18584304
0.20454906 -0.0005631925 0.15637219 0.15845606 -0.32303795 -0.15218748 -2.4158146e-07 0.2843061
-2.001981e-05 0.17425412 -0.1156367 0.20024039 -0.24378677 -0.19800852 0.04610167 -0.23882043
0.1383566 -0.022782784 0.13546298 0.014315376 0.1668393 0.11972956 0.26187432 -0.13959795
0.18976776 0.1860458 -0.13974723 -0.22056367 -0.06137108 0.31910345 0.24904169 -0.23126653
0.0032928314 -0.10387221 0.0727949 0.27172428 0.08923962 -0.06815349 -0.2427383 -0.3255195
-0.2264944 0.139959 0.2398721 0.25515386 -1.6576725e-05 -0.32504478 0.2339645 0.0662415
-6.842283e-06 6.335577e-06 -2.0785324e-06 -0.3276826 0.12343004 0.15656534 0.16037452 0.006039597
-0.12625156 0.3721421 0.3229725 0.002856247 -0.34736907 -0.1795873 -9.248012e-06 0.20281559
0.09917929 -0.08988007 -2.1300151e-07 0.20353165 -0.006015702 -0.21429121 0.2371465 0.08367375
-3.9954044e-05 0.038546767 -0.106362484 -0.21906014 0.10932434 -0.052784253 -0.15990235 0.20320538
-0.06927899 0.004267909 1.160032e-06 -0.091113724 0.22435483 0.23501688 0.0016556117 -5.553108e-06
0.2920293 -0.11115487 -0.3248698 -3.7389598e-06 0.09520168 -0.20838732 -0.34865305 -0.23040283
-0.09902537 -0.04567741 0.15188798 -1.8201363e-05 0.13135096 0.17120768 0.20994222 -0.1799767
0.028907562 -0.08936937 -0.24650478 -4.302801e-05 -3.5004255e-08 0.24214351 -0.18817154 -0.23115647
-0.094327316 0.03070993 0.22870666 -0.29572636 -0.043964002 -0.31532517 0.039285906 -1.2751942e-06
-0.2031061 -0.00041521774 0.18836626 0.12400749 0.24592997 -0.21621913 5.7405444e-08 0.0041361735
-5.777531e-07 -0.09650154 0.22523133 0.08021921 -0.24901745 0.080347545 -0.2172882 0.17863247
-0.3076736 -0.33013862 0.080461845 0.11026998 -0.2267881 0.21508157 0.2655167 -0.24404791
0.06948432 0.20831738 -0.15440385 -0.17735855 0.119885944 0.11116227 -0.0020367606 0.33285323
00000000: d4a2 303e 8db8 ab3e 6531 7f33 abbd ab3d
00000010: d182 34bd e06d 04be 17ba e03d d476 8dbe
00000020: bee7 38bc 9675 c83b cc82 11be 1a70 893e
00000030: f3d3 973e f35b 8ebe 1b04 763e 75c1 263e
00000040: 8971 453e b3f0 c7bd ae80 7dbe 231c 483e
00000050: 13de 98be d21d 493d b845 62be 8206 0b3e
00000060: eb49 afaf 62ff 9cbe b8df 6abe 881c 3d37
00000070: 0d5b 4e3e 2df1 60b7 0126 c03c 3d7c 1ebd
00000080: 8b23 f4bd f702 be39 e7ca 343e b804 6a3e
00000090: 0e64 5334 6540 b13d 2921 5c3e b793 c43e
000000a0: 2aae b436 2c71 8dbe 5831 1d3d fdb1 623e
000000b0: 2dcd 58be d4b4 0ebe 626b 49be e6ff bcbc
000000c0: be68 663e c259 49be f29e 853e 09ee 0fbe
000000d0: 0e8f 63be 8aeb 9d3e 67e1 b73d b96f 813e
000000e0: f501 5cbe 9b95 803e bdd3 01be b34c eebd
000000f0: cd0b aa3e 8d4e 89be 4ccb 893e 78ba c1be
00000100: 7403 d2bd 605f 233e 6da8 3bb1 3a02 5f3e
00000110: 5f15 7139 1dc4 8a3b fabd 4632 6a84 433e
00000120: 5ba6 703e a404 6dbe d5d9 f533 e996 71be
00000130: 0d2b 85be 9874 9fbe ac08 b5be 2777 e93b
00000140: 3d1e 12be a700 873e 9829 5ebd 3535 18b2
00000150: ef67 6bbe ccdd 8c3e cade b4b8 e7be c33e
00000160: 9cde bf3c abc2 843b a00e e63d 259e 543e
00000170: 86b2 563e bfc3 063e 7f1d 353e 5eab 5bbd
00000180: b125 7bbe 0b54 1db5 5db6 9fbe 0097 47bd
00000190: 4377 5cbe c2ab 7cbe e54f acb8 a34d 3e3e
000001a0: 4f75 513e 35a3 13ba 0820 203e 4e42 223e
000001b0: 3b65 a5be 09d7 1bbe b4b2 81b4 9290 913e
000001c0: 37f0 a7b7 ac6f 323e efd2 ecbd d10b 4d3e
000001d0: 3da3 79be bfc2 4abe 1bd5 3c3d 588d 74be
000001e0: 5aad 0d3e f6a2 babc cfb6 0a3e 0a8b 6a3c
000001f0: ecd7 2a3e c634 f53d 6414 863e c4f2 0ebe
00000200: 7b52 423e ca82 3e3e e619 0fbe 71db 61be
00000210: 3e60 7bbd 8761 a33e c904 7f3e 22d1 6cbe
00000220: 8bcc 573b f4ba d4bd 7e15 953d 721f 8b3e
00000230: 43c3 b63d 0f94 8bbd 6490 78be 7eaa a6be
00000240: 26ee 67be 6951 0f3e 08a1 753e 87a3 823e
00000250: 3f0e 8bb7 456c a6be 6494 6f3e a0a9 873d
00000260: c396 e5b6 3196 d436 ea7c 0bb6 04c6 a7be
00000270: e4c8 fc3d aa52 203e 3839 243e d0e7 c53b
00000280: 1748 01be 6989 be3e a75c a53e df2f 3b3b
00000290: 5cda b1be bce5 37be e927 1bb7 e4ae 4f3e
000002a0: 831e cb3d 0b13 b8bd 69b5 64b4 9a6a 503e
000002b0: 5e1f c5bb 286f 5bbe 88d6 723e 255d ab3d
000002c0: 5494 27b8 37e3 1d3d 93d4 d9bd 4d51 60be
000002d0: 71e5 df3d 4d34 58bd 71bd 23be 1215 503e
000002e0: 25e2 8dbd d1d9 8b3b 65b2 9b35 d599 babd
000002f0: 46bd 653e 44a8 703e 1c01 d93a d654 bab6
00000300: dd84 953e 2aa5 e3bd 5655 a6be d7ea 7ab6
00000310: 19f9 c23d 7c63 55be a782 b2be b8ee 6bbe
00000320: d0cd cabd 3c18 3bbd 8688 1b3e 21af 98b7
00000330: de80 063e 1151 2f3e 18fb 563e d04b 38be
00000340: 8dcf ec3c 4a07 b7bd c06b 7cbe f978 34b8
00000350: 9657 16b3 78f4 773e 0ab0 40be 48b4 6cbe
00000360: ae2e c1bd 6493 fb3c 1432 6a3e 7269 97be
00000370: 9913 34bd 4d72 a1be 42ea 203d 5727 abb5
00000380: 0cfb 4fbe 95b1 d9b9 16e3 403e a4f7 fd3d
00000390: 11d5 7b3e 8c68 5dbe f48d 7633 bd88 873b
000003a0: e416 1bb5 99a2 c5bd 0ba3 663e f849 a43d
000003b0: 6efe 7ebe 418d a43d cc80 5ebe 6eeb 363e
000003c0: 6587 9dbe ee07 a9be 2ec9 a43d 3ad5 e13d
000003d0: 243b 68be 583e 5c3e cef1 873e b2e7 79be
000003e0: cc4d 8e3d 2751 553e 0b1c 1ebe 7b9d 35be
000003f0: c386 f53d 0ba9 e33d 2c7b 05bb bd6b aa3e

l1.weight f4 [256, 256]
-0.14399356 0.15288472 0.013635009 -0.04063992 0.16404705 0.061388988 0.055155747 -0.2486162
-0.053218484 -0.08108254 0.08586067 -0.074452154 -0.16005312 -0.2084767 0.11397391 0.03702706
0.16045882 0.2602742 -0.20340435 -0.015990496 0.15517399 0.094470404 -0.08883243 -0.0255863
0.1908128 -0.15298025 -0.17521797 0.18033265 0.11799877 0.09920252 -0.09399191 0.20464315
0.142696 -0.038789142 -0.10615049 -0.06232511 0.04146345 0.08576325 0.13910261 -0.021135395
0.14753267 -0.060302924 0.08601959 -0.12674285 0.1441722 -0.15555878 -0.037183832 -0.17830594
-0.113327794 0.13136367 -0.004385614 -0.14445028 0.12492576 -0.08739022 0.22233145 0.13778272
0.17200765 0.13562433 -0.17708786 0.09858977 0.12012672 -0.16453922 -0.2180599 0.13237046
-0.17282298 -0.21131186 -0.17147262 -0.026444202 0.1503271 0.111169204 -0.24574365 -0.19843772
0.17068209 -0.09437798 -0.1625095 -0.13954471 0.11865448 -0.22675437 0.036738865 0.1896121
-0.023740336 -0.17994463 0.025219752 -0.106044106 -0.03608355 -0.15527222 -0.13381039 0.07943644
-0.0317441 -0.0792066 0.07027761 -0.01735739 0.06596047 0.16666783 -0.19082737 -0.2361701
-0.16342591 -0.20447074 0.11403439 0.08143121 0.09216668 0.13394135 0.03846349 -0.21724375
-0.09135963 0.15120374 0.17952174 0.12805153 -0.06672897 -0.13786699 0.1915024 0.17677116
-0.12498271 -0.08824954 0.100009926 0.10274891 -0.15542673 -0.027425855 -0.154426 0.21388742
0.06484879 -0.11332107 -0.04707046 0.15297699 -0.2144277 0.1398843 0.07163441 0.12566416
0.1987022 0.19455953 -0.03890246 -0.17501666 -0.123726144 0.19713509 0.11963914 -0.0708155
-0.20017311 -0.09764763 -0.16199851 0.2119733 0.03206342 0.16280545 -0.0056520714 -0.13920766
-0.08687659 0.07805108 0.15291418 0.15838449 0.13571668 -0.21573666 0.030072229 0.11428119
-0.25205868 0.094149105 0.15423119 0.19809715 -0.16989179 0.121748015 0.003992414 0.025566807
0.050078873 -0.21214087 -0.088371605 0.11972191 0.1644595 0.1807425 -0.14847647 -0.09179929
0.06530671 -0.1862993 -0.14050163 -0.114552476 0.12521575 0.09031458 -0.13468339 -0.20553638
-0.054111965 0.1635437 -0.22082897 -0.14160246 0.028732814 -0.07846705 -0.0698027 -0.06714305
0.10377463 -0.17669563 -0.24601218 0.10041671 -0.101394996 -0.020994917 0.13971391 -0.13280943
0.20710938 -0.053811688 -0.17696956 -0.12639849 0.0030503008 -0.12458952 0.2233882 0.24436332
0.014374069 0.16434872 0.22977003 0.043983392 -0.17587939 0.10761333 -0.086153425 -0.08872679
-0.10908456 -0.19711609 -0.2100461 0.018914524 0.20186684 -0.041804533 -0.033596415 -0.15796755
-0.18942553 -0.181815 -0.16848004 -0.110156894 0.21370001 0.13566086 0.07974471 -0.058781926
-0.1731647 -0.09981552 0.1492632 -0.14889586 -0.092415355 0.04607465 -0.1375413 -0.2247974
0.07140801 0.22251166 0.023772636 0.0379219 -0.13332325 0.017833 0.14230888 -0.095695235
0.14215118 -0.14722805 -0.22240393 0.21614544 0.2006135 0.21272244 -0.062453862 -0.13519982
-0.15793084 0.055801496 -0.1842037 0.0068784724 0.14886785 -0.04510331 -0.022698155 -0.049464896
00000000: 0c73 13be d08d 1c3e 5f65 5f3c 0b76 26bd
00000010: f3fb 273e 0573 7b3d feea 613d 3f95 7ebe
00000020: a0fb 59bd 9a0e a6bd b8d7 af3d 5f7a 98bd
00000030: f7e4 23be eb7a 55be 276b e93d b0a9 173d
00000040: 514f 243e a942 853e 3b49 50be 80fe 82bc
00000050: eee5 1e3e b379 c13d c7ed b5bd 5c9a d1bc
00000060: 6e64 433e dba6 1cbe 576c 33be 1fa9 383e
00000070: 57a9 f13d b12a cb3d d57e c0bd f98d 513e
00000080: e61e 123e 5de1 1ebd 6e65 d9bd 9d48 7fbd
00000090: 94d5 293d a5a4 af3d ea70 0e3e 2324 adbc
000000a0: ce12 173e 3300 77bd 0a2b b03d e1c8 01be
000000b0: e1a1 133e cd4a 1fbe 134e 18bd d595 36be
000000c0: 6718 e8bd 3384 063e 32b5 8fbb c6ea 13be
000000d0: 14d9 ff3d a5f9 b2bd dbaa 633e ea16 0d3e
000000e0: c622 303e 1be1 0a3e 8556 35be 6fe9 c93d
000000f0: ff04 f63d f87c 28be 184b 5fbe 1f8c 073e
00000100: 82f8 30be 2362 58be 8596 2fbe 83a1 d8bc
00000110: 59ef 193e aeac e33d 39a4 7bbe 4233 4bbe
00000120: 49c7 2e3e 3e49 c1bd e468 26be cfe4 0ebe
00000130: 1f01 f33d 4c32 68be 7e7b 163d ad29 423e
00000140: 187b c2bc 6843 38be a799 ce3c a72d d9bd
00000150: 58cc 13bd aeff 1ebe 9705 09be 92af a23d
00000160: 1a06 02bd 1237 a2bd b5ed 8f3d 1631 8ebc
00000170: 4816 873d f9aa 2a3e 4068 43be 93d6 71be
00000180: 1f59 27be c760 51be dd8a e93d 68c5 a63d
00000190: e2c1 bc3d ec27 093e e48b 1d3d 2575 5ebe
000001a0: c21a bbbd 27d5 1a3e 8cd4 373e f11f 033e
000001b0: 33a9 88bd 012d 0dbe 3519 443e 8003 353e
000001c0: eff6 ffbd 2dbc b4bd 01d2 cc3d 056e d23d
000001d0: 2f28 1fbe 30ac e0bc d921 1ebe 4e05 5b3e
000001e0: 71cf 843d e114 e8bd f4cc 40bd 00a6 1c3e
000001f0: ef92 5bbe d43d 0f3e 10b5 923d 1bae 003e
00000200: 9778 4b3e 9d3a 473e 3058 1fbd 9137 33be
00000210: 2264 fdbd c8dd 493e 5e05 f53d b807 91bd
00000220: 2efa 4cbe 7bfb c7bd f0e2 25be 870f 593e
00000230: ef54 033d 79b6 263e 0335 b9bb 748c 0ebe
00000240: 5bec b1bd 3fd9 9f3d 8995 1c3e 8b2f 223e
00000250: 50f9 0a3e 12ea 5cbe 095a f63c 420c ea3d
00000260: d60d 81be 3fd1 c03d c8ee 1d3e fbd9 4a3e
00000270: 1df8 2dbe 0657 f93d ccd2 823b 7b71 d13c
00000280: 811f 4d3d 753b 59be 2cfc b4bd c330 f53d
00000290: 1268 283e 9014 393e 370a 18be 4401 bcbd
000002a0: 86bf 853d 3ec5 3ebe a9df 0fbe 7d9a eabd
000002b0: 8f38 003e daf6 b83d 71ea 09be 2178 52be
000002c0: 82a4 5dbd 0078 273e fd20 62be 3c00 11be
000002d0: 1461 eb3c 55b3 a0bd b8f4 8ebd 4c82 89bd
000002e0: cb87 d43d b3ef 34be 9eea 7bbe 47a7 cd3d
000002f0: 2ea8 cfbd 88fd abbc 2a11 0f3e 32ff 07be
00000300: 7b14 543e a569 5cbd 8237 35be 9b6e 01be
00000310: 8ee7 473b ca28 ffbd e0bf 643e 613a 7a3e
00000320: 3781 6b3c 084b 283e d648 6b3e ee27 343d
00000330: ba19 34be 6164 dc3d 3571 b0bd 64b6 b5bd
00000340: ba67 dfbd cdd8 49be 5316 57be a2f2 9a3c
00000350: 2eb6 4e3e 3b3b 2bbd 659c 09bd 3fc2 21be
00000360: c4f8 41be b62d 3abe 0886 2cbe f099 e1bd
00000370: 2dd4 5a3e aeea 0a3e 3251 a33d 51c5 70bd
00000380: 1652 31be 146c ccbd 74d8 183e 2878 18be
00000390: 4344 bdbd c6b8 3c3d a0d7 0cbe 4a31 66be
000003a0: 5d3e 923d 19da 633e d5be c23c ff53 1b3d
000003b0: e485 08be 8316 923c 6bb9 113e ddfb c3bd
000003c0: 1490 113e f3c2 16be dbbd 63be 3b55 5d3e
000003d0: a06d 4d3e e9d3 593e 9fcf 7fbd d271 0abe
000003e0: 9fb8 21be 1c90 643d e59f 3cbe cf64 e13b
000003f0: d070 183e 40be 38bd 7bf1 b9bc b49b 4abd

l1.bias f4 [256]
0.12067027 0.3258465 1.6356974e-08 -0.044345763 -0.00055784336 0.12042502 0.13274498 0.046900153
0.11514544 0.11064142 0.12643349 0.035126034 0.3430253 0.18482293 0.039939042 0.12984729
0.03532176 0.06693142 0.03942843 0.06280826 0.0723924 0.2514299 0.21717265 0.10139004
5.7775434e-10 0.051643543 0.005208157 -1.4935486e-06 0.15701343 6.4510455e-06 0.093305476 0.09189321
0.1455613 -2.292842e-05 0.10416494 0.13440776 1.976568e-07 0.14201939 0.043548476 0.019675503
1.7259592e-06 0.25294346 0.17218949 0.076212 -0.004389901 0.05555265 0.013834806 0.0878254
0.020250265 0.03163497 0.0867667 0.20056047 0.09505923 0.07090974 0.14098044 0.19154961
0.041575253 0.12706698 0.08071117 0.044627488 0.13024564 0.043625973 0.27695942 0.24135672
0.023465792 0.037279993 1.0913909e-09 0.035298213 0.00044279962 0.015709 -1.9991941e-10 0.04461508
0.15927447 0.014235194 2.918269e-09 0.04912343 0.21083206 0.27495074 0.2357292 0.24655484
0.049555924 0.060251016 0.007132277 9.947339e-10 0.21705104 -0.058422558 0.00016800004 0.16682431
0.13278638 0.07891087 0.10482113 0.10498504 0.08132065 0.13239577 0.074520744 0.10712949
0.07434858 -6.061626e-08 0.09307312 0.10730113 0.16803116 0.17088789 0.0001091429 -0.09039037
0.1672081 -4.0032264e-05 0.2291645 0.15405388 0.22049356 0.13318442 3.2266733e-08 0.242962
2.1746284e-05 0.19417843 0.04045972 0.06343509 0.119618595 0.14926209 0.07990735 0.117015935
0.057932045 0.13628422 0.27693054 0.04746945 0.09285283 0.13711964 0.11997102 0.11632267
0.086434215 0.07424821 0.114123255 0.074584566 0.16487321 0.121698566 0.049822144 0.06713242
0.0005955283 0.111882314 0.07084641 0.17414342 0.1575397 0.033719994 0.18235247 0.13357762
0.09479572 0.1622457 0.12970139 0.08792193 2.0710326e-05 0.25858983 0.114936486 0.15394114
-1.2286712e-06 -1.6921193e-06 4.5218582e-07 0.05537147 0.074506514 0.05385898 0.05842561 0.2305699
0.06799196 0.1257353 0.23156717 -0.0001445054 0.09005064 0.13487487 -1.1936597e-06 0.1880128
-0.062935546 0.078205615 1.8536946e-08 0.08352883 0.11757356 -0.026658595 0.14804232 0.008383375
4.115269e-06 0.13582182 0.029172225 0.10753486 0.05517622 0.026426302 0.25143415 0.10139623
0.011021542 -0.0005774944 -7.3173584e-07 0.037558995 0.092212625 0.14567038 0.017129563 -1.4259324e-06
0.1055877 0.1910062 0.017558452 1.6963197e-05 0.01375842 0.04861366 0.20129903 0.101518214
0.074872136 -0.0029208467 0.06920339 6.472551e-06 0.06193486 -0.04011207 0.113409616 0.1659298
0.024241641 0.011262325 0.04748792 -1.0285746e-06 1.06575904e-07 0.10985062 -0.074552394 0.09598761
0.08826496 0.08814486 0.36572656 0.047043446 0.08692473 0.033614736 0.05990993 2.0604973e-06
0.025282094 0.00013636817 0.03234354 0.045481835 0.061200153 0.067620076 2.346684e-09 0.00042558403
9.723166e-09 0.07132018 0.10561945 -0.0154689 0.08468474 0.12818669 -0.06677661 0.09599509
0.0727 0.019954737 0.035247162 0.031614862 0.11138561 0.15114994 -0.057337787 0.20025682
0.06919601 -0.018686444 0.12580709 0.21094711 0.08735363 -0.0033868214 -0.0001247791 0.11122364
00000000: f921 f73d 5ad5 a63e 5e81 8c32 e7a3 35bd
00000010: 3c3c 12ba 65a1 f63d 4dee 073e 601a 403d
00000020: 5fd1 eb3d f897 e23d c877 013e 51e0 0f3d
00000030: 03a1 af3e 3942 3d3e 1f97 233d b0f6 043e
00000040: 8dad 103d 5713 893d b57f 213d 9ea1 803d
00000050: 7742 943d 6bbb 803e 8262 5e3e 95a5 cf3d
00000060: d9cf 1e30 2e88 533d 30a9 aa3b f075 c8b5
00000070: 21c8 203e 0f76 d836 f116 bf3d 8232 bc3d
00000080: 050e 153e 6856 c0b7 6e54 d53d 30a2 093e
00000090: 7d3b 5434 886d 113e e35f 323d 852e a13c
000000a0: 82a7 e735 ce81 813e 7152 303e 0915 9c3d
000000b0: 29d9 8fbb 2d8b 633d 62ab 623c cedd b33d
000000c0: e2e3 a53c ac93 013d bdb2 b13d b95f 4d3e
000000d0: 6aae c23d 2039 913d 2d5d 103e 9525 443e
000000e0: d04a 2a3d d91d 023e e64b a53d 50cb 363d
000000f0: 1d5f 053e 26b1 323d a0cd 8d3e 3726 773e
00000100: 553b c03c e8b2 183d e7ff 9530 dc94 103d
00000110: 8f27 e839 29b0 803c 50d0 5baf 4dbe 363d
00000120: d918 233e bb3a 693c bb8a 4831 a635 493d
00000130: 5ce4 573e 58c6 8c3e ff62 713e df78 7c3e
00000140: 27fb 4a3d c5c9 763d e0b5 e93b 16b7 8830
00000150: a142 5e3e 7e4c 6fbd 2b29 3039 fed3 2a3e
00000160: 27f9 073e 069c a13d 76ac d63d 6602 d73d
00000170: 718b a63d c292 073e 559e 983d b566 db3d
00000180: 1144 983d 242c 82b3 1f9d be3d b2c0 db3d
00000190: 5c10 2c3e 3cfd 2e3e a6e3 e438 961e b9bd
000001a0: 9a38 2b3e 51e8 27b8 19aa 6a3e 4dc0 1d3e
000001b0: 10c9 613e 7f61 083e a695 0a33 08cb 783e
000001c0: ca6b b637 b6d6 463e 17b9 253d 42ea 813d
000001d0: 98fa f43d 29d8 183e 77a6 a33d 0da6 ef3d
000001e0: 274a 6d3d 178e 0b3e d7c9 8d3e 536f 423d
000001f0: a029 be3d 1769 0c3e 5eb3 f53d 943a ee3d
00000200: 6c04 b13d 720f 983d 74b9 e93d cbbf 983d
00000210: 86d4 283e 193d f93d 4e12 4c3d b97c 893d
00000220: 3a1d 1c3a 8e22 e53d ec17 913d a752 323e
00000230: 1652 213e fa1d 0a3d 9bba 3a3e 92c8 083e
00000240: 4224 c23d bd23 263e 71d0 043e 6a10 b43d
00000250: 16bb ad37 e365 843e d263 eb3d bfa2 1d3e
00000260: d2e8 a4b5 c71c e3b5 f2c3 f234 32cd 623d
00000270: df96 983d 3c9b 5c3d b14f 6f3d 841a 6c3e
00000280: 5e3f 8b3d c1c0 003e f21f 6d3e 5f86 17b9
00000290: 786c b83d a31c 0a3e d635 a0b5 6d86 403e
000002a0: 5ae4 80bd 442a a03d 2d3b 9f32 2a11 ab3d
000002b0: 68ca f03d 2063 dabc 6898 173e 6c5a 093c
000002c0: e415 8a36 e014 0b3e 97fa ee3c 3d3b dc3d
000002d0: 7600 623d f97b d83c fabb 803e d4a8 cf3d
000002e0: b393 343c fe62 17ba 816c 44b5 76d7 193d
000002f0: f9d9 bc3d 9e2a 153e 4c53 8c3c aa62 bfb5
00000300: 5d3e d83d 2197 433e bed6 8f3c 304c 8e37
00000310: ff6a 613c 1e1f 473d 5521 4e3e c8e8 cf3d
00000320: 9056 993d ad6b 3fbb 82ba 8d3d ca2e d936
00000330: 68af 7d3d 8e4c 24bd 4d43 e83d 80e9 293e
00000340: 6896 c63c 9d85 383c b182 423d 8e0d 8ab5
00000350: b9de e433 5df9 e03d edae 98bd 2795 c43d
00000360: 42c4 b43d 4b85 b43d 8340 bb3e a1b0 403d
00000370: 9805 b23d 9baf 093d 1d64 753d 1347 0a36
00000380: 651c cf3c 0dfe 0e39 a97a 043d 294b 3a3d
00000390: 03ad 7a3d 657c 8a3d 4d43 2131 ec20 df39
000003a0: f00a 2732 5110 923d 034f d83d 4571 7dbc
000003b0: 316f ad3d 5f43 033e 2dc2 88bd 1399 c43d
000003c0: bde3 943d 1e78 a33c 545f 103d 967e 013d
000003d0: 241e e43d 0dc7 1a3e 07db 6abd 2010 4d3e
000003e0: a3b6 8d3d 5014 99bc 93d3 003e 8502 583e
000003f0: 76e6 b23d 6ff5 5dbb 22d7 02b9 38c9 e33d
