code/save/model_x/model_x_repr_1.pt (torch, 446923 bytes, 5 tensors)

embed1.weight f4 [59, 256]
-0.21322814 0.16535902 -0.1634563 -0.1457251 0.26242724 -0.14555334 -0.2221445 0.2628679
-0.15269013 0.29347828 -0.009971507 0.027582955 -0.11647975 -0.081812896 -0.061458576 -0.124859504
0.20377485 0.16520953 -0.2701494 -0.009906235 0.09146983 -0.12628949 0.25511846 -0.25963214
0.056918696 -0.14643802 0.0677408 -0.14211774 0.25530857 0.29244107 -0.24283147 -0.22391987
-0.039573297 0.097101174 -0.2415465 -0.12806678 -0.21227157 -0.17436568 0.23141824 0.15083426
0.19745597 0.1506165 -0.14888571 -0.21354453 0.18175273 -0.09699853 0.19281267 0.017441198
0.17097855 0.20712388 0.17352164 -0.19385122 -0.18109171 0.26908925 0.21007943 0.0020565032
0.11189887 -0.002454814 -0.26862445 0.15094858 -0.21524327 -0.17218797 -0.11285698 -0.11244485
0.16846192 -0.07039644 0.11518997 0.25229988 0.22834246 0.10618651 -0.014144794 0.11375517
0.20710576 0.20102105 0.19326857 -0.28098494 -0.17712492 0.046904597 -0.1709653 -0.16710226
-0.169277 0.18564598 0.24513349 0.009790503 0.19022182 0.13432972 0.010991903 0.13322699
0.2567663 0.2043293 -0.10442056 0.09913959 -0.061970945 -0.20049748 0.18103233 -0.15581577
0.039246436 -0.21798474 0.10666026 -0.18160218 -0.201592 -0.17497596 0.089095734 0.1894766
-0.23681052 0.1088656 -0.21136968 0.29901108 -0.18978332 0.25026393 0.029363962 0.22276166
0.24565631 -0.18356442 0.14160699 0.08308316 0.123302884 0.12930532 -0.13896011 -0.18550459
0.14759319 0.26631844 0.042391688 -0.21867532 -0.23829612 -0.12056591 0.26239732 -0.19831048
0.1707702 -0.09292229 -0.11832372 -0.17221674 -0.20853518 -0.04903432 -0.24442402 0.24862508
-0.17353904 -0.13436598 0.15228747 0.23850872 -0.15310436 0.03538369 0.2710949 0.011641953
-0.23453471 -0.120164394 0.18438292 -0.035630863 -0.12952214 -0.0329122 0.09171072 -0.19825456
-0.08505036 -0.09169814 -0.07673318 0.20823456 -0.2076673 -0.055690944 0.16223346 0.18411891
-0.20790486 -0.040241938 0.1978739 0.13517992 -0.23564246 0.009536558 0.10338318 0.3007914
-0.057425372 0.05855404 0.21213716 0.07351103 0.14794353 0.23752128 -0.035404112 0.03908487
-0.0088832555 -0.25014555 0.14665891 -0.012618621 -0.23460488 -0.09114048 -0.24169092 0.008625245
-0.13478549 -0.23526683 0.07690283 0.29682636 0.19987631 0.16170295 -0.03413726 -0.17087463
0.0062390314 -0.20759068 0.15006088 -0.16736399 -0.08742594 0.24236657 0.23532581 0.13919519
0.20664719 0.14646013 -0.15208106 0.14964052 -0.18064225 -0.023144888 0.20912194 0.23587123
-0.028748222 0.2064262 -0.061572 -0.24060813 -0.07372227 0.21253672 -0.25446936 0.15721445
0.10502915 0.13630731 0.14434339 -0.22343628 0.24547175 0.17833085 0.297789 -0.23061393
-0.18000668 -0.25888604 0.17789893 0.14739768 -0.1429148 -0.2954686 -0.28439772 0.05499063
0.25488698 -0.2629499 0.24297322 0.21658456 -0.19139412 -0.17712061 -0.076623015 -0.30973542
-0.11933883 0.27131876 0.14832157 -0.083299786 -0.15785584 0.24707188 -0.2960675 -0.18582809
0.18867944 -0.12976198 0.036915958 -0.22449103 -0.12052744 -0.2010575 -0.15626831 -0.04974604
00000000: 7a58 5abe e053 293e 1761 27be f638 15be
00000010: dd5c 863e ef0b 15be d979 63be 9f96 863e
00000020: cd5a 1cbe c942 963e 885f 23bc a6f5 e13c
00000030: ef8c eebd 858d a7bd fdbb 7bbd 57b6 ffbd
00000040: 5baa 503e b02c 293e 0651 8abe c34d 22bc
00000050: 8954 bb3d 0852 01be e39e 823e 81ee 84be
00000060: 9423 693d d9f3 15be b0bb 8a3d 5087 11be
00000070: ceb7 823e d6ba 953e d0a8 78be 404b 65be
00000080: 9c17 22bd fbdc c63d f757 77be f023 03be
00000090: b85d 59be eb8c 32be e7f8 6c3e 4c74 1a3e
000000a0: e631 4a3e 363b 1a3e 7f75 18be 6bab 5abe
000000b0: 631d 3a3e 2aa7 c6bd af70 453e d8e0 8e3c
000000c0: 0015 2f3e 4818 543e a8af 313e ef80 46be
000000d0: 1b70 39be 11c6 893e 101f 573e 66c6 063b
000000e0: 3c2b e53d f2e0 20bb 2589 89be 4492 1a3e
000000f0: bb68 5cbe 0b52 30be 8f21 e7bd 7c49 e6bd
00000100: 4881 2c3e 022c 90bd b8e8 eb3d 732d 813e
00000110: 9bd2 693e 5078 d93d 91bf 67bc 78f8 e83d
00000120: 8813 543e 76d8 4d3e 32e8 453e 42dd 8fbe
00000130: 3c60 35be 091f 403d 8711 2fbe db1c 2bbe
00000140: f356 2dbe fb19 3e3e 4604 7b3e 5968 203c
00000150: 82c9 423e bb8d 093e 6217 343c a86c 083e
00000160: df76 833e b33b 513e 72da d5bd b309 cb3d
00000170: 3fd5 7dbd 364f 4dbe 8a60 393e 2b8e 1fbe
00000180: dfc0 203d 6437 5fbe b270 da3d ecf5 39be
00000190: 226e 4ebe e62c 33be d377 b63d 2706 423e
000001a0: 757e 72be edf4 de3d 4b71 58be fb17 993e
000001b0: 8f56 42be 9822 803e b18c f03c a21b 643e
000001c0: 548d 7b3e 50f8 3bbe 6c01 113e 8127 aa3d
000001d0: 3986 fc3d 9d68 043e 8f4b 0ebe eaf4 3dbe
000001e0: ab22 173e e45a 883e e8a2 2d3d 6cec 5fbe
000001f0: e603 74be 43eb f6bd f158 863e e711 4bbe
00000200: 62de 2e3e 0b4e bebd b553 f2bd 9659 30be
00000210: 3f8a 55be 36d8 48bd 4a4a 7abe 9397 7e3e
00000220: 38b4 31be 3c97 09be 3ff1 1b3e a13b 743e
00000230: 64c7 1cbe 7dee 103d f3cc 8a3e e4bd 3e3c
00000240: de29 70be c018 f6bd e0ce 3c3e abf1 11bd
00000250: 74a1 04be f1ce 06bd d4d2 bb3d 3e03 4bbe
00000260: e22e aebd 3ccc bbbd 4926 9dbd 713b 553e
00000270: bda6 54be 301c 64bd 8720 263e ab89 3c3e
00000280: 03e5 54be bbd4 24bd 759f 4a3e 9b6c 0a3e
00000290: 424c 71be 393f 1c3c 90ba d33d 5501 9a3e
000002a0: de36 6bbd 5cd6 6f3d 7c3a 593e f38c 963d
000002b0: 827e 173e c738 733e e703 11bd 7517 203d
000002c0: 138b 11bc 1413 80be c12d 163e 55be 4ebc
000002d0: 433c 70be dca7 babd d37d 77be e650 0d3c
000002e0: 3505 0abe cae9 70be 3b7f 9d3d a0f9 973e
000002f0: 60ac 4c3e 7595 253e 83d3 0bbd c2f9 2ebe
00000300: ca70 cc3b a792 54be 8fa9 193e 7761 2bbe
00000310: 5f0c b3bd f12e 783e 40f9 703e 2f89 0e3e
00000320: 529b 533e a5f9 153e 23bb 1bbe 5d3b 193e
00000330: 48fa 38be 599a bdbc 1024 563e 3a88 713e
00000340: 6481 ebbc 6461 533e ec32 7cbd fa61 76be
00000350: b4fb 96bd 3aa3 593e cf49 82be d3fc 203e
00000360: 8619 d73d 2594 0b3e c1ce 133e 7bcc 64be
00000370: f25c 7b3e 5d9c 363e cd77 983e 0f26 6cbe
00000380: ac53 38be b68c 84be 232b 363e 6bef 163e
00000390: 4258 12be a947 97be 949c 91be db3d 613d
000003a0: 8c80 823e 5fa1 86be f9cd 783e 58c8 5d3e
000003b0: d2fc 43be 1b5f 35be 87ec 9cbd a495 9ebe
000003c0: eb67 f4bd 4bea 8a3e 9ce1 173e 1499 aabd
000003d0: f6a4 21be 6900 7d3e 2996 97be b849 3ebe
000003e0: 2f35 413e 53e0 04be 3035 173d fae0 65be
000003f0: 17d7 f6bd 04e2 4dbe cd04 20be 81c2 4bbd

embed2.weight f4 [59, 256]
0.06802064 -0.061867695 0.17761493 0.19620684 -0.14614256 -0.31853345 0.10791386 0.14992703
0.20932932 -0.16578844 -0.18888713 0.07130833 -0.052621543 -0.104986854 0.11414054 -0.10675899
-0.015621066 -0.12802671 0.20419708 -0.26249552 -0.040720455 0.23620337 0.037522756 -0.054748006
-0.05787097 0.24915452 -0.23481153 0.24017401 -0.19302998 -0.24260676 0.11233999 -0.22612773
0.12452839 0.072016984 -0.1838 0.16850226 0.21104942 -0.20115922 -0.1998634 0.20181455
0.027955694 0.19249895 -0.11188602 -0.01960807 -0.22623956 0.1685621 -0.0976582 -0.32983577
0.16747363 0.040904596 -0.2084958 0.18902363 -0.08668479 -0.0876198 0.21885763 -0.16483049
-0.022021256 0.16314185 0.27658543 -0.22651364 -0.09981465 0.22206192 -0.15383334 0.15659387
-0.18514492 0.08832781 -0.0057739443 -0.0046778955 -0.15143876 0.018397942 -0.10677438 -0.1396569
-0.025766123 -0.25549865 -0.024883859 0.26475167 0.18033412 0.08808502 -0.18351567 -0.23093277
-0.10212528 -0.22342183 0.08582904 0.026187815 -0.23908083 -0.18787733 -0.15474181 -0.13131621
0.21135814 -0.087864615 -0.15865275 0.11071985 -0.27101937 0.25100538 -0.21810433 -0.15200947
0.1793544 0.009334535 -0.072652556 -0.16867508 0.18370393 -0.22835788 -0.12635177 -0.2846197
-0.21399446 0.050469294 0.19786754 -0.076685116 -0.22361529 -0.20900379 0.1436709 -0.21290238
-0.09403607 -0.20321055 0.14385758 0.17068994 -0.068805926 -0.047852173 -0.21355462 0.17806318
-0.1152927 -0.074930124 -0.22499152 -0.12622616 -0.20982037 -0.1612992 0.23264754 -0.035184994
-0.25452563 -0.21668033 0.1615499 -0.23985311 0.22861022 0.20327775 0.21882458 -0.26981604
0.12531824 0.2538783 0.20761044 -0.2803686 0.042257577 0.22174424 -0.119950734 -0.058441225
0.113697454 0.078897305 0.17260636 -0.030444589 -0.18167472 0.19676797 0.007273868 0.21337752
-0.19687317 0.23786877 0.06410879 -0.17858396 0.117902175 -0.017457245 -0.15063047 0.2364876
0.24612774 0.16227588 0.17995149 -0.15437421 0.25952467 0.17771938 0.23237333 0.013933635
-0.04736676 0.11417599 -0.25419286 -0.23626283 0.06829958 -0.12546727 -0.16977827 0.30911618
0.29135653 0.1623749 0.046612628 0.2615145 0.06718818 -0.17835009 0.16129835 -0.26577765
0.054368187 -0.06936597 0.018181123 -0.22669487 0.08714086 0.22171636 -0.29448062 0.09598507
-0.19670533 -0.05071946 -0.25560722 0.118779615 0.17512274 -0.043675497 -0.24961914 -0.22395861
-0.27993843 -0.09073032 0.27975982 -0.25262576 0.1247739 -0.2747676 -0.112943016 -0.16824211
-0.20835188 0.16562197 -0.06793308 0.22990017 -0.1474498 -0.13742538 -0.09844987 -0.20438658
0.020395696 -0.10353247 0.011451177 0.25266406 -0.18430094 -0.013003319 -0.3020633 0.2507821
-0.1916467 0.19816685 -0.24145238 -0.26135013 0.08350572 0.006313827 0.17141522 0.036749236
-0.019107591 -0.21246833 -0.17483565 0.18984064 0.1320247 0.2742893 0.11051692 0.25125378
0.25333402 0.02627779 -0.05453206 0.17900528 0.2717727 -0.13139473 0.30278102 0.22828183
-0.20485288 -0.23370555 0.117154434 0.13939531 0.09087639 0.24301203 0.11715681 -0.055024736
00000000: 684e 8b3d fb68 7dbd b0e0 353e 72ea 483e
00000010: 65a6 15be d116 a3be f101 dd3d 7986 193e
00000020: 6d5a 563e 72c4 29be a16b 41be 1a0a 923d
00000030: b089 57bd 5903 d7bd 84c2 e93d 75a4 dabd
00000040: 80ef 7fbc 6f19 03be 0a19 513e d065 86be
00000050: 7eca 26bd 4cdf 713e 76b1 193d 723f 60bd
00000060: 1c0a 6dbd 5d22 7f3e 6f72 70be 2df0 753e
00000070: a7a9 45be e86d 78be 8212 e63d 078e 67be
00000080: be08 ff3d a47d 933d 1136 3cbe db8b 2c3e
00000090: 571d 583e affc 4dbe fea8 4cbe 79a8 4e3e
000000a0: 5703 e53c 721e 453e 7f24 e5bd 1aa1 a0bc
000000b0: 58ab 67be 8b9b 2c3e 0601 c8bd 3ce0 a8be
000000c0: 357e 2b3e 948b 273d ec7f 55be 698f 413e
000000d0: cc87 b1bd 0272 b3bd 371c 603e 53c9 28be
000000e0: ec65 b4bc a80e 273e 9b9c 8d3e 31f3 67be
000000f0: a06b ccbd 3364 633e 7d86 1dbe 255a 203e
00000100: a196 3dbe 36e5 b43d 5b33 bdbb 0849 99bb
00000110: c312 1bbe 48b7 963c 87ac dabd 3802 0fbe
00000120: 7a13 d3bc b8d0 82be 3cd9 cbbc 888d 873e
00000130: 82a9 383e eb65 b43d 88eb 3bbe a479 6cbe
00000140: 0f27 d1bd b1c8 64be 23c7 af3d d487 d63c
00000150: 9bd1 74be ea62 40be a374 1ebe c277 06be
00000160: 456e 583e 5df2 b3bd de75 22be 17c1 e23d
00000170: 0dc3 8abe c783 803e be56 5fbe 5fa8 1bbe
00000180: aea8 373e e1ef 183c ddca 94bd 29b9 2cbe
00000190: e21c 3c3e a6d6 69be 5c62 01be acb9 91be
000001a0: 5d21 5bbe e4b8 4e3d ca9d 4a3e 160d 9dbd
000001b0: 68fb 64be 1705 56be 771e 133e 1503 5abe
000001c0: fc95 c0bd 6d16 50be 674f 133e 58c9 2e3e
000001d0: 1fea 8cbd a400 44bd 10ae 5abe 3256 363e
000001e0: 941e ecbd f774 99bd 2d64 66be 6e41 01be
000001f0: 27db 56be 9e2b 25be 283b 6e3e 241e 10bd
00000200: 2f51 82be 73e1 5dbe 566d 253e 0e9c 75be
00000210: cc18 6a3e 0b28 503e 8d13 603e 5425 8abe
00000220: 6d53 003e 56fc 813e d597 543e 798c 8fbe
00000230: 4816 2d3d ec10 633e bba8 f5bd 1160 6fbd
00000240: 36da e83d e994 a13d b9bf 303e ee66 f9bc
00000250: f008 3abe 8b7d 493e a159 ee3b a37f 5a3e
00000260: 1f99 49be df93 733e 784b 833d b7de 36be
00000270: b276 f13d 7f02 8fbc e03e 1abe ce29 723e
00000280: e908 7c3e a62b 263e 3445 383e 4614 1ebe
00000290: 6be0 843e 12fc 353e 46f3 6d3e e749 643c
000002a0: a603 42bd 1ad5 e93d 9125 82be e2ee 71be
000002b0: a6e0 8b3d 7e7a 00be 5bda 2dbe 7a44 9e3e
000002c0: af2c 953e 9b45 263e e2ec 3e3d 3be5 853e
000002d0: f599 893d 68a1 36be 652b 253e 0214 88be
000002e0: 2db1 5e3d bf0f 8ebd 94f0 943c b322 68be
000002f0: e876 b23d 9d09 633e 2ac6 96be d293 c43d
00000300: 1f6d 49be 35bf 4fbd f3de 82be ba42 f33d
00000310: 6053 333e 14e5 32bd 299c 7fbe 6855 65be
00000320: 1754 8fbe d1d0 b9bd ae3c 8f3e 2a58 81be
00000330: 7589 ff3d 57ae 8cbe ab4e e7bd a947 2cbe
00000340: 325a 55be ce98 293e 8020 8bbd f36a 6b3e
00000350: 15fd 16be 3db9 0cbe 16a0 c9bd b74a 51be
00000360: e014 a73c d508 d4bd b89d 3b3c 2f5d 813e
00000370: 63b9 3cbe df0b 55bc 0aa8 9abe 8366 803e
00000380: 083f 44be 40ec 4a3e 4b3f 77be afcf 85be
00000390: 0c05 ab3d 38e4 ce3b 7987 2f3e 5e86 163d
000003a0: 8687 9cbc 4c91 59be 1e08 33be 9665 423e
000003b0: 7c31 073e a66f 8c3e b256 e23d 56a4 803e
000003c0: ffb4 813e 8544 d73c 025d 5fbd 294d 373e
000003d0: cb25 8b3e 578c 06be 1d06 9b3e b6c2 693e
000003e0: f4c4 51be 8250 6fbe aaee ef3d a5bd 0e3e
000003f0: 671d ba3d 25d8 783e e9ef ef3d 9e61 61bd

unembed.weight f4 [59, 256]
0.00019633005 -0.22558908 0.106473684 7.8808625e-05 -0.00013581847 -0.2796922 -0.00719375 -0.3423403
0.23511007 0.016635282 0.15016875 0.270161 0.2536647 0.15987425 -0.0003594315 0.22139353
-0.14810465 -0.20462853 0.0021010595 0.24680483 -0.009545657 -0.45629352 0.28658494 0.23632152
0.007615317 -0.16846123 -0.27317774 -1.6909923e-06 -0.21415329 0.2058565 -0.09353537 0.17199464
-0.2708947 0.3061658 0.31064245 -0.19842201 0.2344322 0.39270386 0.15934715 0.052634157
-1.1318672e-05 -0.24582444 0.0913732 0.1591071 0.12560196 0.0003181969 0.069619864 0.051855855
0.1886525 -0.26487893 0.0002877414 -0.18216707 -0.1750637 0.2001761 0.06546099 -0.04915221
-0.12580226 0.18258004 0.34097672 0.034386132 0.014429004 0.30612183 -0.00030252358 0.0006674624
-0.38523042 0.18956673 -0.0008176162 -0.07131096 0.13902484 0.2500531 0.15175138 0.15119116
-0.0714821 0.095898926 0.07436447 0.11290841 -0.36335924 0.14987655 0.3096293 0.18548915
-0.00065660913 -0.4248396 0.0004236445 -0.105606616 0.2192078 0.20945919 0.23808202 0.0950951
-0.27412108 -0.16401619 0.20921338 -0.0008672859 -0.009641765 -0.27551836 -0.29266676 0.1609033
0.011415939 -0.0027156798 0.28439006 -0.30722147 0.20820823 -0.22690056 0.32885206 0.16985153
-0.2354523 0.01773616 0.07730646 -0.030370146 0.007781831 -0.00036460898 0.271053 0.257027
0.25312236 -0.22132121 0.16518798 -0.3233441 0.078374185 -0.14311965 -0.20326798 -0.3561453
-0.017068138 -0.103678904 0.0724481 0.30410752 0.06634432 -0.22446522 0.24857627 0.19656269
-0.05079216 0.19376625 0.375127 -0.3923113 0.109458774 0.05766325 -0.0031013703 0.16536555
-0.000979464 -0.14372532 -0.18925312 0.15179807 -0.025590047 0.21211483 0.18735082 0.26370567
0.22466281 0.23478486 -0.037562173 0.060428992 0.25959376 -0.24366298 0.20109822 -0.20355046
0.003393294 -0.021625003 -0.0060992627 -0.00015325284 -0.39569405 -0.2888829 0.11510335 0.13083412
0.19011666 -0.02812275 0.24817936 0.11183106 0.058506783 0.12625776 -0.22796814 0.03099399
0.19108151 -0.23488069 -0.15428297 0.10532521 0.2171991 -0.29587284 -0.27124 0.23020901
-0.0021504627 0.18958855 -0.25446385 0.028964702 0.22848126 -0.27244413 0.06831015 0.0016905683
0.054634906 -0.2844338 0.008286162 -0.12952943 0.00022988832 -0.07033789 -0.36893326 -0.32459563
0.042148553 0.24816021 -0.0035234767 0.008975554 0.19665584 -0.32496333 0.20670643 -0.35668582
-0.024529336 0.039387163 -0.033171143 -0.28303197 0.28104118 0.13324837 0.0008217721 0.18545274
0.13174526 -0.08496052 0.2991438 0.1369855 -0.18533213 -0.12575866 -0.05184424 0.008571454
0.00015589739 -0.01052786 0.14957505 -0.18016954 0.23787135 -0.11636685 -0.3159743 -0.0053217513
0.072668195 -0.13810565 0.14728947 0.07740388 -0.053026535 0.2947354 0.10917493 -0.14699686
0.0001093725 0.21237408 0.12631378 0.000713588 0.17554758 0.013514614 -0.08082458 -0.20598629
0.003713491 -0.006094259 0.01760902 0.055342443 -0.15462945 -0.34193864 -0.25093806 -0.18280073
0.22368808 -0.2318585 0.36854446 0.24354751 0.16787377 0.15554552 -0.21725455 -0.0028933608
00000000: f2dd 4d39 d300 67be e00e da3d 0f46 a538
00000010: 7e6a 0eb9 d133 8fbe 8cb9 ebbb 3a47 afbe
00000020: b2c0 703e b746 883c d6c5 193e 8b52 8a3e
00000030: 57e0 813e 13b6 233e 1472 bcb9 fcb4 623e
00000040: bfa8 17be 248a 51be eeb1 093b 68ba 7c3e
00000050: 6365 1cbc 4e9f e9be 43bb 923e 45fe 713e
00000060: e989 f93b 1a81 2cbe f4dd 8bbe 0ef6 e2b5
00000070: 004b 5bbe 0ccc 523e 798f bfbd 5d1f 303e
00000080: b6b2 8abe c4c1 9c3e 870c 9f3e 242f 4bbe
00000090: ff0e 703e 7b10 c93e e62b 233e ea96 573d
000000a0: 53e5 3db7 67b9 7bbe df21 bb3d f9ec 223e
000000b0: cd9d 003e aad3 a639 dc94 8e3d ce66 543d
000000c0: 1f2e 413e 369e 87be ffdb 9639 018a 3abe
000000d0: e643 33be f7fa 4c3e 6910 863d d453 49bd
000000e0: 4fd2 00be 43f6 3a3e 8094 ae3e 79d8 0c3d
000000f0: a167 6c3c 00bc 9c3e 079c 9eb9 a5f8 2e3a
00000100: ec3c c5be c81d 423e 4b55 56ba 7b0b 92bd
00000110: 875c 0e3e f606 803e b764 1b3e dbd1 1a3e
00000120: 3565 92bd a866 c43d 664c 983d 863c e73d
00000130: 390a babe 3d79 193e bb87 9e3e def0 3d3e
00000140: 4b20 2cba 9384 d9be 9a1c de39 4848 d8bd
00000150: 0278 603e 787c 563e c6cb 733e 38c1 c23d
00000160: 9959 8cbe dcf3 27be 083c 563e 925a 63ba
00000170: 7ef8 1dbc be10 8dbe 6bd8 95be d6c3 243e
00000180: eb09 3b3c 8cf9 31bb 939b 913e 224c 9dbe
00000190: 8a34 553e 9f58 68be 4c5f a83e 8fed 2d3e
000001a0: 681a 71be 6c4b 913c d952 9e3d d0ca f8bc
000001b0: bbfe fe3b fd28 bfb9 75c7 8a3e 0b99 833e
000001c0: 4199 813e 07a2 62be 0a27 293e 5c8d a5be
000001d0: a582 a03d f58d 12be 7b25 50be ad58 b6be
000001e0: 7bd2 8bbc 9b55 d4bd ab5f 943d fbb3 9b3e
000001f0: 88df 873d 36da 65be c78a 7e3e bb47 493e
00000200: 710b 50bd a96a 463e a510 c03e 07dd c8be
00000210: ec2b e03d 4d30 6c3d 5c40 4bbb 9655 293e
00000220: 5c61 80ba bb2c 13be 92cb 41be f470 1b3e
00000230: 38a2 d1bc a134 593e e5d8 3f3e 6e04 873e
00000240: 020e 663e 716b 703e cbda 19bd 6484 773d
00000250: 79e9 843e ca82 79be b1ec 4d3e 886f 50be
00000260: 0762 5e3b eb26 b1bc 53dc c7bb 7fb2 20b9
00000270: 6998 cabe 76e8 93be 4ebb eb3d 61f9 053e
00000280: f1ad 423e ae61 e6bc bb22 7e3e af07 e53d
00000290: cfa4 6f3d b749 013e 7b70 69be 1ce7 fd3c
000002a0: dfaa 433e 9084 70be 5bfc 1dbe beb4 d73d
000002b0: 7169 5e3e a57c 97be f8df 8abe e9bb 6b3e
000002c0: c7ee 0cbb 8023 423e 1649 82be 6247 ed3c
000002d0: fef6 693e cc7d 8bbe 31e6 8b3d 0f96 dd3a
000002e0: dac8 5f3d 4fa1 91be afc2 073c 5da3 04be
000002f0: 2d0e 7139 500d 90bd d2e4 bcbe 6631 a6be
00000300: f6a3 2c3d b61d 7e3e 21ea 66bb 340e 133c
00000310: 2660 493e 9861 a6be daaa 533e 869f b6be
00000320: bff1 c8bc 6f54 213d 77de 07bd 91e9 90be
00000330: a1e4 8f3e 4372 083e 316c 573a 53e7 3d3e
00000340: 3be8 063e c8ff adbd 6029 993e ed45 0c3e
00000350: b5c7 3dbe e1c6 00be a05a 54bd 496f 0c3c
00000360: 6378 2339 0c7d 2cbc 342a 193e 5d7e 38be
00000370: 8c94 733e be51 eebd 62c7 a1be 1662 aebb
00000380: 10d3 943d 916b 0dbe 0dd3 163e ed85 9e3d
00000390: 5a32 59bd 8fe7 963e 1b97 df3d 5886 16be
000003a0: ea5e e538 9778 593e 6658 013e 1410 3b3a
000003b0: bfc2 333e 666c 5d3c 5b87 a5bd 12ee 52be
000003c0: 0a5e 733b 5ab2 c7bb cb40 903c c2ae 623d
000003d0: 2f57 1ebe 9512 afbe f47a 80be 1d30 3bbe
000003e0: 7d0e 653e 516c 6dbe dcb1 bc3e 8564 793e
000003f0: 1ae7 2b3e 5347 1f3e fa77 5ebe 8a9e 3dbb

l1.weight f4 [256, 256]
-0.00013481696 0.00029911014 -2.624092e-05 -8.5604916e-05 -2.4089994e-05 0.00013753743 -9.3955234e-05 -1.7399077e-05
-0.00021251952 -0.000121995276 -0.00027314603 8.2864055e-05 -0.00017299713 0.00014090192 6.4276595e-05 0.00020519346
2.4995099e-05 -8.810293e-05 0.00014121339 -8.170521e-05 -0.00031536492 0.00016180926 0.00021543143 0.00016087184
2.592627e-05 -0.00011332189 -0.00031425245 -0.00015768985 0.00012801883 -9.175354e-06 0.00012423968 0.00023533597
8.070483e-05 0.00019357634 0.00011046688 2.9145778e-05 -0.00019280516 -4.044406e-05 0.0001832151 -1.4297595e-06
0.00010022555 -4.286864e-06 -0.00021790642 -0.00031467268 -0.00011003737 0.00029304507 -6.0353537e-05 0.000111069116
-0.00020045438 4.5561042e-05 -0.00016918365 -0.00012744736 0.00017514506 7.687656e-05 -7.343557e-05 0.00017598445
-6.484416e-05 0.00012183326 2.210792e-05 6.754481e-05 -6.680436e-05 -4.468822e-05 -2.6265347e-05 0.00019310757
3.164719e-05 -0.00011627209 0.0003174273 0.00020111508 0.00013812384 -0.00015478607 1.0489188e-05 -7.2250805e-05
8.425566e-05 -0.00016160996 6.1581595e-05 6.368559e-05 0.00020659622 1.6211665e-06 -4.607688e-05 -0.0003357123
-2.6677133e-06 -0.00015820596 -5.6693443e-05 -7.892361e-05 -0.00010411409 -0.00027561834 -8.084983e-05 -3.5682766e-05
-0.00026490685 0.000382981 0.00014851661 9.7853605e-05 0.00014076255 0.00038728735 -0.00011084388 3.528124e-05
7.7001496e-05 -0.00015265527 0.00029189597 3.2986674e-05 -9.978569e-06 -9.18248e-05 1.0356057e-05 -9.667765e-05
-0.00022863584 -2.982161e-05 0.00026700035 -0.0001322037 7.105884e-05 0.0003239617 -1.1757684e-05 0.00017324774
-0.00025960975 -6.552799e-05 0.00014003193 -0.0003073163 -2.3928087e-05 0.0003113703 -0.00020609847 2.7991868e-05
0.00023250855 -0.00024618156 -3.4592854e-06 -0.00011539513 0.00013565342 0.00011694792 -0.0002844185 -4.540967e-06
0.00033592145 6.471439e-05 -1.44025125e-05 7.890693e-05 -0.0004292563 -4.3885197e-05 3.341876e-05 3.904926e-06
0.00011734252 2.8760458e-05 1.06474e-05 -8.0110796e-05 -2.2490976e-05 0.00014913775 -9.664409e-05 -2.2185439e-05
-8.774478e-05 9.866197e-05 -6.8484995e-05 -0.00011702353 -3.2606036e-05 9.74051e-05 3.771834e-05 -6.655825e-05
-0.0002363777 -0.00021712016 7.663462e-05 -0.000294405 7.657267e-05 -0.0003196008 0.00035353925 -8.147311e-05
-8.1733444e-05 -6.37186e-05 -9.812526e-05 -0.00013915267 6.675734e-05 0.0001889041 -0.00019869723 0.00030275906
6.192159e-05 7.152301e-05 -0.00021404662 -5.1088922e-05 -4.7202866e-05 -0.00033549286 0.00016966366 -5.215774e-05
-1.11116515e-05 -0.00028631993 0.00020952223 0.00013123886 6.632287e-05 -6.501088e-05 0.00014740916 -0.00012516358
0.000109158886 5.0674407e-06 -0.00014868204 -7.5648e-05 1.0133068e-05 -5.2202184e-05 -0.00034205717 0.00016559445
2.5819945e-05 0.00015748011 0.00015320009 -0.00014620245 -0.00011043838 0.0002574474 0.0001811726 -3.426601e-05
-0.00022735025 0.00011280914 -0.00010772576 -0.0001182637 -0.00021502905 0.0002594197 -0.00020755232 -4.962175e-05
5.351869e-06 8.5832085e-05 -0.00018266069 -0.00013654884 4.458634e-05 0.00026012788 -0.00021349492 -0.0003284016
3.4755198e-05 0.0002747029 0.00044796726 -0.0002457427 0.0002090892 -0.00012283887 -0.00018371565 0.00016171766
3.496656e-05 0.00014443476 -5.692342e-05 8.927175e-05 -7.2277835e-05 5.3141874e-05 0.0002555414 -0.00011449353
2.2260587e-05 7.3576e-05 -0.0001385504 0.00011849567 9.253205e-05 4.773989e-05 -0.00015740763 0.00016367398
-0.00019507203 4.2605025e-05 0.0001735654 5.1536276e-06 -5.8145764e-05 -5.8019534e-05 -0.0001202071 -0.0001035222
0.00018212642 6.95903e-05 -4.8149464e-05 4.1554085e-06 5.593145e-05 -0.00014382179 4.0218183e-05 2.3093012e-06
00000000: a75d 0db9 e2d1 9c39 f21f dcb7 ca86 b3b8
00000010: de14 cab7 ec37 1039 d509 c5b8 3cf4 91b7
00000020: c6d7 5eb9 b7d7 ffb8 0a35 8fb9 4dc7 ad38
00000030: 9066 35b9 12bf 1339 3ccc 8638 3329 5739
00000040: 91ac d137 e6c3 b8b8 ae12 1439 2759 abb8
00000050: 9057 a5b9 58ab 2939 6fe5 6139 b5af 2839
00000060: 3e7c d937 3aa7 edb8 40c2 a4b9 8c59 25b9
00000070: cb3c 0639 d8ef 19b7 5646 0239 85c4 7639
00000080: 1340 a938 c1fa 4a39 74aa e738 157e f437
00000090: be2b 4ab9 7ba2 29b8 6e1d 4039 2ae6 bfb5
000000a0: 2f30 d238 e2d7 8fb6 cf7d 64b9 a7fa a4b9
000000b0: ddc3 e6b8 d8a3 9939 1e24 7db8 c7ed e838
000000c0: 1031 52b9 cc18 3f38 e466 31b9 64a3 05b9
000000d0: 25a7 3739 ca38 a138 6c01 9ab8 7788 3839
000000e0: f1fc 87b8 bc80 ff38 6674 b937 d8a6 8d38
000000f0: 5119 8cb8 9c6f 3bb8 6754 dcb7 eb7c 4a39
00000100: e9bc 0438 1ad7 f3b8 5f6c a639 6be2 5239
00000110: 56d5 1039 124e 22b9 b8fa 2f37 5b85 97b8
00000120: 6ab2 b038 d875 29b9 5e25 8138 f18e 8538
00000130: c0a1 5839 db96 d935 ac42 41b8 8b02 b0b9
00000140: f706 33b6 17e4 25b9 1fca 6db8 ca83 a5b8
00000150: d457 dab8 de80 90b9 ec8d a9b8 14aa 15b8
00000160: 32e3 8ab9 d7ca c839 20bb 1b39 c136 cd38
00000170: a999 1339 d40c cb39 db74 e8b8 f1fa 1338
00000180: dd7b a138 1612 20b9 9d09 9939 2c5b 0a38
00000190: a169 27b7 1092 c0b8 edbe 2d37 6bbf cab8
000001a0: f7bd 6fb9 6b29 fab7 2efc 8b39 29a0 0ab9
000001b0: 6d05 9538 67d9 a939 de42 45b7 d6a9 3539
000001c0: 3b1c 88b9 126c 89b8 89d5 1239 4c1f a1b9
000001d0: 2db9 c8b7 6a3f a339 231c 58b9 14d0 ea37
000001e0: 8acd 7339 ee11 81b9 1226 68b6 4a00 f2b8
000001f0: 303e 0e39 f041 f538 011e 95b9 9c5e 98b6
00000200: 9d1e b039 46b7 8738 52a2 71b7 d67a a538
00000210: ce0d e1b9 5f11 38b8 1f2b 0c38 0f07 8336
00000220: c915 f638 9d42 f137 3ca2 3237 2801 a8b8
00000230: 01ab bcb7 dc61 1c39 67ad cab8 de1a bab7
00000240: 9f03 b8b8 bee8 ce38 9a9f 8fb8 876a f5b8
00000250: 77c2 08b8 f745 cc38 c233 1e38 3095 8bb8
00000260: 28dc 77b9 c0aa 63b9 e6b6 a038 5f5a 9ab9
00000270: a495 a038 1890 a7b9 3c5b b939 8bdc aab8
00000280: 4f68 abb8 aaa0 85b8 99c8 cdb8 83e9 11b9
00000290: 1300 8c38 8f14 4639 6259 50b9 a2bb 9e39
000002a0: e7db 8138 a0fe 9538 b471 60b9 5048 56b8
000002b0: b1fb 45b8 17e5 afb9 bee7 3139 f2c3 5ab8
000002c0: 2e6c 3ab7 361d 96b9 32b3 5b39 2a9d 0939
000002d0: d216 8b38 7356 88b8 d891 1a39 583e 03b9
000002e0: 3bec e438 fc08 aa36 88e7 1bb9 36a5 9eb8
000002f0: 3201 2a37 abf3 5ab8 2356 b3b9 6ca3 2d39
00000300: e997 d837 3f21 2539 56a4 2039 ec4d 19b9
00000310: 279b e7b8 01fa 8639 26f9 3d39 d9b8 0fb8
00000320: de64 6eb9 f293 ec38 d4ea e1b8 5704 f8b8
00000330: 6c79 61b9 b902 8839 67a2 59b9 f320 50b8
00000340: 3494 b336 c000 b438 9b88 3fb9 8d2e 0fb9
00000350: 3802 3b38 c661 8839 9bdd 5fb9 512d acb9
00000360: 1cc6 1138 0006 9039 26dd ea39 07d7 80b9
00000370: f43e 5b39 4fce 00b9 cba3 40b9 c192 2939
00000380: 0fa9 1238 6973 1739 0fc1 6eb8 6837 bb38
00000390: de93 97b8 a7e4 5e38 30fa 8539 3f1c f0b8
000003a0: 3fbc ba37 d04c 9a38 d747 11b9 e180 f838
000003b0: c40d c238 513c 4838 ca0d 25b9 e69f 2b39
000003c0: 408c 4cb9 ccb2 3238 1bff 3539 53ed ac36
000003d0: 8ae1 73b8 005a 73b8 b217 fcb8 0f1a d9b8
000003e0: 30f9 3e39 02f1 9138 18f4 49b8 b06e 8b36
000003f0: f097 6a38 dece 16b9 f2af 2838 7ef9 1a36

l1.bias f4 [256]
-9.764917e-06 0.2051893 0.2282483 2.9696137e-06 -1.2252801e-07 0.15520486 -0.0002208498 0.30180955
0.15286216 0.23587745 0.20755328 0.24427159 0.30950865 0.23147765 3.403147e-05 0.16590098
0.12547223 0.19853793 0.004611045 0.22803114 -0.0012911102 0.3108102 0.2708391 0.281717
0.0007284781 0.2063239 0.2304093 -1.6257345e-05 0.16058011 0.185084 0.19684511 0.1641139
0.33407062 0.26382577 0.08139593 0.23840433 0.16662845 0.4157659 0.14924473 0.122370824
-6.544557e-05 0.21061124 0.21182856 0.14679983 0.08648465 0.0002224805 0.13883641 0.16509268
0.14856572 0.18917464 3.4208297e-05 0.10288825 0.17739733 0.2570754 0.1562165 0.23120853
0.15066907 0.2242227 0.20666604 0.14634782 0.2155023 0.21593325 6.9889584e-06 7.4925585e-05
0.044118516 0.22697727 0.0007325101 0.07501501 0.16832969 0.07055222 0.3219497 0.10523762
0.26458487 0.21160266 0.1680837 0.16378799 0.2556753 0.16669354 0.36561918 0.1613774
3.1364023e-05 0.19002627 4.470657e-05 0.24518852 0.17536975 0.22509874 0.066586934 0.01712109
0.16212907 0.11321518 0.23911704 0.00029813295 0.3034646 0.21395084 0.1306431 0.2705971
0.00024536627 0.0032583927 0.11555708 0.18757911 0.1859113 0.23253138 0.28746942 0.18986373
0.03570702 0.06003608 0.1671173 0.002603644 0.00893387 0.41009042 0.24521428 0.19909124
0.24920297 0.29069245 0.16426337 0.48934624 0.18529786 0.1552842 0.0730953 0.29170492
-0.00040739402 0.13265142 0.16635051 0.28125972 0.0625169 0.21489608 0.1724206 0.24142325
0.21863669 0.28075302 0.29667836 0.31937966 0.26406965 0.08012331 0.0848191 0.27663615
0.00048433527 0.021396557 0.2898793 0.18156876 0.013740652 0.25350976 0.2614 0.17132221
0.28751713 0.4177579 0.027506301 0.22080544 0.13021989 0.21108946 0.25599054 0.22520621
0.05460976 0.006880666 0.00090963294 0.00014693888 0.28654706 0.26767635 0.16172045 0.025634857
0.2571032 0.017533807 0.13553952 0.1695156 0.17952542 0.1849138 0.2622342 0.06979884
0.16561128 0.21189867 0.19148383 0.22985339 0.1472688 0.11856936 -0.016355878 0.24052443
0.00069270283 0.183336 0.26433918 0.0111634 0.14170204 0.3086879 0.18561995 -2.957932e-05
0.16905306 0.1741193 0.09105476 0.2004977 1.542148e-05 0.17541629 0.30749518 0.29785216
0.13828194 0.16634303 0.00063206395 0.0014523822 0.19547363 0.2035329 0.20764667 0.38827974
0.11517056 0.31866395 0.14412738 0.110447064 0.18451615 0.19399236 0.00085132266 0.15172653
0.17324129 0.10287644 0.23943985 0.19623338 0.14340672 0.13756551 0.25004628 0.010026222
0.00030230745 0.18029687 0.21634494 0.1291349 0.18673806 0.15283161 0.27804038 0.0006699546
0.094068065 0.32002476 0.15116823 0.25874403 0.021158587 0.26442343 0.2761004 0.25977024
1.9893487e-06 0.12626898 0.20035757 0.00021773286 0.25952283 0.033491943 0.13147718 0.14612575
0.0004775246 0.24723841 -0.04075831 0.07509227 0.109194584 0.27366155 0.3178551 0.118863866
0.18899652 0.24974662 0.36208922 0.15258011 0.2404799 7.165041e-05 0.2228371 -0.0003109868
00000000: 00d4 23b7 251d 523e ecb9 693e 9349 4736
00000010: 3e90 03b4 06ee 1e3e eb93 67b9 c886 9a3e
00000020: e687 1c3e dc89 713e d988 543e 5522 7a3e
00000030: eb77 9e3e 7a08 6d3e 03bd 0e38 f2e1 293e
00000040: cb7b 003e 874d 4b3e 4018 973b ff80 693e
00000050: 783a a9ba 8422 9f3e 6cab 8a3e 363d 903e
00000060: 56f7 3e3a 9346 533e 6af0 6b3e 6260 88b7
00000070: 1d6f 243e a986 3d3e c491 493e 790d 283e
00000080: 4e0b ab3e 2c14 873e e9b2 a63d 4420 743e
00000090: a6a0 2a3e 45df d43e 9cd3 183e 8e9d fa3d
000000a0: d33f 89b8 79aa 573e 96e9 583e b252 163e
000000b0: dd1e b13d a849 6939 222b 0e3e 0e0e 293e
000000c0: 9d21 183e ffb6 413e e17a 0f38 13b7 d23d
000000d0: a5a7 353e 639f 833e 38f7 1f3e eec1 6c3e
000000e0: fe48 1a3e a39a 653e 43a0 533e 34dc 153e
000000f0: a3ac 5c3e 9b1d 5d3e b282 ea36 5e21 9d38
00000100: 9eb5 343d bb6c 683e ec05 403a 78a1 993d
00000110: 9e5e 2c3e af7d 903d 97d6 a43e d286 d73d
00000120: ab77 873e 5eae 583e 221e 2c3e 0ab8 273e
00000130: dfe7 823e b6b1 2a3e 7032 bb3e 1e40 253e
00000140: dd8c 0338 3f96 423e 5083 3b38 b312 7b3e
00000150: 2194 333e 4980 663e bb5e 883d 8741 8c3c
00000160: 2a05 263e 5cdd e73d 19db 743e ba4e 9c39
00000170: b65f 9b3e ee15 5b3e 4ec7 053e b48b 8a3e
00000180: 81a4 8039 c28a 553b 31a9 ec3d bd14 403e
00000190: 885f 3e3e b51c 6e3e 312f 933e a36b 423e
000001a0: 8641 123d 65e8 753d cc20 2b3e e6a1 2a3b
000001b0: 5e5f 123c 5ff7 d13e 7419 7b3e 93de 4b3e
000001c0: 102f 7f3e a4d5 943e a834 283e 978b fa3e
000001d0: b9be 3d3e d202 1f3e fdb2 953d 595a 953e
000001e0: 8097 d5b9 c6d5 073e ca57 2a3e 4601 903e
000001f0: dc08 803d b80d 5c3e 078f 303e a837 773e
00000200: 4ce2 5f3e dcbe 8f3e 3ae6 973e bb85 a33e
00000210: 2334 873e b117 a43d a3b5 ad3d 41a3 8d3e
00000220: 61ee fd39 d547 af3c 0f6b 943e 29ed 393e
00000230: 7920 613c 08cc 813e 39d6 853e 176f 2f3e
00000240: 7235 933e 5de4 d53e e554 e13c d21a 623e
00000250: 5d58 053e d627 583e 3111 833e 759c 663e
00000260: 7cae 5f3d 3677 e13b 6f74 6e3a 9b13 1a39
00000270: 4cb6 923e e00c 893e 0c9a 253e 3100 d23c
00000280: 08a3 833e 0fa3 8f3c dfca 0a3e 7f95 2d3e
00000290: 83d5 373e 0b5a 3d3e 9043 863e b2f2 8e3d
000002a0: 0196 293e f7fb 583e 5614 443e b05e 6b3e
000002b0: a2cd 163e 7ed4 f23d c3fc 85bc 094c 763e
000002c0: 8096 353a 6fbc 3b3e 7757 873e b1e6 363c
000002d0: 571a 113e 570c 9e3e 2813 3e3e 1b21 f8b7
000002e0: 3f1c 2d3e 544c 323e eb7a ba3d 454f 4d3e
000002f0: 605d 8137 54a0 333e 0270 9d3e 1480 983e
00000300: c899 0d3e d455 2a3e 18b1 253a dc5d be3a
00000310: 3d2a 483e ee6a 503e 54a1 543e 9acc c63e
00000320: 8bde eb3d ec27 a33e 2196 133e 1232 e23d
00000330: cdf1 3c3e efa5 463e 4c2b 5f3a 335e 1b3e
00000340: 2a66 313e e2b0 d23d b82f 753e 67f1 483e
00000350: 36d9 123e f9dd 0c3e 1106 803e 0645 243c
00000360: 057f 9e39 be9f 383e 8789 5d3e f03b 043e
00000370: 4338 3f3e e47f 1c3e 4f5b 8e3e e49f 2f3a
00000380: c2a6 c03d 49da a33e d8cb 1a3e 197a 843e
00000390: c654 ad3c 8262 873e 085d 8d3e 9b00 853e
000003a0: c080 0536 a84c 013e 892a 4d3e 384f 6439
000003b0: 2de0 843e d92e 093d f4a1 063e fda1 153e
000003c0: 445c fa39 112c 7d3e 30f2 26bd fac9 993d
000003d0: 69a1 df3d 5e1d 8c3e e7bd a23e e66e f33d
000003e0: 4e88 413e 94bd 7f3e c263 b93e f63d 1c3e
000003f0: 5d40 763e 0543 9638 692f 643e f10b a3b9
