code/save/model_x/model_x_repr_6.pt (torch, 446923 bytes, 5 tensors)

embed1.weight f4 [59, 256]
0	0xbdbab32e	-0.09116207
1	0x3e23d234	0.15998155
2	0xbe1f6e5c	-0.15569443
3	0x3cfb7e33	0.030699825
4	0x3d138027	0.036010887
5	0xbe583a41	-0.21115972
6	0x39d204f5	0.00040058015
7	0xbc8c4c5f	-0.01712626
8	0xbe4dae62	-0.20086053
9	0x3e7dd486	0.24788103
10	0xbdbadc40	-0.091240406
11	0xbc818aa7	-0.015813185
12	0x3e33e104	0.17566305
13	0xbcb8794a	-0.022518773
14	0x3e20d84e	0.15707514
15	0x3e699dc0	0.22814083
16	0xbe0ce894	-0.13760597
17	0xbe5a840b	-0.21339433
18	0xbdac8f55	-0.08425776
19	0xbe18873b	-0.14895336
20	0xbb40a526	-0.002939531
21	0xbe0134bc	-0.12617773
22	0xbe06ea40	-0.13175297
23	0x3e61c969	0.22049488
24	0x3e4a2184	0.19739348
25	0xbdcb7fc2	-0.09936477
26	0xbe3fe923	-0.18741278
27	0xbd5b0ff7	-0.053482022
28	0xbe36120c	-0.17780322
29	0x3e5da999	0.21646728
30	0xbda839a4	-0.08214119
31	0x3e2acb23	0.16679053
32	0x3e135a01	0.14389803
33	0xbe636f46	-0.22210416
34	0x3e6922c4	0.22767168
35	0x3e516f4a	0.2045261
36	0x3e1a5482	0.150713
37	0xbdb8f481	-0.090310104
38	0x3e6deb7a	0.23234358
39	0x3d81a50e	0.0633031
40	0xbe39cbd8	-0.18144166
41	0xbe716f4b	-0.23577611
42	0x3e80872a	0.25103122
43	0xbe4f5670	-0.20247817
44	0x3d29c6e8	0.041449457
45	0x3e2a13bf	0.16609095
46	0xbe4720ee	-0.19446155
47	0xbe48af4c	-0.1959812
48	0x3e618b1e	0.22025725
49	0x3c9388b6	0.018009525
50	0x3e3555f6	0.17708573
51	0xbe298912	-0.16556194
52	0xbe27a70e	-0.1637232
53	0xbe4a7c6f	-0.1977403
54	0x3e43a3ec	0.191055
55	0x3e4f878d	0.20266552
56	0xbe243d35	-0.16038974
57	0x3df02e44	0.117275745
58	0xbdfdd0e3	-0.123933576
59	0x3e2ff8cc	0.17184752
60	0xbe6c433b	-0.23072521
61	0xbd88604d	-0.06658993
62	0xbe919413	-0.28433284
63	0x3e26c253	0.16285066
64	0xbd9cfd65	-0.07665519
65	0xbdc458a8	-0.09587222
66	0xbe9e92ee	-0.30971473
67	0x3e37f975	0.17966254
68	0x3e127ebb	0.14306156
69	0x3e1b87f8	0.15188587
70	0xbe275c6e	-0.16343853
71	0xbd9560ad	-0.0729383
72	0xbe7aa734	-0.24477845
73	0xbe84cc87	-0.25937292
74	0xbd701bfe	-0.058620445
75	0x3e5e23ba	0.21693316
76	0x3e588824	0.21145684
77	0x3b9f81f1	0.004867785
78	0xbe8cfde9	-0.27537468
79	0x3d8d5249	0.0690046
80	0x3e83e2db	0.25759014
81	0x3e5392d2	0.20661476
82	0x3e6579da	0.22409764
83	0xbe68293a	-0.22671977
84	0x3e59f536	0.21284947
85	0xbe3e31da	-0.18573704
86	0x3dd17500	0.10227394
87	0x3e82d9d3	0.25556812
88	0xbdb944c4	-0.09046319
89	0xbe549d62	-0.20763162
90	0xbdf54689	-0.11976344
91	0xbdc3c46c	-0.09558949
92	0x3e363739	0.17794503
93	0x3e169803	0.14706425
94	0xbcbae8ef	-0.02281615
95	0x3e41b260	0.18915701
96	0xbe06dbf6	-0.13169846
97	0xbe5d28de	-0.21597621
98	0xbe27e4cf	-0.16395877
99	0x3e5ac864	0.21365505
100	0x3e8232b7	0.25429317
101	0x3e093026	0.13397273
102	0x3e8d862e	0.27641433
103	0x3c9acb7f	0.018895863
104	0xbe1ef612	-0.15523556
105	0xbd658ba4	-0.056041375
106	0x3e5f1d30	0.21788478
107	0x3e23c891	0.15994479
108	0xbe527e01	-0.20555879
109	0xbe729293	-0.23688726
110	0xbe5f07a5	-0.2178026
111	0x3db33ad6	0.087514564
112	0x3dc028e3	0.093827985
113	0x3e884fab	0.26623282
114	0x3db954a6	0.090493485
115	0xbd61c5ce	-0.055120282
116	0x3e4e17d0	0.20126271
117	0x3dda1c94	0.10649982
118	0x3e6a0f08	0.22857296
119	0xbe0eac8a	-0.13933006
120	0x3e39a478	0.18129146
121	0x3e17ff1b	0.14843409
122	0x3e7e5974	0.24838811
123	0xbdaaf76b	-0.083479725
124	0x3d5f1ac3	0.05446888
125	0x3e6f2323	0.23353247
126	0xbe846d8b	-0.25864825
127	0x3e9a38ab	0.3012136
128	0xbe6079a2	-0.21921399
129	0x3dbc5e74	0.09197703
130	0xbda2584d	-0.07926998
131	0xbe42869c	-0.18996662
132	0xbe582906	-0.21109399
133	0xbe907054	-0.282107
134	0x3e59365d	0.21212144
135	0x3e7e9c19	0.24864234
136	0x3e55cc3a	0.20878688
137	0xbd49071e	-0.049079053
138	0x3e850cdf	0.25986382
139	0x3e3b9b3d	0.18320937
140	0x3e6bd331	0.23029782
141	0xbdfe46af	-0.124158256
142	0xbd9be4bb	-0.07611986
143	0x3d9a3925	0.07530431
144	0x3dcb725e	0.09933923
145	0xbe29214c	-0.16516608
146	0xbe461ec1	-0.19347669
147	0x3e8ddd39	0.27707842
148	0xbdc477fd	-0.095931984
149	0x3cf04614	0.02933029
150	0x3e49e27c	0.19715303
151	0xbe4c1cc2	-0.19932845
152	0xbe4c4453	-0.19947939
153	0xbd61d464	-0.055134192
154	0xbe634ea3	-0.22197966
155	0xbe7a6410	-0.24452233
156	0x3e66b50c	0.22530001
157	0xbe8a3055	-0.2699
158	0xbe30e4a4	-0.1727472
159	0xbd0e5d9f	-0.034757253
160	0x3e40b276	0.18818077
161	0xbe48078c	-0.19534129
162	0x3e83e0ad	0.25757352
163	0x3e3fb0fd	0.1871986
164	0xbd43d452	-0.047809906
165	0x3e92e481	0.2868996
166	0xbc56f491	-0.013119833
167	0x3e05eb75	0.13078101
168	0x3e3d40db	0.18481772
169	0x3e57cc86	0.21074113
170	0xbc5cb547	-0.013470954
171	0xbe1d3501	-0.1535225
172	0x3cf89717	0.030345483
173	0x3e67818d	0.22608013
174	0x3e138231	0.14405133
175	0x3e87ca64	0.265216
176	0xbdad2caf	-0.08455788
177	0xbe6cd8c9	-0.23129572
178	0x3e13bb88	0.14427006
179	0xbe718555	-0.23586018
180	0xbe2f53d1	-0.17121817
181	0xbe1fd2ac	-0.15607709
182	0x3e6c8aae	0.23099777
183	0xbe190bc5	-0.14945896
184	0x3e2c8a4c	0.16849631
185	0xbe2dc926	-0.16971263
186	0xbe6bae27	-0.23015653
187	0xbe11b18b	-0.14227884
188	0x3e9b49e8	0.30329823
189	0x3d539c73	0.051662873
190	0x3e3bb711	0.18331553
191	0x3e5523ab	0.20814388
192	0x3e40e892	0.18838719
193	0x3dfce7dd	0.12348912
194	0xbdf65525	-0.12027959
195	0x3e81ef8c	0.25378072
196	0x3d56ea23	0.052469384
197	0x3e5d0e29	0.21587433
198	0xbde768b5	-0.11299268
199	0x3d2c9b13	0.042140078
200	0xbd3d0ed3	-0.046156716
201	0x3e3b454a	0.1828815
202	0x3e30cf2a	0.17266527
203	0xbe5e5bb3	-0.21714668
204	0xbd428f5a	-0.047499992
205	0xbe15fe82	-0.14647868
206	0x3e3fc246	0.18726453
207	0xbd39948a	-0.045307674
208	0xbe2ab74c	-0.16671485
209	0xbe87c0a7	-0.2651417
210	0x3e68e877	0.22744928
211	0xbcd9793f	-0.026547072
212	0xbe01c615	-0.12673219
213	0xbcbc2a7c	-0.022969477
214	0x3dc60950	0.09669745
215	0xbd01281d	-0.031532396
216	0x3c6f7146	0.014614409
217	0x3eaaf408	0.33389306
218	0xbe1c6caa	-0.15275827
219	0xbe015232	-0.12629011
220	0xbe6a2219	-0.2286457
221	0x3e6dc387	0.23219119
222	0x3e0d02cb	0.13770597
223	0x3e1ebdce	0.15502092
224	0xbe106004	-0.14099127
225	0x3e17fdbd	0.14842887
226	0x3e2c6238	0.16834342
227	0xbe08cfc6	-0.1336051
228	0x3e0effe8	0.13964808
229	0x3e6aa011	0.22912623
230	0xbe3e6a1b	-0.18595164
231	0xbe5da538	-0.21645057
232	0xbe009b05	-0.12559135
233	0x3e49e364	0.19715649
234	0xbdf7d10b	-0.12100419
235	0xbd6c61d1	-0.057710472
236	0xbd1c3c2e	-0.03814333
237	0xbe8873d1	-0.2665086
238	0x3e56087f	0.20901679
239	0xbe214813	-0.1575015
240	0xbe814eb6	-0.25255364
241	0x3e78bd0c	0.24290866
242	0xbe697bab	-0.22801082
243	0x3e728b22	0.23685887
244	0xbe64c0dd	-0.22339197
245	0xbe2f9c6e	-0.17149517
246	0x3e62c121	0.22143985
247	0x3e7fadd4	0.24968654
248	0x3e558531	0.2085159
249	0x3dbfea32	0.09370841
250	0xbdf00c3d	-0.11721084
251	0xbdcc43fd	-0.09973905
252	0xbe48da9e	-0.19614646
253	0x3e16714b	0.14691655
254	0xbe3f2979	-0.18668164
255	0xbe3d88ad	-0.18509169

embed2.weight f4 [59, 256]
0	0x3dd2c639	0.10291714
1	0xbd9d9e92	-0.076962605
2	0x3e01cf8f	0.12676834
3	0x3bbcd892	0.005763122
4	0x3e5721e7	0.21009026
5	0xbdb2b9ec	-0.08726868
6	0xbe607544	-0.21919733
7	0x3e0efdd5	0.13964017
8	0x3e151c7e	0.1456165
9	0x3e04c50d	0.12965794
10	0x3e567e35	0.20946582
11	0x3cf73b42	0.030179624
12	0xbe21a00a	-0.15783706
13	0x3e5c8774	0.21536046
14	0xbe15f4ec	-0.14644212
15	0xbcf4e0ad	-0.02989229
16	0xbe81cfaf	-0.25353763
17	0xbe32cb9f	-0.17460488
18	0x3e771d3d	0.24132247
19	0xbd9eb34c	-0.07749042
20	0x3e3784dd	0.17921777
21	0xbda42c79	-0.08016295
22	0xbdefc4ec	-0.11707482
23	0x3e8426b3	0.25810775
24	0xbe72919c	-0.23688358
25	0x3e33d0ca	0.17560115
26	0x3e2f448a	0.1711599
27	0xbd79a20f	-0.060945567
28	0x3ea01573	0.31266364
29	0x3e7f6ccd	0.24943848
30	0xbd4ac0d9	-0.04950032
31	0x3dc83df2	0.0977744
32	0x3e3800ea	0.17969099
33	0x3d9c8965	0.076433934
34	0x3e709dc6	0.23497686
35	0xbe5c2d08	-0.21501553
36	0xbd996a10	-0.07490933
37	0xbe9c23bd	-0.30496016
38	0xbe73b275	-0.23798545
39	0x3e045c6d	0.12925883
40	0xbdaf5531	-0.08561171
41	0x3e39564f	0.1809933
42	0x3db1a5d7	0.086742096
43	0xbe814fdf	-0.2525625
44	0x3d312436	0.043247424
45	0x3e438118	0.19092214
46	0x3e09d3b7	0.13459669
47	0x3e5cac51	0.21550108
48	0x3dd80e67	0.10549622
49	0x3e8415e5	0.25797954
50	0x3e1a4bc3	0.15067963
51	0x3e038e02	0.1284714
52	0x3e3ac239	0.18238153
53	0xbe7a7b05	-0.2446099
54	0xbda30b1b	-0.079611026
55	0xbd46edf1	-0.048566762
56	0x3da359c4	0.07976106
57	0x3e39da14	0.18149596
58	0xbe2602f5	-0.16212066
59	0x3e08f901	0.13376237
60	0xbe589ce3	-0.21153598
61	0x3dc03a41	0.09386111
62	0xbda0dd32	-0.0785469
63	0x3d7f3ec3	0.062315714
64	0x3def29c3	0.11677887
65	0x3e44561f	0.19173478
66	0x3ddccb3e	0.10780953
67	0xbe1366b6	-0.1439465
68	0x3d9851f2	0.07437505
69	0xbdf37b16	-0.11888711
70	0xbb80b31d	-0.003927602
71	0xbe63c7f1	-0.2224424
72	0x3de5e5e9	0.112254925
73	0x3e4c405b	0.19946425
74	0x3e51f600	0.20503998
75	0x3e6b900f	0.23004173
76	0x3e46d501	0.19417192
77	0xbdebf890	-0.11522019
78	0xbe68dbfc	-0.22740167
79	0xbe5f589a	-0.21811143
80	0x3dd016be	0.10160588
81	0x3d77dfc4	0.060516134
82	0x3e72164a	0.23641315
83	0x3dc7a0c1	0.09747458
84	0x3e5bfeae	0.21483871
85	0x3df0bf12	0.11755194
86	0x3e7229bf	0.23648737
87	0xbe8c0705	-0.27349105
88	0xbce375e7	-0.027766181
89	0x3e3aa5be	0.18227288
90	0x3e4c8852	0.19973877
91	0x3e80b55f	0.25138375
92	0x3d9e191d	0.07719634
93	0xbdd49ce6	-0.103814885
94	0xbdc877b7	-0.09788459
95	0x3e8a1c70	0.2697482
96	0x3e50fb64	0.20408398
97	0x3d7a4b0d	0.06110673
98	0xbe8fe8d1	-0.28107312
99	0xbe027447	-0.12739669
100	0x3e8f970d	0.2804493
101	0x3e4d06c5	0.20022114
102	0x3e222c28	0.15837157
103	0x3e5e4463	0.21705775
104	0xbe637d82	-0.22215846
105	0x3e2318e2	0.15927461
106	0x3e2a6bef	0.16642736
107	0x3b14d55d	0.0022710182
108	0xbe5c201c	-0.21496624
109	0x3e0ee1d6	0.13953337
110	0xbe30c91a	-0.17264214
111	0x3e861be0	0.26193142
112	0xbe8de669	-0.27714851
113	0xbe17d047	-0.14825545
114	0xbe8461d1	-0.25855878
115	0x3e6d0f40	0.23150349
116	0xbc77bfcf	-0.015121414
117	0x3e67f127	0.22650586
118	0x3e0d07f3	0.13772564
119	0x3ddac8f2	0.106828585
120	0xbdad7ad8	-0.08470696
121	0xbe51cea6	-0.20488986
122	0x3e9965f5	0.299606
123	0x3e1e8ee3	0.15484194
124	0xbe5dd935	-0.21664889
125	0xbdbde973	-0.092730425
126	0xbe51c8bc	-0.2048673
127	0xbe4e58d4	-0.20151073
128	0x3dcca66b	0.09992679
129	0x3dae1394	0.08499828
130	0xbea4879f	-0.3213472
131	0xbd99198c	-0.07475576
132	0xbe358dca	-0.1772987
133	0xbe19ae0c	-0.150078
134	0xbb93703d	-0.004499464
135	0x3d9de523	0.0770972
136	0x3e590933	0.21194915
137	0x3df59119	0.11990566
138	0x3e3cdc47	0.18443404
139	0xbe5d674a	-0.21621433
140	0xbe285343	-0.16438012
141	0x3e56a865	0.20962675
142	0x3d8a1948	0.06743103
143	0x3df6beaa	0.12048085
144	0xbe6c6e6b	-0.23088996
145	0xbe09649b	-0.13417284
146	0x3df716f5	0.120649256
147	0xbdbb6e20	-0.09151864
148	0xbe4add28	-0.19810927
149	0x3e80d001	0.25158694
150	0x3dd650ae	0.10464607
151	0xbe4f7b4b	-0.20261876
152	0x3e6f0a83	0.23343854
153	0x3e3d7358	0.18501031
154	0x3e25a5b3	0.1617649
155	0xbe3dda35	-0.1854027
156	0x3e4be8de	0.1991305
157	0x3df2edeb	0.118617855
158	0xbe225666	-0.15853271
159	0xbe8ba5e4	-0.27275002
160	0x3e302b85	0.17204101
161	0xbe2492b4	-0.16071588
162	0xbe3ab077	-0.18231378
163	0x3db2fba4	0.08739403
164	0x3e329b9c	0.17442173
165	0xbd9ee45c	-0.077584
166	0x3e8be38d	0.27322045
167	0xbe8cffa6	-0.27538794
168	0xbd59f6e4	-0.05321397
169	0xbe8c1fbf	-0.2736797
170	0x3d0a168e	0.033712916
171	0xbe86a712	-0.2629934
172	0x3e2be4ac	0.1678645
173	0xbe23cc5c	-0.15995926
174	0x3dd0ad19	0.10189266
175	0xbd8382ab	-0.06421407
176	0x3e586aa5	0.21134432
177	0xbda24a15	-0.07924286
178	0x3db36ae8	0.08760625
179	0x3d6ba0bb	0.05752633
180	0xbdba9f14	-0.09112373
181	0x3d7e4537	0.062077727
182	0x3e88a84f	0.2669091
183	0xbdce7f41	-0.100828655
184	0x3e2a2249	0.16614641
185	0xbe8ccf6f	-0.2750201
186	0x3dcd07e5	0.100112714
187	0xbe89ca96	-0.26912373
188	0xbe62648c	-0.22108668
189	0x3e00bef1	0.12572838
190	0x3e03a270	0.12854934
191	0xbe1dfa3f	-0.15427493
192	0x3dd3e6d9	0.10346765
193	0xbde64370	-0.112433314
194	0xbe8189e7	-0.25300524
195	0x3e7ece92	0.24883488
196	0x3e403d5b	0.18773405
197	0xbe4e28dc	-0.20132774
198	0xbe4f7208	-0.20258343
199	0xbe9112b0	-0.2833457
200	0x3d56805f	0.052368518
201	0x3be67da2	0.0070340196
202	0x3e882578	0.26591086
203	0xbdf554e7	-0.119790845
204	0xbe6a0a24	-0.22855431
205	0xbe5985a5	-0.21242388
206	0xbde208fc	-0.1103687
207	0x3c3292ec	0.010899287
208	0x3e69c519	0.22829093
209	0x3e5f4a6c	0.21805733
210	0x3e2f5afb	0.1712455
211	0x3c26bd6c	0.010176998
212	0xbdbbd50c	-0.09171495
213	0x3dfad4b7	0.122476034
214	0x3e486ad5	0.19572003
215	0xbe22b4ee	-0.15889332
216	0x3dbbe124	0.091738015
217	0xbd9ed5cd	-0.07755623
218	0xbe4e1b41	-0.20127584
219	0xbea26413	-0.31716976
220	0x3e03fc7d	0.12889285
221	0xbd508aad	-0.0509135
222	0x3d29a6a1	0.041418675
223	0xbe3d724b	-0.1850063
224	0xbe03f4b8	-0.12886322
225	0x3dc62702	0.09675409
226	0x3e05e23c	0.13074583
227	0x3c43ff28	0.011962689
228	0x3e738821	0.23782398
229	0x3dc71ec8	0.09722668
230	0xbe853d78	-0.2602346
231	0x3dad35eb	0.0845755
232	0xbe4d1a54	-0.20029575
233	0xbe87befa	-0.2651289
234	0xbd6457e6	-0.05574789
235	0x3e254881	0.1614094
236	0x3e68da44	0.22739512
237	0xbe815aa1	-0.25264457
238	0xbe813dff	-0.25242612
239	0xbd664e1b	-0.05622683
240	0xbdd55e0b	-0.10418328
241	0x3de0848a	0.1096278
242	0xbe61cdeb	-0.22051208
243	0xbe3f4df4	-0.1868208
244	0xbd11a797	-0.035560217
245	0x3e3b2db9	0.1827916
246	0xbe710d25	-0.2354017
247	0x3e69be9e	0.22826621
248	0xbe65d87e	-0.22445866
249	0x3cf16412	0.029466663
250	0x3e03223f	0.12806033
251	0xbe8cf3d6	-0.27529782
252	0xbd86bb8d	-0.06578741
253	0xbe48e2fe	-0.1961784
254	0xbe65cfe8	-0.22442591
255	0xbe1239a7	-0.14279805

unembed.weight f4 [59, 256]
0	0xbe0e4995	-0.13895257
1	0xbec3ec70	-0.38266325
2	0xbe8b18ef	-0.2716746
3	0x3df75778	0.1207723
4	0xbe537aa8	-0.20652258
5	0x3e22b53b	0.15889446
6	0xbe4caec2	-0.1998854
7	0x3e12fc09	0.14353956
8	0x3e1d806e	0.15381023
9	0xbced2836	-0.028949838
10	0x3e35417e	0.17700765
11	0xbeb4ac0e	-0.35287517
12	0x3e2a84dc	0.16652244
13	0x3c8c9cef	0.017164676
14	0xbe63e52c	-0.22255391
15	0x3d04c78a	0.032416858
16	0xbe80726e	-0.25087303
17	0xbdc27c26	-0.09496336
18	0xbc2da63f	-0.010598718
19	0xbd867c35	-0.06566659
20	0x3e641b31	0.22275998
21	0x3e43e26b	0.1912934
22	0x38c82017	9.54272e-05
23	0xbe19166d	-0.14949961
24	0xbe235b88	-0.15952885
25	0xbe2c1334	-0.168042
26	0xbe8f1c2f	-0.2795119
27	0x3e8b8a66	0.27254027
28	0x3e7434a4	0.23848206
29	0x3e4954b4	0.19661218
30	0xbe0b829f	-0.13624047
31	0xbdcb6d36	-0.0993294
32	0x3e3c36f8	0.18380344
33	0xba3f2e8d	-0.00072930084
34	0x3d8cf17a	0.068819955
35	0x3e128713	0.14309339
36	0xbe6721fe	-0.2257156
37	0x3dd82e3e	0.10555695
38	0x3e8b624c	0.27223432
39	0x3e6ca314	0.23109084
40	0xbcadd93e	-0.021221753
41	0x3e70b6aa	0.23507181
42	0x3e3f8d51	0.18706252
43	0xbddc21a8	-0.10748607
44	0x3e8570ee	0.2606272
45	0x3d18de64	0.037321463
46	0x3e8920dd	0.26782885
47	0xbe1718b3	-0.14755516
48	0x3defbf14	0.11706367
49	0x3e31786e	0.17331097
50	0x3e40595a	0.18784085
51	0x3e3ad356	0.18244681
52	0xbca6bb50	-0.02035299
53	0x3e35ec53	0.17765932
54	0xbe6de4de	-0.23231837
55	0xbde328c3	-0.11091759
56	0xbe820e0c	-0.25401342
57	0x3ced1cbe	0.02894437
58	0xbe8214b6	-0.25406426
59	0xbe1c9d75	-0.1529444
60	0x3e3ae4df	0.1825137
61	0x3c20809e	0.00979629
62	0x3e0aed5c	0.13567108
63	0xbe288836	-0.1645821
64	0x37261632	9.899539e-06
65	0xbe90e293	-0.28297862
66	0x3e150b3b	0.14555065
67	0x3e08b9ac	0.13352078
68	0x3e83e00f	0.2575688
69	0x3e9c71b5	0.30555502
70	0xbea81deb	-0.32835326
71	0x38044adc	3.154097e-05
72	0xbe85d1c2	-0.26136595
73	0x3da8cca6	0.082421586
74	0x3ca3f867	0.020015908
75	0xbe47bb35	-0.19505008
76	0xbe9046ce	-0.2817902
77	0x37bc5fa3	2.245588e-05
78	0xbd70e107	-0.058808353
79	0xbde582b4	-0.1120657
80	0xbd9e5216	-0.077305004
81	0xbeac534f	-0.3365731
82	0x3e89e114	0.26929533
83	0xbe9de17f	-0.30836102
84	0x3e7e3c6a	0.24827734
85	0x3e2f26ff	0.1710472
86	0x3e537191	0.20648791
87	0xbddae0b4	-0.1068739
88	0x3e0dba4b	0.13840596
89	0x3e330a1a	0.17484322
90	0xbde05064	-0.10952833
91	0xbebe0549	-0.37113407
92	0xbe8bbe2a	-0.2729352
93	0x3e866602	0.262497
94	0x3e1c3536	0.15254673
95	0x3deda3a6	0.11603479
96	0xbe4e56b2	-0.20150259
97	0x3e38003c	0.1796884
98	0x3e88a31f	0.26686952
99	0x3e5eb087	0.21747027
100	0xbe9caa7f	-0.30598828
101	0xbebd2a74	-0.36946452
102	0xbe8807a1	-0.2656832
103	0x3e70ec1a	0.23527566
104	0x37dcedf8	2.6336857e-05
105	0x3d38bd9f	0.04510271
106	0x3e6e6643	0.23281197
107	0xb6fb9fc5	-7.4989825e-06
108	0xbe84549b	-0.258458
109	0x3dfcbc8c	0.1234065
110	0x3dbde23b	0.09271666
111	0xbe8771b1	-0.26453927
112	0xbe674e94	-0.22588569
113	0xbe67a954	-0.22623187
114	0x3e5e9a9d	0.21738668
115	0x3caabd29	0.020842152
116	0x3e53dcd4	0.20689708
117	0xbbb1839c	-0.0054173004
118	0xbe866565	-0.26249233
119	0xbeb2e1d3	-0.34937915
120	0x3e825c7a	0.2546118
121	0x37f44ebf	2.9123736e-05
122	0x3d74629c	0.059664354
123	0xbe94fa41	-0.2909718
124	0x3e19b331	0.15009762
125	0x3dd3bcc6	0.1033874
126	0x3e15a509	0.14613737
127	0x3e5fe7c4	0.21865755
128	0xbeb28b94	-0.34872115
129	0xbe5d9307	-0.21638118
130	0x3e55b776	0.20870766
131	0xbe0b7e2d	-0.13622351
132	0x3df2de48	0.11858803
133	0x3568c6e8	8.671618e-07
134	0x3e343502	0.17598346
135	0x3e5fac0f	0.21842979
136	0xbdaa3bdd	-0.08312199
137	0x3e659c99	0.22423019
138	0x3e8bff39	0.27343157
139	0xbd597a60	-0.05309522
140	0x3d39e2dd	0.04538237
141	0xbe3c292d	-0.18375082
142	0x3e13b1ba	0.14423266
143	0xbe55cd21	-0.20879032
144	0x3e5a2554	0.21303302
145	0x3b93ebc6	0.0045141904
146	0x3e8720d0	0.2639222
147	0xbe7f4e14	-0.24932128
148	0xbe51fff3	-0.20507793
149	0x3e59ab1a	0.21256676
150	0x3c777880	0.015104413
151	0x3e1d4377	0.15357767
152	0x3e85d228	0.261369
153	0xbde7a4d1	-0.11310733
154	0x3e0cd140	0.13751698
155	0xbe5d7f2c	-0.21630543
156	0xbdad0cd5	-0.08449713
157	0x3e778c9c	0.24174732
158	0x3e5435c9	0.20723642
159	0x3e639ff3	0.22228985
160	0x3e03983f	0.12851046
161	0xbe706999	-0.23477782
162	0xbe72ba1f	-0.23703812
163	0xbea08113	-0.31348476
164	0x3e815bd5	0.25265375
165	0x3e273386	0.16328248
166	0x3e13efcb	0.14446943
167	0xbd83c9c5	-0.06434969
168	0xbcd3f43a	-0.025873292
169	0x3e470a7b	0.19437592
170	0xb8e717d1	-0.000110193745
171	0x3e423cdd	0.1896853
172	0x38793ed8	5.9424754e-05
173	0x3ea46064	0.3210479
174	0xbe33d442	-0.17561439
175	0xbe8a3103	-0.26990518
176	0xbe8819d3	-0.26582202
177	0xbb959c13	-0.0045657246
178	0x3e725c4c	0.23668021
179	0x3cb2f9bf	0.021847604
180	0xbe8d12f7	-0.27553532
181	0x3ea6309a	0.32458955
182	0xbd6f7fe3	-0.05847157
183	0x3e58b76e	0.21163723
184	0xbeb74a64	-0.35798943
185	0x3ce38812	0.027774844
186	0xbbeb37ad	-0.007178268
187	0xbe28a3c8	-0.16468728
188	0xbe9fa5b3	-0.31181106
189	0xbe2224bf	-0.1583433
190	0x3d9b804d	0.07592831
191	0x3dce1198	0.100619495
192	0x3e83ecaf	0.25766513
193	0x3e3f9008	0.18707287
194	0x3d181994	0.03713377
195	0xb77f5b29	-1.5220409e-05
196	0xbd90ff70	-0.07079971
197	0x3e26c5e9	0.16286434
198	0xbea0c6d6	-0.314017
199	0xbdb33877	-0.08751004
200	0x3e4d0bc4	0.2002402
201	0xbe05ab8b	-0.1305372
202	0x3e85739f	0.26064774
203	0x3e04ed35	0.12981112
204	0x3e5d73f7	0.21626268
205	0x3d70975f	0.05873811
206	0xba84521c	-0.0010095271
207	0x3e8577b3	0.26067886
208	0x3e529d14	0.20567733
209	0x3e08804c	0.13330191
210	0x3da8df97	0.082457714
211	0x3de65b64	0.112479
212	0xbe18cb58	-0.1492132
213	0x3e842489	0.25809124
214	0xbe171f2d	-0.14757986
215	0xbe7deeb9	-0.24798097
216	0x3e4337a4	0.19064194
217	0x3dab7359	0.0837161
218	0xbe67836c	-0.22608727
219	0xbe67e0ec	-0.22644395
220	0x3e866fd8	0.26257205
221	0x3d9fca0b	0.078022085
222	0x3d5f7002	0.05455018
223	0xbe6c074d	-0.2304966
224	0x3dd38f0b	0.10330018
225	0x3e8e396e	0.2777819
226	0x3e7b131a	0.24519005
227	0xbe84047b	-0.25784668
228	0xbe75b5d5	-0.23995145
229	0xbe2b2117	-0.16711842
230	0x3e7014ae	0.23445389
231	0x3a9424d8	0.0011302484
232	0x3e0814f7	0.13289247
233	0xbcecd660	-0.028910816
234	0xbe0dde9e	-0.13854453
235	0x3d58db17	0.052943315
236	0xbed6ea95	-0.41975847
237	0x3e8a45b4	0.27006304
238	0x397cd794	0.00024112902
239	0xbdfb9939	-0.12285084
240	0x3e1e637e	0.15467641
241	0x3e9176e4	0.2841102
242	0x3657e41d	3.2170276e-06
243	0x3e449364	0.1919685
244	0xbe8b63a9	-0.27224472
245	0x3d820bfc	0.06349942
246	0xbc0b3271	-0.008495913
247	0xbe7390cc	-0.23785704
248	0xbc30019f	-0.010742574
249	0x3e7886ee	0.24270222
250	0x3e51b306	0.20478448
251	0xbe267db7	-0.16258894
252	0xbe33f01c	-0.17572063
253	0x3e39b345	0.18134792
254	0xbe357acb	-0.17722623
255	0x376f4bf7	1.4263197e-05

l1.weight f4 [256, 256]
0	0x3cce9300	0.02521658
1	0x3cef1c22	0.02918822
2	0x3d6d155c	0.057881698
3	0x3daf7d48	0.085688174
4	0x3e00a8a4	0.12564331
5	0xbcb3be01	-0.021941187
6	0xbd9749a8	-0.07387096
7	0xbd211acb	-0.039332192
8	0xbdc23adb	-0.09483882
9	0xbde00f4e	-0.10940419
10	0x3dc0a4cb	0.09406432
11	0x3dde411c	0.108522624
12	0x3d87916f	0.06619536
13	0xbd35bab5	-0.04436751
14	0xbbad2704	-0.005284192
15	0x3d93ca1f	0.07216286
16	0xbda1bc0a	-0.07897194
17	0x3da39d18	0.07988948
18	0xbdbe98e5	-0.09306506
19	0xbd8d6763	-0.06904485
20	0x3dcf27b0	0.10114992
21	0x3db0e0bf	0.08636617
22	0x3e1f0176	0.15527901
23	0x3d88d07d	0.06680391
24	0x3cee737e	0.029107805
25	0xbdd650a8	-0.10464603
26	0x3d8ed6b4	0.06974545
27	0x3d91b250	0.071140885
28	0xbe054477	-0.13014399
29	0xbc5addfb	-0.013358588
30	0x3d81e4f7	0.063425
31	0xbd95bb20	-0.07311082
32	0x3c22d34f	0.009938075
33	0xbe00d64c	-0.12581748
34	0x3d81db41	0.063406475
35	0xbdda2513	-0.106516026
36	0xbd8d64e8	-0.06904012
37	0x3c4a0a03	0.012331489
38	0xbdef0766	-0.11671333
39	0x3d04c471	0.032413904
40	0x3db40992	0.08790888
41	0x3d3c1446	0.04591777
42	0x3ca00e39	0.019538032
43	0x3d2498a5	0.040184636
44	0x3d8f643e	0.070015416
45	0x3d8b768b	0.0680972
46	0xbd815640	-0.06315279
47	0xbd4c27a8	-0.049842507
48	0xbdc325cb	-0.09528693
49	0x3d8ca73d	0.06867836
50	0xbd909e82	-0.07061483
51	0x3d0592a1	0.03261054
52	0xbdf735ad	-0.12070785
53	0x3d9c3ba7	0.07628565
54	0x3e04cbf3	0.12968425
55	0xbcbb2b15	-0.022847692
56	0xbda26969	-0.07930262
57	0xbdc15bb2	-0.094413176
58	0x3dc51744	0.09623578
59	0xbd8666a3	-0.06562545
60	0x3cf118a6	0.029430699
61	0xbbe92468	-0.0071149357
62	0xbcc9a663	-0.024615472
63	0x3dbd9bba	0.09258218
64	0xbd4be934	-0.049782947
65	0xbda00f5b	-0.07815429
66	0xbe004fee	-0.12530491
67	0xbdba1aec	-0.09087166
68	0x3d205771	0.03914589
69	0xbd8b3eb1	-0.06799067
70	0x3deef5ee	0.11668001
71	0xbd8ec35f	-0.06970858
72	0xbdbc6582	-0.091990486
73	0xbdd2ee04	-0.10299304
74	0xbb6a69d4	-0.0035768645
75	0xbd234019	-0.03985605
76	0xbd27befe	-0.04095363
77	0x3dde9c7a	0.10869689
78	0x3d82ebe8	0.06392652
79	0x3dfaace4	0.122400075
80	0xbc0f888d	-0.008760584
81	0xbdad9f25	-0.0847762
82	0x3be9456c	0.0071188714
83	0xbe0ea1df	-0.13928936
84	0xbd25b066	-0.04045143
85	0xbd6c574c	-0.05770044
86	0xbcc01bf7	-0.023450835
87	0x3d7d6edc	0.061873302
88	0x3a6918b8	0.0008891928
89	0x3db54061	0.0885017
90	0x3db4889a	0.08815117
91	0xbe0a5971	-0.13510682
92	0x3db4aa08	0.088214934
93	0xbd1702e7	-0.036868002
94	0x3c5e6759	0.013574445
95	0xbbdcd4d7	-0.0067392397
96	0x3e0032a0	0.12519312
97	0xbdc1866f	-0.09449469
98	0xbd06c8b2	-0.03290624
99	0x3ca22207	0.019791616
100	0x3d24b0f5	0.040207822
101	0xbd0904ff	-0.03345203
102	0xbdfd864f	-0.12379133
103	0x3dd38362	0.10327794
104	0xbe04f88e	-0.12985441
105	0xbe01dfc6	-0.12683019
106	0xbcc76717	-0.02434115
107	0x3dc3828e	0.09546386
108	0x3da6e23b	0.08148619
109	0xbd9db198	-0.07699889
110	0xbd6838ac	-0.05669467
111	0xbd7f6387	-0.062350776
112	0xbd674fdb	-0.05647264
113	0x3d8a300e	0.06747447
114	0x3dd331d6	0.1031224
115	0x3c8dad05	0.017294416
116	0x3d18a74c	0.03726892
117	0xbdcac0a6	-0.09900026
118	0xbd871aad	-0.06596885
119	0xbd6ad5a5	-0.057332654
120	0xbd321b3b	-0.043483
121	0xbd91b37b	-0.07114311
122	0x3d415c3b	0.0472071
123	0xbdefa5a2	-0.11701514
124	0xbde89020	-0.11355615
125	0xbd904a16	-0.07045381
126	0x3dc58eca	0.096463755
127	0x3d9c0682	0.07618429
128	0xbe10b483	-0.1413136
129	0x3db5da72	0.08879556
130	0xbd78744f	-0.060657796
131	0x3dcabb32	0.09898986
132	0xbe0bc6f4	-0.13650113
133	0xba3489cd	-0.0006886989
134	0x3bd47af0	0.006484382
135	0xbda11ca4	-0.07866791
136	0xbd181181	-0.037126068
137	0x3d98b709	0.07456786
138	0x3dd34d35	0.103174604
139	0x3d1a3311	0.037646357
140	0x3d8159af	0.06315934
141	0xbdc40fc2	-0.09573318
142	0xbd48a68f	-0.048986968
143	0xbddbe4f9	-0.107370324
144	0xbd6186b8	-0.05506012
145	0x3dea85a8	0.11451274
146	0xbc97a151	-0.018509539
147	0xbd7eaa89	-0.062174354
148	0xbdbc7951	-0.09202827
149	0xbd13ed64	-0.036115065
150	0xbd95399e	-0.0728638
151	0x3d211392	0.039325304
152	0x3ba2001f	0.004943862
153	0x3d3347d3	0.04376967
154	0x3cf9c02c	0.030487143
155	0xbdb2c638	-0.087292135
156	0x3d88fee8	0.066892445
157	0xbc2d2214	-0.010567207
158	0xbd5afa3c	-0.0534613
159	0x3d22f183	0.039781105
160	0xbdb3eec3	-0.087857746
161	0x3dde2740	0.1084733
162	0x3cea3821	0.028591217
163	0xbd24c382	-0.040225513
164	0x3d512806	0.05106356
165	0x3dca960b	0.098919
166	0xbe096552	-0.13417557
167	0x3d0fc5f1	0.03510088
168	0xbda7ec09	-0.08199317
169	0x3e0beef7	0.13665377
170	0x3c926cc6	0.017874133
171	0x3d571a5d	0.052515376
172	0x3c2cc833	0.010545778
173	0x3de28018	0.11059588
174	0x3cd955e8	0.026530221
175	0x3d8c3d63	0.06847646
176	0xbd8c91c6	-0.068637416
177	0xbdd88087	-0.1057139
178	0xbd39f272	-0.04539723
179	0xbdadad0b	-0.08480271
180	0xbd8e2120	-0.06939912
181	0xbdd68fd0	-0.10476649
182	0xbdaa0672	-0.083020106
183	0xbde988fc	-0.11403081
184	0xbd7e5160	-0.062089324
185	0xbd7f4987	-0.06232598
186	0x3de3459e	0.11097263
187	0xbd5865dd	-0.05283152
188	0x3de219e0	0.110400915
189	0x3c018420	0.007905036
190	0x3dba8066	0.09106521
191	0x3d8be370	0.0683049
192	0x3d80e9be	0.06294583
193	0xbd2c188d	-0.0420156
194	0xbda5e23f	-0.08099794
195	0xbcd8bbf2	-0.026456807
196	0xbc3431a0	-0.01099816
197	0x3ddff117	0.10934656
198	0x3d97b493	0.07407489
199	0x3e22270f	0.15835212
200	0x3d8319db	0.06401416
201	0x3da4a874	0.080399424
202	0x3dd74081	0.1051035
203	0x3dbadcbc	0.09124133
204	0xbcefe8ab	-0.02928575
205	0x3dd4a7a6	0.10383539
206	0x3d97e8df	0.074174635
207	0xbd990421	-0.07471491
208	0xbd006fc6	-0.031356595
209	0xbda19d2a	-0.07891305
210	0x3dae2ca5	0.08504609
211	0x3d08caed	0.03339665
212	0x3d6a9e8f	0.05728012
213	0xbd230f51	-0.03980953
214	0x3c357595	0.011075397
215	0xbd0bd803	-0.03414155
216	0xbb6ad115	-0.003583019
217	0x3db3e687	0.08784204
218	0x3d6012e8	0.05470553
219	0xbdbafb9b	-0.09130021
220	0xbd8b5a50	-0.06804335
221	0x3d111579	0.03542087
222	0x3d41aa16	0.047281347
223	0x3d977a27	0.073963456
224	0xbd824ce1	-0.0636232
225	0x3cebbdee	0.028777089
226	0xbcf38367	-0.029725743
227	0xbd3be619	-0.045873735
228	0xbe0cec7a	-0.13762084
229	0x3c90450b	0.017611047
230	0xbdd5289f	-0.104081385
231	0xbd818b30	-0.06325376
232	0x3df9ca0b	0.1219674
233	0x3e08b780	0.1335125
234	0x3d3000cd	0.042969514
235	0xbd130e61	-0.035902385
236	0x3db025fc	0.08600995
237	0xbda9741a	-0.08274098
238	0xbd0311f0	-0.03199953
239	0xbdfaa386	-0.12238221
240	0xbe028b56	-0.12748465
241	0x3deaccdb	0.11464854
242	0x3dab7440	0.08371782
243	0x3d0cfce7	0.034420874
244	0xbdd6c612	-0.10486998
245	0x3d77852c	0.060429737
246	0xbd022fac	-0.031783745
247	0x3d95538b	0.07291325
248	0x3dd07125	0.101778306
249	0xba9dc228	-0.0012036012
250	0xbdb12da1	-0.08651281
251	0x3cf4d223	0.029885357
252	0x3d275cea	0.040860094
253	0xbd989117	-0.07449549
254	0xbe02c3f1	-0.12770058
255	0x3c053d78	0.008132331

l1.bias f4 [256]
0	0x3e1f5b7d	0.15562244
1	0x3e55ffa4	0.208983
2	0x3dec804a	0.11547907
3	0x3ddeeb37	0.108847074
4	0x3e61c711	0.22048594
5	0x3e736559	0.2376913
6	0x3e44348f	0.19160675
7	0x3db763e5	0.089546
8	0x3ce65aae	0.028119411
9	0x3e870407	0.2637026
10	0x3e43a379	0.19105329
11	0x3dbf3710	0.09336674
12	0x3deaf2b7	0.114720754
13	0x3e506ac3	0.20353226
14	0x3e65a34b	0.22425573
15	0x3dd0000a	0.101562575
16	0x3dc6e0e6	0.09710865
17	0x3d2198de	0.039452426
18	0x3bd77811	0.0065755923
19	0x3e4c6741	0.19961263
20	0x3e37cf0e	0.17950079
21	0x3e4d217e	0.20032308
22	0x39a6f811	0.0003184681
23	0x3e19b0e7	0.15008889
24	0x3e71e332	0.23621824
25	0x3e3c5fde	0.18395945
26	0x3e82e604	0.25566113
27	0x3e50760a	0.20357528
28	0x3e0c6b16	0.13712725
29	0x3e540836	0.20706257
30	0x3e14ac80	0.14518929
31	0x3e676e06	0.22600564
32	0x3e68254a	0.22670475
33	0x3befff13	0.0073241084
34	0x3e32f875	0.17477591
35	0x3e59cb14	0.21268874
36	0x3d2cd0b9	0.04219124
37	0x3e276934	0.16348726
38	0x3e93b57b	0.28849396
39	0x3e7baf49	0.24578585
40	0x3e87537a	0.26430875
41	0x3e310600	0.17287445
42	0x3d8be2ea	0.0683039
43	0x3ccd4dd8	0.025061533
44	0x3e709dc2	0.2349768
45	0x3e8e38e6	0.27777785
46	0x3e7aec5a	0.24504223
47	0x3d33d0dc	0.043900356
48	0x3e8a8218	0.2705238
49	0x3dc30c19	0.09523792
50	0x3d65b880	0.056084156
51	0x3e3dccc8	0.18535149
52	0x3e55a5be	0.20864007
53	0x3d734cb6	0.05939933
54	0x3e3ace2a	0.18242708
55	0x3e2b6d0d	0.16740818
56	0x3e5fe706	0.21865472
57	0x3d141642	0.03615404
58	0x3e816a56	0.2527644
59	0x3e3648ef	0.1780126
60	0x3d732992	0.059365816
61	0x3d33f594	0.043935373
62	0x3e0779bc	0.13230032
63	0x3e5d1b8a	0.21592537
64	0x35de029c	1.6541048e-06
65	0x3e866f35	0.2625672
66	0x3d57369b	0.05254231
67	0x3d665e28	0.05624214
68	0x3e668ee0	0.2251544
69	0x3e67b36d	0.22627039
70	0x3e5ad8d6	0.21371779
71	0x39251270	0.00015742495
72	0x3df5fcc6	0.12011103
73	0x3e7811f3	0.24225597
74	0x3e8d0396	0.27541798
75	0x3e2fd349	0.17170443
76	0x3db0b2d1	0.086278565
77	0x3805468e	3.177538e-05
78	0x3d71e5be	0.05905699
79	0x3e184536	0.14870152
80	0x3e29ac55	0.16569646
81	0x3de2d520	0.110758066
82	0x3e8078af	0.25092074
83	0x3e80beb1	0.25145486
84	0x3e0fb140	0.1403246
85	0x3e7cf69a	0.24703446
86	0x3e4d1e6f	0.2003114
87	0x3e86a671	0.2629886
88	0x3e260acc	0.16215056
89	0x3e624b57	0.22099052
90	0x3d3a778c	0.045524165
91	0x3eaa1c22	0.3322459
92	0x3ea48fad	0.32140866
93	0x3e4220de	0.1895785
94	0x3e71f005	0.23626716
95	0x3dabfe13	0.0839807
96	0x3db7b107	0.08969312
97	0x3d898c79	0.06716246
98	0x3e8d8330	0.2763915
99	0x3e5015d7	0.20320831
100	0x3e85c617	0.26127693
101	0x3d9bfa91	0.07616151
102	0x3cfdbecc	0.030974768
103	0x3d08cd6e	0.033399038
104	0x3584dcd1	9.899032e-07
105	0x3e3cafe8	0.18426478
106	0x3e7d3d6a	0.24730459
107	0x3783b4fe	1.5700698e-05
108	0x3e02e435	0.12782367
109	0x3d931de4	0.071834356
110	0x3e4718e2	0.19443086
111	0x3e1f4789	0.15554632
112	0x3e2f7158	0.17133081
113	0x3e894d63	0.26816854
114	0x3d7f532f	0.06233519
115	0x3e26632c	0.16248769
116	0x3d774ea5	0.060377736
117	0x3c7466b2	0.014917063
118	0x3e62f314	0.2216304
119	0x3ebf2d80	0.373394
120	0x3e848258	0.25880694
121	0x389e1eb0	7.539743e-05
122	0x3eb5d003	0.35510263
123	0x3e88fc79	0.2675512
124	0x3e403335	0.18769534
125	0x3e8eeea1	0.27916434
126	0x3e51409b	0.20434801
127	0x3e8fd2de	0.28090566
128	0x3ea5ed72	0.3240772
129	0x3e54eef2	0.20794275
130	0x3de7ab73	0.11311998
131	0x3ce6b315	0.028161565
132	0x3e729da0	0.23692942
133	0x35d45f8b	1.5823038e-06
134	0x3d523a90	0.05132538
135	0x3e877810	0.26458788
136	0x3e463e43	0.19359688
137	0x3e60f09d	0.21966787
138	0x3e4ecea8	0.2019602
139	0x3e5e684b	0.21719472
140	0x3dd3ef73	0.10348406
141	0x3e50a3c2	0.20374969
142	0x3e7d9454	0.24763614
143	0x3cb7f316	0.02245478
144	0x3e876501	0.26444247
145	0x3e3dda2c	0.18540257
146	0x3e8b73c5	0.27236763
147	0x3e29bb06	0.1657525
148	0x3d5fa774	0.054603055
149	0x3e8c4095	0.27393022
150	0x3c09e53d	0.008416471
151	0x3e272008	0.16320813
152	0x3db53cba	0.08849473
153	0x3e3d2a82	0.18473247
154	0x3e64a7dd	0.2232966
155	0x3df9cb23	0.121969484
156	0x3d14335f	0.036181804
157	0x3e8c711f	0.27430055
158	0x3e4e1fe4	0.20129353
159	0x3e87c557	0.26517746
160	0x3e05522c	0.13019627
161	0x3d9cfcee	0.0766543
162	0x3d44b418	0.048023313
163	0x3e89363b	0.26799187
164	0x3e0cbf94	0.13744956
165	0x3e7eb451	0.24873473
166	0x3e75bd2d	0.23997946
167	0x3d8700db	0.0659196
168	0x3bcbc065	0.0062180036
169	0x3e43f6e5	0.19137152
170	0x38993f2f	7.3073774e-05
171	0x3ddd4fa0	0.10806203
172	0x397f0565	0.00024320705
173	0x3e83b2cb	0.25722346
174	0x3e8f68c6	0.28009623
175	0x3e923839	0.2855852
176	0x3e336f33	0.17522888
177	0x3dd55b20	0.10417771
178	0x3e76c84a	0.24099842
179	0x3e65c07f	0.22436713
180	0x3e7267ca	0.23672405
181	0x3e6a24da	0.2286562
182	0x3caf2cb9	0.02138363
183	0x3d637425	0.055530686
184	0x3e58cf58	0.21172845
185	0x3dd5289c	0.10408136
186	0x3e79f948	0.244115
187	0x3dba6099	0.09100456
188	0x3d62e4b5	0.055393893
189	0x3e56ce92	0.20977238
190	0x3e57e65c	0.21083969
191	0x3d2ab040	0.04167199
192	0x3e55dd75	0.2088526
193	0x3dbede12	0.093197
194	0x3e1c2682	0.15249065
195	0x377d7c73	1.5108951e-05
196	0x3e692592	0.22768238
197	0x3e40bac0	0.1882124
198	0x3e0c67b9	0.13711442
199	0x3df0b4e1	0.1175325
200	0x3e73f51d	0.23823972
201	0x3e75c355	0.24000295
202	0x3d1ecded	0.038770605
203	0x3e6b29d9	0.22965182
204	0x3e73aea2	0.23797086
205	0x3d741d32	0.059598155
206	0x3ac6540f	0.0015131253
207	0x3e81e0cd	0.25366822
208	0x3e68f8c3	0.22751145
209	0x3e4e810e	0.20166418
210	0x3d9739f9	0.07384104
211	0x3edc7e70	0.43065214
212	0x3e4d738b	0.20063607
213	0x3d2371da	0.0399035
214	0x3e589ca1	0.21153499
215	0x3dff238b	0.12457951
216	0x3dce08dd	0.10060284
217	0x3e3604c5	0.17775257
218	0x3dbd5b85	0.092459716
219	0x3e449e61	0.19201042
220	0x3e8337c3	0.2562848
221	0x3dc008b2	0.093766585
222	0x3e822d56	0.25425214
223	0x3e5be907	0.21475612
224	0x3e193b57	0.14964043
225	0x3e781089	0.24225058
226	0x3e7baf08	0.24578488
227	0x3e68de07	0.22740947
228	0x3df27bac	0.11839995
229	0x3e694e9f	0.22783898
230	0x3e48995a	0.19589749
231	0x3e66e6f3	0.22549038
232	0x3dbb64d6	0.09150092
233	0x3e7dc954	0.24783832
234	0x3e206989	0.15665258
235	0x3e21dba9	0.1580645
236	0x3eb2e85e	0.34942907
237	0x3e13940c	0.14411944
238	0x39ca171f	0.0003854567
239	0x3e2c4128	0.1682173
240	0x3e8a6c1d	0.2703561
241	0x3da5a46e	0.08088003
242	0x369f2c48	4.7437243e-06
243	0x3e42e160	0.19031286
244	0x3e7f577d	0.24935718
245	0x3d29115c	0.04127632
246	0x3e069b34	0.13145143
247	0x3e8509fa	0.25984174
248	0x3db17618	0.08665103
249	0x3e527a17	0.20554386
250	0x3d82d330	0.06387937
251	0x3e869596	0.26286
252	0x3e63e837	0.22256552
253	0x3da7263a	0.08161588
254	0x3e3fabe2	0.18717912
255	0x38b9a8b5	8.8529116e-05
