code/save/model_x/model_x_repr_3.pt (torch, 446923 bytes, 5 tensors)

embed1.weight f4 [59, 256]
000000 70 f6 d5 3d 22 0a 3b be 94 c1 58 be 0b 9d 85 3e
       0.10447395 -0.18265584 -0.21167594 0.26096377
000010 f7 5f 35 3e 38 3c e0 bb 1d 67 e1 3d e8 a4 f2 bd
       0.17712389 -0.006843116 0.110059954 -0.118478596
000020 55 49 70 be f2 dc 12 bc b3 dd 32 3e c9 38 e2 b9
       -0.23465474 -0.00896381 0.17467384 -0.00043148387
000030 3a 5c 37 be 20 d8 61 be b6 6f ae bd cc e4 2d 3e
       -0.17906275 -0.22055101 -0.08517401 0.1698181
000040 4a 3e f7 3c e7 3d 0c 3e 96 32 d8 bd de 76 3d 3d
       0.030181069 0.13695489 -0.105565235 0.04625594
000050 73 08 3b 3d 71 9e 2f 3e 1c 81 e0 bd 58 69 52 be
       0.045662355 0.17150284 -0.10962126 -0.20547998
000060 a7 0d 49 be c8 df 4c 3e d3 e1 64 3c d8 00 75 3b
       -0.19634114 0.20007241 0.013969856 0.0037384536
000070 33 4f a9 3d 9f 6f cd bd 33 91 57 be 0a 5c 86 be
       0.08267059 -0.10031056 -0.21051483 -0.26242095
000080 89 a2 04 3e 32 f1 16 bd c6 57 29 be 32 2c 72 3e
       0.12952627 -0.036851116 -0.16537389 0.23649672
000090 be 4e 15 3e 32 39 97 be 84 4e 74 be e5 b5 11 be
       0.14580819 -0.29535824 -0.23858076 -0.14229544
0000a0 93 74 71 3e 8a a9 92 be ca 23 80 be 43 b3 a3 3d
       0.23579626 -0.28644973 -0.25027305 0.07993176
0000b0 26 42 7d be 4b 0e b5 3d 12 54 6e 3e 71 21 1f be
       -0.24732265 0.08840617 0.23274258 -0.155401
0000c0 3d 7b 1d 3d 45 58 2e be 4f 0e 58 3e fc 03 7c 3c
       0.038447607 -0.1702586 0.21099208 0.015381809
0000d0 b6 1b ec bd 3a 9f 99 3e b7 76 1b be b7 ab 25 be
       -0.11528723 0.30004293 -0.15182005 -0.16178785
0000e0 5e d2 52 bd 1c 4d 45 be c7 cd d0 bd f0 4e 3b 3e
       -0.051470153 -0.19267696 -0.10195499 0.18291831
0000f0 d3 95 da bd e0 64 75 3b 6e a9 c7 3d f5 66 13 be
       -0.10673108 0.003744416 0.09749113 -0.14394744
000100 8a b2 a8 3d 89 5e 03 3e 8a b4 f5 bd 0b 86 36 be
       0.082371786 0.12829031 -0.11997326 -0.17824571
000110 d7 dd 8c 3e 8f 79 0a 3e e1 ed 49 3e 9a bb 8e 3e
       0.27513 0.13522933 0.1971965 0.27877504
000120 ba cb 21 be 7a eb 4e 3d f3 64 14 3d 44 da 8b 3e
       -0.15800372 0.050517537 0.036229085 0.2731496
000130 e5 3c 4a be 15 b5 87 be 75 23 54 be 36 fa 2a bd
       -0.19749792 -0.26505342 -0.20716651 -0.041742526
000140 8a 4f 0b be 50 74 8a 3e ce b2 9d 3d 4b 04 e2 3d
       -0.1360456 0.27041864 0.0770012 0.11035975
000150 f5 65 8e 3d fe 76 75 3e a2 5d 83 3e c2 50 83 3e
       0.069530405 0.23971173 0.25657374 0.2564755
000160 3b a6 e6 3d 08 6b ab 3d ac 58 cf bc 33 c0 66 bd
       0.11262175 0.08370024 -0.025310837 -0.05633564
000170 f5 3c 83 3e ed 1d 59 3e 9d 18 54 be a5 97 83 3d
       0.25632444 0.21202822 -0.20712514 0.06425408
000180 07 90 8a be f9 04 f5 3d 21 7e 9e be df 72 70 3e
       -0.2706301 0.11963839 -0.30955604 0.2348132
000190 83 dd 22 3d 48 15 84 be 56 b2 61 3e d4 11 44 be
       0.03976203 -0.25797486 0.22040686 -0.19147426
0001a0 90 4e dd bc 6c b3 9e bb 9a 2b 78 be f4 49 4d be
       -0.027015 -0.004843166 -0.24235383 -0.20047742
0001b0 12 4b 75 3e ce b9 44 be b9 83 84 3e 24 49 41 3d
       0.23954418 -0.19211504 0.25881746 0.047188893
0001c0 65 92 37 3e 07 ba e4 3d cc 27 81 be df 60 5b be
       0.17926939 0.111682944 -0.25225675 -0.21423672
0001d0 1e 1d 58 3e 1e e8 b5 3d c1 60 28 3e 11 3f 69 be
       0.21104857 0.088821635 0.16443159 -0.22777964
0001e0 c5 45 31 3e f5 64 8c be 0f 0d 84 be 33 cf 9f be
       0.17311771 -0.27420774 -0.25791213 -0.31212768
0001f0 ff dd 9d be e2 6c 90 be b5 7f ed 3c 1e f0 39 bc
       -0.30833432 -0.2820807 0.02899156 -0.011348752
000200 ca 1f 93 be 2b 6a b5 bd e8 8b 00 3e 17 11 01 3e
       -0.2873519 -0.088581406 0.1255337 0.12604176
000210 91 0c 80 3e 53 67 f9 3c 53 84 4b 3e 65 32 38 3e
       0.25009587 0.030444777 0.19874696 0.17987974
000220 ff d4 1b be ea 70 9b 3e 76 57 3e 3e 4a 7e 74 3e
       -0.1521797 0.30359584 0.18588051 0.238763
000230 ec 4d ef 3d fd 2f 1c 3e 7b 07 0d 3e ab cf 7d be
       0.11684784 0.15252681 0.13772385 -0.2478625
000240 70 d6 05 3e 77 cb 6e be a7 4b 4d 3c 43 21 80 be
       0.13070083 -0.23319803 0.012530244 -0.25025377
000250 2b 6a 4f 3d ad 70 87 be f7 15 d5 bd d1 9f 23 bd
       0.05063836 -0.26453152 -0.1040458 -0.039947335
000260 d7 70 4f be 29 b7 12 3c e7 76 19 be 40 d5 f1 bd
       -0.20257889 0.008954802 -0.14986764 -0.11808252
000270 7a 11 96 3d 81 c8 4d 3e 46 d1 b1 bd 63 09 f3 3d
       0.07327552 0.20096017 -0.08682494 0.11867025
000280 6f a7 64 3e 5c 1d 37 be aa f3 d9 bd b9 b4 91 3b
       0.22329496 -0.17882293 -0.10642178 0.0044465926
000290 6d ee 89 be f5 e0 5a 3e 77 28 93 3e 28 5a 8a be
       -0.26939717 0.21374877 0.2874181 -0.2702191
0002a0 98 5d 86 3e 3c 7f 4e be 46 3f 06 3e e4 3b 7d bd
       0.2624328 -0.20165724 0.13110074 -0.061824694
0002b0 78 71 15 bc 39 78 16 be 52 01 8b 3d 18 f6 42 3e
       -0.009121291 -0.14694299 0.06787361 0.1903919
0002c0 28 13 6f be 72 b2 06 be 41 cc ac bd 68 ff 12 be
       -0.23347151 -0.13154009 -0.08437396 -0.14355242
0002d0 a6 11 65 3e 8c b7 cc 3b cc bf 8e 3e 01 38 12 be
       0.22370014 0.0062474664 0.27880704 -0.14279176
0002e0 05 4e 16 be f9 c1 0d 3e f9 02 5a be fe c2 8d be
       -0.146782 0.13843526 -0.21290196 -0.2768783
0002f0 7c 9a 8b 3e 69 82 a1 3d 4b da 3f 3e b2 e7 95 be
       0.272663 0.07886202 0.18735616 -0.29278332
000300 bb bf 67 3d d2 20 cf bd 20 2d 2d bc 93 22 5e 3e
       0.056579333 -0.10113682 -0.010569841 0.21692877
000310 66 31 4c be b2 12 a1 bc ad 53 30 bd 16 a5 41 3e
       -0.19940719 -0.019662235 -0.04304855 0.18910632
000320 b1 00 37 bd c3 b8 27 be e0 45 21 3e 85 19 29 3e
       -0.044678394 -0.16379075 0.15749311 0.16513641
000330 7a 83 9a be 31 ef 8a 3d ae 74 9a be 15 54 a4 bd
       -0.30178434 0.067839034 -0.30167145 -0.0802385
000340 8e 6a c6 3d 51 1d 1a be 00 a1 3e 3e e5 d5 a0 3e
       0.096882924 -0.15050246 0.18616104 0.3141319
000350 98 03 11 3e d0 e0 17 3e ea ee 34 be f6 94 05 3e
       0.14161527 0.14831853 -0.17669263 0.13045105
000360 d2 a8 32 3d e5 26 87 be 99 b9 58 3e 74 14 2f 3d
       0.04361803 -0.26396862 0.2116455 0.042744115
000370 d9 84 55 be 2e c9 27 3d 37 a0 b6 bd 6f 98 48 3e
       -0.20851459 0.040963344 -0.08917277 0.19589399
000380 09 85 97 bd 2d 0f ae 3d a2 c7 45 3e c7 e0 9a bc
       -0.07398421 0.08498988 0.19314435 -0.01890601
000390 9c fd 0c 3e e0 8a 3a 3e 84 b7 46 3e 32 fc 2e be
       0.1376862 0.18217039 0.19405943 -0.17088392
0003a0 53 a4 6e be 2f cb 4c be 56 a1 23 3e 04 3f 41 3e
       -0.23304872 -0.19999383 0.15979514 0.18871695
0003b0 0c 99 e3 bc 55 47 84 be 5a 9b 00 3e 09 03 32 3e
       -0.02778294 -0.25835672 0.12559262 0.1738397
0003c0 86 49 6d 3e 10 8c 4a 3e e7 12 4a 3e 1a a6 c6 3d
       0.23172578 0.19779992 0.19733773 0.0969965
0003d0 58 27 38 3d b3 b4 1b 3e 2a 90 62 3e d1 97 41 3d
       0.044959396 0.1520565 0.22125307 0.047263924
0003e0 61 12 29 be 96 ea 3a 3e 12 c2 6c 3d 62 1e 3b be
       -0.16510917 0.1825355 0.057802267 -0.18273309
0003f0 0d d7 5f 3e df b0 20 be 97 29 a0 be 66 37 87 bd
       0.21859379 -0.15692471 -0.3128173 -0.06602363

embed2.weight f4 [59, 256]
000000 19 84 22 be 0e f8 62 3e e2 5b 1a be 98 8b 12 be
       -0.15870704 0.22164938 -0.15074113 -0.14311063
000010 76 09 49 3e ac 51 51 3e 62 29 54 be 76 6e d6 3d
       0.19632515 0.20441312 -0.20718911 0.104702875
000020 28 1e 61 3e fd 08 21 3e 0f 1d 56 3e 0d 83 8e be
       0.2198416 0.15726085 0.20909522 -0.2783436
000030 93 02 c7 bd 24 47 3e bd ba 12 80 3e 08 75 18 be
       -0.09717288 -0.046454564 0.25014287 -0.14888394
000040 ed 2b 96 3e de 51 44 3e 79 8b 09 bd 5c a5 ed 3d
       0.29330388 0.19171855 -0.033580277 0.116038054
000050 41 f5 3c 3e da 9c 05 be 8b 18 26 be 42 a4 a7 bd
       0.18452932 -0.13048115 -0.162203 -0.081856266
000060 2b e6 63 be f0 12 33 3e 16 a6 2d 3e 57 f7 23 3d
       -0.22255771 0.17487693 0.16957888 0.040030804
000070 61 8e 15 be 37 00 16 be 6d ed 90 3e 8a 6b 6f be
       -0.14605094 -0.1464852 0.28306141 -0.23380867
000080 7e c9 53 3e ce e8 ff 3d 52 68 42 be 43 48 80 3e
       0.20682332 0.12495576 -0.18985108 0.2505513
000090 cf 5a 83 3e 3e d7 75 3e 77 5d 05 be 42 66 75 be
       0.2565522 0.2400789 -0.13023935 -0.2396479
0000a0 33 b0 29 be 5a 08 e5 bd e5 95 4f 3e bd 9b 0d be
       -0.16571121 -0.111832336 0.20272024 -0.1382894
0000b0 5c 18 a0 be 6f 35 29 3e bb 05 0f bd 81 3f 4d 3e
       -0.31268585 0.1652429 -0.034917574 0.20043756
0000c0 85 6c 3c bc c3 5c 45 3e c0 8e 78 be 8a 18 5a be
       -0.011500482 0.19273667 -0.24273205 -0.21298423
0000d0 8b df 01 3d 74 d9 1e be 54 b9 7a 3e 8d 76 a3 be
       0.031707328 -0.1551264 0.2448476 -0.31926385
0000e0 91 91 31 3e ec 2f ad 3d 6b 5a 1a 3e 7c 3a 30 3e
       0.17340685 0.08456406 0.15073554 0.1720981
0000f0 e8 57 ba bd 95 d8 82 3e 34 c5 31 be e8 ec 85 be
       -0.09098798 0.25555864 -0.17360383 -0.26157308
000100 a2 7a 3b 3e 99 25 41 3e 07 a7 a1 3e 6c 0a 96 3e
       0.183085 0.18861999 0.31572744 0.29304826
000110 01 58 6c 3e 00 18 62 3e c8 20 a6 bd 76 a5 ee bd
       0.23080446 0.22079468 -0.08111721 -0.11652653
000120 14 cc 82 be 34 1d 2b be 4c eb 7d be 89 4c 5c be
       -0.25546324 -0.16710359 -0.2479679 -0.21513571
000130 70 f7 b7 bd de 9b 80 be 2e 8f 3d 3d 43 89 4e 3e
       -0.08982742 -0.25118917 0.046279125 0.20169549
000140 0d 41 d7 3d 25 7f 50 be f4 61 4d 3e c4 63 99 bd
       0.10510454 -0.20361002 0.20056897 -0.07489732
000150 02 56 7d be 7a a5 49 3e 07 51 64 3e 1a 11 8a be
       -0.2473984 0.1969203 0.22296534 -0.26966172
000160 71 11 8a be 83 f7 0b be c9 9a 0d 3e 8c ec 87 3e
       -0.26966432 -0.13668637 0.13828577 0.26547658
000170 e3 83 26 bd 38 47 88 be 16 95 39 3e 37 c9 5c 3a
       -0.04065312 -0.26616836 0.18123278 0.00084223173
000180 a6 8b 7b be d0 5b 77 3e 80 bd d2 bd f6 17 96 3e
       -0.2456499 0.24156117 -0.102900505 0.29315156
000190 f7 f9 81 be 6c 67 fd 3d 3c 13 09 be 50 54 81 3e
       -0.2538602 0.12373242 -0.13386244 0.25259638
0001a0 17 5a 4e 3e aa 99 ce 3d 69 cf 2e be f1 fc 68 be
       0.20151554 0.10087903 -0.17071308 -0.2275274
0001b0 22 bb 21 3e 4b 78 75 3e 28 a5 4b 3e 56 ef 41 be
       0.15794042 0.2397167 0.19887221 -0.18938956
0001c0 c3 5c 61 3e d3 46 d6 3d 00 85 0f 3e 8f 65 4e be
       0.22008042 0.104627274 0.14015579 -0.20155929
0001d0 93 2c 6c be ca 26 96 3d ea 9b 4e be e7 50 19 be
       -0.23063879 0.07331617 -0.20176664 -0.14972268
0001e0 16 6c 6c 3e c8 a1 9e bb 36 10 4f 3e fe 60 90 3e
       0.23088107 -0.004841063 0.20221028 0.28199
0001f0 98 41 7a be 17 81 ec 3d 9b a2 5b be 40 6d 68 be
       -0.24439085 0.115480594 -0.21448748 -0.22697926
000200 70 16 85 3e 2a f1 16 bd 77 90 65 3e 56 f5 33 3e
       0.2599368 -0.036851086 0.2241839 0.17574057
000210 15 2f 34 3c b7 13 25 be 84 ef 35 3e 88 18 46 3e
       0.010997553 -0.16120802 0.17767149 0.19345295
000220 38 6e 0e be f2 7a 6a 3e 30 30 11 3e d6 78 5f 3e
       -0.13909233 0.22898462 0.14178538 0.21823439
000230 48 69 99 bc e7 41 6a be 63 b0 8b 3e 1a f8 bc 3d
       -0.01872696 -0.22876702 0.2728301 0.09227009
000240 42 0c 89 3d 2f 52 88 be 8b 3a 11 be b3 6c 33 be
       0.06691791 -0.266252 -0.14182489 -0.17521934
000250 f4 2f 49 3e b4 9a 7a be 2b 90 65 3e bb 3d 43 bd
       0.19647199 -0.24473077 0.22418277 -0.047666293
000260 91 4d 66 3d b5 4e 82 bb 3b 5f 90 be f5 da 9c bc
       0.056226317 -0.0039766678 -0.28197655 -0.019147376
000270 fb 90 98 3d 93 20 f2 3d b2 56 d7 3d 70 f2 4d be
       0.07449528 0.11822619 0.10514583 -0.20112014
000280 37 a6 80 3e 07 91 c1 bd c8 58 37 be 07 bc 46 3e
       0.25126812 -0.0945149 -0.17904961 0.19407664
000290 14 24 22 be 7d 5b 1a 3e 82 1b 66 3e 15 57 e8 3d
       -0.15834075 0.15073963 0.22471431 0.113447346
0002a0 d9 ed 0a 3e ab 3b a1 bd 48 74 5a 3d d1 c0 41 be
       0.13567294 -0.07872709 0.05333355 -0.1892121
0002b0 05 8d 63 3e 5b 6c 18 3e d7 53 da bd 0e d6 17 be
       0.22221763 0.14885084 -0.106605224 -0.14827749
0002c0 1e a3 fe bd 27 3e d3 bd e4 b2 50 bc 73 cb 27 3e
       -0.12433456 -0.10314589 -0.012737963 0.16386203
0002d0 46 ad 4a bd e1 6b 0f 3d d9 fb 2c be d3 eb 45 3e
       -0.049481653 0.03501499 -0.16892947 0.19328241
0002e0 45 77 1a be f1 6d 1a be 30 76 28 be 14 89 ef 3c
       -0.1508456 -0.15081002 -0.16451335 0.029240169
0002f0 45 4d 47 3c 64 af 1b bd ba a0 36 be 53 7b 39 be
       0.012164419 -0.038009062 -0.1783475 -0.1811345
000300 a1 27 77 be d2 30 2e 3e 6c 09 17 3e 18 3a 2e 3e
       -0.24136211 0.17010811 0.14749688 0.17014349
000310 19 93 36 bd 9d 1a 28 be 73 2e 4c be 86 5e 50 be
       -0.044573877 -0.16416402 -0.19939594 -0.20348558
000320 8c 29 5d 3e be f3 69 bd 8b 6e f7 bc da 2a 0f bd
       0.2159788 -0.057117216 -0.030204078 -0.034952976
000330 ce e5 8b bd 89 9d f3 bd 2f fb 50 be 32 ed 9d 3d
       -0.06830941 -0.11895282 -0.20408319 0.07711257
000340 6e 0e 28 be f5 52 9f 3b 32 c5 09 be 06 40 37 be
       -0.16411754 0.004862184 -0.1345413 -0.17895517
000350 ef 73 b5 3c 72 45 10 3e 38 0b d6 3d ab 37 51 bd
       0.022150008 0.14088991 0.104513586 -0.05107848
000360 de 0c 50 3e 3b 2d c0 bd 9d 04 14 bd 78 4f f8 bd
       0.20317408 -0.09383627 -0.036137212 -0.121245325
000370 94 57 33 3e 2e 3b 97 be be ea 43 3d 7d 72 66 3e
       0.17513877 -0.29537338 0.04783129 0.22504611
000380 b7 cb 52 3e e2 4c 74 3e d1 46 86 3d 5c 04 51 be
       0.20585524 0.23857453 0.06556476 -0.20411819
000390 b0 d2 3f be 99 db 55 3e 37 a1 c6 3d dd 65 2d 3d
       -0.18732715 0.20884551 0.09698718 0.042333473
0003a0 53 fd a3 3d 17 d6 25 be 20 55 fd bd 87 d7 83 3e
       0.08007302 -0.1619495 -0.12369752 0.25750372
0003b0 66 d2 5d 3e fc e9 ac bd f3 1d 21 3e a6 14 0c be
       0.21662292 -0.084430665 0.15734081 -0.13679752
0003c0 14 d5 af 3d fe 22 49 be c8 e4 a6 3d 66 24 dd 3d
       0.08585563 -0.19642255 0.08149105 0.10797958
0003d0 32 e0 62 be 6f 00 3a be 88 12 5d 3e 31 fd 7c 3e
       -0.22155836 -0.18164228 0.215891 0.2470596
0003e0 8e f7 79 be e6 2e 2c be 83 77 3f 3e 4c 39 9a bd
       -0.24410841 -0.16814765 0.18697934 -0.0753046
0003f0 63 f4 bc bd 03 f4 08 be d1 3b ff bd 5a 18 36 be
       -0.092263006 -0.13374333 -0.12462581 -0.17782727

unembed.weight f4 [59, 256]
000000 30 4d 92 3d 15 2b 71 b8 77 04 41 3e 6d 44 9c 3e
       0.071436286 -5.7499e-05 0.1884936 0.30520955
000010 4c 78 8e 3e e9 15 19 3e a1 19 7a bd 99 22 0d 3e
       0.27826154 0.14949764 -0.061059598 0.13782729
000020 c1 f4 25 3e e8 b2 b5 bd d0 00 7b 3e eb 72 2b 3e
       0.16206647 -0.08872014 0.24512029 0.16743056
000030 5d b0 2d 3e e8 e2 8d be 8a fb a0 be 60 78 3f 3e
       0.16961809 -0.27712178 -0.3144191 0.18698263
000040 3e 4f 22 bb cf b6 51 3c 54 ab 0c 3e d7 e0 14 3e
       -0.002476647 0.012799933 0.13737231 0.14538895
000050 79 a8 04 3c ce 25 a6 bc b3 93 ae be 3d 9d 97 bd
       0.008096808 -0.020281699 -0.3409706 -0.07403038
000060 bc 81 e4 3d e8 0f a2 3c 1d e0 3a be 59 0d 90 be
       0.11157557 0.019782975 -0.18249555 -0.28135183
000070 a5 6e ac be 8d d3 5c 3e b3 9f b1 3e d2 62 1c 3e
       -0.33678165 0.21565075 0.34692153 0.15272072
000080 4f 5a 24 3e 96 23 6b be b8 05 9c bb b4 82 f6 bd
       0.16050075 -0.22962794 -0.004761424 -0.120366484
000090 12 91 b5 ba 90 45 04 be b1 00 f9 39 b5 af 01 3c
       -0.0013852438 -0.12917161 0.00047493496 0.007915427
0000a0 0e 5f 99 3d 9b c9 d8 3d e4 61 6c be ee 07 4e 3e
       0.07488833 0.10585328 -0.23084217 0.20120212
0000b0 4f 1d 67 3e b7 84 a4 bd e0 21 86 3a f2 2e a7 3d
       0.22569774 -0.08033126 0.0010233484 0.08163251
0000c0 d4 cd d1 be e4 43 92 be b4 d3 73 3e 97 19 6e be
       -0.40977347 -0.2856742 0.23811227 -0.23251949
0000d0 73 4b 19 3e d0 86 8f be 75 7c 7b be 17 14 9e be
       0.14970188 -0.2803254 -0.24559195 -0.30874702
0000e0 cb 49 3c be 18 46 b6 3e 7c 20 6f 3e 8f 6b c1 bb
       -0.18387525 0.35600352 0.23352236 -0.0059027146
0000f0 c7 a9 96 bc 8f 62 ea bd 69 03 5d 3d 7a 08 c1 3d
       -0.018391503 -0.1144458 0.05395833 0.09425445
000100 ec 15 71 be 85 bf 80 bd f2 47 95 3e 5c 26 fc ba
       -0.23543519 -0.062865295 0.29156452 -0.0019237506
000110 29 10 61 be 76 df 3c be 51 00 33 3e 51 d1 97 bc
       -0.21978821 -0.18444619 0.1748059 -0.018532427
000120 24 16 92 be 8b 07 59 3e d1 4a cf 3b 65 8d af be
       -0.28532517 0.21194284 0.0063260575 -0.34287563
000130 fb c3 0a 3c 9b 42 51 3e a0 ec 34 3e 4d 9c cf be
       0.008469577 0.20435564 0.1766839 -0.40548936
000140 8b c3 c3 be 05 6e de bb 13 b1 e0 bd 67 6c d6 3c
       -0.38235125 -0.0067880177 -0.10971274 0.026174737
000150 9f 61 2a be e4 2b 8e 3e 63 f8 9d be 26 90 55 3e
       -0.16638802 0.2776786 -0.30853567 0.2085577
000160 79 43 aa 3d 6c d7 83 3e 88 54 61 be 25 92 88 3e
       0.08313651 0.2575029 -0.22004902 0.26674
000170 c2 dd 5a 3e 32 aa 26 be f3 43 16 3e ea 9f 15 be
       0.21373656 -0.16275862 0.14674358 -0.14611784
000180 2c 59 0c 3e 0d 77 a6 3e 08 9b 87 3e 65 9b 4c 3d
       0.13705891 0.32512704 0.26485467 0.049952883
000190 60 00 95 bd c5 9f 49 3e 73 36 4e be a0 a4 40 3c
       -0.07275462 0.19689853 -0.20137958 0.011758
0001a0 e2 9c 5b 3e 07 56 b9 3c 38 1c 8a be bb f3 96 bd
       0.21446565 0.022624029 -0.26974654 -0.07370707
0001b0 22 ad 77 bc 4b f8 a6 3e 26 5f 68 be ae d6 4f be
       -0.015116962 0.32611308 -0.22692546 -0.20296738
0001c0 5b 6a 4e bc bd b8 27 3e a6 44 45 bd d0 d4 6b 3e
       -0.012598599 0.16379066 -0.04816117 0.230304
0001d0 82 bc 9a be 83 ad eb 3d c2 d8 27 3e dc bd 97 3e
       -0.30221945 0.11507704 0.1639128 0.2963704
0001e0 50 a6 7b 3d f2 81 e5 b9 41 b2 1f bd bd 10 48 3e
       0.061437905 -0.000437751 -0.038988356 0.19537635
0001f0 56 29 84 be 70 4b 98 be 95 4a 1e ba d2 c6 0e 3e
       -0.25812787 -0.29745054 -0.0006038335 0.13943031
000200 55 77 40 ba 7d 3d 9f 3c 9e a3 14 be 42 0d 93 ba
       -0.00073420006 0.0194385 -0.1451554 -0.0011219161
000210 40 64 98 be 06 72 15 3e 2b e7 3b 3e c5 e8 11 3d
       -0.29763985 0.14594278 0.18349902 0.035622377
000220 a0 25 d8 be 83 41 e2 3d 49 08 53 3e a3 35 cd 3c
       -0.42216206 0.110476516 0.2060863 0.02504999
000230 b1 3a 3f be ab 04 97 3c 41 87 9c be e8 ef 88 3c
       -0.18674733 0.018434843 -0.3057194 0.016715959
000240 89 67 95 3e 8b 94 91 3d 11 3a a1 bd 7e c0 42 3d
       0.29180554 0.071084104 -0.078724034 0.047546856
000250 82 56 2d be 49 46 a5 be 2d 96 78 be 88 0c a4 3e
       -0.16927531 -0.32280186 -0.24276038 0.3204081
000260 c1 61 21 3e bd 19 65 be af 65 07 bb 25 91 95 3d
       0.15759946 -0.223731 -0.0020659973 0.07303075
000270 2a af 1f 3e 31 20 62 be 9a 39 4d 3e d4 5c 47 be
       0.15594164 -0.22082593 0.20041505 -0.19469005
000280 38 4f 7f 3e b9 7b 0b 3e bf 44 82 3d f9 ca 9f bb
       0.24932563 0.13621415 0.063607685 -0.004876491
000290 25 a8 32 ba a5 00 2b 3e 9c ca f5 3a 1a 98 21 be
       -0.00068152166 0.16699465 0.0018752399 -0.15780678
0002a0 fa 4c 8c 3e d0 66 b8 3e b4 31 26 be 25 fa 79 3e
       0.27402478 0.3601594 -0.16229898 0.24411829
0002b0 c4 8d 27 3e 64 16 77 3c 12 73 64 b9 a6 08 0d bb
       0.16362673 0.015081022 -0.00021786641 -0.0021520047
0002c0 ef 31 98 be 48 91 7e 3e 19 6c 06 39 17 fa 96 3c
       -0.29725596 0.24860108 0.00012819505 0.018429799
0002d0 ef 7e 64 be a7 2d 05 be e8 18 61 be 91 d8 b1 3c
       -0.22314046 -0.13005696 -0.21982157 0.021709712
0002e0 3d 0d 85 3e ef f2 62 3d 0a cd f8 3d 14 63 77 be
       0.25986663 0.05540746 0.12148483 -0.24158889
0002f0 fb 19 9f be 68 12 0a 3e 54 d6 6d 3e cc 5b c0 be
       -0.3107451 0.13483584 0.23226291 -0.37570035
000300 3d dc 2c 3e f0 cd 23 3b a7 f3 47 3e e6 28 a6 be
       0.16880889 0.0024994574 0.1952654 -0.32453078
000310 29 89 3d 3e 4f 15 a1 ba b6 2b 0b bd 9d 31 06 ba
       0.18509354 -0.0012289676 -0.033977233 -0.0005119087
000320 cf 72 2a be db e8 b1 be 48 20 c2 3d f5 46 c0 3d
       -0.16645359 -0.34747967 0.094788134 0.09388534
000330 8f 59 56 3e 93 d7 16 be 63 f4 97 3d 32 64 db be
       0.20932601 -0.14730673 0.0741966 -0.4284988
000340 65 b5 7b 3d f6 fb f3 ba a2 4a 37 3e be 5f 28 3e
       0.06145229 -0.0018614519 0.17899564 0.16442773
000350 d8 9d b3 be 5b 51 96 be 1d e6 40 b6 0f 89 d1 3e
       -0.35081363 -0.29358944 -2.8744173e-06 0.4092488
000360 53 94 14 ba 90 c2 df 3d fa fd 28 3e 99 f5 c8 3d
       -0.0005667854 0.10925782 0.16503134 0.09812469
000370 39 3f 12 be 95 39 4f 3e 15 81 ad 3e f9 65 b4 be
       -0.1428193 0.2023681 0.33887544 -0.3523405
000380 37 69 b3 3d e8 f2 22 3e 5e fc bc bd 6c 46 5b 3e
       0.087603025 0.15912974 -0.09227823 0.21413583
000390 ba 22 6c bb 24 04 09 be ec 4b 18 bd fd 43 8f bd
       -0.003603144 -0.13380486 -0.03718178 -0.069953896
0003a0 07 6c 11 3e d5 3f 5c bb 5d a5 2d 3e 34 f3 5e 3e
       0.14201365 -0.0033607383 0.16957612 0.21772462
0003b0 21 84 7d 3c 01 ed 9f 3c 0c 83 3c bb 69 15 06 3d
       0.0154733965 0.019522192 -0.0028764633 0.032735262
0003c0 d5 c8 00 3e 82 c6 34 3e f1 51 8e 3e 0c a1 fb ba
       0.12576611 0.1765385 0.2779689 -0.0019197776
0003d0 d0 d4 2c be 11 ee 8d 3e 59 a1 95 bc c1 dc 55 3e
       -0.16878057 0.27720693 -0.018265413 0.20884992
0003e0 8c 6e ac 3c 22 f7 b4 3e 75 2e 27 bc b7 40 9c 3e
       0.021048807 0.35344797 -0.010203947 0.30518124
0003f0 a3 39 79 be 4c 76 5f 3d c3 06 a4 3e 22 a4 f8 3d
       -0.24338393 0.054556176 0.3203641 0.12140681

l1.weight f4 [256, 256]
000000 fa 8e bc 3d 0c db b2 3d d8 64 2d 3d 92 db fe bd
       0.09206958 0.08733186 0.0423325 -0.124442235
000010 27 5a da 3c c5 c4 39 3d 74 28 c1 3c d3 de 92 3c
       0.026654316 0.04535367 0.02357886 0.017928516
000020 7d 9e 00 3e 79 c0 0d be 79 03 58 3e b1 fc 1a 3e
       0.12560458 -0.13842954 0.21095075 0.15135457
000030 0d 9e 21 be 1f 60 45 be e6 84 39 bd a0 d6 f3 bd
       -0.15782948 -0.19274949 -0.045292757 -0.11906171
000040 63 02 8b bd e3 01 18 3e f9 e1 78 3c c1 55 35 bc
       -0.067875646 0.1484447 0.015190595 -0.011067809
000050 dc fd 69 3d 69 59 c0 bc 4e 92 6b bd 25 f6 4c bd
       0.057126865 -0.023480134 -0.057512574 -0.05003943
000060 23 8a 85 bd 6e ba 83 3d 7c d7 97 3d 94 00 51 3e
       -0.06520488 0.06432043 0.07414147 0.20410377
000070 c4 6f ce bd 28 06 1c be 03 6b 23 3e bf 1d c1 bd
       -0.10079911 -0.15236723 0.1595879 -0.09429502
000080 33 c1 26 3e fc bb 04 3e cb 5f 14 3d 33 36 d0 3d
       0.16284637 0.12962335 0.036224168 0.10166588
000090 f1 fb 17 be c5 2a f8 bd bb 58 66 3d 9b 9c 8e bd
       -0.14842202 -0.12117533 0.056236964 -0.06963464
0000a0 a8 81 29 3e 50 b2 2b be 7c d1 8c 3d 21 35 91 3c
       0.16553366 -0.1676724 0.068758935 0.01772553
0000b0 4d 3a 93 bd 40 8b be bd 56 43 02 be e5 28 2d be
       -0.07188854 -0.093039036 -0.12720999 -0.16910131
0000c0 80 72 04 be 72 dd ea 3d 2c 39 49 3e 20 e5 fb bd
       -0.12934303 0.114680186 0.19650716 -0.122995615
0000d0 ad d6 02 3e 1c 67 b2 bd 12 c2 89 bd 80 aa fd bd
       0.12777205 -0.08711073 -0.06726469 -0.12386036
0000e0 2d 99 12 3e bd de d8 bd e8 c9 2d ba a7 e9 a9 3d
       0.14316244 -0.10589359 -0.00066295126 0.08296519
0000f0 f1 1d ea bc 14 fd 33 3d 71 08 2d bd 0d 40 94 bd
       -0.02857873 0.043942526 -0.04224438 -0.07238779
000100 50 37 aa 3c 42 7e 5c bd 1e 9d 96 bd db 06 78 bd
       0.020778328 -0.053831346 -0.073541865 -0.060553413
000110 0d d4 0c bd aa 29 3d 3e 15 31 e9 3c 38 3d 29 3d
       -0.034381915 0.18472925 0.028465787 0.04131815
000120 36 39 08 3e e2 96 aa 3d 26 c3 ce bc f2 20 1b 3e
       0.13303074 0.0832956 -0.025239538 0.15149286
000130 80 0b 82 bb 68 7f 4c bd b1 eb 3d 3e 97 39 39 3e
       -0.003968656 -0.04992619 0.1854694 0.18088375
000140 3a b9 55 3d b4 ce de 3d 00 4b 92 3d 37 a1 80 bd
       0.0521786 0.10879269 0.07143211 -0.06280749
000150 cb 9d 0c be ea e1 ab bd 63 8f 16 3e 96 da 3a be
       -0.13732068 -0.08392699 0.14703135 -0.18247446
000160 92 3d 53 3d ec 7b 49 3e 5c 2b bc bc 0d 9b 29 3e
       0.05157239 0.19676179 -0.022969894 0.16563053
000170 93 e5 f0 bd 0d c5 06 3d 34 68 0c bd 6a b9 b5 bd
       -0.11762538 0.032902766 -0.034279063 -0.088732556
000180 8c ba 73 3d b7 35 e9 bd 08 9d a4 3c c4 29 18 3e
       0.059504077 -0.113871984 0.02009441 0.14859682
000190 a4 39 13 bd c3 98 1c be dd 58 00 3b 48 b9 23 be
       -0.035943642 -0.15292649 0.0019584217 -0.15988648
0001a0 d9 65 8e 3b 81 2d 0e 3e 39 e7 9d 3d 1e c9 97 3d
       0.0043456373 0.13884546 0.07710118 0.07411407
0001b0 52 51 1a 3e bf ce 77 bb 62 e4 53 3e fd fb 21 3e
       0.15070084 -0.003781244 0.2069259 0.15818782
0001c0 50 bf c3 3c 69 84 f5 bd e3 55 36 be 76 7d 2f be
       0.023894936 -0.11988146 -0.178062 -0.17137703
0001d0 c5 58 f0 bd fa a1 ed 3d 16 cb fc 3d 4f cc e2 bc
       -0.117356814 0.1160316 0.12343423 -0.027685313
0001e0 2a 1f 1b 3d 66 68 eb bd a1 57 5b bd 97 70 e7 bb
       0.037871517 -0.11494522 -0.053550366 -0.0070629823
0001f0 ed 42 c1 3d a0 e6 90 3d 6e b1 24 3d c8 47 05 3d
       0.09436593 0.07075238 0.040208273 0.03253916
000200 af 58 03 be 30 8a 3c bd 94 44 61 3e c1 22 c7 3d
       -0.12826799 -0.046030223 0.21998817 0.09723426
000210 1c a6 e4 bd d3 38 65 3d 18 90 be bd 5f 06 c5 bd
       -0.11164495 0.055962395 -0.093048275 -0.09620356
000220 f5 b1 38 bd 60 3d f7 3d d2 2f b6 3d 80 b8 de 3d
       -0.045091588 0.12072253 0.0889584 0.10875034
000230 ac 06 1c 3e 09 a7 4c be 48 4d de bd 09 c4 3f be
       0.1523692 -0.19985594 -0.10854584 -0.18727125
000240 84 3e 56 3e 5a 40 3b be d3 b6 1d be 6b a9 2b be
       0.20922285 -0.18286267 -0.15401773 -0.16763847
000250 f3 fd 20 3e e4 3a 4c be 90 41 0c 3e be 31 1a be
       0.15721874 -0.1994434 0.13696885 -0.15058038
000260 40 71 43 bd 02 3a 2c 3e de 2f 0f be d3 f1 6a bc
       -0.047715425 0.16819003 -0.13983104 -0.014339882
000270 05 ab 18 be 99 29 a0 bc a6 f5 46 3d 3f 62 98 3d
       -0.14908989 -0.019551085 0.048574112 0.07440614
000280 71 6d 1b 3e 74 df 8f 3d 4a 53 92 bd 85 cb 69 bc
       0.15178467 0.07025042 -0.071447924 -0.014269714
000290 3f bc 04 3d a1 ef 8e 3d 9a 11 18 bd ec 63 4f 3e
       0.032406088 0.06979299 -0.03712616 0.20252961
0002a0 cc ef 3f 3e 7d 1c cc bd 67 b9 39 bd f8 0c 01 be
       0.18743819 -0.09966371 -0.04534283 -0.12602603
0002b0 9a ed 1e 3e 86 d0 2a be 39 44 b9 3d ed b3 1b bd
       0.15520325 -0.16681108 0.090462156 -0.038013387
0002c0 63 a0 f5 3d d0 d0 50 be ed b3 12 3e ca 74 22 3e
       0.11993482 -0.20392156 0.14326449 0.15864864
0002d0 2d ef d7 bd 6c c0 e3 bd 93 ea 17 bd d9 b0 cd bd
       -0.10543666 -0.11120686 -0.03708894 -0.10043497
0002e0 4d 74 72 3d 03 25 14 3b 75 65 b4 bd be dc 57 be
       0.059192944 0.0022605069 -0.08808414 -0.210803
0002f0 7a 20 15 3e b0 be 08 3e 50 0a dd bd 74 a5 e3 bd
       0.1456317 0.13353992 -0.107929826 -0.11115542
000300 75 1f 30 3d 6b fc af bc 91 a6 e4 3c 04 e1 c6 3d
       0.04299875 -0.021482667 0.027911456 0.09710887
000310 89 fd 21 3e 5c 13 05 bd 87 85 0c bd 8f 11 e9 bc
       0.15819372 -0.032489166 -0.03430703 -0.028450755
000320 97 19 0f 3e 01 12 ed bd 38 54 1b 3e 4b df 8f bc
       0.13974606 -0.115756996 0.15168846 -0.01756253
000330 57 79 e9 3d b4 b7 46 3e 26 8b 79 bd a9 c9 40 be
       0.11400097 0.19406015 -0.060923718 -0.18826927
000340 98 b6 39 bd b6 6d bc 3d 06 6d b3 3d 31 3d 05 3d
       -0.04534015 0.09200613 0.08761029 0.03252906
000350 b8 4d 4b 3e 65 37 63 bd 39 dc 08 be 71 59 e1 bc
       0.19853866 -0.05547275 -0.13365258 -0.02750847
000360 c3 70 08 3e 5e 62 e1 bd 03 b2 d3 bd f9 1a 5c be
       0.13324265 -0.1100509 -0.103366874 -0.21494664
000370 e3 43 de bd 8e 53 cf bd 57 50 16 3d a4 7b 1e 3e
       -0.10852792 -0.10123359 0.03669771 0.15476853
000380 fb 89 1a 3d 3c 43 0e 3e e3 1f 7c 3e 71 ba ea 3d
       0.037729245 0.13892835 0.24621539 0.11461342
000390 f8 53 b4 bd cf 17 b9 3d f7 77 10 3e e8 94 63 3e
       -0.08805078 0.09037744 0.14108263 0.22224772
0003a0 7e 3d 95 3d 65 fd 66 be 97 69 b8 3d 57 ba 05 be
       0.07287119 -0.225576 0.09004515 -0.13059364
0003b0 1d 05 a7 3c 6e 77 e5 bd b2 24 94 bc 8b 10 47 be
       0.02038818 -0.1120442 -0.018083904 -0.19439904
0003c0 50 9b a8 3d a0 c5 f5 bd 3c 73 52 3e a5 2c bc 3d
       0.082327485 -0.120005846 0.20551771 0.09188203
0003d0 38 04 55 3e 43 24 fa 3c d0 f6 9d 3b 90 88 49 3e
       0.2080239 0.030534869 0.004820682 0.19681
0003e0 dd 90 2c be 1d ad 6f 3d e1 f9 1e 3e 86 ff 2e 3e
       -0.16852136 0.058514703 0.15525009 0.17089662
0003f0 82 2d ed 3d bf 92 bb bd d7 15 38 be 1e a2 d8 3d
       0.115809456 -0.09158849 -0.17977081 0.105777964

l1.bias f4 [256]
000000 8c 4d 23 3e 94 73 b3 38 c0 49 6b bb 26 23 88 3e
       0.1594755 8.556913e-05 -0.0035902113 0.26589316
000010 e9 32 15 3d a4 55 bf 3c e6 3d 72 3d 2f 5c dd 3c
       0.036425505 0.023356266 0.059141062 0.027021496
000020 d2 06 5a 3d c6 fc 93 3d 35 11 32 3d 62 9f 08 3e
       0.05322916 0.07225947 0.04347344 0.1334205
000030 28 91 1a 3e d9 11 06 3e dd 30 3a 3e 6f 00 b7 3d
       0.15094435 0.13092746 0.18182702 0.089356296
000040 a2 a2 d3 39 0c ca e5 3b e7 20 bc 3d 2c bb 0f 3e
       0.00040366227 0.0070126113 0.09185963 0.14036244
000050 aa 2a 3a 3e 81 be e6 b8 e4 c9 17 3e cd bf 33 3e
       0.18180338 -0.00011002739 0.14823109 0.17553635
000060 c4 a5 13 3e 22 64 e2 3d 76 85 22 3e 20 19 3c 3e
       0.14418703 0.11054255 0.15871224 0.1836896
000070 70 29 a1 3d f4 70 1c 3e d4 17 26 3e 57 02 8f 3d
       0.07869232 0.15277463 0.16220027 0.06982868
000080 86 5b b1 3d 9c 17 36 3d 20 34 2e 3e 77 00 a1 3d
       0.08660035 0.04445611 0.17012072 0.07861417
000090 29 8f 81 39 84 64 dc 3d 26 8c 18 36 2a 66 e3 3d
       0.0002471146 0.10761359 2.2731342e-06 0.111034706
0000a0 13 e0 c1 3c 50 f6 84 3c 22 b6 1d 3e 54 5a 3e 3e
       0.023666417 0.016230732 0.1540151 0.18589145
0000b0 73 5a 08 3e f2 9a 49 3b 50 c0 e1 3d 50 ec ea 3d
       0.13315754 0.003076252 0.11023009 0.11470854
0000c0 11 f0 a6 3d 5f cf 59 3e 56 0b 03 3e 15 40 0b 3e
       0.08151258 0.21270512 0.12797293 0.13598664
0000d0 87 40 a3 3c ae 2b ef 3d f5 e5 04 3e dc c8 c1 3d
       0.01992823 0.11678253 0.12978347 0.09462139
0000e0 39 b8 1b 3e 4c b4 85 3e c4 bb ad 3d ef 7c d6 3a
       0.15206994 0.26114118 0.08483079 0.0016364137
0000f0 3e fe 16 3d af 2d 3b 3e cb 99 aa 3b e0 03 8a 3d
       0.036863558 0.18279146 0.005206322 0.0673902
000100 b4 33 7a 3d 5f d2 a3 3d 2d 9a 3b 3e 77 92 d4 3a
       0.061084464 0.079991095 0.18320532 0.0016217966
000110 23 12 19 3e b3 04 3c 3e f7 9d 0e 3e b3 04 4b 3d
       0.14948325 0.18361168 0.13927446 0.04956503
000120 0a 5e 29 3d 4b 26 77 3e 0e 2b c7 3a d5 27 45 3e
       0.04134945 0.24135701 0.0015195326 0.19253476
000130 60 68 ac b7 85 e8 75 bc 40 72 2f 3e dd 41 4b 3d
       -2.0552601e-05 -0.01500905 0.17133427 0.04962336
000140 26 9a 0f 3e 93 6f 32 3c 09 b3 47 3e f3 b4 e4 3d
       0.14023647 0.010890859 0.1950189 0.11167326
000150 94 6f 48 3e 8b 4e e3 3d ef 1e 19 3e 51 9a 13 3e
       0.19573814 0.11098965 0.14953206 0.14414336
000160 89 90 2d 3e ce a2 b6 3d 17 8c a9 3d 85 44 4c bb
       0.16949667 0.08917771 0.08278673 -0.003116877
000170 7f 17 6f 3d 88 b6 bc 3d 08 11 d6 3d 4b ba a1 3d
       0.058372017 0.092145026 0.10452467 0.07896861
000180 27 dc 73 3d 1d 2e 72 3e 6a 2b 01 3e f3 ac 4f 3e
       0.059536126 0.23650403 0.12614217 0.20280819
000190 7b 00 e4 3d df 71 ea 3d 5e db 39 3e dd 3e 3e 3b
       0.11132904 0.114475004 0.18150088 0.0029029169
0001a0 da 6d cf 3d c4 c3 0d 3b cf 44 90 3e 87 01 ac 3d
       0.101283744 0.0021631578 0.28177497 0.08398729
0001b0 18 bd 78 3e c0 d8 36 3e ab 37 ba 3d fa bf 10 3e
       0.24290884 0.17856121 0.09092649 0.14135733
0001c0 19 20 dd 3d 98 73 d8 3d d8 f7 09 3e 2a 6e 0b 3e
       0.10797138 0.10568923 0.13473451 0.13616243
0001d0 00 0f 4f 3e 9b 1c 51 3c 92 9f fd 3d 6c 17 47 3e
       0.20220566 0.012763168 0.12383951 0.19442528
0001e0 cb be ba 3c d1 33 06 39 86 b8 37 3e 84 c4 0e 3e
       0.022796055 0.00012798539 0.17941484 0.13942152
0001f0 1c 1d de 3d 96 05 2b 3e 32 8b 23 b7 8f b1 7a 3d
       0.10845396 0.1670135 -9.747966e-06 0.06120449
000200 52 5e b8 39 c2 8e 37 3e 53 39 ee 3d 9e c4 de b7
       0.0003516549 0.17925552 0.116320275 -2.655602e-05
000210 c2 31 80 3d 13 3c c8 3d f0 bf 23 3d d2 ed 05 3e
       0.062594905 0.09777083 0.039977968 0.13079002
000220 f1 bc 07 3e 09 15 16 3e 39 d5 3b 3e cf 8d cb 3d
       0.13255669 0.14656462 0.18343057 0.09939157
000230 1a b5 b3 3d 7f cf 9a 3d 62 26 1b 3e e9 b9 94 3a
       0.08774777 0.07559108 0.1515136 0.001134691
000240 cd 5d 12 3d d1 e6 93 3d ac f0 25 3e fd c5 fb 3b
       0.035733987 0.07221759 0.1620509 0.007683514
000250 51 6a 29 3e c2 14 5c 3e 7f 1f 49 3e 49 4d 07 3e
       0.16544463 0.21492293 0.19640921 0.13213076
000260 df 0f 45 3d a6 bc e5 3d c6 f8 19 3e 2a 3f 06 3e
       0.04811084 0.112176225 0.15036306 0.13110033
000270 4e 48 94 3d 6c 75 0d 3e 6b b3 1f 3e 9d 01 d7 3d
       0.072403535 0.13814324 0.15595786 0.104983546
000280 08 3d f9 3d e8 39 ff 3d d3 62 95 3e 0f a4 84 3b
       0.12169844 0.124622166 0.2917696 0.0040478776
000290 ad 74 78 3a 91 76 8b 3d 5a d4 88 39 9c a5 8d 3d
       0.0009477835 0.06809724 0.00026098156 0.06916353
0002a0 df ac ed 3b 04 71 3e 3e 10 bb 04 3e 7b 1e 47 3e
       0.007253274 0.185978 0.12961984 0.19445221
0002b0 35 55 e2 3d 43 1e 3f 3d 66 88 c6 38 3a e8 c7 39
       0.11051408 0.04665972 9.466782e-05 0.0003812926
0002c0 f3 c2 d2 3d fc d2 d9 3d 39 bc 5e 39 ab e1 30 3d
       0.1029109 0.10635945 0.00021241688 0.043183964
0002d0 43 52 81 3d 7c 71 7c 3d 97 3c eb 3d a0 23 01 3e
       0.06314518 0.061631665 0.11486166 0.12611246
0002e0 49 74 08 3e c5 6c 74 3d ae b8 b2 3d 5b 76 cc 3c
       0.1332561 0.059674043 0.08726631 0.02495878
0002f0 80 1c d8 3d 47 1b 2a 3e c9 5f 7b 3d 60 6c 07 3e
       0.10552311 0.16611968 0.061370645 0.13224936
000300 d4 b6 b0 3d 4a fb 5d 3a 05 c0 26 3d 54 73 3c 3e
       0.08628622 0.0008467926 0.040710468 0.18403369
000310 80 df 38 3e 9e d3 fd 39 16 f5 17 3e 44 d7 a3 b8
       0.18054008 0.00048413588 0.14839587 -7.812542e-05
000320 01 b4 2e 3e 02 27 83 3e 14 cc c9 3d 72 f8 98 3d
       0.17060854 0.25615698 0.09853378 0.07469262
000330 72 b8 fa 3d 02 4a ea 3d 21 82 51 3e 03 a3 d6 3d
       0.122422114 0.11439897 0.20459796 0.10480311
000340 9c b1 af 3e e7 21 04 3a e2 51 82 3d ec df bf 3d
       0.34315193 0.0005040452 0.06363274 0.093688816
000350 c1 a7 7e 3a fb 94 b3 3d 11 55 bd 36 ba 65 9f 3e
       0.00097143283 0.0876865 5.642542e-06 0.311323
000360 f4 df e6 b7 5b 5c 8f 3d d7 7b 25 3e ce 82 27 3d
       -2.7522423e-05 0.07000037 0.16160522 0.04089623
000370 fd 53 20 3e 5e bc 73 3d b9 bb af 3c f0 76 5d 3e
       0.15657039 0.059505813 0.021451818 0.21627402
000380 8f 07 6c 3d b9 d1 4d 3e 8b 7b 2a 3e 43 1d 00 3e
       0.057624396 0.20099534 0.1664869 0.12511162
000390 7c 26 26 3b ae 85 00 3e d4 2a 70 3e 05 17 64 bc
       0.0025352528 0.12550995 0.23453838 -0.013921504
0003a0 f5 57 dd 3a 78 5c 04 3c f6 cb 81 3d 88 fb d2 3d
       0.0016887175 0.008078687 0.063377306 0.10301882
0003b0 c3 46 d0 3a 40 e9 5c 3b e8 7d 46 3e 91 21 2b 3d
       0.0015890229 0.0033708364 0.19383967 0.04178006
0003c0 68 74 3c 3e 42 2d 5c 3d 9f 72 06 3d cb 7b be 39
       0.1840378 0.0537541 0.032824155 0.00036331857
0003d0 07 59 36 3e 02 53 1d 3e d4 c5 92 3c 3d ba b2 3d
       0.17807399 0.15363696 0.017916597 0.087269284
0003e0 cd 91 0a 3b ce 2d 36 3e 4c 00 2a 3c e3 ca 2a 3e
       0.0021144033 0.1779091 0.010376047 0.16678958
0003f0 cf f8 36 3e 11 99 0b 3e bc 6b 32 bc 30 37 2a 3e
       0.1786835 0.13632609 -0.010889944 0.16622615
