code/save/model_beta_repr_7.pt (torch, 649964 bytes, 6 tensors)

embed.weight f4 [59, 256]
00000000: 502a 7b3d da58 5dbe 6d4c ef3d 4031 113d
00000010: edc3 15be 0e7e 2c3e a6f9 0fbd 3fa9 0ebe
00000020: 1a9d 14be 4289 0fbe e8af 923d 6ff2 403c
00000030: 8332 b93d 29bb 22be 7777 a93d e88c 09be
00000040: 38a3 fc3c 411d 193e 7199 4dbe 66e7 4ebe
00000050: fe12 f83d a56a 12bd c4f1 e4bb 6fe9 38bd
00000060: 0a71 fb3d 3bcb 433e 648c 04be 98d3 453c
00000070: 94f4 c0bd f8c2 2a3e de5d 0e3e 69f1 b63c
00000080: 9200 333e e7b0 f6bd 751a fb3c b83b b13a
00000090: 4f95 db3d 4eea e5bd 6b21 a03c 0bb0 0cbe
000000a0: c778 cc3c 0af3 3abe 1be0 183e 6579 28bd
000000b0: 930a f3bc 0fb1 1cbc ac85 79be 16a2 1dbe
000000c0: c50d 903b 5979 dfbc 19de 78bd 1c81 133d
000000d0: 1334 d13c 5b87 4b3e 3657 23be b427 a0bd
000000e0: 8774 79bc ba2b 69bd e9ea 2abe a13f c7bc
000000f0: 7a82 a23d df5d fcbd 04b7 f13d 1d8d eb3d
00000100: ab82 1ebe a767 523e 4103 30be c3ba c0bd
00000110: 06ce bd3d 2e80 b7bc b815 ffbb 4c99 36bd
00000120: 1fe8 bfbc 04bc 4abe d8ed 1e3e ed4a dd3d
00000130: cf9b bd3c 6620 09be 4fce 253d 434e efbd
00000140: fca0 d63c fd74 00be 6226 143e d2f8 25be
00000150: 8338 d4bd bde0 bd3d a7bc 27be d2dd 533d
00000160: 94eb 00be 80a2 e73d 1d1c 8dbd c6f2 b4bc
00000170: 8036 513e 5ae7 35be 5115 e0bd 4e9c fd3b
00000180: cc59 0bbe 6063 c93d 1053 243e 6db2 ce3d
00000190: 403c 29be 3b75 ea3d 3176 3bbe 65ac bcbd
000001a0: 6aa5 02be 9324 5fbd 133f 8abd a1f6 023e
000001b0: 796b 193d 2534 623d b884 99bc f2c0 5fbe
000001c0: 9953 db3d dfc7 b63d 081f b7bd 6373 15be
000001d0: 0375 fdbd 7521 cb3d a8c0 1f3c bc34 adbd
000001e0: aac1 52bd 95ad 2a3d 8411 213e 230d 27be
000001f0: 9c02 1abe 5def 97bd ec99 11be b52a d9bd
00000200: 4d42 0fbe 919c 093e eec3 963c 7be5 a53c
00000210: 2194 ed3d d112 973d 0ad3 b83d d200 723d
00000220: 47c8 8bbd f9b0 48be a61c 30be ab38 463e
00000230: b5bc 01be c98d c4bd 4401 d0bc 0e57 7fbb
00000240: 1cb1 02be 3e21 44be a575 433d 6b75 d8bc
00000250: 8b00 f8bc 477d 7cbb eded 2fbe 4641 17be
00000260: 499a a0bd d2cb 113e 7f0c b6bb 073a a3bd
00000270: bb55 0f3e 7edf 5ebd 1805 513e 31c5 29bc
00000280: 10e3 31bd 5c03 053e 4251 d0bb a859 f539
00000290: 1c27 103e db68 2d3e 2057 d2bd 221e 233e
000002a0: 09d5 ed3d a479 33be 5734 0e3e ccca 1cbe
000002b0: 149a 6bbd a92b 583e 3cf4 10be bdee 7c3e
000002c0: b3b9 80bd 88d8 813c ad94 233d 2f9a 2f3e
000002d0: d101 003e a481 0d3d f9c0 b7bd 3722 043e
000002e0: e84b f3bd f58f f3bd a316 2c3d e646 6fbb
000002f0: bec3 02be a28f 453d 73b0 a4bd 3a15 4dbd
00000300: 88a0 49be b0ac 363e bd9a 44be 4ebd 453e
00000310: 73bd e3bd e437 c2bb c408 98bd 6f7d 0a3d
00000320: 8989 55bd 8f11 56bd 2513 9a3c e8aa 26be
00000330: bc1a b1bd 64e7 a33d fc43 2abe 3062 8ebd
00000340: 8372 29be cb22 3abe 8bf4 2bbd bec9 843d
00000350: 4b8b 6dbe e2ae f6bd 8ed8 fa3d dd8a 4fbc
00000360: a22d 5dbd 357a 24be 50d3 1bbd 9e04 603e
00000370: 16b3 af3d 12ee 03be 75d5 583e 437c ab3d
00000380: cf04 0f3e 6f18 febc 39b8 533e c6de 5abd
00000390: 1585 4cbe ab36 4e3e 782f fb3c 8a36 13bc
000003a0: cc22 ac3d 6e5e 433d 8f79 043e 08eb 04bd
000003b0: 98bc 1ebe 0e13 573c 28cf 27be 3ac0 02be
000003c0: f9cd 883d e39d 2b3e 8ab8 bfbd b0bc 16be
000003d0: 9cb4 e4bb 9edf 15be cff8 fd3d ca82 03be
000003e0: 05c7 debd 9b54 26bd c353 283e a9b9 2bbe
000003f0: e0fa cd3d ea92 e5bd 538f 72be c658 1dbe
0.06131965 -0.21615925 0.11684499 0.03544736 -0.14625521 0.16844961 -0.035150193 -0.1393175
-0.14513054 -0.14017203 0.07162458 0.011776551 0.090428375 -0.15891708 0.08274739 -0.13432658
0.030839548 0.14952566 -0.20078065 -0.20205459 0.121129975 -0.035746235 -0.0069868285 -0.045144495
0.1227742 0.19120495 -0.1294418 0.012074374 -0.094216496 0.16675937 0.13902995 0.02233191
0.17480686 -0.1204546 0.030652264 0.0013521826 0.10721838 -0.11226331 0.019547185 -0.1373903
0.024959935 -0.18256775 0.1492924 -0.041131396 -0.029668128 -0.009563698 -0.24367398 -0.15393862
0.0043961727 -0.027279543 -0.060758684 0.0360118 0.025537526 0.19875853 -0.15951237 -0.07820073
-0.015225536 -0.056926467 -0.16691174 -0.024322333 0.07935043 -0.12322592 0.118024856 0.115015246
-0.15479533 0.20547353 -0.17188741 -0.09410622 0.092678115 -0.022399988 -0.0077845715 -0.04457979
-0.023426114 -0.19798285 0.15520418 0.108053066 0.023145584 -0.13391265 0.040479954 -0.11684849
0.02619981 -0.12544627 0.14467767 -0.16208199 -0.10362341 0.09271381 -0.16380559 0.051725216
-0.12589866 0.11310291 -0.06890128 -0.02208842 0.20430946 -0.17764035 -0.10941566 0.0077395802
-0.13608474 0.098334074 0.16047311 0.10092626 -0.1652689 0.11448141 -0.18306805 -0.09212569
-0.12758413 -0.05447824 -0.06750312 0.12789394 0.03745601 0.05522551 -0.018740043 -0.21850947
0.10709304 0.08924841 -0.089414656 -0.14594798 -0.12375834 0.09918491 0.009750523 -0.08457324
-0.051454224 0.041669447 0.15729338 -0.16313605 -0.15040058 -0.07418702 -0.14218873 -0.10603849
-0.13990135 0.13438632 0.018403973 0.020251026 0.11600519 0.07376636 0.090246275 0.059082814
-0.06825309 -0.1959876 -0.17198429 0.19357555 -0.12669642 -0.09597356 -0.025391228 -0.00389618
-0.12762874 -0.19153306 0.047719616 -0.026423177 -0.030273696 -0.003852682 -0.17180605 -0.14770994
-0.078419276 0.14237908 -0.005555689 -0.07970052 0.13997547 -0.054412358 0.204121 -0.0103619555
-0.043429434 0.12989563 -0.006357343 0.0004679684 0.14077419 0.1693453 -0.10270524 0.15929464
0.11612899 -0.17526871 0.13887154 -0.15311736 -0.057519987 0.21110405 -0.14155668 0.24700446
-0.06285419 0.01585032 0.03993671 0.1714866 0.12500693 0.034547463 -0.089723535 0.12903677
-0.11879712 -0.11892692 0.042013776 -0.0036510765 -0.12769982 0.048232682 -0.080414675 -0.05006907
-0.19690144 0.17839313 -0.19199653 0.19310495 -0.11120119 -0.005927073 -0.07423547 0.03381103
-0.052133117 -0.05226284 0.018807957 -0.16276133 -0.08647677 0.08003119 -0.16627496 -0.069523215
-0.16547589 -0.18177335 -0.04198126 0.06483792 -0.23197667 -0.12045075 0.12248336 -0.012667385
-0.053998597 -0.16062243 -0.03804332 0.21876761 0.0857908 -0.12883785 0.21175177 0.083733104
0.13966678 -0.03101751 0.20675744 -0.05343511 -0.19972642 0.20138042 0.030662283 -0.008985171
0.084050745 0.047697477 0.12936996 -0.032450706 -0.1550163 0.013127102 -0.16387618 -0.12768641
0.06679911 0.16759448 -0.0936137 -0.14720416 -0.006979538 -0.14636084 0.12400972 -0.12842861
-0.10877804 -0.04060803 0.16438203 -0.16770042 0.10057616 -0.11209662 -0.23687486 -0.15365896

unembed.weight f4 [59, 256]
00000000: 6d0a e83c 9cd8 0bbe c8c2 92bd 5304 4ebe
00000010: 252a 3dbc 6cbf 453d 3cab 4fbd e454 d3bd
00000020: 84f2 e53d 9113 86bc c4fc efbd 3b9d be3b
00000030: 1a8e 3ebd 033c 1dbe ae70 0fbc 57a6 4fbd
00000040: a96c 1abe be32 303d a415 6e3e 96b2 c33c
00000050: 927f e83d ce65 52be 5600 0c3e 0dd6 03bd
00000060: d109 003d 4b1e 903d ddca 1bbe 2040 ea3d
00000070: 1c1d 4f3e cb48 de3c 7978 513e f37c 763b
00000080: 4e6c 02be 94ad dc3d be5d 8abd 499e fc3b
00000090: 4f2b 193d 0370 d1bd cf48 3ebe 7a63 173d
000000a0: ac49 16bd bd08 693c 4ef4 ac3c 2a74 09be
000000b0: ae40 093c 8eac 04bb ec2a 9cbd 3598 61bc
000000c0: bba2 b1bd a359 5f3d 891d 223d 1bba 3abd
000000d0: a04f 5e3e 70b2 01bd 418c 42bd 6d0f 003e
000000e0: fe2d fe3d 20dd 3bbd 52c8 ccbc 6e66 3abe
000000f0: f180 213e cbd6 be3d a773 af3d 8057 563e
00000100: d74d d43b c791 00be 649e 9bbd 4ec5 4ebc
00000110: 13ea 8cbd 8c89 44be 6233 2bbd ea3b 26bd
00000120: eb35 e33d 9625 17be b433 533d e999 10be
00000130: aed3 12bd d717 29bb 50f7 0a3c 97dd 4dbe
00000140: 2a1b 96bc b99e 003e 3070 e8bd 9652 a0bd
00000150: ccf1 dfbd 0c23 093d 9f7a f7bd e6fc 3cbe
00000160: 2310 eebc eb42 e93d 9a87 edbd a33f 643e
00000170: ba43 083e ef5a dabc 6635 10be 3c7d 15bd
00000180: bc4a ca3d c800 bf3d b36a 4a3d d2f5 823d
00000190: bcef 963d 0d57 b73d b3da 3bbe 7f1a 1d3d
000001a0: 7764 31be be6c 2dbe d3dd 363e eb91 19bd
000001b0: 9923 13bd db1d 7a3c 0603 5f3d 05cf 3b3d
000001c0: 890f 833d 3d66 a1ba ea7e 943d 970c 21bd
000001d0: eb43 8fbd 9bea 833d 1f99 f9bd 10ee 4d3d
000001e0: dffc 86bd 7c77 1ebe 2855 98bd 7f44 263e
000001f0: bbc3 043e 423d 413e bcbb 4e3e e8a5 053e
00000200: 439a 0b3e d80f 553e 46e8 113c 9daa 243e
00000210: e33d 273e 0a0c 18be c393 a03d d465 a2bc
00000220: 3e03 3abe 163d 1fbe b1e3 61bd b3f2 163e
00000230: 9c20 8ebd de0f 373e 84d8 f1bd 5157 3b3e
00000240: 7118 1a3e a65b dbbd b9cd c8bd b14b 87bc
00000250: 439a 303e 62be 99bd 76d0 413e b19c b9bd
00000260: 22df 8e3d 2afd 063e bee6 223e f4f0 2a3d
00000270: b47f 163d e9a8 313e 52c2 e83d 95e1 693e
00000280: 9c2d 78bd 313e 60bd dd65 27be c60e 27bd
00000290: 3fff 2cbe 780e 25be 996f 35be f52c 2fbe
000002a0: 4475 2fbe dbbc 4a3d 18ab 34be 5a98 813e
000002b0: 69c0 dabd 5186 c33d 33c4 8cbd 1218 aabd
000002c0: d281 4fbe 386b ac3d 64ea 33be 8d78 1fbd
000002d0: 5969 843c c115 2dbe f5b0 2fbe e483 7f3d
000002e0: 69ed f4bd 07c8 533c decc 993a b8e0 c13d
000002f0: 81a8 a73d 8e33 353e 4a50 523e 7eca 473e
00000300: 4f38 8fbd 5e35 9c3d d8f6 9f3d ebfe 2c3e
00000310: bd62 34be dcd7 a63c d769 323e 78bf 5bbb
00000320: bcc9 33be 5975 c83d be8b 34bc 9b77 643e
00000330: 0c7e 55be a48c 053e 1443 943d 1589 1bbe
00000340: 80f4 41be 77b4 733b ef53 16bd ec04 ed3d
00000350: 7151 553e be0a a2bc f8ed 27be 0b9c 69bd
00000360: 0db0 9fbc c249 04be a316 c03d 2cbe ae3c
00000370: 18c7 2dbe fa6b 5cbd 3340 f53d c834 6bbc
00000380: 0f29 f13d ef4a 263e 77e9 b73c 24c7 e83d
00000390: da7b 203e c421 21be 1966 5bbe 79cb b3bd
000003a0: 6d67 983b f34d acbd 1217 d2bd 5c76 003e
000003b0: d386 abbd 54ed 0a3d b36c b1bd f058 e13c
000003c0: e09b 343d 5654 90bc e96f 993d c0e5 da3c
000003d0: 258d 48be c43c 973c 9a1e 203e eb43 47be
000003e0: 34d7 8b3d 7afb 573d 25de 03bd 6776 323e
000003f0: a8c2 26be 4aa5 37be 9f20 0abe 731b 07be
0.028325284 -0.13656849 -0.07166058 -0.20118837 -0.011545693 0.048278257 -0.05070041 -0.10318926
0.11227897 -0.016366752 -0.11718133 0.005817083 -0.046522237 -0.15354924 -0.008754892 -0.050695743
-0.15080513 0.04301714 0.23250443 0.023888867 0.11352457 -0.20546648 0.13672003 -0.032186557
0.03125936 0.07037028 -0.15214105 0.11438012 0.20225948 0.02713432 0.20456113 0.0037611097
-0.12736627 0.10775295 -0.06756161 0.0077092987 0.037394818 -0.10226443 -0.18582462 0.036960103
-0.036691353 0.014223275 0.021112587 -0.1342322 0.008377237 -0.0020244452 -0.07625374 -0.013769199
-0.086736165 0.054528844 0.03957895 -0.04558764 0.21710062 -0.031664312 -0.047497038 0.12505884
0.12411116 -0.045865178 -0.024997864 -0.18203136 0.15771843 0.09318312 0.08566981 0.20931816
0.006479006 -0.1255561 -0.0759857 -0.012620283 -0.068805836 -0.19193095 -0.04179705 -0.040584482
0.110942684 -0.14760432 0.05156298 -0.14121212 -0.035846405 -0.0025801563 0.008481815 -0.20104061
-0.0183235 0.12560548 -0.11349523 -0.07828252 -0.10934791 0.03348069 -0.12083935 -0.18455848
-0.029060429 0.11389717 -0.115981296 0.222899 0.13307086 -0.026654689 -0.1408287 -0.036496386
0.09877536 0.09326321 0.049418163 0.06394543 0.073699445 0.089521505 -0.18345146 0.038355347
-0.1732348 -0.16936013 0.17858057 -0.037492674 -0.03592262 0.015265907 0.054446243 0.045851726
0.063994475 -0.0012313795 0.072507694 -0.039318647 -0.06995376 0.06441232 -0.12187409 0.050275862
-0.065912 -0.15475267 -0.07438117 0.16237067 0.1296529 0.18871024 0.20188802 0.1305157
0.13633065 0.20806825 0.008905476 0.16080709 0.16332202 -0.14848343 0.07840683 -0.019823946
-0.181653 -0.15550646 -0.055148784 0.1474102 -0.069398135 0.17877147 -0.11808875 0.18295027
0.15048386 -0.1071084 -0.098048635 -0.016515585 0.17246346 -0.07507016 0.18927178 -0.0906309
0.06976153 0.13182512 0.15908334 0.041733697 0.03674288 0.1734959 0.11365189 0.22839959
-0.06059037 -0.05474681 -0.16347452 -0.040785573 -0.16894244 -0.161188 -0.17718352 -0.17106993
-0.17134577 0.049496513 -0.17643392 0.25311548 -0.106812306 0.09547103 -0.068733595 -0.08305372
-0.20264366 0.08418888 -0.17569882 -0.038933326 0.016163515 -0.1690283 -0.17157348 0.06238164
-0.11959345 0.012926108 0.0011734029 0.0946669 0.081864364 0.17695448 0.2053844 0.19510838
-0.06993162 0.076273665 0.078107536 0.16894118 -0.1761579 0.020366602 0.17423187 -0.0033530872
-0.17557424 0.09788007 -0.011019645 0.22311251 -0.20848864 0.13041931 0.07239357 -0.15189011
-0.18940926 0.0037186423 -0.03670114 0.115732044 0.20831849 -0.019780513 -0.16399372 -0.05703358
-0.019493127 -0.12918761 0.093793176 0.021330915 -0.1697048 -0.053813912 0.11975136 -0.014355846
0.117754094 0.16239522 0.022450192 0.11366108 0.15672246 -0.15735537 -0.21425666 -0.08779044
0.004651001 -0.08413305 -0.102583066 0.1254515 -0.08375325 0.03391774 -0.08663311 0.027508229
0.044093966 -0.01761834 0.07492048 0.026720881 -0.19585092 0.018461592 0.15636674 -0.19459502
0.06828156 0.05273006 -0.032194275 0.1742798 -0.16285193 -0.17934147 -0.13489006 -0.13194065

l1.weight f4 [256, 256]
00000000: 38ca ec3c 82fb 553d 3a87 143d 941d 173e
00000010: 00f9 97bd f286 533d f207 cebd e5a0 b9bc
00000020: 46fd 4abd 3e65 e4bb b2e9 b0bd e459 07be
00000030: bb96 ba3c f8fc bc3a cc4c 60bd 1b50 8f3d
00000040: efbf a73d ce66 973d 9534 75bd 066a 4a3d
00000050: a96f 01be 5400 10be 771d 08bd 8b59 743c
00000060: 4a4e bf3d fc15 d03d e45a e3bd f70d 5a3d
00000070: c3d9 22bd 8cc4 323d 6d0a d0bd e7db a6bd
00000080: 0a2f 893d c6bd 233d f23d 88bd 2b73 733c
00000090: fd83 19bd 783e 01be c514 ebbd d98f e5bd
000000a0: b4a7 55bd 5aa8 5fbd 7cda 813d cb73 3e3c
000000b0: 22de b53b 10e4 2ebb 1735 51bd c6bd 21bd
000000c0: fde7 01be ad9f a63d cae1 7fbd 2d5c 14bc
000000d0: e4a5 4abd 272a 7ebc 1642 a6bd 2c31 f4bc
000000e0: 7167 86bd c30c a63d 7fba 91bd 9989 debc
000000f0: d217 51bd d4ad a4bb edf9 5abd 89e4 c73d
00000100: 776e 943c 372b c3bc 76a5 723d a593 e1bd
00000110: 9a06 3d3a 8fd2 203c 3613 823d 210c 78bd
00000120: b0dc b43c 2918 9bbd 1d5e 123e 5e38 01bc
00000130: 9c7c 843d 789f 80bd 9df7 443d 2a2d 323d
00000140: 483b 3abd e8c0 b6bd 73c4 863d c618 b4bd
00000150: 86ad c2bc c880 373d b2b6 ce3d 87bf b5bd
00000160: c616 193d b9d6 aebd 75db 86bb f8d2 ad3d
00000170: 2669 ff3d 5a75 f2bd b863 c8bd d733 e63d
00000180: ba16 d5bd c69c ffbd 4011 763d ebc1 cdbc
00000190: 3763 e8bd 945a 723d 535a a53d 7d7f 94bd
000001a0: cc40 3cbd f7bc 833d 6810 c4bd d5a4 853d
000001b0: 24bd b23d 2a46 8b3d cc81 40bd c0e1 c3bd
000001c0: ddce 923b 0d6d f2bc 396a 933d f439 f33d
000001d0: 8eb6 65bd a92f ebbc 3c85 933d 944e b53c
000001e0: f29d 82bd 5e34 073e e281 c0bc 7a63 7cbd
000001f0: 9fe3 7bbc 67dc c73b 0414 323c c64e 5ebd
00000200: c9be 97bd 4563 1cbd 9a44 513d 9300 073e
00000210: f311 a03d b4c1 d03c 478e d93d 0813 25bd
00000220: 40a7 9dbd b1a0 14bd ceed b63d 3f97 673d
00000230: 78aa 5f3d a5af 6fbc ab99 91bc 7be1 2abd
00000240: 9b85 01be 3820 be3d 7531 78bd 725b a33d
00000250: 2b6f 0b3c c63d 97bd b0e4 b5bd b4f4 89bd
00000260: 04dd f0bd 2925 253c 4047 a6bd 5e2d c43d
00000270: 1b32 ccbd 320f efbd 178a 00bd c4d5 d8bd
00000280: f57d d33d f2ba 86bd d427 98bd 384b b8bc
00000290: 5aa2 e8bb 40e5 ef3d b5b8 443b 4541 49bd
000002a0: 4497 85bd cd4d c9bd a345 073e 7044 02be
000002b0: 8383 803c d729 8d3d 41e2 023c cd08 cf3d
000002c0: 1bc8 d13c 8032 a33d e273 58bd 21f4 1939
000002d0: d0c1 9c3d 9d34 c13c 1d95 02bd 01d3 a0bc
000002e0: 31e9 e6bd cc44 5cbd 783f 85bd 4f40 d9bd
000002f0: 2b5b 6b3c 8c8c 01bd 405d 79bd 053d a83d
00000300: f9d1 bebd 779a a33d bc95 44bd ea5f 6abd
00000310: fd01 f6bd 5070 9a3d 4156 6fbc e0ae e93d
00000320: 3ce0 dabc 836d a5bd 6aff ffbd c206 823d
00000330: 141d be3d dbad 783c abd9 d3bc b2bb 94bd
00000340: a6cf 9ebd 4e4c 6fbd 3488 5bbd 8af5 0a3e
00000350: b5a6 e1bd 083f 4ebd 5725 7f3d 047d 143d
00000360: 6b0a c43d cc5c 463d c9da 0dbd f43d 7b3a
00000370: a63e 5dbc 9fe8 c4bc 079a 883d 3a67 28bd
00000380: 7c30 a33d db63 e7bd 5d37 893d 5a31 5cbd
00000390: 8bd8 1f3d cc05 fe3b 12d8 6b3d 30ef 833d
000003a0: ac44 3ebc 4d2c 103d 3969 9e3d f823 23bd
000003b0: 9436 87bc 33bc 713b 824c 9bbd 69e3 35ba
000003c0: e4e5 ed3c ba9d 10be 37b5 03be 5c21 eabd
000003d0: 38bb b0bc 5092 9fbd 88a7 023d 6c0b 34bd
000003e0: 92b4 6d3c 6f51 7a3d 2d29 61bc 3330 5abd
000003f0: 2848 50bd 1313 d2bd 24c3 83bb 324a 46bb
0.02890502 0.05224181 0.036261775 0.14757377 -0.0742054 0.051642366 -0.10060109 -0.022659728
-0.049557947 -0.006970077 -0.08638324 -0.13217884 0.022776952 0.0014418652 -0.05476074 0.06997701
0.08190905 0.07392655 -0.0598646 0.049417518 -0.12640251 -0.14062625 -0.033231225 0.014913927
0.09341104 0.10160443 -0.111013204 0.053235974 -0.039758455 0.043644473 -0.101582386 -0.08147412
0.06698425 0.039975904 -0.0665244 0.014859001 -0.03747939 -0.12621486 -0.11478571 -0.112090774
-0.052161887 -0.054603912 0.06340501 0.011624287 0.005550162 -0.0026686229 -0.05107602 -0.039487623
-0.12686153 0.081359245 -0.06247119 -0.00905518 -0.049474612 -0.01551298 -0.08118074 -0.029808603
-0.06562699 0.08107903 -0.071156494 -0.027165221 -0.051048107 -0.0050256047 -0.053461004 0.097603865
0.01811908 -0.023824317 0.059239827 -0.11014489 0.00072107615 0.009815826 0.063513204 -0.060558442
0.022077888 -0.075729676 0.14293714 -0.007886974 0.0646908 -0.06280416 0.048087705 0.043500103
-0.04546669 -0.08923513 0.065804385 -0.08793788 -0.023764383 0.04480055 0.1009344 -0.088744216
0.037375234 -0.08537049 -0.004115517 0.08487505 0.12471227 -0.11838789 -0.09784645 0.112403564
-0.104047254 -0.12481074 0.060075045 -0.025116881 -0.11347049 0.059168413 0.080738686 -0.07250879
-0.045960233 0.064325266 -0.09573442 0.0652558 0.08727482 0.06800492 -0.046998784 -0.09564543
0.0044802264 -0.029593015 0.07197995 0.11876288 -0.0560823 -0.02870925 0.07203147 0.022132196
-0.06377782 0.1320357 -0.023499433 -0.061618306 -0.015374093 0.006099272 0.01086903 -0.054274343
-0.07409436 -0.03818061 0.051090814 0.13183813 0.078159235 0.02548299 0.106228404 -0.040301353
-0.07697916 -0.03628606 0.089320764 0.056540724 0.05460593 -0.014629279 -0.01777347 -0.04171894
-0.12648623 0.09283489 -0.06059404 0.07976426 0.008510391 -0.07384829 -0.08881509 -0.067361265
-0.117609054 0.01007966 -0.081190586 0.095789656 -0.09970494 -0.1167282 -0.031381693 -0.105876476
0.10326759 -0.06578626 -0.074294716 -0.022496805 -0.007099432 0.11713648 0.003001732 -0.04913451
-0.06522992 -0.098292924 0.13210158 -0.1272142 0.01568771 0.06892746 0.007988513 0.101091005
0.025608113 0.079686165 -0.05284489 0.00014682162 0.07654154 0.023584658 -0.031880487 -0.019631865
-0.112749465 -0.053776547 -0.06506246 -0.10607969 0.014364998 -0.031628177 -0.060879946 0.082147636
-0.09317393 0.07988446 -0.04799436 -0.057220377 -0.12012098 0.07540953 -0.014607967 0.11410308
-0.026718251 -0.08077528 -0.12499888 0.06348945 0.0928289 0.015178169 -0.025860628 -0.072623625
-0.077544495 -0.05842238 -0.05359669 0.13570228 -0.11018125 -0.05035308 0.06229147 0.036252037
0.095722996 0.04842834 -0.034632478 0.0009584122 -0.013503706 -0.024036704 0.066700034 -0.04111407
0.07968232 -0.11298343 0.06700013 -0.053758003 0.03902487 0.007752156 0.057579108 0.06442106
-0.011613052 0.0351985 0.077349134 -0.039829224 -0.016505517 0.0036885857 -0.07582952 -0.0006938489
0.029040284 -0.14122668 -0.12862097 -0.11432144 -0.021573648 -0.07791579 0.03189805 -0.043956205
0.014508383 0.061112817 -0.013742727 -0.053268623 -0.050850064 -0.10257544 -0.0040210653 -0.0030256626

l1.bias f4 [256]
00000000: f447 233e 02e4 4d3e 56cb f03c a1c5 353e
00000010: 88a7 ea3d 7e7b 9f3d 244f 753a 06a0 d33d
00000020: a41f 2f3e cd01 d83c 6ad3 223e 8ee3 de3c
00000030: 67a2 893c 1b3f 563e ab45 b33d d9c6 2d3e
00000040: 1a98 063e 78b3 d13c 5eee b03c 0a2e f53d
00000050: 814c d43d 916e 043e 9f8b ec3d 6bb5 8838
00000060: 2f71 ba3b e15d 923d 661b 253e ff64 4e3e
00000070: 8477 d63b 5977 0f3e 9912 443e e952 5d3e
00000080: c135 e639 8891 2739 231d 3b3d 31bf 2f3c
00000090: a01e 333e d6a3 ef3c 936e 033e 818c 9a3d
000000a0: 20ef b03d d254 5f3e 9971 f53d b46d 153e
000000b0: d1bf d63d f5b6 453e 8dda 093e db42 8d3d
000000c0: b3f8 6b3b 1a9f dd3d 5dac 4c3b e47b 9c3d
000000d0: 52a4 583e 35fb 493b ba14 2c3d a436 453e
000000e0: f7d3 e13d e12d f43d 70fa 823d b1c5 0e3e
000000f0: 435e 7c3a 6528 f33d 7618 183e beaa 133e
00000100: eb88 8b3d e10e 543e 2f3a 3c3e ebcb 453e
00000110: 95b8 063d 62f6 0f3e ad85 4a3e aa4b ce3d
00000120: ef6c 593e 25b8 c539 2fa4 0d3d 93b1 803d
00000130: 07bb 2f3e 76bd 513c 585c 2f3d 1d51 843c
00000140: aed6 5c3e f90b a23b fee3 cc3c 1463 c33d
00000150: 0fa9 353e 8b55 383e adbd 2a3e e1db 133e
00000160: e08b ee3d 38b8 0a3a 1870 2c3e cdad 1a3e
00000170: 6675 1f3d 5979 303e a845 e13d 4022 293e
00000180: 22b6 3f3e 653f 213c b7c1 b63d 2803 4c3e
00000190: 3be2 9f3d d6c6 cc3d b4c9 9a3b 7d16 da3d
000001a0: e42f 3a3e c603 003e 5c93 623e b82d 4c3e
000001b0: f7d5 1b3e 1f0a ce3d 11c7 d43c 9d91 063c
000001c0: 9f57 2b3e 3fb7 013e 881a 1d3e 98b6 873d
000001d0: 6ac9 133e 4253 9c3d 1656 483e e617 9c38
000001e0: 87c2 b33d 8d6f 0b3d ae72 d43d 5986 743e
000001f0: bc35 3d3e 21e1 823a 5d93 5f3e 31db 3d3b
00000200: 24fe 503e 9fba 2e3c deb2 153e 6255 b63d
00000210: 4a66 9536 2e50 9d3b 8c4a 8c3d fe80 2f3e
00000220: 3a46 f839 3f30 5d3e a372 593e 0836 543e
00000230: 0adf 4b3d 4f26 2e3e 9efb 693d b30e e33d
00000240: 6049 2d3e 74a4 483e 42ec 283b 588e 3f3b
00000250: a614 2f3e 154a 213e fa8e 2d3e 2964 263e
00000260: 3b68 f63c fb49 ea3d d729 6f3e 4e5a 2a3e
00000270: 8040 3f3e c7aa 293d fd9a 553e f8b4 153e
00000280: 9d27 de3d c7c6 2d3e daaf 913c 8665 7d3d
00000290: 5133 4e3e 6906 1d3e 810f 503e e8ff 343e
000002a0: 5f24 433e 02c3 f23d 14d5 df39 afd5 0e3d
000002b0: a8c6 593e e139 3d3e 88ad 373e feec 833d
000002c0: f418 0a3e 69d0 e23d 08ad f43d 4b91 323e
000002d0: f491 1737 d0be 413e 9205 853d 15c9 243e
000002e0: 0ba8 763d df17 5c3d c0b1 3e3e e324 123e
000002f0: e51a b137 56c3 b63d 2494 0f3e b7af 053e
00000300: 732e 3a3e a141 a03a 92a3 163e d83e 563c
00000310: 8124 193e 1e1a 313e 6ebd 1e3e 22ae 4b3e
00000320: e1e0 2f3e d8d4 b13d 870e 4c3d 9652 e03d
00000330: 5ecb 093c beac 2e3e da5e 223e 5e2e a83d
00000340: d049 523e 2b63 113e 8857 493e 0e36 f23d
00000350: f935 1d3e 1d58 0f3e 0144 2a3c cfd6 233e
00000360: 9abc 303e 46e5 2e3d 25e8 733d 9d1e 0e3e
00000370: 5fb4 f93d aadd 893d 407e 453e 3475 283a
00000380: d594 143e 7df3 da3b 2439 bd3d 7c50 3d3c
00000390: 208f 933d 31d7 fb3d 06a8 223e 9f91 d03d
000003a0: 1980 363e 8041 3b3e 1739 f03d ecd0 603e
000003b0: bb15 2c3e eec2 483e c2bf 403e fc0e 583e
000003c0: 8ff0 393e 85bd 553e 6394 153d dd7b 043c
000003d0: 2a91 ab36 07ba 783a 4285 233e 8826 a03d
000003e0: 5741 113e 6e98 023e f769 1b3e 5ac1 833d
000003f0: e130 793d e03c 513a 4467 e23d 6ec1 203e
0.15945417 0.2010651 0.029393833 0.1775117 0.11457735 0.07787226 0.0009357801 0.103332564
0.17101914 0.026368046 0.1590096 0.027208116 0.016801072 0.2092251 0.087535225 0.16970386
0.1314396 0.025598273 0.021598037 0.11971672 0.103661545 0.12932803 0.11550068 6.518777e-05
0.005689762 0.07146812 0.16123733 0.20155714 0.006545009 0.14010371 0.1914772 0.21613659
0.00043909068 0.00015980576 0.045682084 0.010726736 0.17492151 0.029252928 0.1283515 0.0754633
0.086393595 0.218097 0.11984558 0.1459263 0.10485805 0.19308074 0.13462277 0.06897517
0.003600639 0.10821362 0.0031230666 0.07640818 0.21156433 0.0030819897 0.042011954 0.19259125
0.11026757 0.11922813 0.063954234 0.13942601 0.0009627083 0.11872939 0.14853081 0.14420602
0.068132244 0.20708801 0.1838157 0.1931607 0.032890875 0.14058831 0.19777556 0.100730255
0.21232961 0.00037711966 0.034580406 0.062838696 0.17161189 0.012801519 0.042812675 0.01615196
0.21566269 0.004945275 0.025011059 0.09540382 0.17740272 0.18001382 0.16673918 0.14439346
0.11647773 0.0005291733 0.16839635 0.15105362 0.03893032 0.1723379 0.10999614 0.16516972
0.18721822 0.009841775 0.08923667 0.19923079 0.07806822 0.099988624 0.004723752 0.106488205
0.18182331 0.1250144 0.22126526 0.19939315 0.1521834 0.10060524 0.025973829 0.008213428
0.16732644 0.12667559 0.15342152 0.06626624 0.14432302 0.07633068 0.19564089 7.443111e-05
0.087773375 0.03404193 0.10373436 0.23879375 0.1847753 0.0009985307 0.21833558 0.002896976
0.20409447 0.010664611 0.14619014 0.08903004 4.452454e-06 0.004800818 0.06850156 0.1713905
0.0004735457 0.21600436 0.21235137 0.20723736 0.049773254 0.17006801 0.057124726 0.11086788
0.16922522 0.19593984 0.0025775586 0.002922913 0.1709772 0.15750916 0.16949072 0.16249146
0.030078998 0.11439892 0.23355804 0.16636011 0.18676949 0.04142263 0.20859905 0.14619815
0.108473994 0.16970359 0.017784048 0.0618644 0.20136763 0.15334477 0.20318414 0.17675745
0.19056843 0.11853601 0.0004269263 0.034871753 0.21267188 0.1847911 0.1793729 0.06441687
0.13486081 0.11074907 0.119470656 0.17438237 9.034284e-06 0.18920445 0.06495203 0.16092332
0.060218852 0.053733703 0.18622494 0.14271884 2.1112568e-05 0.08923976 0.14021355 0.13055311
0.18181781 0.001222659 0.14710835 0.013076507 0.14955331 0.17295119 0.15501949 0.19890645
0.17175628 0.08683175 0.04981854 0.10953252 0.008410303 0.17058083 0.15856495 0.08211969
0.2053597 0.14197986 0.19662297 0.11826716 0.1535262 0.13998456 0.01039219 0.15999912
0.17259446 0.04269912 0.059547562 0.13878866 0.12192606 0.06731732 0.19286442 0.0006426156
0.145099 0.006681858 0.09239414 0.0115548335 0.07205033 0.12296904 0.15884408 0.10184025
0.17822303 0.18286705 0.11729639 0.21954697 0.16805165 0.1960561 0.1882315 0.21099466
0.18158172 0.20873077 0.036518466 0.008086172 5.1130964e-06 0.00094881695 0.15968803 0.07819849
0.14185081 0.1275346 0.15177141 0.06433363 0.06083763 0.00079817884 0.110548526 0.15698788

l2.weight f4 [256, 256]
00000000: 2af1 8abd 5b21 0f3e f036 773c 0fda 973d
00000010: 2c2d 60bd 0ed9 8fbd 5634 cd38 51cc 2cbc
00000020: 4d13 9e3d e567 dd3b 0f8e b8bd 3fe7 e2bc
00000030: 7bad 7d3b e984 743d fc3a de3d d6d1 483d
00000040: 73cf 023e b750 6dbc dd3a 1c3c 8b31 503d
00000050: 3869 8fbd d0a8 003e a117 0e3e f787 c036
00000060: 0122 cc39 8837 ef3d bece b23d 0425 fdbd
00000070: d98d abbb d88d 71bd 262e 103d e1d2 4abd
00000080: 90de 1b38 15a0 9737 1560 a2bd 9c7c 44bc
00000090: 1996 cf3a b007 54bc 5c7f 9bbd ef23 863d
000000a0: f362 0bbd 409d 04be 6d57 0a3e 9a6f 0b3d
000000b0: 7941 163e 015a cc3d e75c 8bbd 1606 d13d
000000c0: 2553 a739 f93c 09bb cdd4 6b3a f97d cf3d
000000d0: f731 0c3e ee60 7c39 470f c6bc e247 cfbc
000000e0: 8381 993d c4ba 023d 56d9 81bd 33bb 8a3c
000000f0: 0585 ae38 4330 10bd aa7f 92ba af73 0ebd
00000100: f691 18bd 88c9 fb3d b399 d83d 7d93 ecbd
00000110: e697 dabc bfca afbd 9051 f8bd f6f9 023d
00000120: 54c5 f1bd 4d89 9339 bb30 de3d 3daa ca3b
00000130: 00fb 083e 3a9f e43a 0603 a63c 6f7d cc3b
00000140: 707e 903d 198b 6f3b 2354 ba3b 13f9 a33d
00000150: d0bd fc3d 5268 093e 1c17 e5bd a1bf a938
00000160: 9b1e 4e3d 75ee 86b9 4ed3 233c 7a47 c3bc
00000170: bae1 41bd 5df3 fd3d 9228 003e 40d5 ed3c
00000180: 43e6 afbd dba3 bf3a 7517 253d 4be3 003e
00000190: 7b6f 3abd 6061 72bc 2ed4 c4ba 7ee1 0f3c
000001a0: da82 0b3e c89f b43d 6834 0fbe 0d89 ba3d
000001b0: 7a0a 953d d2c4 f73a f671 b63d 1a60 8c3b
000001c0: af26 00bc 73e5 88bd 1d33 a3bd 3d4d 65bd
000001d0: 3d2e 0ebc 6489 643d b1e5 a4bd 2e98 1037
000001e0: 4b3c 813d 884c 80bc 0f0f f23a 4271 a7bc
000001f0: 75ce b23d 9fb2 ba38 3034 8bbd b56e f73a
00000200: 72d2 c7bd beb9 023c 2335 883c 54a5 81bc
00000210: 4916 c534 2931 0b3b 9169 963b 0f1d f83d
00000220: b53c 5038 773b 0f3e 4232 d3bd 7295 f5bd
00000230: b607 e23c 62e0 b43c 6ab4 d63d 91ac f03d
00000240: 72aa 823c 2bb4 873d edd8 6cb9 e99a 7739
00000250: 68dc 0a3e 5847 cc3d 50eb b43d ca4f 043e
00000260: b8e5 303b 4ffd 37bd 29f2 053e 9090 17bd
00000270: 88a6 b53d 8200 e23c 4e0d 09be 709d 95bb
00000280: 9faa c53d 7a59 a9bd 1346 153b 3f97 8c3d
00000290: 7ae7 0e3e 5d3e f5bd 739c fa3d cee6 dabd
000002a0: 643d e6bd dc9f 5bbd 455e af39 a9d3 883c
000002b0: 81f7 99bd 2991 f33d 9caf 3bbd ef31 07bd
000002c0: dbe9 c43d a3fb a33c 041c 3c3d e4c3 bdbd
000002d0: 8c95 3f35 50bd 8b3d 6f27 da3c bbd0 0e3e
000002e0: 1b46 94b9 cb37 803d ec07 a5bd 1da1 c93d
000002f0: d96d 1f36 f906 b93b 37b4 ff3d 8baf 023d
00000300: 3caa febd 0cba 07ba 70b9 bdbd 675c f2bb
00000310: 1664 2dbd fc66 043e e1be af3d c8dd 03be
00000320: 96b9 c73d aef4 4cbd 9160 20bc 9f4a 123d
00000330: 09b2 733b 5ae2 643d 79c2 ae3d 6499 3dbd
00000340: 2570 073e e19f bc3d d751 86bc 88ce de3d
00000350: 5a4f 213d 132b babd f6b7 05bc 64bd f03d
00000360: 4b45 e13b 4df8 87bd 9c3f 14bd 6a6a c4bd
00000370: 6979 14bd fa50 7abd da3b ebbd fb24 3b38
00000380: 6a19 233c f2d6 163b c853 723d 9ab8 713b
00000390: c5e3 7a3c 0118 143d d1c9 853d 5e03 f8bc
000003a0: af9e 1fbd b721 5a3d 7eb0 76bd 902f f2bd
000003b0: 3379 25bd c335 363d 3ef9 46bd c38e 93bd
000003c0: 12cf f73d 1b00 a5bc c1f0 0ebd 0150 133a
000003d0: 9864 0135 4b17 b2b9 2ccb db3d cad3 053d
000003e0: b6f7 ddbc caaa 13bc 7c58 83bd b98b 63bd
000003f0: 1eeb be3c c10c 8c38 c00e d53d 8895 813d
-0.0678428 0.13977568 0.015088782 0.07414638 -0.05473058 -0.07023822 9.78491e-05 -0.01054676
0.07718525 0.00675677 -0.090114705 -0.027698157 0.0038708139 0.059697066 0.10851094 0.04902824
0.12774448 -0.014484576 0.0095355185 0.050828498 -0.07002491 0.12564397 0.13876201 5.7378743e-06
0.00038935247 0.116805136 0.08730839 -0.12360576 -0.0052354154 -0.058973163 0.03520026 -0.049517516
3.7162157e-05 1.8075147e-05 -0.079284824 -0.0119926 0.0015837579 -0.012941286 -0.07592651 0.065498225
-0.034029912 -0.12950611 0.13509913 0.03404198 0.14673413 0.099781044 -0.06804829 0.10206239
0.0003191467 -0.0020940884 0.00089962484 0.10131449 0.13690935 0.00024068702 -0.024177207 -0.025302831
0.074954055 0.031916395 -0.06340282 0.016934967 8.3217434e-05 -0.035202276 -0.0011176963 -0.034778293
-0.037248574 0.122942984 0.10576191 -0.11551569 -0.026683759 -0.085835926 -0.12124932 0.031976663
-0.118052155 0.00028140322 0.10849138 0.0061848448 0.13376999 0.0017442473 0.020265114 0.006240539
0.07055366 0.0036551415 0.0056862994 0.080064915 0.12340891 0.13418701 -0.111860484 8.094242e-05
0.050322156 -0.00025736136 0.009999109 -0.023837794 -0.04733441 0.123999335 0.12515476 0.02903235
-0.08588841 0.0014620976 0.040305573 0.12586705 -0.045516472 -0.014793724 -0.0015016848 0.008781789
0.13624135 0.08819538 -0.13984835 0.091081716 0.07277389 0.0018903262 0.08908455 0.004283917
-0.007821723 -0.06684389 -0.079687335 -0.055981863 -0.008678016 0.05579509 -0.08051623 8.618501e-06
0.06310328 -0.015661493 0.0018467623 -0.020439748 0.08730785 8.902442e-05 -0.06797063 0.0018877598
-0.09756936 0.007978855 0.0166269 -0.015825905 3.6710324e-07 0.0021239019 0.004590221 0.121149175
4.9647602e-05 0.13987528 -0.1031232 -0.11991395 0.027591567 0.02207965 0.1048363 0.117516644
0.015950415 0.06626161 -0.00022587525 0.00023613464 0.13560641 0.09974545 0.08833945 0.12921062
0.0026992392 -0.04491931 0.13080658 -0.0370031 0.08869654 0.027588133 -0.13383982 -0.004565887
0.09651684 -0.082690194 0.0022777363 0.068647854 0.13955489 -0.119747855 0.122368716 -0.10688554
-0.11242178 -0.05361925 0.00033448837 0.01670249 -0.07517911 0.118929215 -0.04582177 -0.033006605
0.09614917 0.02001745 0.045925155 -0.09265879 7.1370664e-07 0.06823218 0.026630132 0.13946812
-0.00028280992 0.06260642 -0.080581516 0.09845183 2.3756786e-06 0.005646583 0.12485545 0.031905692
-0.124348134 -0.00051775645 -0.09263885 -0.007396269 -0.042331778 0.1292991 0.08581329 -0.12877572
0.097521946 -0.050038032 -0.009788648 0.035715695 0.0037184975 0.05587993 0.085331865 -0.046288863
0.13226373 0.09210182 -0.016396446 0.108792365 0.039382316 -0.09090247 -0.0081615355 0.117548734
0.0068747154 -0.066391565 -0.036193475 -0.09590609 -0.0362486 -0.06111238 -0.11486025 4.4618715e-05
0.00995479 0.00230163 0.05916193 0.0036883713 0.015313094 0.036155704 0.06532634 -0.030275043
-0.03896969 0.05325481 -0.06022691 -0.11825478 -0.040398788 0.044484865 -0.04857754 -0.07204964
0.121000424 -0.020141652 -0.03489757 0.00056195265 4.820263e-07 -0.0003396816 0.10732111 0.03267268
-0.027095657 -0.009012887 -0.064133614 -0.05555317 0.023305472 6.678096e-05 0.10403204 0.06327349

l2.bias f4 [256]
00000000: 6ba4 683d cb4a 573d 5b8d 6b3d d692 3a3d
00000010: 7a7e 793d be37 643d 47b5 573d 753f 2c3d
00000020: f57f 593d b326 2d3d 8e53 403d 3c6b 163d
00000030: ca62 543d 9cde 3c3d 6a8a 7b3d daa7 6a3d
00000040: 33f6 4d3d be06 693d 69c1 483d d437 513d
00000050: ecc8 423d bb99 703d 442d 3b3d 2af0 463d
00000060: 6f9c 623d 8391 593d c9fe 593d f705 673d
00000070: 8b21 6f3d 3386 393d 209b 333d 9382 353d
00000080: 1ec8 553d a07b 443d dbb7 2c3d 1303 783d
00000090: 483d 823d b36e 553d bf42 2b3d f06d 553d
000000a0: 17cb 3a3d 3bc5 3b3d c867 803d 8dba 6d3d
000000b0: fe8f 563d df96 4f3d 9282 323d 4784 173d
000000c0: 25da 463d 1c01 503d bc07 283d a75a 743d
000000d0: b0dd 4b3d d1a2 4e3d 8382 363d 150d 6b3d
000000e0: c773 5b3d e707 523d 4ed1 4a3d e077 5f3d
000000f0: 59f8 473d fc30 7e3d e238 2e3d 4708 233d
00000100: 8fdf 743d 9c2e fb3c 348b 643d 40f1 083d
00000110: ec09 633d 122c 4f3d 74a1 623d 47f8 863d
00000120: e74e 593d 36ba 503d 88ee 4e3d 0807 213d
00000130: c7e9 243d acfb 863d 9d74 143d 1265 733d
00000140: cdc3 743d 94e4 3b3d fc37 713d edeb 803d
00000150: 9045 183d e9e3 5d3d 6a5b 443d 635f 5f3d
00000160: 21d9 4e3d 4a9a 803d 51b9 7e3d f342 4e3d
00000170: 11e4 573d a2c9 493d e62e 523d c788 3d3d
00000180: ba7b 283d a25f 373d 8668 383d 1fa9 583d
00000190: 6155 433d 583d 613d 6acc 553d b98c 203d
000001a0: 1e6e 593d 79d3 2b3d 3b1c 583d ed80 783d
000001b0: f001 6a3d 1ea2 5e3d 0ebc 513d fd34 4e3d
000001c0: 1a31 323d 50ab 2f3d 8dd8 733d 644f 4c3d
000001d0: e993 503d 4b97 233d 2eb4 523d 8cf1 5d3d
000001e0: 2d50 3f3d 40d9 333d d085 053d d7f3 593d
000001f0: d849 583d 0f87 693d 447d 463d aa4e 3e3d
00000200: 4e83 413d c301 3e3d babb 3e3d 1cda 5d3d
00000210: 79d2 673d 35e1 3a3d fdc1 573d 1a34 4c3d
00000220: c684 313d a66d 313d 8eaf 0c3d 66af 823d
00000230: d81f 553d 5bf1 293d 9fb4 513d 2898 013d
00000240: d716 853d b03a 553d 741f 713d 7224 323d
00000250: b506 443d 1bdc 3f3d 395a 863d aced 3f3d
00000260: f13d 5e3d 2c13 3c3d ca3e 393d 358c 603d
00000270: 45e3 2b3d 8828 4e3d f557 763d aee4 5b3d
00000280: 9be2 3d3d 18ac 553d 8895 4e3d c332 453d
00000290: b7bb 713d b95a 763d 87ed 593d c788 533d
000002a0: bc2e 803d 7466 443d 6df3 3b3d bb5f 763d
000002b0: 76dd 593d ec42 223d 9efb 6a3d c8af 413d
000002c0: bd00 5e3d dc3c 773d 7210 483d c965 4f3d
000002d0: b1cb 3f3d d8ba 5e3d 27ad 123d 2743 4e3d
000002e0: f7d2 2c3d 663b 313d 7a00 2f3d 8c0c 3d3d
000002f0: 658e 3d3d cc1a 2d3d 64b9 6b3d ea21 653d
00000300: 51d6 673d 5d00 723d 5168 cc3c 8eeb 153d
00000310: bf44 1e3d 95dc 4b3d 88c4 393d 427b 2d3d
00000320: 16f8 2b3d 9a6f 623d fd31 1c3d c46a 263d
00000330: 65a3 5c3d 7ca8 683d eef9 673d afd7 6a3d
00000340: afcd 313d 234d 4f3d 56a0 593d 0976 823d
00000350: c98a 5a3d 764f 303d 10e6 803d d403 133d
00000360: c325 283d 7139 473d 9f09 823d cb99 593d
00000370: 88a1 643d 0836 8d3d f53a 663d 3b60 1a3d
00000380: 8aab 353d fe7f 6b3d 5b73 6b3d c8b6 703d
00000390: c43f 4f3d 7a16 593d f41e 793d 0664 1e3d
000003a0: 23fe 683d d980 5e3d ea22 3e3d f19e 6b3d
000003b0: 939f 873d b968 683d 4dfa 7a3d 1b2b 103d
000003c0: a335 4e3d 1675 4b3d 57c1 033d be0f 353d
000003d0: 051c 543d bfe2 4e3d 9ba5 633d e483 7c3d
000003e0: 8ca1 6c3d 6b3f 3a3d 196d 043d 9e99 233d
000003f0: 477c 5d3d dad7 413d 971c 853d dc1d 533d
0.056797426 0.052561563 0.057507854 0.04555019 0.060911633 0.055717222 0.052663114 0.042052705
0.053100545 0.042273235 0.046954684 0.03672336 0.051852025 0.046110734 0.0614113 0.057288982
0.050283622 0.056891195 0.049012575 0.051078632 0.047554895 0.05874036 0.045697466 0.048568882
0.055324968 0.053117286 0.053221498 0.056402173 0.0583816 0.045293998 0.04384911 0.04431398
0.0521928 0.04796946 0.042167526 0.060549807 0.06359345 0.052107524 0.0418117 0.052106798
0.045603838 0.04584239 0.06269795 0.058039237 0.052383415 0.05068099 0.043581553 0.036991384
0.048547883 0.050782308 0.041023 0.059656765 0.049771965 0.050448243 0.04455806 0.057385523
0.05357721 0.051277068 0.049516015 0.05455768 0.048820827 0.062058434 0.042534716 0.039802816
0.059783515 0.030661874 0.055796817 0.0334332 0.055429384 0.050579138 0.055329755 0.06590324
0.053053763 0.050958835 0.05052045 0.039313346 0.04026201 0.06590971 0.036244024 0.05942256
0.059757043 0.045872286 0.05889128 0.06294999 0.037175715 0.05417243 0.04793874 0.054534327
0.05050004 0.06279428 0.06218845 0.050356817 0.052707735 0.049264558 0.051314257 0.04627302
0.04113362 0.044768937 0.045021556 0.05289566 0.047688846 0.054990143 0.052196898 0.039196704
0.05308353 0.041949723 0.052761298 0.06066983 0.057130754 0.054353826 0.051204734 0.050343502
0.04350386 0.042887986 0.05953269 0.0498804 0.050922308 0.039939206 0.051441364 0.054185435
0.04670732 0.043908358 0.032598317 0.05321106 0.052804798 0.057013568 0.048459306 0.04646174
0.047244363 0.0463884 0.04656575 0.054163083 0.056597207 0.04562493 0.052675236 0.049854375
0.043339513 0.04331746 0.03434711 0.06381111 0.05203232 0.04148994 0.051197644 0.031639248
0.06498497 0.052057922 0.058867887 0.04349179 0.04785796 0.04684077 0.06560177 0.04685752
0.05425829 0.04591672 0.045225896 0.05482121 0.041964788 0.050331622 0.060142476 0.053684883
0.046358686 0.052166075 0.050435573 0.048144113 0.05901691 0.060145114 0.05320504 0.051644113
0.06258914 0.04794927 0.045886446 0.06014989 0.053189717 0.039614603 0.057368867 0.04728678
0.054199923 0.060360774 0.04884381 0.05063418 0.046825115 0.054377407 0.035809662 0.05035701
0.04219338 0.043269537 0.042725064 0.046154544 0.046278376 0.042261884 0.05754985 0.055940546
0.056600872 0.059082378 0.024952086 0.036601596 0.03863978 0.04977091 0.045353442 0.042353876
0.04198464 0.055282213 0.03813361 0.040629163 0.053866763 0.056801304 0.056634836 0.0573346
0.043409046 0.050610673 0.053131424 0.0637017 0.053355012 0.04304453 0.06293881 0.035892323
0.041051637 0.048638765 0.06349491 0.053125184 0.05581811 0.06895071 0.05620857 0.03768943
0.044353046 0.05749511 0.05748306 0.058768064 0.05059792 0.05299995 0.060820535 0.03866961
0.05688299 0.054322097 0.046420015 0.057524625 0.06622233 0.056740496 0.06127386 0.03519736
0.05034412 0.04967221 0.032166805 0.044204466 0.051784534 0.05050921 0.055577856 0.06164922
0.05777125 0.045470636 0.032330606 0.039941423 0.0540736 0.047324993 0.06499594 0.051542148
