code/save/model_beta_repr_2.pt (torch, 649964 bytes, 6 tensors)

embed.weight f4 [59, 256]
00000000: 5294 75bd 9a44 f73d 3003 8c3d e7c1 093e
00000010: 6dd5 4abe 0dfc e6bd e33c c3bd 4e33 32be
00000020: 61a4 52be 6dae 343d 6398 43be b168 613e
00000030: 22a1 3a3e ec7b 0d3c 5768 953b 33b1 ac3d
00000040: cfc8 d1bc e632 c6bd 525b 1cbe 0947 943d
00000050: 5162 98bb c4bc 47be ac21 adbd 0385 75bd
00000060: c066 a23d 8d8d c6bc 69ea 77bc 45fb 243e
00000070: f10f 82bd 9c86 78bd 243b 30be 4340 113d
00000080: 5cdb 553e d40e 213e 4ef1 953d 5a6e 9cbd
00000090: 3fac ae3d 1c43 773e 15ff 943d afc5 d63d
000000a0: 6cdb 063e f669 163d 5791 abbc 855f 5ebd
000000b0: 8b12 d8bd e72f d53d 4c97 463e 5ae2 4fbe
000000c0: 68b4 91bd a31b 523e cdf2 48be ea46 af3b
000000d0: bd39 75bd 9af1 593e 241b 073c 29e4 75bd
000000e0: 550c 113e 9db9 40bd c48c 32be 9e1b 533d
000000f0: 9252 0f3c e5e8 cc3d 3dc7 62bd 5416 44be
00000100: 31bb 223e db61 49be e296 d8bc 289e a5bd
00000110: fd10 fbbd e472 243e 8bae 5a3d a9dc efbc
00000120: 37bd 313e e4c1 3d3e 560f 2e3c 98af b6bd
00000130: 8c01 f4bc c9d1 6c3e 3482 163e 6777 35be
00000140: 1504 b33d a3c0 f93d af7e 253d deb4 1e3e
00000150: 5a76 e83b 68ee 0bbe 4ea6 a5bd 31f3 be3d
00000160: 9db3 403d 5a41 273e add4 0b3d 863c 043d
00000170: 63a2 4abd 0645 9cbd 5755 37be b354 86bd
00000180: 2891 01be 6589 5c3d 1e5e f9bd 959c 303c
00000190: 8558 253d 6686 24be 288a 2bbe 6cdd 7bbe
000001a0: 208a 41be 3ce5 043d d385 a23d f50a 14bc
000001b0: 3b03 313d c57c 0dbe 44ec 07be d5b6 e2bc
000001c0: a89a 793c 522f 363e 733b dabd 5ceb 303e
000001d0: 91ca 3abe 802c 2fbe e6dd 93bd ebce 6e3e
000001e0: 97bf 173d ada8 093e 08ec 24be e56b 433e
000001f0: 8b7f 16be 32dd c2bc 31a5 0fbd bbc4 2dbe
00000200: 3749 4cbe c206 1cbe e28e 5cbd b09a 843d
00000210: 89fd 9dbb 25bf d3bc 780b f4bb fb33 fe3d
00000220: 4b7f 903c 3809 de3b 2010 0b3d abc4 f83d
00000230: f67b 003d a97f 4dbe 9d80 1b3e 0158 813c
00000240: 5516 8abd e543 4a3e 64cc bbbd 9027 e43c
00000250: 8f64 633d a3c6 c5bd 5e89 483e 22e2 b43d
00000260: 7de1 cc3d 3c2f 25be 4a2e 8dbd b5d2 cabc
00000270: 5325 1bbe 586f c0bc 848b 6e3d dda0 1abe
00000280: 9936 da3d 5504 323c 504d 83bc c7b3 a03b
00000290: c8fb 14be 5bb1 e83c e993 453e 781d 483e
000002a0: 3603 13bd 946a a4bb 5a0b 083c 0f32 f23c
000002b0: 2cf1 1e3e c0d9 2d3e d483 33be 2af9 29be
000002c0: c862 223d 9efb 0cbe c2db 0f3d 5bd1 3ebe
000002d0: b6c7 1cbe 229b 083e 6b97 483e abde 86bd
000002e0: 72c9 f33b 7319 9e3d e5bb a93d f4fc dbbd
000002f0: 5654 43be 79f6 db3c 1063 9f3c 498f 0ebe
00000300: 1358 fcbd 7c1d 213e 9713 cc3d bbea e2bd
00000310: cf42 b3bd 640c 0cbe d22e 10bd 9fd8 f53d
00000320: cfa6 0ebe 511c 0abd fe26 21be be77 0c3e
00000330: a220 0ebe 6782 0b3e c941 663e 8db4 15bd
00000340: e859 d8bb 4389 253e 3f48 183e cc61 fc3c
00000350: 7c75 8a3c 59ce f9bc 78db 593e cc0e 14bd
00000360: 2c9e e5bd a3f7 793d 69b1 16bd 3ec6 18be
00000370: 23f3 b33d f096 b8bd e403 063e dcd3 53be
00000380: 13d0 393d 61ab bb3d a98f ed3d 5725 563e
00000390: f1d0 ba3c 4a04 1f3c dd12 893d 5b7c 4d3b
000003a0: db62 33be d1af bd3d 3275 ba3d dc8d b8bc
000003b0: a1ae b3bd 9320 5b3e 1186 9f3d a969 833c
000003c0: b074 0cbd d60b 4bbe e50d f13d a049 923d
000003d0: 9961 1cbe 8003 ccbc 0720 17bd 1e34 22be
000003e0: 027c 3f3e 064c 5f3e b258 45be 7c93 24bd
000003f0: 7fca 02be 363f 34be d7e8 5d3d c194 24be
-0.059955902 0.120736316 0.068365455 0.13452874 -0.19807978 -0.112785436 -0.095330976 -0.17402384
-0.20570518 0.044111658 -0.191011 0.22012593 0.1822553 0.008635502 0.0045595574 0.084322356
-0.025608448 -0.09677677 -0.15269211 0.072401114 -0.004650392 -0.19505602 -0.08453688 -0.059941303
0.07929754 -0.024237419 -0.015131571 0.16111477 -0.06350697 -0.06067525 -0.1721006 0.035461675
0.2088446 0.15728313 0.07321416 -0.076382354 0.08528947 0.24146694 0.072752155 0.10486924
0.1316964 0.036722146 -0.020943327 -0.054290313 -0.10550412 0.10409527 0.19393653 -0.2030119
-0.07114488 0.20518355 -0.19623871 0.00534903 -0.059869517 0.2128357 0.008246217 -0.060032044
0.1416486 -0.047052015 -0.1743651 0.05154001 0.008747714 0.100053586 -0.05536579 -0.19149143
0.1589172 -0.19666235 -0.026439134 -0.080868065 -0.122591 0.16059452 0.053389113 -0.029280024
0.17357336 0.18530995 0.010623774 -0.089202106 -0.029785894 0.23126902 0.14698106 -0.1772133
0.08741013 0.12194946 0.040404018 0.15498683 0.0070941867 -0.13665164 -0.08088361 0.09323729
0.047046293 0.16333523 0.03413837 0.032284282 -0.04947127 -0.07630353 -0.17903648 -0.06559124
-0.12653029 0.053841967 -0.121761546 0.01077952 0.040367622 -0.16066894 -0.16751921 -0.24596184
-0.18900347 0.032445177 0.07935681 -0.0090358155 0.04321597 -0.13817127 -0.13273722 -0.027675072
0.015234627 0.17791489 -0.1065587 0.17277282 -0.18241335 -0.17106819 -0.07220058 0.2332112
0.03704795 0.13443251 -0.16105664 0.19084127 -0.14697091 -0.023787115 -0.03506965 -0.16969578
-0.19949804 -0.15236953 -0.0538472 0.06474817 -0.0048214835 -0.02584798 -0.0074476562 0.12412258
0.017638823 0.0067760013 0.033950925 0.121468864 0.03136822 -0.2006823 0.15185781 0.015789034
-0.06742541 0.19752462 -0.09169844 0.027850896 0.055515822 -0.096570276 0.19583651 0.08832194
0.10003946 -0.161313 -0.068935946 -0.024758676 -0.15150957 -0.023490593 0.05823852 -0.15100427
0.10654945 0.010865291 -0.016028076 0.0049042436 -0.14549172 0.028404882 0.19294704 0.19542491
-0.035891734 -0.005017588 0.008303488 0.029564885 0.15521687 0.16977596 -0.17530757 -0.16598955
0.039644986 -0.1376786 0.035121687 -0.1863455 -0.15310559 0.13340428 0.19589011 -0.06585439
0.0074397856 0.07719698 0.08287791 -0.10741606 -0.1907514 0.026850926 0.019456416 -0.13921846
-0.12321486 0.15733904 0.09964674 -0.110799275 -0.08752977 -0.13676602 -0.0352009 0.12004208
-0.1393082 -0.03371841 -0.1573753 0.13717553 -0.13879636 0.13623963 0.22486033 -0.03654914
-0.0066025145 0.16165642 0.1487131 0.030808352 0.016901724 -0.030493902 0.21275127 -0.036146924
-0.112118095 0.06102718 -0.036790285 -0.14919373 0.08786609 -0.09013164 0.13087422 -0.20686287
0.04536445 0.09163547 0.115996666 0.20912682 0.02280471 0.009705612 0.06693051 0.003135464
-0.17518179 0.0926205 0.091043845 -0.022528581 -0.08773542 0.21399145 0.07789243 0.016041594
-0.03429097 -0.19828734 0.11770228 0.07142949 -0.15271606 -0.024904013 -0.036895778 -0.15840194
0.18699649 0.21806344 -0.19272116 -0.040179715 -0.12772559 -0.17602238 0.05417713 -0.1607237

unembed.weight f4 [59, 256]
00000000: 1951 abbc 992c 7a3e 35b7 20be 5dd8 4cbd
00000010: 4826 ac3d 5ce8 debd 047f 403e 5625 f13d
00000020: 23a1 46be 7765 16be 2703 65bc faaa 12be
00000030: b691 053e bd16 243e 1bba 25be 0b34 32be
00000040: 880c 0e3e f785 443d b941 09bd 3b3b 173e
00000050: 30a4 e13d 2539 27be 550b 203c f34d c4bc
00000060: ddfd 2c3e 31b1 af3d fffb 5fbd 04bc 053e
00000070: 0240 883b 187f f93d 7bfc 29be a337 213e
00000080: 52a5 17be 24e3 e23c eb3a cf3d 147a 233e
00000090: 6ec1 f31f 13dc 90bd 1523 47bd d3b1 2cbe
000000a0: b9db 2c3d 7e56 cfbd c15e b13d 713e 01bd
000000b0: b237 c33d f9b3 893d cfac 9cbb 73c7 703d
000000c0: 3498 3bbe 7425 bc3d 85fd 0e3e 8384 62bc
000000d0: 4871 bb3b 4ddb 3e3e bf7e 4c3e 2856 0dbe
000000e0: 9db6 dcbd e933 9b3c 4d38 3bbc 02a6 003e
000000f0: dde7 113e d83f 6ebe 1807 2e3d 6adc 5fbc
00000100: 3326 35be 7092 b0bb 6fb3 dd3c bd73 b13d
00000110: baf7 3f3e 1f7f a0bd cc57 be3c 2ac7 a63c
00000120: d384 3a3d 7867 a23d 1150 1c3e a093 5bbd
00000130: 31ea c53d fec9 3a3e 67ef df3d 22c0 cd3c
00000140: f456 eabd e497 3e3e ec0a fe3c bf37 88bc
00000150: 9838 c0bd 29f2 dd3d d3c7 21be 2292 15be
00000160: 9ba9 3cbe da73 773d 4717 903d 002a 33be
00000170: 9835 343c a087 5aa0 8338 d93d be11 5c3d
00000180: 5dda 4abe 543d 3fbe 820d 90bd 4902 2abe
00000190: 18cc 98bc fe49 ce3d 3d6f f4bd 2288 0e3e
000001a0: 1c8e 23be ac33 96bc 6f16 033c 3000 db3d
000001b0: 2b77 853d d5c8 6d3d 5811 543e 8482 df3d
000001c0: a6c8 31be 5f15 943c b389 36bd 961b 073e
000001d0: f7c2 123e d96b d83c e83e 3dbe 0d76 f6bd
000001e0: 0aea 393c 83dd 053e ffe5 52be c623 c53d
000001f0: 9652 fc3c 8acf 2bbe fff2 1e3e d583 0e3d
00000200: 291e 313e 0bf0 a33d a787 ea3c d631 0e3d
00000210: ee22 dfbd 447a 18be c322 93bd a198 843c
00000220: dc28 cf3d 162f f03d c329 163e d6d3 01be
00000230: e3d9 3f3e ef8e 243e 09bd 043e 31bf 183e
00000240: 53a2 7d3c a136 ba3d 13ff 17bc 8049 f73d
00000250: e0ec 2cbc 5c6c da3c 8bab 04be ab43 b9bd
00000260: a697 f2bc e4f2 0d20 2597 42be 211b 10bd
00000270: fa96 b23d f3bb a13d 25d5 3b3c e4e6 1a3e
00000280: 4bdd 04bd 4df3 20be c5ac 103e 9e2b 6e3c
00000290: 6f6a 3dbe 62e6 2f3e cdb0 b6bd b6f0 c71f
000002a0: 76a7 393e ebb3 873d 64d5 073e 218c 483e
000002b0: 517e 66be 29c0 0c3e 5b91 6ebc 3639 843c
000002c0: 6f7c 60bc eeef 1bbd 95ae 0d3e 2cd2 fb3d
000002d0: fb40 253e e408 16bd 2b2d a53d f8f7 3cbe
000002e0: cf0e 36bc 4cdc d73d 3d02 5dbd f744 d03c
000002f0: 4a40 babd 7e51 2fbe d450 3cbe 457f 483e
00000300: 98ed 5fbe 2e10 163e 43c5 c53b 0cf0 e2bc
00000310: c946 453c e37c 0d3e 76d4 5d3d b799 2bbe
00000320: ff84 9e3d a85a 443e 7c3a 423d 160e 37be
00000330: fb79 933d e315 02be a124 433d 0a30 52be
00000340: 780b b1bd bc8b 2b3e b17d e1bd 949d 53be
00000350: f7e7 df3c e6bf 7720 f59a 26be 6f10 21be
00000360: e6c6 b7bc 98b3 9abd 6b81 f1bd 29b5 4dbd
00000370: 35ba fa3c ca7a 28bd de0f 71bc 61a1 133e
00000380: d117 f4bc 9a5d 2b3e dce4 56bd 77dd 43be
00000390: a63e 39be 7494 523d 34c4 1fbe 1fde 88bc
000003a0: a932 1ebe 87f4 78bd 13a7 2abe 9413 14be
000003b0: 552c 483e 8902 28be cc48 08be 6e49 45be
000003c0: f1b4 483d f298 4a3e b7ca 163e d446 d5bd
000003d0: caad 4e3d 151a 81bc f37a 1bbe cc4b a93c
000003e0: d88b 23bd 6458 42be 663f 5bbc 2802 f83d
000003f0: f2f1 5d3e 3188 3cbe a0fc 3fbe 1dea 27be
-0.020912694 0.24431075 -0.15694888 -0.050011028 0.08405739 -0.10884163 0.18798453 0.117746994
-0.19397406 -0.14687143 -0.013977802 -0.14323035 0.13043866 0.16024299 -0.16184275 -0.17402665
0.13871968 0.04797932 -0.033509944 0.14768688 0.110176444 -0.16330393 0.009768327 -0.02396295
0.16893716 0.085787185 -0.05468368 0.13060004 0.004158021 0.12182444 -0.1660022 0.1574388
-0.14809158 0.0276962 0.101186596 0.15964538 1.03234506e-19 -0.07073226 -0.04861744 -0.1686471
0.04220173 -0.10123919 0.08660651 -0.03155369 0.095321074 0.0672378 -0.0047813426 0.05878396
-0.1831978 0.09186831 0.13963898 -0.013825539 0.0057202913 0.18638344 0.19970225 -0.13802397
-0.10777018 0.018945651 -0.011426997 0.12563327 0.14248605 -0.23266542 0.042487234 -0.013663391
-0.17690353 -0.0053885505 0.0270631 0.086646535 0.18746844 -0.078367464 0.023235224 0.02035864
0.045536827 0.07929891 0.15264918 -0.053607583 0.09663809 0.18241116 0.10934334 0.02511603
-0.11442366 0.18612629 0.031011067 -0.016628144 -0.093857944 0.10837204 -0.15798883 -0.14606526
-0.18424074 0.06041322 0.0703569 -0.1749649 0.010999106 -1.8510193e-19 0.10606482 0.053727858
-0.19809861 -0.18675739 -0.070338264 -0.16602434 -0.018652007 0.10072707 -0.119352795 0.13919118
-0.15972179 -0.018335186 0.008000954 0.10693395 0.0651687 0.058052856 0.20709741 0.10913566
-0.17361698 0.018076597 -0.044564914 0.13194117 0.14332186 0.026418613 -0.18481028 -0.12034235
0.011347303 0.13072781 -0.20595549 0.09625964 0.030801099 -0.16778389 0.15522383 0.034793694
0.17296661 0.08004769 0.028629137 0.034715496 -0.10895334 -0.1489039 -0.07184365 0.01618606
0.10115215 0.11727731 0.14664368 -0.12678465 0.18735461 0.1607015 0.12962736 0.14916684
0.015480596 0.09092451 -0.009277123 0.12074566 -0.010554522 0.026662998 -0.12956063 -0.0904611
-0.029613327 1.202353e-19 -0.1900297 -0.035182122 0.08720203 0.078971766 0.011464392 0.1512714
-0.032437604 -0.15717812 0.14128406 0.014536766 -0.18497632 0.17177728 -0.08920441 8.4678e-20
0.18130288 0.066261135 0.13264996 0.19584705 -0.22509123 0.13745178 -0.014561023 0.016140562
-0.013701542 -0.03807061 0.13836129 0.122959465 0.1613807 -0.036629573 0.08065256 -0.18453968
-0.011111929 0.10540065 -0.053957213 0.02542351 -0.090942934 -0.1712093 -0.18390208 0.195798
-0.21867979 0.1465461 0.0060354783 -0.027702354 0.012040802 0.13817172 0.054157697 -0.16757856
0.07740211 0.19175208 0.047419056 -0.17876467 0.07201 -0.12703662 0.047642354 -0.20526138
-0.086447656 0.16752523 -0.11010302 -0.2066558 0.02733229 2.0985208e-19 -0.16270049 -0.15728925
-0.02243371 -0.07553786 -0.11792263 -0.050221596 0.030606369 -0.041132726 -0.014713256 0.1441703
-0.029796513 0.16734925 -0.05246435 -0.19127451 -0.18090305 0.051411107 -0.1560219 -0.016707478
-0.15449013 -0.060780074 -0.16665296 -0.14460593 0.19548161 -0.16407217 -0.1330902 -0.19266292
0.049000684 0.19784907 0.14725767 -0.104139 0.050458707 -0.015759507 -0.1518362 0.020666026
-0.039928287 -0.18979031 -0.013381815 0.12109786 0.21674326 -0.18411328 -0.18748713 -0.16397901

l1.weight f4 [256, 256]
00000000: 197d 953d 5390 833d d681 59bc cf77 11bd
00000010: 1172 04be 5107 ad3d e942 7f3d 48f6 d7bd
00000020: 743d e13c 90cf 80bd f8f9 83bd 680d 883d
00000030: 6c0e 413d 3690 a7bc 26d3 4f3d 2710 8c3d
00000040: 66f1 e9bd 85e9 7ebc a5ad e7bb 7ae3 a43d
00000050: 1241 09bd 4126 b3bd 74af 17bd 36cf f9bc
00000060: f358 d13d 0266 b43d a82d 9c3d d537 af3c
00000070: 1eab 0ebb eb49 193c 8fd0 07bc 4d3d 2a3d
00000080: 4998 ae3d 9ee9 053e f70f ecbc 0cc5 39bd
00000090: 6d4c bcbc 4521 0d3c 7610 2e3d 33a3 883d
000000a0: 53a6 c13d 6630 203d cc02 80bd 4fec edbd
000000b0: 6522 963d f8b9 b73c bbcd db3d c46e cd3c
000000c0: 9f63 743d 1535 393d aa20 bdbd b323 223c
000000d0: 9709 b1bd 8389 beb9 e141 8d3d 9398 d03c
000000e0: 3167 d3bc 3144 c8bd fa89 4ebd 7c80 b93c
000000f0: fb87 903d 6397 fbbc ce11 12bd 63f3 bfbd
00000100: 03b2 b4bd 8ee9 f3bc 8c6a e73d 0470 e2bd
00000110: 5d93 83bd 8a65 7c3d 73fa e13c db85 823d
00000120: 877e d23d f568 123d a9e6 cfbd cb14 0dbb
00000130: 7da1 9abc e212 c43d ec79 f83d 175d f6ba
00000140: 92be 983c b965 663d 2523 2fbc d9a4 963d
00000150: 2354 a33d a560 04bc 6c03 493c 90ae f7bc
00000160: bfa8 fa3d e8b0 04bd a2b4 cc3d 4e04 6bbd
00000170: c891 e83d 8db4 b7bd 73e6 d8bd e718 73bd
00000180: ea9b 7a3d 7f6a 093e 7bdb 88bc 6b13 503d
00000190: 49e2 afbd dc99 3abd 23f7 12bb 7d6c 5bbc
000001a0: 8aaa 8abd e520 9dbd a5ea 49bd a41b 4ebd
000001b0: 5a4c bc3d 5179 4abd 295d 603d 5301 ca3d
000001c0: 1957 11bd c221 aebd 62e9 393d 391e 70bd
000001d0: b213 46bd 5bb0 693d b6d8 a5bd d4fa 21bb
000001e0: 2595 823d e616 f13d cbff 313b d119 8bbd
000001f0: 03e5 b1bc 0722 aabd 2fba d23d 7ad1 d1bd
00000200: a5d5 bf3d 9830 f8bc 7267 cb3d 5b73 8e3a
00000210: 9615 6f3c b383 903c 37eb c0bd 7f30 113d
00000220: c19c 2b3d dee5 48bd cec5 6dbd 3ef5 b73d
00000230: 639c c1bd 855c abbd e515 b9bc 0098 d43c
00000240: 1c17 d43d 54fa b13d 7bc9 6e3d 904e 1d3d
00000250: ac9d 1c3d 52bb 54bd 7279 763d fc66 59bd
00000260: a822 d53d 1708 d1bc ab08 6dbd 8737 ec3d
00000270: 8d73 41bd d583 debc 1396 9fbc c259 f5bc
00000280: 50c8 6dbd 7295 a03d 7ed7 82bd c9b7 263d
00000290: 62d8 eebc 5150 d3bd ebb0 013d 8c90 d33d
000002a0: 7998 0cbe 5954 93bd 909e 073d 5768 a53d
000002b0: a487 97bd 821b f73d 06a5 f5bc bab3 433d
000002c0: 6661 d8bd d38f acbd 6a85 b43d 1f8a 4cbb
000002d0: e323 853b e3d1 003e 41b1 413d 947e 363d
000002e0: e4ca 8d3d 5014 e63d c1d1 a5bd 9c6d 643c
000002f0: 0c76 22bd 2550 99bc bc24 8cbd e8b1 09bd
00000300: 85e2 9dbd a82e 053e a583 cbbd c044 a2bd
00000310: 2324 b83d 2d31 2e3d c12c 76bd e112 4bbd
00000320: 42b9 12bd 981e 39bd 7fba 94bd 3773 443d
00000330: b0b8 1bbc 462a f33b 7eb1 983d 89ba 853d
00000340: 4c8b 053d dbf3 a63d 3f8e c13d c4ed aa3a
00000350: 5a03 d7bd aaf8 07bd d468 9a3c d792 d03d
00000360: 02d0 2f3d d0f0 083e f3ec adbd 7b7b a4bd
00000370: 193f 69bd 0c0a 9abd dbfc dc3b 64bb 83bd
00000380: 73ac 15bc e847 b8bb 6767 a6bd 0750 91bd
00000390: 1d12 b33c 7219 69bd 560c ddbd 4ae3 5f3d
000003a0: bba2 a3bc 94e7 2b3d ba80 21bd 4e93 1e3c
000003b0: 1e3b 94bd 3f5d 023d 374a 67bd 0947 383c
000003c0: 254a 0bbd 6139 913c 88d6 2abd 3a20 eabd
000003d0: cbb6 ccbd ebd4 c3bc 2104 fdbc 7a8b b0bd
000003e0: 9645 af3d a0fd b13d 3906 053b 94f9 76bc
000003f0: 89c3 f4bd cfb5 003c e294 893d 1796 cabd
0.07299251 0.06424012 -0.013275584 -0.03551465 -0.12934138 0.08448661 0.06231967 -0.10545021
0.027495123 -0.062895894 -0.06444162 0.06643182 0.047132894 -0.020454507 0.050738476 0.06839018
-0.11422996 -0.015558605 -0.0070702606 0.080512 -0.03350932 -0.08747531 -0.03703256 -0.030494314
0.10222044 0.08808519 0.07625896 0.021388927 -0.0021769474 0.009356002 -0.00828947 0.041562367
0.0852514 0.13077399 -0.028816206 -0.045353934 -0.022985661 0.008613889 0.042496167 0.06671753
0.09455552 0.039108656 -0.062505335 -0.11617338 0.07330779 0.022427544 0.10732599 0.025077231
0.05966532 0.04521664 -0.09234746 0.009896207 -0.08644407 -0.00036342078 0.06897331 0.025463378
-0.025806041 -0.097786315 -0.050424553 0.022644274 0.07057186 -0.030711835 -0.03566151 -0.09372594
-0.088230155 -0.029774453 0.11299619 -0.110565215 -0.06424592 0.061620273 0.027585244 0.06373187
0.102780394 0.035744626 -0.10151417 -0.0021527286 -0.018875832 0.09573914 0.1213263 -0.0018796053
0.018645559 0.056249354 -0.010689531 0.07355661 0.07975032 -0.0080796825 0.012268882 -0.030234605
0.12239217 -0.032395273 0.099953905 -0.057377152 0.113559306 -0.08969984 -0.1059083 -0.05934992
0.061183847 0.13419531 -0.016706219 0.05079977 -0.08588082 -0.045556888 -0.0022425137 -0.013392565
-0.06770809 -0.0767229 -0.04929604 -0.05031933 0.091942504 -0.049432103 0.054776344 0.09863534
-0.035483453 -0.085025325 0.045388587 -0.058622573 -0.048358627 0.05705295 -0.08097975 -0.0024716156
0.06376103 0.11771946 0.002716052 -0.067920335 -0.021715647 -0.083072715 0.10289418 -0.102450326
0.09366921 -0.030296609 0.0993184 0.0010868119 0.014592549 0.017640924 -0.09419864 0.03544664
0.04189754 -0.049047343 -0.05804997 0.08982323 -0.094536565 -0.08367256 -0.022593448 0.025951385
0.1035597 0.086903244 0.058297615 0.038405 0.038236305 -0.051936455 0.060174413 -0.05307673
0.10407001 -0.025516553 -0.057869595 0.115340285 -0.04722934 -0.027162472 -0.01948074 -0.029950026
-0.05805236 0.078410044 -0.06388758 0.040702615 -0.029155914 -0.103180535 0.031662863 0.103303045
-0.13730039 -0.071938224 0.0331102 0.08076542 -0.07398918 0.120657936 -0.029985916 0.047778822
-0.10565452 -0.0842587 0.08814509 -0.0031210256 0.004063116 0.12580065 0.047288183 0.044554308
0.06923464 0.11234343 -0.08096648 0.013942149 -0.03966336 -0.018714974 -0.06842944 -0.03361693
-0.07709221 0.13006079 -0.099372186 -0.07923269 0.089912675 0.042527366 -0.060101274 -0.04957855
-0.035821207 -0.045195192 -0.07262134 0.04796144 -0.009504482 0.007420811 0.07455729 0.065297194
0.032603547 0.081519805 0.094509594 0.001304083 -0.10498686 -0.03319613 0.018848814 0.101842575
0.04292298 0.13373113 -0.0849246 -0.080313645 -0.05694494 -0.075214475 0.00674401 -0.06432226
-0.009135353 -0.0056238063 -0.08125191 -0.07095342 0.021859223 -0.056909032 -0.107933685 0.05466012
-0.019975057 0.041968897 -0.039429404 0.009678675 -0.07237838 0.031827208 -0.05646726 0.011247405
-0.034006257 0.017727556 -0.0417085 -0.11431928 -0.099958025 -0.023905238 -0.030885758 -0.08620353
0.08558194 0.08690953 0.0020297898 -0.0150741525 -0.11951358 0.007855847 0.0671785 -0.098919086

l1.bias f4 [256]
00000000: 2bbf 133e 657d f03d 076c 093e 65bd ab3d
00000010: ef39 143b 6e79 163e aeaa 333e 3676 323e
00000020: 6594 033e adee ca3c 989b 193e aca4 f23d
00000030: f110 223d d9b3 313e 4a93 0c3b 45e1 c23d
00000040: a48a 173e 099c 8839 fa69 373e 0ac9 1d3e
00000050: 7b6c c73d 9c1e 333e 347c 093c 4121 243e
00000060: 50bd b83d 5a77 2e3e b12f 2c3e 28de 153e
00000070: 0281 313e f886 fc3d 75af 143e 6034 303e
00000080: abe7 bc3d 82d8 563d 9747 0a3e e48e 3a3e
00000090: c371 d53d e88b c73d 09d0 ba39 12fd 9c3d
000000a0: 0d09 ee3d f635 223e b7aa 1a3e 60c6 193e
000000b0: 3a40 173e 394d 153e 76d8 bb3d 584b 9239
000000c0: 1998 0e3e 8302 2c3e 2d46 813d 3ba2 0c3e
000000d0: c39d 163d 0dd9 953d dd52 2e3e 5139 8e3d
000000e0: d0ee 493e d7e9 403e b84e dd3d 9d05 fb3d
000000f0: d260 053e afac 9e3d d901 083e eca7 113e
00000100: e313 db3d 87fe 153e 6739 4b3e 099b be3d
00000110: fe21 e93d 7f83 233e 98b8 3e3d 8306 e93d
00000120: 3b89 273e 3f96 293e b670 fd3d 3b5a fa3d
00000130: 1845 163e 46c7 e33c a8c5 103e 9319 103e
00000140: 7316 b83d c376 253e a412 073e ec39 163e
00000150: aa5d 293e 3a6b 263b 3ce8 273e ecdb 213e
00000160: 6508 4c3e c1a8 0d3e b5fe 063e 9b6d eb3d
00000170: 386e cc3d 7346 033e 701a e83c 708e 163e
00000180: 2679 bf3d 7a20 013e 1d93 d33d 6698 c53d
00000190: 7e08 f03d 7db6 293e 2643 183e 69b2 023e
000001a0: a490 dd3d 7480 453e bb94 253e d0df ae3d
000001b0: 290e 2e3e c221 133e 2bd9 b13d 1018 fb3d
000001c0: b993 413e dcd5 113d e76f e93d 4b40 223d
000001d0: 1ed1 bb3d f93c 3b3e 2888 113e 156d d73d
000001e0: 811e 833d 95ae 203e f2ec c93d d2c7 223e
000001f0: 8990 de3d b364 bc3d ee51 1d3e cee9 223e
00000200: 3053 b93d 6a13 8d3d 1d3f 0a3e 3bea 5b3b
00000210: b4af 343e 6b07 ef3d cf4c 2f3e adca d53d
00000220: 4f08 5c3d 140e 343e d53a ad3d 537c d43d
00000230: da69 0c3e dd6a f73d 82d0 aa3d 8cb7 f63d
00000240: 2077 3f3e 8471 223e c859 143e ced8 803c
00000250: bff6 c23d 383a e33d 05ff 303e 6e9b 3b3e
00000260: 783e 093e 6a95 c63d a9a9 1d3e 484c 0e3e
00000270: bbb4 903a c4dd 383e 280a c43d 5273 4e3d
00000280: a59a d03d 4d1b 333b 2e14 323e 53f7 aa3d
00000290: 2429 e03d 4bb5 e73d 0720 f73d be51 2e3e
000002a0: 0b89 1a3e d6b7 d63d d5da 333e a33e a03d
000002b0: 5ab2 bc3d 4f61 153e 0e3b d63d ff03 303e
000002c0: 8c48 0e3e 4a80 e03d a9e8 283e 3b6c c93d
000002d0: fde0 363e c974 093e b619 8f3d 91a8 253e
000002e0: 34ab 163e d82b ec3d d3e7 3b3e e02c 323e
000002f0: e7d2 203e dfb8 203e ae8b 273e 2d3d 193e
00000300: 3e9d 933d 1508 1c3e 6db7 e23b 5ea6 0f3e
00000310: fd4c 323e 581d 063e 6f33 353e 931b 163e
00000320: 9976 1f3e 0af1 063e 6a78 113e 6906 2d3e
00000330: 2229 ed3d 136b f83d 63ae f13d e85d f53c
00000340: d133 0f3e a956 e13d 9ed0 263e 7fb9 083e
00000350: 123e 0d3e e6c8 e33b 7490 c53d bb20 eb3d
00000360: dc00 403e 5adb ba3b b7a0 0f3e 43c0 ed3d
00000370: 2b02 e93c 82a0 f73d 39c5 f43d fada d63d
00000380: ebde 203e d287 c037 82f7 193e 8119 183e
00000390: 616c 283e 220a f03d d2c2 ca3d 31e3 3e3e
000003a0: b531 373e c047 0f3e 1f4c 113d 530b 2b3e
000003b0: 1aac 1f3e 9843 dc3d b0ba 173e b27b 313e
000003c0: 8eee 163e 2524 123e 625e 813c a5a3 8d3d
000003d0: 8a82 223e 7c37 ac3d a81d 293e 9ccf 273e
000003e0: 890b 213e bc24 e93d d4a1 a93d ce08 333e
000003f0: 0c15 e33d 2cff 8d3d 6e8d e13d 921d fb39
0.14428394 0.11742667 0.13420115 0.083857335 0.002261754 0.14694759 0.17545578 0.17427906
0.12849577 0.024772013 0.1500076 0.11847815 0.039566938 0.17353763 0.0021450096 0.09515623
0.14798981 0.00026056197 0.1791152 0.15408722 0.09737488 0.17492145 0.008391429 0.1602831
0.090204835 0.17037717 0.16815068 0.14635527 0.17334369 0.12330431 0.14520057 0.1720748
0.09223875 0.05245257 0.13503872 0.18218571 0.10422089 0.09743482 0.00035631683 0.07665457
0.1162282 0.15840897 0.15104185 0.1501708 0.14770594 0.1458024 0.09172146 0.00027903426
0.13925208 0.16797833 0.06312213 0.13733761 0.036771547 0.0731679 0.17023797 0.06944526
0.19720006 0.18839203 0.1080603 0.1225693 0.13025215 0.077477805 0.13281955 0.14224213
0.106971525 0.14647876 0.19846116 0.09306914 0.113834366 0.1596813 0.04656276 0.11378195
0.16360943 0.1656122 0.123750135 0.12224241 0.14674795 0.027804982 0.141379 0.14072256
0.08988657 0.16158585 0.13190705 0.14670533 0.16539636 0.0025393502 0.16397184 0.1580655
0.19925077 0.13833906 0.131831 0.11495515 0.0998196 0.12819843 0.028332919 0.14702773
0.09349279 0.12610045 0.10330794 0.09648208 0.1172037 0.1657352 0.14869365 0.1276337
0.10818604 0.19287282 0.16170017 0.085387826 0.16997589 0.14368346 0.08684 0.12260449
0.18904008 0.035604343 0.11398297 0.039612096 0.09170745 0.18284978 0.14212096 0.105188526
0.064023025 0.15691598 0.09859647 0.15896538 0.10867412 0.09198894 0.15363285 0.15909502
0.0904907 0.068884686 0.13500638 0.003355636 0.1764515 0.11671337 0.17119144 0.10439048
0.05371886 0.17583495 0.08458487 0.103752755 0.13712254 0.120809294 0.08340551 0.120467275
0.18697786 0.15863615 0.14487374 0.01572838 0.09519719 0.11095089 0.17284782 0.1832101
0.13402736 0.09696467 0.15396751 0.13896286 0.001104019 0.18053347 0.0957225 0.050402947
0.10185746 0.0027329505 0.1739051 0.083479546 0.10945347 0.11313876 0.120666556 0.1702337
0.1509134 0.10484283 0.17563947 0.07824447 0.09213705 0.14587902 0.104604825 0.17189024
0.13894862 0.10961969 0.16495003 0.098350964 0.17859264 0.13423456 0.06987326 0.16177584
0.14713746 0.115318 0.18350153 0.17399931 0.15705453 0.15695523 0.16361877 0.14964743
0.07207726 0.15237458 0.0069188387 0.14028308 0.17412181 0.13097131 0.17695402 0.14658956
0.15572585 0.13177887 0.1420609 0.16896977 0.11580111 0.12129798 0.1180084 0.029952005
0.1398461 0.11002857 0.16290519 0.13352011 0.13793209 0.006951439 0.09646693 0.11480852
0.18750328 0.0057024183 0.14026152 0.11608937 0.028443417 0.12091161 0.1195168 0.10490985
0.15710036 2.295143e-05 0.15035823 0.14853479 0.16447593 0.11720683 0.0990044 0.18641354
0.17890055 0.13992214 0.035472985 0.16703539 0.15592995 0.1075508 0.1481731 0.17332342
0.14739439 0.142716 0.015792076 0.06915978 0.15870109 0.0840902 0.16515219 0.1638779
0.15727057 0.1138396 0.082828194 0.17483827 0.11087999 0.06933436 0.11013304 0.00047896482

l2.weight f4 [256, 256]
00000000: 5d03 a63d 8341 c7bd 1cea a13d b414 82bd
00000010: dd5b 25ba b7db f23d def2 9bbc f40c 153c
00000020: 70c0 ad3d d580 453c 33b1 d53d 172d 0c3e
00000030: a6fc 03bd 7463 d73c f462 b23a 750f 883d
00000040: 1216 dd3c 5f2a 54b6 98bd 083e b717 afbc
00000050: e947 33bd 70a1 043e a5b9 963b 8ae3 cb3d
00000060: 0a6a d9bc 42f4 c7bd 5114 c1bd e52f 2e3d
00000070: 082b 0b3e f0c1 87bd f76a b0bd f1c7 0c3e
00000080: 8be2 013e 8dff e53c 45db 12be 6b64 d83d
00000090: 4e92 8a3c 3148 97bd 7207 7d39 eb0b 1bbd
000000a0: 8c0c 1a3e df3a 013c 2901 da3d 7162 793d
000000b0: 4b6f 98bd aa34 893c cd26 6ebc 21d9 9939
000000c0: 9964 a53d dd37 f03d 0bee 263d ad13 e33b
000000d0: 4d49 c53c e182 9c3d 0b2f bd3c a509 4d3d
000000e0: 7c36 bd3b c3f2 abbd baa9 83bd 033b 8b3d
000000f0: f283 67b9 2353 b5bc 117a d83d 97f9 aa3d
00000100: f318 15bd 85a9 983d 867f 00be 05c1 453d
00000110: 684f b1bd 2c25 f23d c392 d63c d2da 56bd
00000120: 2446 933d c1b0 dcbd afc9 603d 6878 8a3d
00000130: 4c56 a23d 60d5 e73c dfd8 27bd 4d77 a33c
00000140: 804e 04bd a645 ea3d 9833 923d b6e3 47bd
00000150: ea98 653d 761d 1ab9 ab49 cd3d b5d1 9dbd
00000160: 993b c13d f091 89bc 8b46 a5bd 89ae dfbd
00000170: f4ed afbc a696 83bd c9e4 dcbb ce78 96bd
00000180: 59fa 6f3d 3885 25bd f8ec 0e3e 947c dd38
00000190: 844c b7bd 9b0f 0d3e 8672 03bd 8b8f e9bc
000001a0: 6518 f239 0d4c 133e dc94 d1bc 0ed9 5c3d
000001b0: 6a3e 4b3b d495 0d3d 47d9 413d 8b24 0f3e
000001c0: 306e a23d fafb 13bd cefd fb3d 53f2 cd3c
000001d0: 01e8 cb3d 5618 543d 9f3e 8fbd 3370 813b
000001e0: f267 bbbc 6488 a2bd 1d81 70bd 900b 9abc
000001f0: f400 14bd 97c6 113d cc6f 73bc 3b6b 983d
00000200: 0dc7 383d ef24 4e3d 1277 a43d bf41 e43a
00000210: 41e2 e63d 6700 c63d d31b 4dbd 48a5 8cbd
00000220: 194f 52bc 4c24 7bbd 43f2 993d ec8a a73d
00000230: ae3a 403a e70c 17bd 3951 853c da99 a9bc
00000240: 92f5 a1bc f012 013d 0625 633d 24ab 723c
00000250: 06fa f93d 3cf2 efbd fbdf f0bd 7a35 96bd
00000260: 4189 cbbb f189 efbd 754a f93c 704e 9d3d
00000270: ddc6 7839 7c3a 873c ff05 073e c68c f63c
00000280: ade1 eabc a563 a03a 8316 99bd de0b 43bd
00000290: 51aa e43d 50f4 07bd 41d4 f83c 331d d13c
000002a0: e5cf 85bd 5578 b6bd 94f3 e4bd b804 493d
000002b0: ba25 193d 8c98 983d 44c2 42bd 1bb5 083e
000002c0: 390f ad3d d7b1 ff3d 5d49 7a3d 12cd 9d3d
000002d0: 506d 2dbd fe05 92bd 6f43 953d 738d 07bd
000002e0: cee6 ec3c a9d5 043e 5423 1a3e 29c8 d6bd
000002f0: e002 9abd c0ef 31bd 828f efbd 2362 8c3d
00000300: 2e67 6b3d 37ca bc3d 683f 603a eb46 84bd
00000310: 78a6 ddbc fd73 1d3e eb69 373b 8faa da3d
00000320: ba75 2fbd d4cb 0f3d 37f3 38bd 05b7 b2bd
00000330: d1ac 003e e0fa c43d 8586 1d3d 520e d33b
00000340: d432 18be c3c1 383d a6c1 69bd 7d3b 01bd
00000350: 9216 213e c90c b63b f010 ee3d efb8 143d
00000360: a35a 463c fe3b 4bbb c776 b5bc 6753 153d
00000370: 631e 65bc e00b 90bd b07a 0cbe a297 b13d
00000380: 334a f53d 32c5 2a37 3539 96bb fe2b 8cbd
00000390: 0ab7 be3d dbe6 b63b 46a3 623d 51c7 d4bd
000003a0: 33d5 81bd 9dfa 07bd 4f8f 30bc cfd7 02bd
000003b0: 2869 f93d 97a3 d8bd 9592 063e a37e 1b3e
000003c0: a167 f73d 4b1f f93d 63af fe3b c1ac 303d
000003d0: ae72 393d 2a67 dd3d 55e7 743d 161b 84bd
000003e0: e0b3 b23d 2a32 d8bd 183f 4e3d 9f19 07bd
000003f0: f845 82bd 5fe9 2d3d 6a2f 853d b088 3bb9
0.0810611 -0.09729292 0.07905981 -0.06351605 -0.0006307939 0.118583135 -0.019036707 0.009097327
0.0848397 0.012054642 0.10434189 0.13689075 -0.032223366 0.02629254 0.0013609813 0.06643573
0.026988063 -3.1615125e-06 0.13353574 -0.021373613 -0.04376975 0.12952209 0.0045997673 0.09955509
-0.026539821 -0.09763385 -0.09427703 0.042526145 0.13590634 -0.066287875 -0.08614152 0.13748147
0.12684076 0.028075958 -0.14341457 0.10566028 0.016915467 -0.07386816 0.00024130734 -0.037853163
0.15043849 0.007887571 0.106447525 0.060884897 -0.074431024 0.016748745 -0.014535618 0.00029344208
0.08075828 0.11729405 0.04075436 0.006929836 0.024082804 0.07642151 0.02309372 0.050058026
0.0057743173 -0.083959125 -0.06428857 0.06798365 -0.0002207903 -0.02213437 0.10570157 0.08348387
-0.036400747 0.07454208 -0.12548646 0.04827978 -0.08657724 0.11823496 0.026193028 -0.052454777
0.07191113 -0.10775901 0.05487984 0.06761247 0.07926616 0.028299987 -0.04097831 0.019954348
-0.032301426 0.11439066 0.07138747 -0.048801146 0.056054033 -0.0001469756 0.10023817 -0.07706014
0.094351955 -0.016793221 -0.08070096 -0.10921962 -0.02147577 -0.06425218 -0.0067411405 -0.073472604
0.05858836 -0.04041025 0.13957584 0.00010561306 -0.08950141 0.13775484 -0.03209164 -0.02851083
0.00046176012 0.1438448 -0.025583677 0.053917937 0.0031012543 0.034566715 0.047326352 0.13978784
0.07931173 -0.036128975 0.12304269 0.025139963 0.099563606 0.05178102 -0.06994366 0.003950143
-0.022876713 -0.07936171 -0.058716882 -0.018804342 -0.03613372 0.03558978 -0.014858197 0.074423276
0.045111705 0.05032819 0.08030523 0.0017414613 0.11273623 0.096680455 -0.050075363 -0.068674624
-0.012836241 -0.061313912 0.07516911 0.08180794 0.00073329627 -0.03687754 0.016274082 -0.020703245
-0.019770417 0.0315122 0.05545523 0.014811311 0.12205891 -0.117161244 -0.11761471 -0.073344186
-0.0062114303 -0.11696232 0.030431012 0.076809764 0.00023725205 0.01650738 0.13185881 0.030096423
-0.028672064 0.0012236728 -0.07474997 -0.04761874 0.11165298 -0.03319198 0.030374648 0.025526619
-0.06533793 -0.0890967 -0.11179271 0.049076766 0.037389494 0.07450971 -0.047548547 0.13350336
0.08450169 0.12485092 0.06110512 0.0770513 -0.042340577 -0.07130049 0.072882526 -0.03309388
0.02891865 0.1297213 0.15052539 -0.10487396 -0.075200796 -0.043441534 -0.11697294 0.068546556
0.057471447 0.09218257 0.000855437 -0.06458839 -0.027056918 0.15376277 0.0027986716 0.10677063
-0.042836882 0.035106495 -0.045153823 -0.087263145 0.12565924 0.09618163 0.038458366 0.006440916
-0.1486314 0.04510666 -0.057069443 -0.031550873 0.15731266 0.0055557233 0.11624324 0.03630918
0.01210657 -0.00310111 -0.022151364 0.03645649 -0.013984296 -0.07033515 -0.13718677 0.086715
0.11977043 1.0178703e-05 -0.0045844563 -0.06844328 0.09312256 0.0055817193 0.05533149 -0.10389579
-0.06339493 -0.033197988 -0.010776355 -0.031944092 0.1217826 -0.10578077 0.13141854 0.15185027
0.120803125 0.12164172 0.0077723726 0.0431335 0.045275383 0.108106926 0.059790928 -0.06450479
0.08725715 -0.10556443 0.05035314 -0.03298342 -0.06361002 0.04245889 0.06503184 -0.0001788463

l2.bias f4 [256]
00000000: 9c8a 7d3d f032 923d c00e 713d 6d7c 873d
00000010: 2c3a 8b3d 3f2c 5f3d e124 2b3d c642 193d
00000020: 30fc 793d ede7 523d 811e 8d3d 5371 603d
00000030: 9be9 5b3d a0ef 573d ee83 843d 2b18 403d
00000040: 4ca4 4a3d 1ddb 533d b9d0 7f3d f49c 1e3d
00000050: 98ba 553d 9432 6c3d 94e6 453d 0d02 573d
00000060: deb3 763d 939a 8d3d 2032 863d 2d8e 793d
00000070: 9c62 503d d4e9 833d c18a 4c3d 831e 603d
00000080: 68dd 7f3d 5ad7 903d 429c 463d 395f 5d3d
00000090: 68d8 86a0 cfd6 4b3d 2e19 173d 9293 8f3d
000000a0: 17ed 583d dadf 2b3d c4d6 763d 8f03 293d
000000b0: cba1 5c3d ad6c 3f3d b77b 593d b1c4 5e3d
000000c0: 81cc 6a3d 894c 823d 4fb2 563d 81a7 5a3d
000000d0: 9570 6b3d c817 303d 504a 8d3d 837d 3d3d
000000e0: 3131 3d3d 82af 763d b381 6b3d 61c8 5f3d
000000f0: 918b 563d 4974 853d 2d76 423d e9f8 863d
00000100: 971e 6b3d 1c93 6c3d 509e 353d 42f3 4e3d
00000110: 639e 753d 3d51 3f3d c279 683d 00c5 613d
00000120: 7dfc 483d 8b48 4e3d fc81 543d 6029 5f3d
00000130: 4d3f 883d e53c 533d 8b70 803d dcfc 493d
00000140: 72cb 403d cdad 593d 2369 5c3d e03b 703d
00000150: 6a7e 543d bae5 673d 72e2 4d3d dcec 723d
00000160: 19d0 893d 4020 593d 3c8c 833d e4d6 873d
00000170: 7084 603d 4305 66a0 1286 603d ee98 633d
00000180: eecf 6b3d f870 6c3d 350e 673d 9c4d 6d3d
00000190: 98fd 363d 0089 723d 5c2d 473d 840e 663d
000001a0: 1cc8 483d 7de7 413d 51b6 5c3d 1c56 883d
000001b0: 636b 813d eca1 703d 57bf 833d 026d 323d
000001c0: 0491 493d 3a0c 583d 28d1 6d3d 896e 6e3d
000001d0: edc4 5e3d 5113 133d b670 5e3d 8316 863d
000001e0: c691 2e3d 8b7f 293d 6807 763d d726 653d
000001f0: 9d54 4a3d 6310 653d f669 313d bf7a 903d
00000200: 1619 4e3d 8578 5f3d 72d0 7a3d 012c 533d
00000210: 6e46 7c3d 8299 7f3d d5fa 493d 8aa0 543d
00000220: c51e 703d fe0e 573d 5ebc 923d 7982 893d
00000230: 8c87 413d ac67 1e3d 051b 7d3d 27f8 7f3d
00000240: 9ae7 5c3d 1c65 5d3d 7200 6d3d 341c 4a3d
00000250: 713e 593d cc75 4e3d dc6a 5d3d 7ff5 813d
00000260: b3e2 1a3d fab7 9ea0 eaf5 5e3d ffbc 673d
00000270: e9b4 583d 368b 493d b8a8 6e3d 0332 6b3d
00000280: 6fbe 7a3d 6544 713d c848 663d 649f 383d
00000290: 9f64 293d 463e 733d 7103 553d 17a9 71a0
000002a0: 363d 763d 5ceb 6d3d 9fdc 893d 36e0 473d
000002b0: 40d2 263d 4171 4a3d 4832 1e3d fcf0 2c3d
000002c0: 8fa5 713d 6cef 253d 6b03 4d3d 785e 283d
000002d0: 8df8 793d cbc0 7f3d 0026 7c3d 78cc 743d
000002e0: 8790 273d d1ed 5d3d f12b 863d 2b44 723d
000002f0: 13bf 8a3d e562 6b3d 376a 453d 0864 723d
00000300: a36e 683d 0454 623d 73c3 433d b683 6c3d
00000310: 7192 813d 32ab 6f3d da84 663d 5916 833d
00000320: 18b5 4f3d 7029 773d fc58 5c3d 197e 893d
00000330: 86f5 2d3d a441 823d d598 2c3d 0286 723d
00000340: 27a8 4b3d 4008 183d c3da 2d3d 12dd 773d
00000350: aa08 763d 4c92 bb9f 867c 713d d3ae 263d
00000360: 5a42 4c3d 7667 5e3d d820 6d3d a865 573d
00000370: 9acc 483d 2f96 823d 40f6 543d 38db 453d
00000380: 16fb 383d 8657 483d 2f50 623d 15e5 763d
00000390: 37bf 623d 9141 623d e489 3a3d 789c 693d
000003a0: eeec 693d e42e 563d 1f2b 453d 9827 7b3d
000003b0: dfbf 7f3d 8911 143d b6ed 5c3d 96c9 703d
000003c0: a677 573d 174e 6f3d c6d4 353d 541f 3b3d
000003d0: 2d41 523d cba6 573d 71d4 563d 0c30 8c3d
000003e0: e2cc 563d 37e3 243d 942b 513d 87e9 7b3d
000003f0: 5549 413d 75d0 833d f2ed 633d e0cd 7b3d
0.061899766 0.07138622 0.058851957 0.06615529 0.06798205 0.054485556 0.041783217 0.037417196
0.06103152 0.051490713 0.06890584 0.054795574 0.05368958 0.05271876 0.06470476 0.04689805
0.049473092 0.051722635 0.062454913 0.0387239 0.052179903 0.057665423 0.0483156 0.05249219
0.06023013 0.06914248 0.06552529 0.060926605 0.05087529 0.064410836 0.049937014 0.0547166
0.06246701 0.07072325 0.048488863 0.05404589 -2.2843689e-19 0.049765404 0.036889248 0.07010569
0.05296048 0.04196153 0.06026341 0.04126316 0.053865235 0.0467345 0.0530965 0.0543868
0.057323936 0.06362254 0.052416142 0.0533824 0.057480413 0.04299143 0.068989396 0.046262275
0.04618949 0.06022597 0.057496738 0.054634456 0.052379195 0.0651632 0.047475982 0.065904446
0.05740222 0.057757482 0.04434043 0.050524957 0.059965502 0.046708334 0.056756742 0.055119514
0.049068917 0.05036215 0.051881775 0.054482818 0.06652699 0.051571745 0.06271466 0.04931341
0.04706902 0.053144265 0.053811204 0.05865085 0.05187837 0.05661557 0.050264783 0.059307918
0.067291446 0.05300927 0.06423232 0.06632784 0.054813802 -1.9483499e-19 0.05481536 0.055565767
0.057571344 0.057724923 0.056410033 0.057935342 0.04467544 0.059212685 0.048627242 0.056166187
0.049018964 0.047339905 0.053884808 0.06657049 0.063193105 0.05874817 0.064329796 0.04356099
0.049210563 0.052746035 0.058060795 0.058210883 0.05438702 0.035907093 0.05430671 0.065472625
0.04261949 0.0413814 0.060065657 0.055945244 0.0493971 0.05592383 0.043313943 0.07054662
0.050316893 0.054558296 0.061233945 0.051555637 0.061590604 0.062402256 0.049311478 0.051910914
0.058623094 0.052504532 0.071648344 0.06714339 0.04724841 0.038673088 0.061793346 0.062492516
0.05393181 0.054051504 0.057861753 0.049343303 0.053038064 0.05040531 0.054056987 0.06345653
0.037813853 -2.6887987e-19 0.05443374 0.056576725 0.052906904 0.049205028 0.05826637 0.05742074
0.061216768 0.058903117 0.056221753 0.04507388 0.041355725 0.05938556 0.052005235 -2.0469441e-19
0.06011697 0.058085784 0.06731533 0.04879781 0.040727854 0.049424414 0.03862217 0.042222008
0.05899578 0.040511534 0.050052088 0.041105717 0.061028052 0.06243972 0.061559677 0.05976531
0.040909316 0.054181878 0.0655135 0.05914704 0.06774726 0.05746736 0.048196997 0.05917743
0.056746136 0.055255905 0.047793817 0.057742797 0.063267596 0.058512874 0.05627904 0.06400747
0.050709814 0.060342252 0.0537958 0.06713504 0.042470478 0.06360176 0.04213794 0.05920983
0.04972091 0.037117243 0.042444956 0.060513563 0.060066856 -7.943961e-20 0.058956645 0.04069407
0.049867965 0.054297887 0.05789265 0.05258718 0.04902325 0.063763015 0.051992655 0.048304766
0.04516133 0.048911594 0.05525225 0.060277063 0.055358138 0.05523831 0.04554166 0.057033986
0.05711072 0.052290812 0.048136827 0.061317056 0.062438842 0.036149535 0.053937636 0.058785997
0.05260434 0.05842408 0.04439237 0.045684174 0.051331688 0.0526493 0.052448694 0.06845102
0.052441485 0.04025575 0.05106695 0.061502006 0.047189075 0.064362444 0.055646844 0.061475635
