code/save/model_Model_alpha_prime.pt (torch, 446941 bytes, 5 tensors)

embed1.weight f4 [59, 256]
-0.16348012 0.24042988 0.19328967 0.25776553 0.11922192 -0.12514667 0.094500974 -0.09770099
0.123377554 -0.13378397 0.08702351 0.1458116 -0.14157327 0.27075097 0.25499645 -0.0066700187
-0.16999602 0.25210607 -0.20092314 -0.150862 0.1011662 0.19966334 -0.18590683 -0.23960268
-0.013536837 0.28989193 -0.19655156 0.24982463 -0.28262475 -0.27975273 0.21300189 -0.17026544
0.02984415 0.22346275 0.12794381 0.25754276 0.1780856 0.10369563 0.19754773 -0.05838305
-0.2551147 -0.10668014 0.02661744 0.25005287 0.031865183 0.18723802 -0.13895182 -0.17857854
-0.10288783 -0.1994799 0.17938447 -0.077669986 -0.0076783034 0.18841583 0.19166738 -0.21795106
0.19952115 0.051282205 0.04820425 0.2445665 -0.055043742 -0.21743232 0.1359495 0.023658715
0.1793085 -0.064892545 -0.005059662 -0.2734711 0.13427404 -0.20850241 -0.24454184 0.23168218
0.1860659 0.2635926 -0.23241086 0.17412075 0.09356209 -0.10459945 0.09973497 -0.26060873
0.05358342 0.061563715 0.23261559 -0.11725219 -0.21800528 0.11375106 0.104411826 0.17457394
-0.21032706 0.17805873 -0.22403345 -0.19625542 -0.022050697 -0.23715441 0.094617166 -0.23730999
0.21301116 0.16617171 0.26193273 0.2442043 -0.18204354 -0.0115095405 -0.25481322 0.16155474
0.08194725 0.21558139 -0.07212257 0.26580995 -0.20641892 -0.18773985 -0.27264476 -0.1785064
0.22075412 0.19906378 0.16104835 -0.2151054 0.17431362 -0.08154727 -0.16657789 -0.2507896
0.2570104 0.2600252 0.19524781 -0.1913928 -0.11812146 0.06431381 -0.2188019 -0.21938425
0.025517683 -0.08157518 -0.29317406 -0.054743223 0.25845027 -0.1928037 -0.06817483 -0.1314109
-0.18228589 0.21677889 -0.29556054 0.14858103 -0.014024061 -0.17299126 -0.16595566 -0.20680507
-0.008986938 -0.16555162 -0.29643318 0.11937865 -0.14263454 -0.24050868 -0.24314176 0.23487608
0.24187051 0.10501622 -0.20719184 0.19928974 0.13843162 -0.201154 0.24129434 0.16852397
-0.21348318 0.19213425 -0.19379744 -0.081220224 0.19344898 0.09007971 0.31503743 0.03915805
-0.038324088 -0.14189784 0.19708309 -0.0026757799 -0.024047602 0.19005509 0.056445017 -0.14777644
-0.086071454 -0.08505255 0.095785305 -0.20357968 0.19971769 -0.1378708 -0.09260113 0.09639924
0.0043380945 0.30515304 -0.16111672 -0.14571698 -0.010515353 0.26317924 -0.20069222 0.055449143
0.17462721 0.22317548 0.025856994 0.2764482 -0.1199317 0.0127831055 0.22202064 -0.05647802
-0.15607604 0.267332 -0.08276401 0.2465246 -0.15873595 0.2494073 -0.19022681 -0.19568084
0.23598628 0.11974834 0.010779775 -0.073356576 -0.030382734 0.16169861 -0.14553522 -0.13625659
-0.18988214 -0.17924601 -0.22918674 0.10426733 -0.2482982 -0.2422425 0.21725875 -0.12789974
-0.073001094 -0.21540692 0.23744893 -0.2220591 0.20488772 -0.017271833 0.021755898 0.25489986
0.14687374 0.2436393 0.23557176 -0.2570023 -0.19949855 -0.0069953804 0.058888305 0.23141848
-0.12360648 0.22557981 -0.21633051 0.001879489 -0.17900047 -0.2209459 -0.14822353 0.13460968
0.22131312 0.18859027 -0.09755601 0.21019873 -0.10270345 0.19912292 0.11739337 -0.090838104
00000000: 5567 27be 4033 763e baed 453e d8f9 833e
00000010: 9f2a f43d 7326 00be ba89 c13d 7517 c8bd
00000020: 5fad fc3d aafe 08be 6239 b23d a34f 153e
00000030: 95f8 10be df9f 8a3e e58e 823e 2c90 dabb
00000040: 7013 2ebe 0c14 813e ccbe 4dbe 917b 1abe
00000050: 3a30 cf3d 8c74 4c3e 5c5e 3ebe 685a 75be
00000060: 9cc9 5dbc b76c 943e d044 49be 07d2 7f3e
00000070: 31b4 90be c03b 8fbe 2b1d 5a3e 105a 2ebe
00000080: b87b f43c 6bd3 643e b403 033e a5dc 833e
00000090: 125c 363e 605e d43d f449 4a3e 1123 6fbd
000000a0: 659e 82be 1e7b dabd d10c da3c ee06 803e
000000b0: 1185 023d 53bb 3f3e 6349 0ebe 4bdd 36be
000000c0: dbb6 d2bd 7544 4cbe 90b0 373e 7111 9fbd
000000d0: 479a fbbb 14f0 403e 7444 443e 902e 5fbe
000000e0: 464f 4c3e 4a0d 523d d271 453d a46f 7a3e
000000f0: 8c75 61bd 94a6 5ebe 5936 0b3e eccf c13c
00000100: a69c 373e 62e6 84bd 85cb a5bb 6704 8cbe
00000110: 227f 093e a881 55be 2d69 7abe 183e 6d3e
00000120: 0f88 3e3e 9cf5 863e 1dfd 6dbe b64c 323e
00000130: 7b9d bf3d 3d38 d6bd d941 cc3d 826e 85be
00000140: 4a7a 5b3d 3c2a 7c3d c832 6e3e eb21 f0bd
00000150: c73c 5fbe 51f6 e83d ded5 d53d 83c3 323e
00000160: fa5f 57be 0755 363e 0669 65be 2ef7 48be
00000170: aaa3 b4bc 9bd8 72be a5c6 c13d 6401 73be
00000180: 991f 5a3e eb28 2a3e 0c1c 863e b110 7a3e
00000190: 9f69 3abe 8392 3cbc e176 82be 9b6e 253e
000001a0: f6d3 a73d 5ec1 5c3e ffb4 93bd 3e18 883e
000001b0: 7b5f 53be e03e 40be 1898 8bbe 62ca 36be
000001c0: 5e0d 623e 60d7 4b3e dce9 243e 9744 5cbe
000001d0: 457f 323e 4102 a7bd 6593 2abe 7f67 80be
000001e0: de96 833e 0622 853e 0bef 473e 79fc 43be
000001f0: aae9 f1bd f5b6 833d 9b0d 60be 44a6 60be
00000200: 760a d13c e310 a7bd e91a 96be 6e3a 60bd
00000210: 9853 843e 556e 45be 3f9f 8bbd 9490 06be
00000220: 27a9 3abe 49fb 5d3e b653 97be a025 183e
00000230: 2dc5 65bc 9f24 31be 48f0 29be b5c4 53be
00000240: f33d 13bc 5d86 29be 17c6 97be cb7c f43d
00000250: ca0e 12be e847 76be 27fa 78be 5b83 703e
00000260: e7ac 773e be12 d73d 192a 54be 9c12 4c3e
00000270: 05c1 0d3e 50fb 4dbe dd15 773e 8c91 2c3e
00000280: 569b 5abe d7be 443e d672 46be ca56 a6bd
00000290: 7d17 463e b67b b83d 964c a13e 3164 203d
000002a0: b8f9 1cbd ab4d 11be 26d0 493e 235c 2fbb
000002b0: 7aff c4bc cd9d 423e e432 673d b552 17be
000002c0: 3b46 b0bd 0830 aebd 162b c43d 3177 50be
000002d0: cb82 4c3e 012e 0dbe a9a5 bdbd f76c c53d
000002e0: 9326 8e3b 053d 9c3e c8fb 24be d536 15be
000002f0: 9648 2cbc 6ebf 863e 4382 4dbe a41e 633d
00000300: 7ad1 323e 1d88 643e 0cd2 d33c 9e8a 8d3e
00000310: c09e f5bd 3b70 513c 6159 633e 7f55 67bd
00000320: 66d2 1fbe bddf 883e 2d80 a9bd f270 7c3e
00000330: ad8b 22be a164 7f3e d1ca 42be 8f60 48be
00000340: 63a6 713e 9e3e f53d a79d 303c f93b 96bd
00000350: 36e5 f8bc 5294 253e 2f07 15be d986 0bbe
00000360: 7770 42be 448c 37be eeaf 6abe 1c8a d53d
00000370: e241 7ebe 6b0e 78be 1479 5e3e 26f8 02be
00000380: 9981 95bd a293 5cbe d025 733e 7663 63be
00000390: 16ce 513e a97d 8dbc 6d39 b23c 3c82 823e
000003a0: 1266 163e 957c 793e b939 713e ce95 83be
000003b0: 5949 4cbe 8139 e5bb dd34 713d f7f8 6c3e
000003c0: 6525 fdbd 65fe 663e bf85 5dbe 3059 f63a
000003d0: e64b 37be a43f 62be e9c7 17be 1fd7 093e
000003e0: e89f 623e cf1d 413e 72cb c7bd 563e 573e
000003f0: 3056 d2bd e1e6 4b3e ef6b f03d 5409 babd

embed2.weight f4 [59, 256]
0.16956095 -0.23112689 -0.005326204 -0.19827637 0.097214326 -0.19430357 0.103809826 -0.0021287808
-0.14994034 0.19518901 -0.2162106 0.20748155 0.052822106 -0.16940577 0.1902741 0.19873725
0.20509127 -0.23303199 -0.12917712 -0.2513488 0.05361498 0.17493625 0.30743995 0.17529076
0.25402594 -0.29323608 0.15362026 -0.14210422 0.16072884 0.28818464 -0.14317489 0.08366449
0.02349827 -0.10361019 0.09328246 -0.14491406 -0.07889167 -0.19986421 0.16728595 0.28204685
-0.07717523 0.099187285 0.30984202 -0.12251554 -0.13195215 -0.10480688 0.12758589 0.15803689
0.15924662 -0.23082504 0.19559316 -0.13765924 0.0011790873 -0.0037148327 -0.15735023 -0.0937266
-0.047746472 -0.0882279 0.1103839 -0.17354597 -0.24677041 0.14791085 -0.16227452 0.1649297
-0.24284412 0.010042968 0.12148804 0.24574001 0.24067712 -0.20956498 -0.11970225 -0.16243035
0.24320693 -0.105952516 -0.20762578 0.17643443 0.1916013 -0.22293524 0.20811413 -0.24458657
0.20463307 0.12341434 -0.112027034 -0.20445044 0.16711636 -0.18839516 0.061495457 0.2465788
0.18754031 -0.22861254 0.12699752 0.2722561 0.08452508 0.13968517 -0.05030557 0.24991135
0.0969802 0.01254515 0.074275464 -0.123883285 0.20765606 0.06967415 0.18036026 -0.21187104
-0.18312183 -0.067364536 -0.21020807 -0.2702231 -0.24666288 0.18574601 0.15584044 0.21866237
-0.20611101 -0.26411864 -0.26671955 0.058820374 -0.09515091 0.22697887 0.13150978 0.2051503
-0.15562585 0.05992042 0.21347907 -0.16423494 -0.20303449 0.22859481 -0.22588757 -0.20869584
-0.19553101 -0.26850688 0.15312 0.22018304 -0.19765882 -0.14899783 -0.18778454 0.2066597
0.1683128 0.12974891 0.18850958 -0.16078457 0.2411651 0.25524873 -0.070242666 0.17177814
0.1901771 0.0887827 -0.16423132 0.16965164 0.17732055 0.010559302 0.23679824 0.23573981
-0.22101341 0.25294146 0.07029282 -0.22993185 -0.2630293 0.1504191 -0.1127502 0.15856302
0.26719928 0.03391474 0.14076297 0.11729514 0.18920931 -0.16596894 -0.22086863 -0.14468274
0.06622899 0.23167363 -0.24936745 -0.038464826 -0.25591832 -0.25349155 -0.28383866 0.27446496
0.2521079 0.15624434 0.24340306 0.20463979 -0.2650483 0.079778224 -0.011951948 0.062465854
-0.23915677 -0.011193067 0.09086252 0.10227257 -0.1779053 -0.24397047 -0.21474761 -0.027716653
-0.16906849 -0.24346893 -0.2439839 0.13098459 0.26861784 -0.2558963 -0.023968825 -0.0064455224
-0.18724538 -0.23864047 0.22024536 -0.2636665 -0.085892655 -0.053227715 0.13329317 -0.13022403
0.15673177 -0.11526573 -0.22536096 0.19094378 0.080173366 -0.069358476 0.19168533 -0.24863994
0.16626433 -0.054835487 -0.18775962 -0.19012405 0.054345313 0.2882986 -0.08541597 -0.23852804
0.25339916 0.059245527 -0.18459275 0.22309509 0.045005117 0.15689848 0.16984789 -0.25631046
-0.04082194 0.12868802 -0.21507496 0.25945795 0.24374439 -0.15631768 -0.013567728 -0.032689363
0.15701902 -0.16095564 0.20685926 0.07681359 -0.17782699 0.13859758 0.3027034 -0.20040327
-0.03447847 0.027034989 0.11440081 -0.086043246 0.11163824 -0.16704202 0.038023688 -0.1833923
00000000: 63a1 2d3e 87ac 6cbe 7087 aebb f608 4bbe
00000010: 4e18 c73d 84f7 46be 3f9a d43d 0483 0bbb
00000020: f689 19be a1df 473e 5066 5dbe 0b76 543e
00000030: fe5b 583d b578 2dbe 37d7 423e c781 4b3e
00000040: 7203 523e f09f 6ebe 0247 04be cab0 80be
00000050: 629b 5b3d 7d22 333e c568 9d3e 6c7f 333e
00000060: b00f 823e 0a23 96be a14e 1d3e c583 11be
00000070: 1a96 243e f08c 933e 709c 12be 4a58 ab3d
00000080: 727f c03c 9431 d4bd e00a bf3d 5a64 14be
00000090: f591 a1bd 34a9 4cbe 024d 2b3e 7268 903e
000000a0: 0c0e 9ebd b422 cb3d 9da3 9e3e 6de9 fabd
000000b0: 771e 07be fda4 d6bd e0a5 023e 6cd4 213e
000000c0: 8c11 233e 665d 6cbe 9349 483e 8bf6 0cbe
000000d0: 9b8b 9a3a 8d74 73bb 6b20 21be bbf3 bfbd
000000e0: ce91 43bd d4b0 b4bd f410 e23d 09b6 31be
000000f0: 62b1 7cbe f175 173e 4b2b 26be 55e3 283e
00000100: 21ac 78be 438b 243c b9ce f83d 45a3 7b3e
00000110: 1074 763e 3498 56be 7426 f5bd 2454 26be
00000120: 3d0b 793e a2fd d8bd da9b 54be 3aab 343e
00000130: 2233 443e 2349 64be df1b 553e e774 7abe
00000140: 558b 513e a8c0 fc3d 6e6e e5bd 755b 51be
00000150: 8d20 2b3e a9ea 40be a9e2 7b3d 277f 7c3e
00000160: 910a 403e 6819 6abe a30b 023e 2765 8b3e
00000170: 7c1b ad3d a109 0f3e 370d 4ebd c3e8 7f3e
00000180: 8e9d c63d 2c8a 4d3c bc1d 983d 85b6 fdbd
00000190: caa3 543e 52b1 8e3d 5cb0 383e b9f4 58be
000001a0: 4a84 3bbe 6bf6 89bd c940 57be af5a 8abe
000001b0: 3295 7cbe 3434 3e3e a394 1f3e 07e9 5f3e
000001c0: c40e 53be 8f3a 87be 778f 88be a2ed 703d
000001d0: 7bde c2bd 266d 683e 80aa 063e ec12 523e
000001e0: 625c 1fbe 1d6f 753d 429a 5a3e 342d 28be
000001f0: 46e8 4fbe c214 6a3e 124f 67be 5db4 55be
00000200: 4839 48be bc79 89be 7dcb 1c3e aa77 613e
00000210: 1367 4abe e392 18be 974a 40be 9a9e 533e
00000220: 315a 2c3e e6dc 043e a808 413e b6a4 24be
00000230: fcf3 763e f6af 823e 63db 8fbd 9ce6 2f3e
00000240: c9bd 423e b4d3 b53d 412c 28be 29b9 2d3e
00000250: 8593 353e ec00 2d3c 3d7b 723e c765 713e
00000260: 5751 62be 8b81 813e aff5 8f3d 4173 6bbe
00000270: c7ab 86be 7707 1a3e 94e9 e6bd 585e 223e
00000280: 58ce 883e 2fea 0a3d 2b24 103e 6f38 f03d
00000290: 16c0 413e c3f3 29be 632b 62be b627 14be
000002a0: 11a3 873d da3b 6d3e 2e5a 7fbe 4b8d 1dbd
000002b0: ba07 83be a5c9 81be 4d53 91be ac86 8c3e
000002c0: 4914 813e 84fe 1f3e a73e 793e 188d 513e
000002d0: 69b4 87be c462 a33d 1ad2 43bc 32dc 7f3d
000002e0: 83e5 74be 2063 37bc 2116 ba3d 4874 d13d
000002f0: cf2c 36be 65d3 79be cce6 5bbe 090e e3bc
00000300: 4a20 2dbe eb4f 79be ead6 79be d320 063e
00000310: 4788 893e d704 83be 455a c4bc f634 d3bb
00000320: 41bd 3fbe 2b5e 74be 0088 613e 4cff 86be
00000330: 7de8 afbd 4e05 5abd 017e 083e 7359 05be
00000340: 4b7e 203e 7010 ecbd 06c5 66be c486 433e
00000350: ef31 a43d d10b 8ebd 2949 443e 789b 7ebe
00000360: 3241 2a3e 2d9b 60bd 0f44 40be e1af 42be
00000370: 3199 5e3d e09b 933e 91ee aebd b240 74be
00000380: 89bd 813e 70ab 723d e205 3dbe 0a73 643e
00000390: 4957 383d ffa9 203e 9bec 2d3e 203b 83be
000003a0: e834 27bd cbc6 033e 9c3c 5cbe acd7 843e
000003b0: 2198 793e be11 20be 2d4b 5ebc 48e5 05bd
000003c0: 98c9 203e 8ed1 24be ead2 533e 7250 9d3d
000003d0: 4718 36be 86ec 0d3e f1fb 9a3e 8436 4dbe
000003e0: 4c39 0dbd 7b78 dd3c f94a ea3d 7137 b0bd
000003f0: 97a2 e43d 100d 2bbe babe 1b3d 31cb 3bbe

unembed.weight f4 [59, 256]
0.316396 0.13557646 -0.1269561 0.113524966 2.3498797e-05 0.20476148 0.26988664 -0.15393874
0.04047774 0.09775436 -0.21924932 0.20371786 0.26186866 -0.24605273 -0.081559084 -0.103221424
-0.24197407 0.015062519 -0.33888364 -0.047797006 0.29458892 -0.22629492 -0.20489684 -0.045043338
0.2440324 0.16798374 0.25719926 0.139867 0.17481753 0.22478507 -9.21748e-05 0.0002148085
-0.14474297 0.11800097 0.23910819 -0.22004588 0.032545358 0.04142521 0.288046 -0.4060633
0.2150077 0.1793203 0.22083248 -0.00015773009 0.059991434 -0.34335598 0.3409699 0.23145834
-0.32528666 -0.17755187 0.22746761 0.137834 -0.16459374 0.2180881 0.232461 -0.000660418
-0.00035284893 -0.021262338 -0.10582415 -0.22830772 0.012743019 -0.06400235 -0.048912372 -0.18935364
-0.10923479 7.162559e-07 3.56973e-05 0.0682828 0.081615455 0.021646535 0.32768872 0.17246959
-0.2995197 0.033452805 -0.00037252068 0.21621798 0.12607941 0.05688664 0.21735397 0.09104298
-0.33693042 0.11664866 -0.23874511 -0.26559123 0.24598534 0.22436199 0.21296278 0.10044575
0.28685945 0.26474476 -0.0100807715 -0.21630849 0.2946718 0.17721222 0.15578622 -0.060859833
-0.15756111 -0.0002528931 -0.15752587 -0.28036594 -3.6343587e-05 -0.32390717 -0.20599549 -0.13739598
0.1542546 -0.044046436 0.015208833 0.21566874 0.09676263 0.20374541 0.18903087 0.26700526
0.22559007 -0.2287975 0.20167176 0.11763868 0.116029754 -0.23382932 -5.4067805e-05 -0.33918044
-0.27231055 -0.029404577 -0.17373411 -0.34372997 -0.105388306 0.0012684715 0.08417504 -0.07268784
-0.29674387 -0.08428339 0.22075312 -0.2095609 -0.2322579 -0.1341126 -0.14914031 0.14230345
-0.17133114 -0.023154404 0.07732428 0.26752806 0.11284406 0.14551099 0.23721598 0.024529625
-0.36706117 0.35488576 -0.042596053 -0.2991797 0.33565918 0.17456459 -0.18594202 0.23156318
-0.34925696 0.12929505 0.11473119 0.20998633 0.21691765 -0.12059105 -0.3395273 -0.28807563
-0.06199984 0.23809391 0.34374908 -0.26693532 0.20701778 -0.08552853 0.19506589 0.00011164521
0.19300817 -0.000117239506 0.19017294 0.09488466 -0.27258843 0.30303207 -0.1814721 0.15877114
0.3239 0.26941782 -0.22142075 0.27003732 0.13595223 -0.28389496 -0.103577204 -0.15487474
-0.31316978 0.17153195 0.19529375 0.0001090586 0.30434284 -0.00049784186 1.9549171e-07 -0.43381372
-0.10189389 0.1893367 0.051704705 -0.24840738 0.20360328 0.2204331 -0.30240247 -0.072392434
0.23626666 -0.046121735 -0.19929163 0.09168044 0.25677124 -0.21363017 0.21633199 -0.025865208
0.085945494 0.029104475 0.24207446 0.27630296 0.28966814 0.22112806 -0.30853787 0.0014181118
-0.105125576 -0.00046783342 0.24244514 0.15050602 -4.3961307e-05 -0.3183846 -0.07347377 -0.20814002
0.10278206 0.086564586 0.2028157 0.13393603 -0.071314074 -0.26006833 -0.018625863 -0.12770097
-0.027550353 -0.33222488 0.047380492 0.1800731 -0.24352671 -0.32214198 -0.17566241 -0.1219932
6.88736e-08 -0.2543556 -0.07803484 -0.07247717 -0.31455556 0.20396452 0.22863257 0.29362747
-0.18089901 -0.18418673 5.476562e-11 -0.2512108 0.10453877 0.14905275 -0.09041921 -0.023902792
00000000: a8fe a13e 8ed4 0a3e c800 02be c77f e83d
00000010: 481f c537 feac 513e 952e 8a3e 1ea2 1dbe
00000020: fdcb 253d 7033 c83d e582 60be 6a9b 503e
00000030: a613 863e 3ff5 7bbe 7308 a7bd c165 d3bd
00000040: 0dc8 77be c9c8 763c 2882 adbe cbc6 43bd
00000050: 5cd4 963e dbb9 67be 7ad0 51be 5d7f 38bd
00000060: a1e3 793e ee03 2c3e 9faf 833e 4b39 0f3e
00000070: 5e03 333e 0f2e 663e f84d c1b8 383e 6139
00000080: 8037 14be 7eaa f13d c7d8 743e b553 61be
00000090: 484e 053d 7bad 293d c47a 933e 87e7 cfbe
000000a0: fa2a 5c3e be9f 373e e921 623e 5964 25b9
000000b0: 94b9 753d 5bcc afbe 9b93 ae3e 6a03 6d3e
000000c0: f98b a6be 28d0 35be 45ed 683e 5b24 0d3e
000000d0: 438b 28be 7d52 5f3e 420a 6e3e e71f 2dba
000000e0: 95fe b8b9 5b2e aebc 55ba d8bd 80c9 69be
000000f0: 18c8 503c aa13 83bd 5758 48bd ece5 41be
00000100: 7db6 dfbd bb44 4035 afb9 1538 dad7 8b3d
00000110: 0126 a73d 1354 b13c d1c6 a73e de9b 303e
00000120: a55a 99be cf05 093d e14e c3b9 3f68 5d3e
00000130: f61a 013e f701 693d 0a92 5e3e be74 ba3d
00000140: 2582 acbe 7ee5 ee3d 9979 74be 93fb 87be
00000150: 95e3 7b3e 26bf 653e ea12 5a3e 80b6 cd3d
00000160: 3edf 923e a08c 873e d229 25bc f97f 5dbe
00000170: 39df 963e 1f77 353e 6c86 1f3e 2948 79bd
00000180: b357 21be bd96 84b9 764e 21be 208c 8fbe
00000190: a16f 18b8 29d7 a5be 7bf0 52be 88b1 0cbe
000001a0: ebf4 1d3e 096a 34bd 782e 793c 44d8 5c3e
000001b0: 7c2b c63d a3a2 503e 4f91 413e eab4 883e
000001c0: 1501 673e e449 6abe 0b83 4e3e 8cec f03d
000001d0: 02a1 ed3d f470 6fbe ddc6 62b8 0fa9 adbe
000001e0: 4a6c 8bbe dee1 f0bc 5be7 31be 60fd afbe
000001f0: d3d5 d7bd d742 a63a f763 ac3d 5ddd 94bd
00000200: d0ee 97be c59c acbd 1b0d 623e 2297 56be
00000210: 04d5 6dbe d054 09be 3db8 18be ffb7 113e
00000220: 6e71 2fbe 4eae bdbc 315c 9e3d 70f9 883e
00000230: c91a e73d d500 153e bfe8 723e 5af2 c83c
00000240: 71ef bbbe 96b3 b53e 3379 2ebd 152e 99be
00000250: 85db ab3e 0fc1 323e 9667 3ebe e61e 6d3e
00000260: cfd1 b2be ec65 043e 30f8 ea3d a806 573e
00000270: a91f 5e3e 71f8 f6bd 86d6 adbe a67e 93be
00000280: 8bf3 7dbd e4ce 733e e1ff af3e bfab 88be
00000290: 78fc 533e 9529 afbd 5abf 473e 1123 ea38
000002a0: efa3 453e 7bde f5b8 b2bc 423e e352 c23d
000002b0: b690 8bbe 0527 9b3e d2d3 39be e794 223e
000002c0: 39d6 a53e 22f1 893e 1fbc 62be 5542 8a3e
000002d0: 1037 0b3e ae5a 91be 4920 d4bd 7c97 1ebe
000002e0: ca57 a0be 12a6 2f3e 16fb 473e 64b6 e438
000002f0: d3d2 9b3e 9a81 02ba 5ae8 5134 d51c debe
00000300: bead d0bd 7be1 413e 50c8 533d 815e 7ebe
00000310: 617d 503e 37b9 613e 7fd4 9abe 7c42 94bd
00000320: e3ef 713e 25ea 3cbd 1b13 4cbe f4c2 bb3d
00000330: 8577 833e dec1 5abe 2286 5d3e 46e3 d3bc
00000340: 3104 b03d 826c ee3c 5ee2 773e 9577 8d3e
00000350: 624f 943e 656f 623e adf8 9dbe f0df b93a
00000360: 144c d7bd 8a47 f5b9 8a43 783e 401e 1a3e
00000370: 1863 38b8 4e03 a3be 6a79 96bd a822 55be
00000380: 677f d23d c648 b13d ebae 4f3e 8726 093e
00000390: 1d0d 92bd ad27 85be 4495 98bc 0bc4 02be
000003a0: 47b1 e1bc 6119 aabe 0c12 423d 1565 383e
000003b0: 115f 79be cbef a4be d9e0 33be 92d7 f9bd
000003c0: a9e7 9333 e63a 82be bbd0 9fbd e96e 94bd
000003d0: 6d0d a1be 13dc 503e a81e 6a3e 5756 963e
000003e0: 973d 39be 729b 3cbe 9bdc 702e b49e 80be
000003f0: 6c18 d63d 49a1 183e b52d b9bd cacf c3bc

l1.weight f4 [256, 256]
-0.07508149 -0.2064012 -0.16143505 -0.11532978 -0.16296153 0.2514285 -0.16971369 -0.2314082
-0.2190698 -0.1836486 -0.12707268 -0.12114076 -0.05414248 -0.1570666 0.02289957 -0.05756248
0.06795427 -0.12253742 0.25534895 -0.14314623 0.111920506 -0.24516504 -0.14146626 -0.19675478
0.093341835 -0.14785042 -0.035517544 0.14421152 -0.061434127 -0.16454002 -0.12173439 -0.27380857
-0.19626355 -0.23194706 -0.20610568 0.14814103 -0.016008116 -0.14780031 0.12622496 -0.15365407
-0.10747742 0.1756206 -0.25939137 -0.16598727 -0.1795842 0.23692869 -0.17062657 -0.24819733
-0.24665977 -0.11642917 -0.18467887 0.18662286 0.11057418 -0.16864145 -0.163772 0.030086486
-0.21263078 -0.06298656 -0.029962435 -0.16036938 -0.03712932 -0.0549353 0.25257865 0.08915752
-0.04400831 -0.09501914 -0.063205786 -0.2194096 0.119019784 0.083025545 0.062398188 0.1555171
-0.19043222 -0.019977102 0.09960301 0.026262317 -0.18238574 -0.23812547 -0.27108344 0.20098452
-0.098427765 0.2135299 -0.14949067 0.118552566 -0.01772469 0.08369069 0.19001752 -0.13072976
-0.19806926 0.14067438 0.16432518 -0.16490573 0.08570895 0.17846024 0.1995142 -0.17691456
-0.08413695 0.2037902 0.0034809716 0.16257404 -0.15082183 -0.17979069 -0.1809262 -0.12838899
-0.17612273 -0.17543119 -0.1688401 0.2642047 0.24521382 -0.07326614 0.12941445 0.03581606
-0.1415971 0.23764788 -0.10440758 0.22087689 -0.24348971 -0.056460302 0.18270399 -0.19688076
-0.110083364 -0.18681718 0.19359212 -0.08087613 0.27458906 -0.21240558 0.14920716 0.15875699
0.13675985 0.15812224 0.053272083 -0.18292336 0.2486033 0.087935455 0.11953258 -0.2041322
0.19976069 0.25537854 0.17668568 -0.20306027 0.10646021 0.010201107 -0.16377199 -0.22967152
-0.15618947 0.08591454 -0.18708111 -0.14557658 -0.19327778 -0.14169972 -0.14915602 -0.24791579
0.008808376 -0.08321009 -0.17464046 0.20717552 0.20432435 -0.11337809 0.22986436 -0.20552036
-0.16313258 0.1667523 0.15609775 0.2334827 -0.14505403 0.18341872 -0.11057148 -0.2161258
-0.18575981 0.18371505 -0.020224638 0.23831208 -0.21458608 0.052794404 0.19190538 -0.23604786
0.21765028 0.1986315 0.0031266976 0.17867848 0.082330965 -0.20932157 0.113072716 0.032545544
0.16373883 -0.08371769 -0.054019243 -0.22801007 -0.21091622 0.26730713 0.1303536 0.23328461
-0.1995154 -0.18222585 -0.10067551 -0.17558068 -0.21482053 0.1911157 -0.048994128 -0.18673153
-0.051717445 0.03238326 0.11225079 0.23491703 -0.2509934 -0.21766375 -0.14123821 0.19073252
-0.1859809 -0.20309792 0.18948914 -0.07116031 -0.15988567 -0.27521038 -0.20066975 -0.16207972
0.15104419 0.09321097 -0.21669486 -0.04070078 0.12792248 -0.16468911 -0.18901733 0.23962733
-0.22479473 0.19432443 -0.28399998 0.23630545 -0.17872947 0.22890683 0.20433655 0.22818409
0.1882269 0.18376096 -0.03899178 -0.18917187 -0.2193663 -0.15948218 -0.121723555 0.042826205
0.115714066 0.14194715 0.021507105 -0.15426935 0.067727335 0.09698893 -0.27600545 0.08249301
-0.19880539 0.10285694 0.23255034 -0.13762006 -0.050126262 0.14641444 -0.24053395 0.021976117
00000000: 53c4 99bd d65a 53be 3b4f 25be 0532 ecbd
00000010: 63df 26be 3dbb 803e 6dc9 2dbe 45f6 6cbe
00000020: d553 60be 610e 3cbe 571f 02be a618 f8bd
00000030: 81c4 5dbd 11d6 20be e197 bb3c a3c6 6bbd
00000040: 9c2b 8b3d e6f4 fabd 19bd 823e ed94 12be
00000050: 9436 e53d 8b0c 7bbe 88dc 10be 167a 49be
00000060: 012a bf3d 1a66 17be d87a 11bd 2fac 133e
00000070: 5aa2 7bbd 2e7d 28be e14f f9bd a330 8cbe
00000080: 50f9 48be 8883 6dbe 5e0d 53be 48b2 173e
00000090: 7423 83bc f758 17be 1e41 013e 7e57 1dbe
000000a0: 1f1d dcbd e3d5 333e f2ce 84be 91f8 29be
000000b0: ece4 37be 6f9d 723e bbb8 2ebe 7127 7ebe
000000c0: 6194 7cbe 6b72 eebd 751c 3dbe 101a 3f3e
000000d0: b774 e23d 58b0 2cbe d9b3 27be ef77 f63c
000000e0: e2bb 59be 19ff 80bd c873 f5bc df37 24be
000000f0: ea14 18bd d603 61bd fd51 813e 3898 b63d
00000100: 0f42 34bd 6599 c2bd 0972 81bd e9ac 60be
00000110: a5c0 f33d 4c09 aa3d 3e95 7f3d e03f 1f3e
00000120: aa00 43be 05a7 a3bc aafc cb3d 1224 d73c
00000130: 54c3 3abe 2ad7 73be 73cb 8abe e3ce 4d3e
00000140: 7f94 c9bd 95a7 5a3e 1514 19be b0cb f23d
00000150: 5e33 91bc 0666 ab3d f493 423e 06de 05be
00000160: abd2 4abe f20c 103e dc44 283e 0cdd 28be
00000170: 2d88 af3d 48be 363e 734d 4c3e 1729 35be
00000180: fe4f acbd 61ae 503e 0321 643b cf79 263e
00000190: 0a71 1abe 0d1b 38be b844 39be 6778 03be
000001a0: 8459 34be 3ca4 33be 6be4 2cbe d745 873e
000001b0: 5519 7b3e 8f0c 96bd 3985 043e dcb3 123d
000001c0: d5fe 10be f759 733e a4d3 d5bd 8d2d 623e
000001d0: 5e55 79be eb42 67bd c116 3b3e 1c9b 49be
000001e0: 6373 e1bd 014d 3fbe 033d 463e 62a2 a5bd
000001f0: f096 8c3e d980 59be c3c9 183e 3191 223e
00000200: c60a 0c3e ccea 213e d433 5a3d 4350 3bbe
00000210: dd91 7e3e 8117 b43d 7fcd f43d 0808 51be
00000220: 118e 4c3e fac0 823e 17ed 343e 08ef 4fbe
00000230: d007 da3d 8b22 273c d8b3 27be 032f 6bbe
00000240: 22f0 1fbe f6f3 af3d 3192 3fbe 0712 15be
00000250: 9cea 45be bb19 11be 5bbc 18be a3dd 7dbe
00000260: 0251 103c 0d6a aabd f3d4 32be d225 543e
00000270: 673a 513e c632 e8bd 9061 6b3e ee73 52be
00000280: 3a0c 27be 1dc1 2a3e 17d8 1f3e 1716 6f3e
00000290: 0b89 14be 1ed2 3b3e 4d73 e2bd 1550 5dbe
000002a0: d237 3ebe cc1f 3c3e 24ae a5bc 1508 743e
000002b0: 74bc 5bbe f23e 583d d882 443e 88b6 71be
000002c0: b7df 5e3e 0e66 4b3e 48e9 4c3b 7ef7 363e
000002d0: 239d a83d 6558 56be ab92 e73d 7a4e 053d
000002e0: 27ab 273e 2e74 abbd 4843 5dbd 797b 69be
000002f0: 6cfa 57be 7bdc 883e 6a7b 053e 29e2 6e3e
00000300: c44d 4cbe 6a99 3abe f62e cebd 6ccb 33be
00000310: eaf9 5bbe d6b3 433e 11ae 48bd 8d36 3fbe
00000320: acd5 53bd 4fa4 043d bee3 e53d 178e 703e
00000330: 3582 80be 3fe3 5ebe c0a0 10be 634f 433e
00000340: c771 3ebe e7f8 4fbe 7109 423e 7fbc 91bd
00000350: 12b9 23be 60e8 8cbe 5f7c 4dbe 3af8 25be
00000360: 54ab 1a3e 65e5 be3d 42e5 5dbe dcb5 26bd
00000370: 1cfe 023e 43a4 28be c28d 41be de60 753e
00000380: 9730 66be fcfc 463e 7268 91be 0efa 713e
00000390: dc04 37be 8d66 6a3e 9a3d 513e 17a9 693e
000003a0: 8dbe 403e d52b 3c3e d8b5 1fbd 45b6 41be
000003b0: 8fa1 60be 4c4f 23be 334a f9bd 886a 2f3d
000003c0: 7ffb ec3d 985a 113e ab2f b03c c9f8 1dbe
000003d0: a1b4 8a3d 22a2 c63d 9650 8dbe 18f2 a83d
000003e0: a493 4bbe a9a6 d23d ad21 6e3e 46ec 0cbe
000003f0: 3251 4dbd abed 153e 884e 76be 4207 b43c

l1.bias f4 [256]
0.034484237 0.13981935 0.24653152 0.0154649755 7.171685e-05 0.18451293 0.011974461 0.15584944
0.04641364 0.16489196 0.23013788 0.07710248 -0.00024176581 0.055076838 0.19093615 -0.030294945
0.03732354 0.043398134 0.09510587 0.2578968 0.2099657 0.17120166 -0.0041388306 0.12493447
0.013642308 0.11022064 0.07038824 0.15332557 0.15872443 0.22524665 -6.9626267e-06 1.2382057e-05
0.23580839 0.042251203 0.307361 0.20660599 0.0049330583 0.0057270895 0.24786735 -0.028148778
0.094591014 0.1800093 0.1855763 2.2058115e-05 0.009544073 0.16996971 0.06637448 0.030711005
0.18328017 0.23613718 0.18127243 0.08433336 0.15418212 0.1844368 0.060638644 9.183543e-06
5.3673907e-06 0.057181463 0.17702475 0.19965427 0.17480733 0.2049101 0.16488123 0.037110236
0.17427723 7.993018e-05 1.8770032e-05 0.17841859 0.0071962667 0.0403317 0.04095335 0.06975927
0.03384881 0.07395426 2.0895113e-06 -0.03307748 0.15696317 0.014452337 0.2414463 0.005733177
0.12769748 0.049640436 -0.012827549 0.15202819 0.106567286 0.07737944 0.17316955 0.06431915
0.30281833 0.2517737 0.008326759 0.17459945 0.21466263 0.13646312 0.18663538 0.18176983
0.036837544 8.645376e-06 0.16102032 0.05932534 1.7134078e-05 0.10850388 0.23284176 0.103578195
0.20112713 0.0045512156 0.28024846 0.05604343 0.14956224 0.13506505 0.22020975 0.14335136
0.18395719 0.16323492 0.07782146 0.22778094 0.14398846 0.16202998 -1.1101262e-05 0.05434198
0.08442862 0.07515494 0.024609989 0.2216638 0.14552471 0.0012397665 0.101468 0.04671475
0.2432864 0.05027744 0.24144776 0.07358714 0.09327888 0.06679259 0.017639443 0.21007676
0.06096641 0.05177284 0.28108776 0.061908618 0.23880169 0.093026824 0.06668609 -0.036909264
0.22913715 0.18816218 0.19223419 0.16822484 0.2562426 0.115024135 0.048231207 0.0037202255
0.24656059 0.22472224 0.2468636 0.2121115 0.11840338 0.11629893 0.2379416 0.0760012
0.017871927 0.10895871 0.03843073 -0.0030403337 0.09918935 0.14529376 0.012355407 1.605682e-05
0.09424044 2.0999645e-05 0.010147847 0.058621883 0.015032583 0.117313 0.14080031 0.013205372
0.11439338 0.054584336 0.039417554 0.11661388 0.020420574 0.14158016 0.16655363 0.21693051
-0.030287497 0.19391342 0.15867619 8.965154e-06 0.06789296 3.0037e-05 4.690601e-08 0.08494638
0.13137913 0.018586436 0.19093461 0.052793823 0.24367735 0.1936718 0.26988444 0.026201844
-0.004738467 0.14709981 -0.0012455017 0.17563099 0.07472769 0.15374108 0.13107404 0.18621144
0.1887943 0.14679109 0.24567983 0.035497196 0.2937592 0.14410068 0.26446086 0.010888991
0.23241964 6.8550326e-06 0.23395404 0.038739476 2.7079661e-06 0.1524083 0.1170386 0.13710132
0.2959801 0.21854265 0.21956626 0.10113632 0.09640788 0.042331975 0.24827853 0.20885085
0.012928264 0.16017741 0.0027600825 0.013954362 0.0975626 0.29593772 -0.0022008193 0.016127057
1.5626324e-09 0.19317587 0.21395198 0.08464603 0.13882071 0.07318748 0.049788795 -0.01079211
0.11849133 0.00094675063 6.8438144e-11 0.035704374 0.027087111 0.0055284775 0.1668823 0.010558081
00000000: 583f 0d3d ce2c 0f3e c272 7c3e cf60 7d3c
00000010: b166 9638 f5f0 3c3e 8830 443c ff96 1f3e
00000020: 3b1c 3e3d 70d9 283e 44a9 6b3e e8e7 9d3d
00000030: 8482 7db9 4098 613d c484 433e 1b2d f8bc
00000040: 91e0 183d 3ec2 313d dec6 c23d 0d0b 843e
00000050: 4001 573e 7d4f 2f3e 079f 87bb a5dd ff3d
00000060: fd83 5f3c 5cbb e13d b627 903d 6101 1d3e
00000070: a888 223e 0fa7 663e 82a0 e9b6 88bc 4f37
00000080: c177 713e 990f 2d3d 6c5e 9d3e 8590 533e
00000090: 7ea5 a13b 4faa bb3b f0d0 7d3e 4498 e6bc
000000a0: efb8 c13d 5c54 383e b707 3e3e 7109 b937
000000b0: be5e 1c3c 8a0c 2e3e 58ef 873d a595 fb3c
000000c0: ccad 3b3e f2cd 713e 7b9f 393e f8b6 ac3d
000000d0: ebe1 1d3e 00dd 3c3e 3a60 783d 0413 1a37
000000e0: 8919 b436 1c37 6a3d fa45 353e 2b72 4c3e
000000f0: b100 333e f4d3 513e a0d6 283e e700 183d
00000100: bb75 323e 30a0 a738 5674 9d37 5db3 363e
00000110: a9ce eb3b da32 253d b3be 273d f3dd 8e3d
00000120: 0da5 0a3d 5575 973d 8839 0c36 407c 07bd
00000130: f4ba 203e 7fc9 6c3c b33d 773e 60dd bb3b
00000140: 21c3 023e c553 4b3d a42a 52bc 47ad 1b3e
00000150: f33f da3d 1d79 9e3d 5c53 313e c2b9 833d
00000160: 010b 9b3e 7be8 803e f56c 083c 33ca 323e
00000170: 85d0 5b3e fdbc 0b3e 581d 3f3e df21 3a3e
00000180: f7e2 163d 9b0b 1137 83e2 243e 21ff 723d
00000190: 27bb 8f37 4837 de3d 126e 6e3e ce20 d43d
000001a0: 45f4 4d3e 5d22 953b ba7c 8f3e cc8d 653d
000001b0: d826 193e 7e4e 0a3e aa7e 613e b3ca 123e
000001c0: 465f 3c3e 0e27 273e dc60 9f3d 683f 693e
000001d0: b671 133e 30eb 253e 8f3f 3ab7 b295 5e3d
000001e0: eae8 ac3d d5ea 993d e39a c93c d6fb 623e
000001f0: 6e04 153e a97f a23a 74ce cf3d f757 3f3d
00000200: 1220 793e b8ef 4d3d 153e 773e dbb4 963d
00000210: ff08 bf3d 8eca 883d 9880 903c 5d1e 573e
00000220: eab7 793d c20f 543d bcea 8f3e e493 7d3d
00000230: 6e88 743e d984 be3d b792 883d 2b2e 17bd
00000240: eea2 6a3e 96ad 403e 0ad9 443e 2243 2c3e
00000250: 3b32 833e c691 eb3d 168e 453d 07cf 733b
00000260: 617a 7c3e 961d 663e d0c9 7c3e c233 593e
00000270: 797d f23d 222e ee3d f6a6 733e 84a6 9b3d
00000280: 2668 923c bf25 df3d 8b69 1d3d 5640 47bb
00000290: c923 cb3d e3c7 143e 556e 4a3c c2b1 8637
000002a0: 2201 c13d 6528 b037 2843 263c 801d 703d
000002b0: 394b 763c cc41 f03d f52d 103e 585b 583c
000002c0: 1447 ea3d d393 5f3d 4d74 213d 42d3 ee3d
000002d0: 0c49 a73c 64fa 103e 098d 2a3e 0823 5e3e
000002e0: 7c1d f8bc 3d91 463e 037c 223e 0b69 1637
000002f0: 770b 8b3d f7f7 fb37 b475 4933 5ef8 ad3d
00000300: 4088 063e 9542 983c 5d84 433e 563e 583d
00000310: 8e86 793e e651 463e 4b2e 8a3e 40a5 d63c
00000320: 2445 9bbb 55a1 163e 1a40 a3ba 9cd8 333e
00000330: d50a 993d 4d6e 1d3e 4638 063e 36ae 3e3e
00000340: 4b53 413e 6750 163e 7e93 7b3e 8265 113d
00000350: 9b67 963e 218f 133e 6a67 873e bd67 323c
00000360: 6aff 6d3e 4804 e636 a691 6f3e 49ad 1e3d
00000370: 81ba 3536 ec10 1c3e efb1 ef3d 4a64 0c3e
00000380: b48a 973e a5c9 5f3e fad5 603e 8f20 cf3d
00000390: 7f71 c53d 4b64 2d3d ba3c 7e3e ffdc 553e
000003a0: 12d1 533c 8c05 243e 80e2 343b d6a0 643c
000003b0: e7ce c73d 2685 973e 9f3b 10bb e41c 843c
000003c0: 3dc4 d630 e5cf 453e 3a16 5b3e e65a ad3d
000003d0: 0427 0e3e 51e3 953d 56ef 4b3d 64d1 30bc
000003e0: 95ab f23d 5c2f 783a 407f 962e c03e 123d
000003f0: cae5 dd3c 3b28 b53b 32e3 2a3e cdfb 2c3c
