code/save/model_beta_repr_5.pt (torch, 649964 bytes, 6 tensors)

embed.weight f4 [59, 256]
0.10130391 -0.19265644 0.049832344 0.022420393 -0.1728736 -0.2054478 0.20341352 0.040644117
0.056958582 -0.023977539 0.013114293 0.09938603 0.1618672 0.08278298 -0.027009895 -0.00209918
-0.12273384 -0.10785848 0.07793426 0.037161287 -0.21552427 0.03261721 0.055364553 0.16493727
0.06643976 0.12419271 -0.11181691 0.17340901 0.11410025 -0.064373665 0.11985739 -0.22712576
-0.07931482 0.099177875 -0.109919645 0.12663077 0.1669277 -0.1200285 0.061548118 -0.03516096
-0.16117615 -0.0730775 -0.1779857 -0.104606345 0.009187401 0.08789334 -0.12604423 0.07387264
-0.19472945 -0.017888013 -0.13429186 -0.088169366 0.14411543 0.19017714 0.17814513 -0.092556454
0.07482638 0.038909286 -0.06446492 -0.07440281 0.07455305 -0.11477814 -0.120098464 -0.08537734
-0.2009185 -0.21218929 0.1776784 -0.08942657 0.1148456 -0.034842096 -0.010621981 0.208875
0.09652255 0.15632497 0.12040612 -0.021214914 0.00940317 -0.04329993 -0.09078369 -0.09789361
0.12309652 0.07565169 -0.10191873 -0.1501214 0.043931235 0.06577579 0.20322926 -0.14616276
0.048231237 -0.0892934 0.05533614 0.109058864 0.07575189 0.18382342 0.017706132 -0.15698512
0.1877538 0.19258288 0.122230664 0.1577355 -0.028835978 0.14147428 0.11464126 0.033602864
0.15917103 -0.13584492 -0.17108667 -0.096916646 0.21700984 0.024002045 -0.058144122 0.1416103
-0.13437559 0.13469906 -0.1599346 0.14887221 -0.08170612 0.09476257 0.062190477 0.13477
-0.17821807 0.04114611 -0.1465619 -0.15047427 -0.07664538 0.16998094 -0.039058805 -0.08403958
-0.13295451 -0.20317104 0.19518162 -0.096319996 0.10724233 -0.07031259 -0.06799842 0.08437988
0.1097597 0.112472005 -0.16640346 -0.04061897 0.11220111 0.01957071 -0.0075519853 0.205637
0.18131863 0.21156995 -0.12171121 0.05908266 0.1808601 0.12820588 0.081131645 0.015510155
0.0500594 0.15224269 -0.11675909 -0.034333743 -0.029707616 -0.17806897 -0.045939915 0.1301027
-0.0013237977 -0.16440366 -0.09922199 -0.120370336 -0.023218986 -0.16451229 0.023290934 -0.1559816
0.22428687 -0.12291283 0.09086907 -0.13797805 0.06525823 0.020194814 -0.09932884 -0.18414456
-0.1087531 0.15019588 -0.10479185 -0.08816976 0.11765933 0.19956543 -0.07568516 -0.116620846
0.099408545 0.152016 0.037981313 -0.15203662 -0.039035004 0.03945758 0.104495004 -0.07472073
0.21315409 0.04167246 0.054865766 0.18649802 -0.075465366 0.11583104 -0.067040466 -0.12722288
-0.13376693 -0.10540164 0.03525478 0.11809166 0.14157547 0.09642983 -0.020410081 0.1025209
-0.032634504 -0.14793576 -0.078464344 -0.1370142 0.07966536 -0.15947425 -0.07673991 -0.033510506
-0.058157932 0.007924383 0.04052315 -0.0033196583 0.05039246 0.14820412 -0.048464473 -0.06885111
-0.12864004 0.1925243 0.13544682 -0.06460494 0.1314065 -0.17265338 -0.016647037 0.020758074
0.21580705 -0.20092033 -0.15791722 0.02785577 0.17862888 -0.062446363 0.075876676 0.13781929
-0.013151629 -0.116889395 0.09419091 0.20320329 -0.16162229 -0.087966114 -0.12527423 -0.010231832
0.051407646 -0.068113945 -0.027953636 -0.110548906 0.047406565 -0.18924335 0.03973913 -0.08123905
00000000: 6d78 cf3d bb47 45be 001d 4c3d f9aa b73c
00000010: c705 31be e860 52be a24b 503e 727a 263d
00000020: 674d 693d 8b6c c4bc 55dd 563c e78a cb3d
00000030: 84c0 253e 1f8a a93d db43 ddbc 6592 09bb
00000040: e15b fbbd e8e4 dcbd ff9b 9f3d 6f36 183d
00000050: 65b2 5cbe a099 053d f1c5 623d 51e5 283e
00000060: 9211 883d bf58 fe3d 4400 e5bd 2292 313e
00000070: 64ad e93d 57d6 83bd cb77 f53d a893 68be
00000080: cf6f a2bd c51d cb3d 8d1d e1bd 7fab 013e
00000090: 18ef 2a3e 81d1 f5bd e119 7c3d f004 10bd
000000a0: 5c0b 25be a8a9 95bd e241 36be da3b d6bd
000000b0: c186 163c 6c01 b43d bd11 01be 8a4a 973d
000000c0: 2867 47be e289 92bc ce83 09be 2492 b4bd
000000d0: ff92 133e ccbd 423e ad6b 363e 3d8e bdbd
000000e0: 933e 993d 585f 1f3d 2f06 84bd 8060 98bd
000000f0: 45af 983d cd10 ebbd 2ff6 f5bd 51da aebd
00000100: 94bd 4dbe 2648 59be 54f1 353e 4725 b7bd
00000110: 2c34 eb3d 96b6 0ebd d107 2ebc 54e3 553e
00000120: 9dad c53d a713 203e 7c97 f63d e6ca adbc
00000130: c10f 1a3c 445b 31bd cdec b9bd 727c c8bd
00000140: 071a fc3d 46ef 9a3d c4ba d0bd 6db9 19be
00000150: 3df1 333d 75b5 863d 551b 503e b1ab 15be
00000160: 1e8e 453d 75df b6bd 26a8 623d 415a df3d
00000170: cf23 9b3d 353c 3c3e 730c 913c b5c0 20be
00000180: 8842 403e 7234 453e 1254 fa3d 6a85 213e
00000190: 6e39 ecbc a2de 103e 09c9 ea3d 28a3 093d
000001a0: bbfd 223e ee1a 0bbe 5831 2fbe 3c7c c6bd
000001b0: d437 5e3e f09f c43c 8828 6ebd 4a02 113e
000001c0: c199 09be 8dee 093e e5c5 23be f571 183e
000001d0: 8a55 a7bd e112 c23d 71bb 7e3d 2601 0a3e
000001e0: cc7e 36be d388 283d 5314 16be ed15 1abe
000001f0: 41f8 9cbd 7c0f 2e3e 20fc 1fbd f11c acbd
00000200: 3a25 08be 120c 50be b1dd 473e 6b43 c5bd
00000210: dea1 db3d 0c00 90bd c142 8bbd 5ccf ac3d
00000220: b2c9 e03d b957 e63d ab65 2abe 1460 26bd
00000230: b2c9 e53d c152 a03c a576 f7bb 8192 523e
00000240: 97ab 393e cba5 583e ba43 f9bd a900 723d
00000250: 6433 393e 6748 033e 5928 a63d 4e1e 7e3c
00000260: 160b 4d3d 82e5 1b3e 641f efbd 8aa1 0cbd
00000270: 635d f3bc b657 36be 7e2b 3cbd a439 053e
00000280: 4883 adba 6f59 28be e634 cbbd b984 f6bd
00000290: be35 bebc e975 28be a1cc be3c a4b9 1fbe
000002a0: 75ab 653e b9b9 fbbd 9019 ba3d 1e4a 0dbe
000002b0: 1ba6 853d 986f a53c eb6c cbbd 6490 3cbe
000002c0: f2b9 debd f3cc 193e 1c9d d6bd 5992 b4bd
000002d0: 60f7 f03d e15a 4c3e d200 9bbd e9d6 eebd
000002e0: b596 cb3d 15aa 1b3e 4b92 1b3d 7daf 1bbe
000002f0: 2be3 1fbd 459e 213d 7a01 d63d 2f07 99bd
00000300: 1145 5a3e beb0 2a3d edba 603d 56f9 3e3e
00000310: 968d 9abd d338 ed3d 834c 89bd b746 02be
00000320: 33fa 08be d1dc d7bd 5167 103d 0ada f13d
00000330: 29f9 103e 017d c53d 0b33 a7bc 7af6 d13d
00000340: c2ab 05bd 797c 17be eab1 a0bd 734d 0cbe
00000350: 9827 a33d 384d 23be d029 9dbd 5042 09bd
00000360: 0337 6ebd 45d5 013c 9afb 253d a08e 59bb
00000370: 5368 4e3d d2c2 173e af82 46bd d001 8dbd
00000380: 37ba 03be 1725 453e 92b2 0a3e 984f 84bd
00000390: 6d8f 063e 0ccc 30be 5e5f 88bc d60c aa3c
000003a0: 86fc 5c3e 0fbe 4dbe 0db5 21be c931 e43c
000003b0: 7dea 363e c2c7 7fbd 3b65 9b3d 8020 0d3e
000003c0: ee79 57bc b563 efbd 2ae7 c03d 8614 503e
000003d0: 5080 25be 9427 b4bd e347 00be 6aa3 27bc
000003e0: d390 523d 537f 8bbd 06ff e4bc 7767 e2bd
000003f0: 632d 423d 02c9 41be 7fc5 223d a960 a6bd

unembed.weight f4 [59, 256]
0.2158181 -0.19434536 0.024052659 -0.032134693 0.13822383 -0.19420686 -0.21421097 -0.12688948
0.00941344 -0.00060479104 0.04489034 0.045202885 0.17547283 -0.07587868 -0.12909918 5.5404034e-20
-0.15818864 -0.17344888 -0.023809856 0.028413337 0.034387287 -0.0067801736 0.0640354 -0.08604745
0.09843408 0.077771984 -0.039878942 0.010093661 0.09496862 -0.22148143 -0.035494085 -0.009687203
-0.091748945 -0.12510951 -0.0068531446 0.040319297 -0.17642081 0.16235591 -0.12050029 -0.005603888
0.22139584 -0.20939939 0.16320154 0.11996832 -0.078890435 0.14377522 -0.028280325 -0.04156934
-0.09262477 -0.19476186 -0.034552567 0.087437615 0.18207312 0.032188706 -0.18047825 -0.0388822
-0.01710913 -0.2007279 -0.11952697 0.041578636 0.06358789 0.12051653 0.094162084 0.059866443
-0.17638476 -0.040629845 -0.11061492 -0.04869211 0.075857684 0.030597858 0.08264801 0.030202892
0.11545211 -0.19316024 0.06657127 -0.18533996 0.016831834 -0.13342622 -0.13267228 0.01697376
-0.15357356 -0.16846749 0.20956051 -0.16720556 0.15683937 0.026443636 -0.14860354 -0.094630174
-0.0775054 -0.13690811 0.05196546 0.027134294 0.21206354 -0.043458235 0.11347137 -0.05033783
0.108773164 0.054436434 0.12929969 0.08293746 0.1725066 -0.19038606 0.09550649 -0.13934977
0.20607416 0.07891237 -0.19032867 0.0044438513 0.16126424 0.09036865 -0.1873039 0.03765454
-0.0422784 0.032812316 -0.08908923 -0.069982305 -0.014500194 0.15679416 -0.0073394147 0.13140208
-0.089813456 -0.11441237 -0.10206513 0.08039237 -0.098021574 -0.015327701 0.1758612 -0.11911921
0.11909666 0.20423737 0.06897538 0.17226693 -0.018872345 -0.211155 0.082285844 0.14144294
-0.119143456 -0.107133865 -0.17579848 0.12831976 -0.08624692 -0.12129513 -0.09896806 0.01176936
0.15993255 0.121427044 0.16020319 -0.012134491 -0.09020756 -0.21399927 -0.011318662 -0.0518771
0.10999197 -0.016160931 0.016388934 -0.075574934 -0.08010069 0.17331937 0.080009446 0.19933474
-0.11692616 0.1548799 0.045333285 -0.056027997 -0.012622285 0.13737251 -0.021183353 -0.21003875
0.188776 -0.11619884 -0.17890018 0.08731568 0.061357144 0.10484988 -0.1305159 -0.034557603
0.117757544 0.23712483 -0.15000798 0.14063492 0.21718039 0.014553759 0.027886067 -0.17317887
0.09616088 0.012073536 0.012451332 0.23478623 -0.042272188 0.052772112 0.09442846 -0.09424742
-0.14572147 -0.119594246 -0.17954639 0.12825029 0.087358676 -0.101514466 0.091155924 0.14732695
-0.0053274278 0.048104014 0.06729329 -0.016358245 0.19155695 0.0886806 0.17713267 0.07571354
-0.11302554 0.058684994 -0.04062642 -0.051793102 -0.15790959 -0.008816389 0.1109294 -0.019663777
-0.037490327 -0.10233848 0.022556998 -0.054828737 -0.14567865 -0.061894722 0.014129025 0.011500846
-0.16489181 -0.06852501 -0.061134014 0.16069162 0.12610951 -0.028666478 0.27301294 -0.07217166
0.09613152 -0.08445987 -0.19355682 -0.14698182 -0.11481928 0.19038121 0.015556688 -0.026530826
0.20149463 0.05339975 -0.04587266 -0.08391527 -0.008002472 0.10637615 -0.064484216 -0.16598132
-0.11115613 0.12907843 0.06526522 -0.017941974 0.06964607 0.06326851 0.14375845 0.20395683
00000000: 6cff 5c3e 7802 47be 150a c53c ab9f 03bd
00000010: 8c8a 0d3e 2ade 46be 1f5a 5bbe 51ef 01be
00000020: d43a 1a3c d78a 1eba efde 373d a926 393d
00000030: 26af 333e 4866 9bbd 9332 04be afd1 821f
00000040: 34fc 21be 959c 31be e30c c3bc 16c3 e83c
00000050: afd9 0c3d 382c debb fe24 833d a539 b0bd
00000060: cf97 c93d eb46 9f3d 1a58 23bd e25f 253c
00000070: e87e c23d 07cc 62be 3f62 11bd 13b7 1ebc
00000080: dfe6 bbbd b51c 00be 5890 e0bb d925 253d
00000090: a8a7 34be a140 263e dbc8 f6bd d2a0 b7bb
000000a0: 97b5 623e cb6c 56be 4e1e 273e f3b1 f53d
000000b0: 4f91 a1bd d039 133e 24ac e7bc 9d44 2abd
000000c0: 0eb2 bdbd a76f 47be fe86 0dbd 7e12 b33d
000000d0: 6071 3a3e 4ed8 033d 4acf 38be f142 1fbd
000000e0: 7228 8cbc 9d8b 4dbe 8eca f4bd 5c4e 2a3d
000000f0: 5e3a 823d 5fd1 f63d 0dd8 c03d 8436 753d
00000100: 359e 34be 7b6b 26bd 138a e2bd 6171 47bd
00000110: 465b 9b3d 5ca8 fa3c 5c43 a93d 0e6c f73c
00000120: 2872 ec3d cccb 45be 8556 883d c2c9 3dbe
00000130: eae2 893c e2a0 08be 3edb 07be 8e0c 8b3c
00000140: 6342 1dbe be82 2cbe 0897 563e ef37 2bbe
00000150: 809a 203e 53a0 d83c 872b 18be 77cd c1bd
00000160: 27bb 9ebd a431 0cbe bcd9 543d bd48 de3c
00000170: 2f27 593e 4301 32bd ad63 e83d 0a2f 4ebd
00000180: 77c4 de3d bdf8 5e3d 2367 043e 1ddb a93d
00000190: 92a5 303e 90f4 42be e898 c33d b5b1 0ebe
000001a0: 1b05 533e cf9c a13d 85e5 42be ba9d 913b
000001b0: 7422 253e 3313 b93d 98cc 3fbe a63b 1a3d
000001c0: 1e2c 2dbd 3566 063d 6a74 b6bd e252 8fbd
000001d0: 3992 6dbc a68e 203e 797f f0bb 448e 063e
000001e0: 1ef0 b7bd 0851 eabd 8607 d1bd c1a4 a43d
000001f0: 89bf c8bd 0a21 7bbc f514 343e c6f4 f3bd
00000200: f3e8 f33d 9a23 513e f742 8d3d be66 303e
00000210: 2d9a 9abc 0439 58be 7b85 a83d 6bd6 103e
00000220: 7c01 f4bd 0069 dbbd 8404 34be 4166 033e
00000230: 3aa2 b0bd 9569 f8bd c4af cabd 46d4 403c
00000240: 5cc5 233e beae f83d 4e0c 243e becf 46bc
00000250: bebe b8bd a022 5bbe e971 39bc 157d 54bd
00000260: 7843 e13d ee63 84bc 1642 863c 08c7 9abd
00000270: d50b a4bd a27a 313e fedb a33d 681e 4c3e
00000280: fc76 efbd d698 1e3e 65af 393d 9d7d 65bd
00000290: b3cd 4ebc 61ab 0c3e b688 adbc 6614 57be
000002a0: 7f4e 413e a8f9 edbd 9c31 37be 90d2 b23d
000002b0: a151 7b3d 89bb d63d f6a5 05be 468c 0dbd
000002c0: de2a f13d dad0 723e b19b 19be 9a02 103e
000002d0: 8964 5e3e e472 6e3c 5271 e43c cd55 31be
000002e0: ffef c43d 15d0 453c ac00 4c3c cd6b 703e
000002f0: 9a25 2dbd 9227 583d b563 c13d cb04 c1bd
00000300: 0238 15be d4ed f4bd 02db 37be 0b54 033e
00000310: 1be9 b23d d1e6 cfbd f5af ba3d e0dc 163e
00000320: b491 aebb b708 453d 10d1 893d ba01 86bc
00000330: 8127 443e 2d9e b53d 4462 353e b30f 9b3d
00000340: ef79 e7bd ad5f 703d e467 26bd 0125 54bd
00000350: 0db3 21be 9e72 10bc f42e e33d ee15 a1bc
00000360: 758f 19bd d696 d1bd 74c9 b83c 1994 60bd
00000370: c92c 15be 5285 7dbd 6d7d 673c 0b6e 3c3c
00000380: 66d9 28be d756 8cbd a967 7abd 588c 243e
00000390: da22 013e f6d5 eabc 5ac8 8b3e bcce 93bd
000003a0: 9ae0 c43d 4cf9 acbd c233 46be 6782 16be
000003b0: 5f26 ebbd 4bf3 423e 7be1 7e3c 2d57 d9bc
000003c0: 9c54 4e3e b2b9 5a3d f8e4 3bbd c5db abbd
000003d0: cd1c 03bc bddb d93d 4d10 84bd 02f7 29be
000003e0: d3a5 e3bd 232d 043e c6a9 853d 0cfb 92bc
000003f0: 99a2 8e3d ec92 813d 6a35 133e 0fda 503e

l1.weight f4 [256, 256]
-0.123881534 0.12512746 -0.019332673 -0.0017058623 -0.00255824 0.108438514 -0.110374995 0.14093073
-0.012929939 0.103122815 -0.061468914 -0.048201542 -0.030056223 0.0075245686 0.11546967 -0.092590205
0.09075755 0.097851336 0.032704677 -0.10116876 0.10440203 0.13818023 0.057970747 -0.09547857
0.06689077 0.053988196 -0.032195803 -0.046300296 0.053187795 -0.07972315 -0.021320805 -0.0023625689
-0.1036983 0.09951682 -0.09177052 -0.08916366 -0.016569525 0.10196249 0.13676716 -0.116091706
-0.008348957 0.043395586 0.06262546 -0.11997517 0.10059266 0.14546795 0.010306535 -0.060966562
-0.024521727 0.08393564 0.0758873 -0.0586077 -0.10334311 -0.036651537 -0.09674876 -0.033821844
0.03254261 0.008797997 0.09848185 0.06786831 -0.065915525 0.048230324 0.10423959 0.12454669
0.09693525 -0.06873966 -0.06697909 0.0880237 -0.030099073 -0.09739421 -0.08701009 -0.013737984
0.06740532 -0.013093095 0.04824388 0.05181105 -0.10475682 -0.010075584 0.064047456 -0.110096894
-0.08980284 0.036495827 0.010096522 -0.026681742 -0.10066164 0.0042788982 -0.036368236 0.10622863
-0.08300821 -0.10799851 -0.1135358 -0.10632107 -0.068413846 -0.06907306 0.12096761 0.0020540883
0.083901614 -0.117756516 0.13990974 -0.042985 0.08332498 0.06451006 0.06391857 0.039276794
-0.1192831 -0.08511262 0.048397705 -0.06622169 0.1259533 0.07178429 0.020765401 0.05349747
-0.1229243 -0.03411153 -0.1128289 -0.117160775 -0.07170407 0.041036032 0.081402846 -0.119794644
0.06833753 -0.07894092 -0.14207627 -0.025258409 -0.10659568 -0.10919546 -0.057634003 -0.055292815
0.03240927 -0.07743264 0.078554176 0.0010102637 -0.0196048 -0.11843596 0.09129528 0.1356706
0.051486194 0.13337885 -0.09621279 0.079016685 -0.02455538 0.027926542 -0.07369037 -0.06707606
0.10384502 0.060996715 -0.00081204966 0.0014555932 -0.0848817 0.136123 -0.07589731 0.0094074095
-0.058336876 -0.11470237 -0.04477532 0.09441491 -0.038536187 0.07438664 -0.061831925 0.07416698
0.043194994 0.09464016 0.16353904 0.0033287131 -0.12194533 0.11851808 0.1090053 -0.095781
-0.12235182 0.10046624 -0.16300648 0.05365962 0.105725795 0.10311197 -0.10901322 -0.090649925
-0.026695974 -0.045452643 -0.082206875 0.053642046 0.013069674 0.050779432 0.16356094 0.0234048
-0.027261147 0.031902112 -0.14676125 0.0030575513 0.10007552 -0.06617963 -0.13256106 0.0025338898
0.016652515 -0.1016596 -0.09828316 -0.11507275 0.022701256 -0.060023826 -0.07071156 -0.019302007
0.05367016 0.08026335 -0.048255045 -0.13746038 -0.09566708 0.06703718 -0.13385323 -0.0026492043
0.114720926 0.004208435 0.053735804 0.06930423 0.021175656 -0.063702 -0.0022755144 0.07716892
0.0050274204 0.13988462 -0.080181524 -0.061375733 0.048341267 -0.07056519 -0.05581464 -0.07294564
-0.103265256 0.032052953 -0.054846283 -0.106719665 0.032037403 0.0912083 -0.035418358 0.045327753
-0.029431663 -0.018532507 -0.08540756 0.018518517 -0.09757274 0.081127115 -0.050593678 0.054213297
0.12963673 0.11409761 0.11532716 -0.12413444 0.0025153698 0.025966829 0.020005684 -0.15181029
-0.053834327 -0.08226142 0.082962275 0.077241845 0.12394669 0.0804307 0.041194167 0.011523696
00000000: 9ab5 fdbd 6a21 003e 8e5f 9ebc 3e97 dfba
00000010: 25a8 27bb 0315 de3d 490c e2bd 2550 103e
00000020: 18d8 53bc 0e32 d33d d4c6 7bbd fb6e 45bd
00000030: 7838 f6bc a890 f63b 5d7b ec3d ef9f bdbd
00000040: 18df b93d 4866 c83d 57f5 053d 9131 cfbd
00000050: bbd0 d53d 1e7f 0d3e bc72 6d3d 458a c3bd
00000060: 07fe 883d ba22 5d3d bfdf 03bd 61a5 3dbd
00000070: 72db 593d e445 a3bd f8a8 aebc 54d5 1abb
00000080: c65f d4bd 79cf cb3d 2ff2 bbbd 709b b6bd
00000090: d0bc 87bc b6d1 d03d b10c 0c3e 7dc1 edbd
000000a0: 10ca 08bc 92bf 313d c741 803d 8bb5 f5bd
000000b0: 8603 ce3d 8df5 143e bedc 283c 13b8 79bd
000000c0: cae1 c8bc 73e6 ab3d cd6a 9b3d a10e 70bd
000000d0: 8da5 d3bd ec1f 16bd 3724 c6bd c688 0abd
000000e0: 664b 053d 7925 103c dab0 c93d 8afe 8a3d
000000f0: b8fe 86bd 298d 453d 917b d53d 5612 ff3d
00000100: fd85 c63d 61c7 8cbd 552c 89bd c545 b43d
00000110: 5592 f6bc 9e76 c7bd 5932 b2bd 4815 61bc
00000120: cd0b 8a3d 6c84 56bc 609b 453d d337 543d
00000130: be8a d6bd 1014 25bc 502b 833d 7b7a e1bd
00000140: 8dea b7bd a67c 153d e26b 253c ab93 dabc
00000150: b127 cebd 0036 8c3b dcf6 14bd 658e d93d
00000160: 3500 aabd 532e ddbd 7585 e8bd dcbe d9bd
00000170: 8f1c 8cbd 2d76 8dbd debd f73d e29d 063b
00000180: 9cd4 ab3d 542a f1bd 8044 0f3e 0a11 30bd
00000190: 4aa6 aa3d da1d 843d bde7 823d b4e0 203d
000001a0: b34a f4bd 864f aebd ac3c 463d 3d9f 87bd
000001b0: e7f9 003e a403 933d 341c aa3c 2a20 5b3d
000001c0: bcbf fbbd 88b8 0bbd d712 e7bd fdf1 efbd
000001d0: 95d9 92bd 6615 283d 89b6 a63d e556 f5bd
000001e0: 8cf4 8b3d c7ab a1bd 717c 11be b9ea cebc
000001f0: d64e dabd dfa1 dfbd a211 6cbd b87a 62bd
00000200: 95bf 043d 0195 9ebd 03e1 a03d d36a 843a
00000210: 3f9a a0bc 8d8e f2bd 05f9 ba3d 3ced 0a3e
00000220: 30e3 523d 7794 083e 360b c5bd 80d3 a13d
00000230: 5d28 c9bc 34c6 e43c faea 96bd 2c5f 89bd
00000240: b3ac d43d b1d7 793d bbdf 54ba 9ac9 be3a
00000250: 75d6 adbd d463 0b3e 0d70 9bbd 8921 1a3c
00000260: a6f2 6ebd 13e9 eabd 5366 37bd 9b5c c13d
00000270: 1fd8 1dbd 0658 983d 7943 7dbd dce4 973d
00000280: 3ced 303d b3d2 c13d c776 273e 8a26 5a3b
00000290: 79be f9bd 9bb9 f23d 2c3e df3d d428 c4bd
000002a0: 9793 fabd 3ec1 cd3d 2ceb 26be 31ca 5b3d
000002b0: c486 d83d 5e2c d33d 5342 dfbd aba6 b9bd
000002c0: 84b1 dabc 8d2c 3abd 145c a8bd c3b7 5b3d
000002d0: 3022 563c 18fe 4f3d 857c 273e 6cbb bf3c
000002e0: c552 dfbc caab 023d 9548 16be 3361 483b
000002f0: 65f4 cc3d 3089 87bd 16be 07be 9e0f 263b
00000300: db6a 883c e932 d0bd ae48 c9bd 43ab ebbd
00000310: fcf7 b93c 8bdb 75bd 39d1 90bd 3e1f 9ebc
00000320: 3ed5 5b3d 1c61 a43d 15a7 45bd 6ac2 0cbe
00000330: 1aed c3bd ca4a 893d d210 09be 469e 2dbb
00000340: cef2 ea3d e9e6 893b 131a 5c3d 60ef 8d3d
00000350: 9278 ad3c 3276 82bd cc20 15bb bd0a 9e3d
00000360: 0fbd a43b ea3d 0f3e 3636 a4bd 1f65 7bbd
00000370: 7e01 463d 7b84 90bd e49d 64bd 8664 95bd
00000380: bc7c d3bd f549 033d 7fa6 60bd d78f dabd
00000390: a739 033d 6bcb ba3d d712 11bd 98a9 393d
000003a0: ac1a f1bc 7cd1 97bc 29ea aebd 25b4 973c
000003b0: 37d4 c7bd f925 a63d 513b 4fbd c30e 5e3d
000003c0: 7ebf 043e 02ac e93d a530 ec3d 333a febd
000003d0: e7d8 243b 63b8 d43c f6e2 a33c 2874 1bbe
000003e0: 6281 5cbd ad78 a8bd 20e8 a93d f930 9e3d
000003f0: c3d7 fd3d dab8 a43d 37bb 283d e2cd 3c3c

l1.bias f4 [256]
0.14824572 0.096401684 0.20431001 0.031555217 0.19672036 0.15882947 0.14272939 0.18743174
0.18001994 0.121443875 0.15277162 0.016559968 0.070711195 0.08063972 0.14697772 0.114975885
0.2345253 0.06674361 0.10390529 0.20076151 0.13063172 0.11154539 0.1751594 0.18823048
0.1471816 0.17758709 0.18083893 0.02165004 0.15633458 0.18299673 0.042543758 0.07225302
0.025061527 0.11614629 0.03217561 0.0066056503 0.14117889 0.011937225 0.0143236 0.009833127
0.19924854 0.20205833 0.13907075 0.17105211 0.16319394 0.0064325845 0.19028656 0.17559247
0.17574894 0.18517198 0.1374585 0.17004174 0.16644962 0.1224125 0.16880082 0.11133957
0.18598527 0.18205746 0.1593438 0.17600575 0.13212162 0.05652146 0.033754043 0.05514567
0.067976244 0.007448157 0.1189633 0.13291182 0.16088317 0.12838444 0.19162972 0.074382685
0.018714515 0.17998031 0.09784234 0.16679431 0.17979153 0.17392612 0.16093113 0.16875026
0.031015333 0.17746302 0.03872199 0.15613759 0.1413347 0.121148765 0.1342849 0.18331197
0.11201197 0.1678905 0.06904577 0.18191282 0.0229455 0.121083595 0.06095312 0.15851273
0.17014985 0.13341898 0.010186233 0.16592212 0.16117883 0.18934898 0.19573621 0.19959772
0.17416966 0.1906546 0.13322188 0.1531487 0.17253041 0.18846323 0.19672607 0.1501279
0.09961602 0.011734213 0.17385119 0.1676073 0.06727019 0.17781828 0.10652403 0.15767932
0.11542658 0.16199361 0.16897833 0.16458291 0.1608077 0.06884897 0.17956042 0.12524003
0.17298755 0.028497007 0.17040619 0.12696631 0.14764436 0.20731203 0.18361114 0.1790963
0.15786962 0.032442696 0.01736633 0.09034968 0.13344494 0.1027228 0.15416542 0.120898806
0.16927247 0.17764519 0.113961264 0.12128821 0.12755752 0.16942085 0.053112485 0.17360587
0.1031058 0.16807292 0.14584321 0.015651569 0.15633056 0.032772277 0.19418396 0.17461869
0.13685554 0.07362421 0.04984624 0.12332627 0.16631733 0.043939907 0.108981445 0.12340825
0.17222744 0.17509441 0.14019184 0.087398656 0.15679069 0.15244779 0.1679628 0.15823436
0.105439395 0.13242833 0.18222542 0.11855513 0.12997061 0.19009872 0.13860671 0.12844516
0.16849905 0.11329229 0.123833194 0.0023417366 0.19371389 0.00853982 0.17516863 0.13923922
0.15237741 0.009430826 0.0011258546 0.2040012 0.010526943 0.1099024 0.16682936 0.13775669
0.16589685 0.012407563 0.17416559 0.008230988 0.19561031 0.16972487 0.18417786 0.12682831
0.00999282 0.13566165 0.14313331 0.15883906 0.16884167 0.15483366 0.1417556 0.060838167
0.17561373 0.11258387 0.1154867 0.16942419 0.008081976 0.121570185 0.20514591 0.19114098
0.1208356 0.17085554 0.013427004 0.17581305 0.03497667 0.16639756 0.17861049 0.090130925
0.113921896 0.14159022 0.14966853 0.18560003 0.1416905 0.17925319 0.10857386 0.16553497
0.04175807 0.16164163 0.15760018 0.20064865 0.05320339 0.005476079 0.1518148 0.06890998
0.14994462 0.14588083 0.17263576 0.18832181 0.19562218 0.04152375 0.18721269 0.16198151
00000000: bacd 173e 3f6e c53d a536 513e 0b40 013d
00000010: 1071 493e 31a4 223e a727 123e 1bee 3f3e
00000020: 2657 383e 91b7 f83d 2a70 1c3e c5a8 873c
00000030: 08d1 903d 7026 a53d 5481 163e 7a78 eb3d
00000040: 6627 703e e0b0 883d 4ccc d43d 6d94 4d3e
00000050: 52c4 053e e971 e43d fc5c 333e 7ebf 403e
00000060: c6b6 163e 64d9 353e d72d 393e 6d5b b13c
00000070: 2c16 203e 7f63 3b3e 5d42 2e3d 64f9 933d
00000080: d54d cd3c 1bde ed3d 93ca 033d 3674 d83b
00000090: 3391 103e 5a94 433c 88ad 6a3c 201b 213c
000000a0: cf07 4c3e 61e8 4e3e 9068 0e3e 4928 2f3e
000000b0: 501c 273e 6ec8 d23b 7bda 423e 83ce 333e
000000c0: 88f7 333e b99d 3d3e ecc1 0c3e 6c1f 2e3e
000000d0: c571 2a3e 68b3 fa3d 1fda 2c3e 0006 e43d
000000e0: ec72 3e3e 456d 3a3e 052b 233e da3a 343e
000000f0: e44a 073e 0c83 673d ae41 0a3d 6de0 613d
00000100: 2137 8b3d ab0f f43b 08a3 f33d 091a 083e
00000110: 8fbe 243e 3677 033e 953a 443e f355 983d
00000120: 2f4f 993c c24c 383e 9161 c83d 21cc 2a3e
00000130: 451b 383e b019 323e 21cb 243e decc 2c3e
00000140: de13 fe3c deb8 353e f39a 1e3d 88e2 1f3e
00000150: 0bba 103e d81c f83d fb81 093e 22b6 3b3e
00000160: 8866 e53d 7deb 2b3e de67 8d3d 5b47 3a3e
00000170: 34f8 bb3c adfa f73d fba9 793d 2951 223e
00000180: c33b 2e3e fc9e 083e 28e4 263c 7de7 293e
00000190: 100c 253e b3e4 413e 136f 483e 5863 4c3e
000001a0: 8859 323e f63a 433e 516b 083e 03d3 1c3e
000001b0: d0ab 303e 81fc 403e 8f72 493e 21bb 193e
000001c0: 7c03 cc3d db40 403c 0c06 323e 40a1 2b3e
000001d0: f4c4 893d ff15 363e 4529 da3d b076 213e
000001e0: c564 ec3d a7e1 253e a808 2d3e 6c88 283e
000001f0: c6aa 243e b000 8d3d b0de 373e ec3e 003e
00000200: a623 313e 8e72 e93c f67e 2e3e 7503 023e
00000210: 1530 173e 9b49 543e 8f04 3c3e 0565 373e
00000220: 93a8 213e a2e2 043d d543 8e3c 4109 b93d
00000230: caa5 083e 5560 d23d 8add 1d3e cb99 f73d
00000240: c355 2d3e 9fe8 353e 8664 e93d f465 f83d
00000250: 709e 023e a97c 2d3e 7a8c 593d bdc5 313e
00000260: 2229 d33d 4f1b 2c3e ec57 153e b837 803c
00000270: 1e15 203e 393c 063d 29d8 463e 3ecf 323e
00000280: dc23 0c3e 4ac8 963d 922b 4c3d 7c92 fc3d
00000290: 174f 2a3e 55fa 333d aa31 df3d 77bd fc3d
000002a0: 645c 303e f34b 333e 738e 0f3e 11fe b23d
000002b0: bd8d 203e 461b 1c3e 71fe 2b3e 3008 223e
000002c0: 9cf0 d73d 4b9b 073e 4d99 3a3e 08cd f23d
000002d0: 0417 053e 3da9 423e ebee 0d3e 2187 033e
000002e0: 048b 2c3e ca05 e83d 429c fd3d d277 193b
000002f0: ef5c 463e 9aea 0b3c 685f 333e ba94 0e3e
00000300: d308 1c3e c083 1a3c 6991 933a b1e5 503e
00000310: 3379 2c3c 8214 e13d 51d5 2a3e 1710 0d3e
00000320: dde0 293e 1749 4b3c 7758 323e 44db 063c
00000330: 124e 483e 5bcc 2d3e 1f99 3c3e 48df 013e
00000340: edb8 233c e3ea 0a3e 8a91 123e b5a6 223e
00000350: d5e4 2c3e b78c 1e3e 6128 113e 7131 793d
00000360: 16d4 333e 5f92 e63d 4a84 ec3d 897d 2d3e
00000370: 446a 043c caf9 f83d c511 523e 76ba 433e
00000380: a878 f73d c1f4 2e3e f0fc 5b3c 5608 343e
00000390: b243 0f3d 1f64 2a3e abe5 363e 9096 b83d
000003a0: e24f e93d 07fd 103e b542 193e ef0d 3e3e
000003b0: 5017 113e 268e 373e f95b de3d 0082 293e
000003c0: 830a 2b3d 6285 253e f161 213e d776 4d3e
000003d0: cceb 593d ae70 b33b 5775 1b3e ad20 8d3d
000003e0: 158b 193e c961 153e 6ec7 303e 6fd7 403e
000003f0: 2e51 483e cf14 2a3d afb4 3f3e 7bde 253e

l2.weight f4 [256, 256]
0.07639465 0.09111372 0.08765579 -0.025601922 0.20346676 -0.00865985 0.012204239 0.056956507
0.1382655 0.044219036 -0.0914346 -0.0043625063 -0.02084823 -0.039475147 -0.087824814 -0.091229685
0.06443553 0.03626672 -0.06449845 0.065416366 0.07037655 0.0012845001 0.004206022 0.13257799
0.10332256 -0.020525347 -0.06943891 0.004724547 -0.0030697777 0.18763633 -0.037395034 -0.029212978
-0.01247196 -0.008687462 0.013086563 0.0005438286 0.076919034 -0.004783521 0.0032211088 0.0012143876
-0.014787881 -0.07996693 -0.01686548 0.0208228 0.0924844 0.007737674 -0.02077711 0.039207306
0.06879391 0.014524142 -0.01661441 -0.0051108864 0.19051059 0.07865951 0.020261973 0.013131838
0.12598144 -0.049154285 -0.061885078 0.091756016 -0.076845564 -0.034044005 -0.009352836 0.018664395
0.06355625 -0.0036556209 0.021967787 -0.05761153 -0.13537768 -0.01613095 0.16222203 0.009341884
0.007443256 0.12618773 0.10079502 0.10835948 -0.02274627 0.00024390487 -0.08368613 0.16005382
0.019109134 -0.15167905 0.019117124 0.074626975 0.02628329 0.09310958 0.094057225 -0.105669186
-0.046477117 -0.16118017 -0.036717843 -0.08242512 0.0031471397 0.06797126 0.0300305 -0.016828647
-0.012294751 0.008462684 -0.006082537 0.12493508 0.12277233 -0.10962297 0.027170112 0.19364733
0.010504195 -0.038925707 -0.007923299 -0.005353766 -0.013971566 -0.008464835 0.12235299 0.07365169
-0.03017794 -0.0042111934 -0.106596746 0.15941137 -0.056605846 0.061260894 -0.046823006 0.021435697
0.114020765 0.01439768 0.14501712 -0.15869774 0.07703598 -0.016007245 -0.016345248 -0.017422736
0.02048282 -0.028468955 0.039757345 0.09537679 0.11044258 0.016509483 0.12328834 -0.11626838
0.121623985 0.0023691277 -0.0075190454 0.09388662 0.0056116246 -0.04046323 -0.051076222 0.060228888
0.18710974 -0.079375386 0.08488193 0.012922681 -0.0219497 0.17392054 -0.03165082 0.14602193
-0.019358683 -0.09308068 0.09537804 0.008722251 -0.07415498 0.029807987 0.034687176 0.012698856
0.07572422 0.032907877 0.00785812 0.035768345 0.07208117 0.015804084 0.12766066 0.057987098
-0.021943573 0.05506161 0.067962 -0.026090102 -0.08580807 0.050040174 -0.101930104 0.09798009
-0.06706306 0.051976264 -0.034864336 0.08973948 0.017858682 -0.17056173 -0.0754256 0.10667574
0.13505346 -0.05800025 -0.023187038 0.0007551703 -0.07342196 0.003499635 -0.13832927 0.10846268
-0.14545333 0.0064333915 0.00010922256 0.13708307 0.007488552 -0.11316685 0.07549263 -0.0018773035
-0.113047495 0.0035931366 -0.09546905 -0.0070726336 0.13226031 0.06274682 -0.0929263 -0.08723406
0.0067849196 -0.06120121 0.10971689 0.08088207 0.1853174 -0.13397972 -0.08232558 0.033821236
0.055666402 -0.0760779 -0.013686717 0.05051152 -0.0026501983 0.02534523 -0.061520316 0.18042889
-0.07742589 -0.07986157 -0.0067559713 0.10999872 0.01953892 -0.018078608 0.009944222 0.07960733
0.047832992 -0.01585976 0.054984935 0.08437587 0.059222147 -0.0058909436 0.04683067 -0.030237492
0.02117985 0.00882976 0.11631807 0.11377843 0.039883062 0.004230562 -0.0074481824 -0.028184906
0.042628303 0.12660994 -0.0739242 0.020986412 0.14351858 0.00955309 -0.1659479 0.036896355
00000000: cc74 9c3d d499 ba3d e184 b33d 1fbb d1bc
00000010: 9759 503e 0be2 0dbc 4af4 473c 3a4b 693d
00000020: 7995 0d3e 051f 353d 1042 bbbd 5bf3 8ebb
00000030: e8c9 aabc b1b0 21bd 7fdd b3bd a1d6 babd
00000040: c6f6 833d 6a8c 143d c317 84bd 04f9 853d
00000050: 9521 903d ac5c a83a abd2 893b 86c2 073e
00000060: c79a d33d c624 a8bc fd35 8ebd 5fd0 9a3b
00000070: 532e 49bb bd23 403e 892b 19bd 0e50 efbc
00000080: 3157 4cbc db55 0ebc 0669 563c b88f 0e3a
00000090: ba87 9d3d 15bf 9cbb 3d19 533b 162c 9f3a
000000a0: de48 72bc b4c5 a3bd 7a29 8abc 9494 aa3c
000000b0: 7668 bd3d 508c fd3b c234 aabc d797 203d
000000c0: d2e3 8c3d abf6 6d3c f11a 88bc 3979 a7bb
000000d0: 3515 433e 3d18 a13d 70fc a53c ec26 573c
000000e0: 4701 013e 0156 49bd 357b 7dbd 94ea bb3d
000000f0: 3561 9dbd ba71 0bbd a33c 19bc 13e6 983c
00000100: c729 823d 2493 6fbb caf5 b33c 11fa 6bbd
00000110: 72a0 0abe 0e25 84bc 881d 263e b40e 193c
00000120: 8fe6 f33b 5b37 013e 9f6d ce3d 93eb dd3d
00000130: 6356 babc b7c0 7f39 a263 abbd 26e5 233e
00000140: c28a 9c3c c151 1bbe 849b 9c3c 07d6 983d
00000150: 0e50 d73c 3cb0 be3d 13a1 c03d 1669 d8bd
00000160: ca5e 3ebd 6a0c 25be 7365 16bd 80ce a8bd
00000170: 3e40 4e3b 8434 8b3d 8602 f63c 3bdc 89bc
00000180: ec6f 49bc 12a7 0a3c 0550 c7bb f7dd ff3d
00000190: 0f70 fb3d 0282 e0bd db93 de3c 7c4b 463e
000001a0: c919 2c3c 9070 1fbd bad0 01bc a56e afbb
000001b0: ffe8 64bc 17b0 0abc 3494 fa3d b2d6 963d
000001c0: ba37 f7bc 0dfe 89bb 654f dabd bc3c 233e
000001d0: 88db 67bd b4ec 7a3d 7bc9 3fbd ea99 af3c
000001e0: b883 e93d 3fe4 6b3c 5e7f 143e a981 22be
000001f0: 0ac5 9d3d a021 83bc 78e6 85bc 20ba 8ebc
00000200: 96cb a73c ba37 e9bc 99d8 223d e854 c33d
00000210: b82f e23d e53e 873c 997e fc3d 1e1e eebd
00000220: ff15 f93d 5e43 1b3b 5362 f6bb a147 c03d
00000230: b8e1 b73b c6bc 25bd 4d35 51bd 91b2 763d
00000240: b299 3f3e 908f a2bd 94d6 ad3d a7b9 533c
00000250: dbcf b3bc 3a18 323e 4aa4 01bd c686 153e
00000260: 1a96 9ebc 15a1 bebd 9055 c33d c6e7 0e3c
00000270: 91de 97bd e12f f43c 2414 0e3d dd0e 503c
00000280: 4d15 9b3d 69ca 063d 58bf 003c d481 123d
00000290: 4b9f 933d 9177 813c 7ab9 023e e183 6d3d
000002a0: 02c3 b3bc 4888 613d a92f 8b3d e9ba d5bc
000002b0: 24bc afbd edf6 4c3d bbc0 d0bd c9a9 c83d
000002c0: 5c58 89bd 10e5 543d e8cd 0ebd 55c9 b73d
000002d0: 5f4c 923c bca7 2ebe bd78 9abd cf78 da3d
000002e0: 744b 0a3e ac91 6dbd bef2 bdbc 9ff6 453a
000002f0: 415e 96bd 225a 653b 30a6 0dbe ae21 de3d
00000300: b8f1 14be 33cf d23b 6a0e e538 815f 0c3e
00000310: 8762 f53b 05c4 e7bd e19b 9a3d da0f f6ba
00000320: 7285 e7bd d47a 6b3b 4785 c3bd 8dc1 e7bb
00000330: 3f6f 073e 6881 803d 2550 bebd c5a7 b2bd
00000340: 0854 de3b 1fae 7abd 40b3 e03d 80a5 a53d
00000350: d8c3 3d3e fb31 09be 509a a8bd 2388 0a3d
00000360: 7402 643d bbce 9bbd 403e 60bc 2be5 4e3d
00000370: f3ae 2dbb cda0 cf3c bafc 7bbd 5ac2 383e
00000380: 7791 9ebd 768e a3bd 3261 ddbb 0247 e13d
00000390: 1610 a03c 9719 94bc 17ed 223c 2b09 a33d
000003a0: 87ec 433d 54ec 81bc e237 613d 42cd ac3d
000003b0: ec92 723d d108 c1bb 84d1 3f3d 9eb4 f7bc
000003c0: 5d81 ad3c b3aa 103c 2b38 ee3d aa04 e93d
000003d0: 6c5c 233d 87a0 8a3b e20f f4bb 08e4 e6bc
000003e0: 049b 2e3d 09a6 013e 9265 97bd b2eb ab3c
000003f0: 89f6 123e 9084 1c3c 3fee 29be a220 173d

l2.bias f4 [256]
0.068275444 0.0655329 0.05582197 0.04968876 0.06184939 0.07361942 0.06251416 0.0573974
0.047248483 0.055008456 0.052727036 0.060152512 0.04072899 0.06158034 0.03885169 -2.3201912e-19
0.057464004 0.050779257 0.051429894 0.06286489 0.053261768 0.06630378 0.047632296 0.047385707
0.050820697 0.062291402 0.06292759 0.06675666 0.05002294 0.06322361 0.064109616 0.058226746
0.056275662 0.043434646 0.04920566 0.06388229 0.053033955 0.062923655 0.066197366 0.035703324
0.063004114 0.056408454 0.045853 0.044368666 0.05469211 0.04507267 0.035014436 0.041453674
0.047156706 0.06038864 0.053503394 0.06069439 0.052750092 0.056976248 0.054589476 0.05719342
0.06785498 0.053950917 0.04716026 0.042679925 0.048750993 0.060071755 0.051994957 0.04976958
0.051963117 0.05764808 0.05050015 0.04925126 0.05492157 0.053295597 0.050571494 0.056260657
0.030346118 0.061258253 0.054797076 0.06280119 0.071167715 0.058604565 0.053380564 0.042593237
0.07212388 0.054350175 0.056096185 0.045942247 0.0419335 0.07189515 0.04741803 0.04555113
0.07264084 0.0515161 0.062611714 0.055544365 0.05574768 0.0535326 0.060715992 0.045109905
0.049687374 0.043278396 0.051976092 0.050821625 0.038884398 0.04748604 0.052171968 0.055792216
0.05332765 0.057542846 0.062165733 0.06398776 0.059553977 0.07046057 0.05407733 0.047957294
0.054596245 0.06442785 0.04142513 0.059088707 0.06416105 0.047010623 0.03297881 0.060334124
0.062380187 0.044077586 0.04314043 0.051188473 0.043805093 0.059296057 0.061244264 0.06487123
0.06243466 0.05761529 0.039793428 0.05833923 0.061645903 0.0709345 0.057188742 0.04837286
0.061862126 0.0500936 0.050213035 0.054833353 0.06006149 0.05942545 0.056533813 0.070769235
0.056912094 0.058348477 0.048886076 0.056660075 0.047252033 0.072374694 0.051823214 0.047442038
0.063097365 0.05273763 0.0455391 0.042890813 0.054690834 0.055821463 0.052689828 0.066313945
0.058582105 0.047575373 0.05508009 0.050320584 0.052052785 0.05667949 0.030843 0.06080158
0.042041376 0.047341768 0.049811736 0.06303587 0.062036455 0.054020733 0.06311768 0.04651814
0.04987849 0.045679912 0.045661848 0.06001653 0.06893282 0.046269856 0.066135645 0.057804573
0.061330464 0.049086377 0.044882517 0.064226426 0.041153125 0.03968358 0.059643004 0.0545099
0.054444246 0.04947905 0.06127684 0.047143348 0.04299342 0.059353855 0.05373396 0.051846605
0.048561923 0.06191224 0.0710138 0.054580454 0.05413216 0.052444212 0.041225623 0.05952422
0.06404341 0.04380916 0.047327444 0.054663118 0.05098014 0.045125347 0.03829942 0.061444364
0.04578277 0.04744336 0.040679704 0.050532985 0.04988386 0.047580652 0.053164605 0.05067147
0.05577479 0.05782139 0.04855546 0.06395365 0.05989269 0.0445697 0.06156197 0.06804494
0.048154756 0.065870054 0.04676215 0.053999495 0.06629824 0.043883678 0.058324732 0.0449941
0.061902486 0.04255839 0.06602349 0.04570024 0.061805844 0.05610806 0.03371161 0.042166907
0.05712129 0.04826018 0.047849886 0.06314798 0.066529304 0.041013144 0.053622946 0.05613546
00000000: ffd3 8b3d 1d36 863d 94a5 643d 7186 4b3d
00000010: c955 7d3d c7c5 963d 6d07 803d 8919 6b3d
00000020: a087 413d 8c50 613d 4ef8 573d 7b62 763d
00000030: 71d3 263d ab3b 7c3d f322 1f3d bdf5 88a0
00000040: 605f 6b3d e9fd 4f3d 27a8 523d 4fbf 803d
00000050: 0329 5a3d 47ca 873d 151a 433d 8417 423d
00000060: 5d29 503d 4525 7f3d 2ee0 803d b7b7 883d
00000070: dbe4 4c3d 617b 813d e74b 833d 2b7f 6e3d
00000080: 4f81 663d 87e8 313d e08b 493d b8d4 823d
00000090: 223a 593d 1ede 803d 7c92 873d a63d 123d
000000a0: 4d08 813d 8d0c 673d 5bd0 3b3d ebbb 353d
000000b0: d504 603d 1f9e 383d 4c6b 0f3d 54cb 293d
000000c0: 6427 413d 145a 773d 6026 5b3d ae9a 783d
000000d0: 7b10 583d ed5f 693d 3799 5f3d a643 6a3d
000000e0: 8df7 8a3d a3fb 5c3d 1e2b 413d 25d1 2e3d
000000f0: 1faf 473d cd0d 763d aaf8 543d 30db 4b3d
00000100: 47d7 543d 6520 6c3d 3fd9 4e3d b0bb 493d
00000110: 71f5 603d 7c4c 5a3d 0e24 4f3d 9371 663d
00000120: 6c98 f83c efe9 7a3d e672 603d e99d 803d
00000130: 61c0 913d 570b 703d 94a5 5a3d 3f76 2e3d
00000140: afb5 933d 4a9e 5e3d 1dc5 653d f02d 3c3d
00000150: 76c2 2b3d c43d 933d 6939 423d d293 3a3d
00000160: b9c4 943d 8c02 533d 923a 803d 7d82 633d
00000170: ae57 643d 0045 5b3d 55b1 783d 2ac5 383d
00000180: fd84 4b3d b044 313d e2e4 543d 562a 503d
00000190: 3f45 1f3d b980 423d 46b2 553d 6186 643d
000001a0: 186e 5a3d 0cb2 6b3d 7fa1 7e3d 040c 833d
000001b0: dfee 733d a24d 903d 3180 5d3d de6e 443d
000001c0: 50a0 5f3d c0f2 833d 66ad 293d 0007 723d
000001d0: de66 833d 368e 403d ca14 073d ea20 773d
000001e0: 5e82 7f3d b38a 343d 05b4 303d 01ab 513d
000001f0: f86c 333d 6ce0 723d 44db 7a3d 35db 843d
00000200: 7cbb 7f3d 03fe 6b3d 6ffe 223d 1ef5 6e3d
00000210: 6a80 7c3d 1b46 913d be3e 6a3d 9f22 463d
00000220: 2463 7d3d f22e 4d3d 2fac 4d3d f098 603d
00000230: 0903 763d 1a68 733d 0090 673d 76ef 903d
00000240: a81c 693d d0fe 6e3d c43c 483d 6514 683d
00000250: 598b 413d 2f39 943d 9444 543d 9552 423d
00000260: 3139 813d 6a03 583d 3587 3a3d 47ae 2f3d
00000270: 7f03 603d 0ca5 643d 4ad1 573d 9bcf 873d
00000280: caf3 6f3d 65de 423d a99b 613d f51c 4e3d
00000290: 4d35 553d c128 683d 76aa fc3c 140b 793d
000002a0: 9433 2c3d 71e9 413d 6407 4c3d f318 813d
000002b0: f019 7e3d d844 5d3d d843 813d ce89 3e3d
000002c0: 634d 4c3d dc1a 3b3d eb07 3b3d e5d3 753d
000002d0: a62c 8d3d 7685 3d3d 2072 873d 7dc4 6c3d
000002e0: a735 7b3d cc0e 493d bbd6 373d 2589 833d
000002f0: 2e90 283d 408b 223d 394c 743d c645 5f3d
00000300: ee00 5f3d 8baa 4a3d 6cfd 7a3d 6219 413d
00000310: de19 303d 071d 733d 2418 5c3d 1b5d 543d
00000320: dee8 463d b097 7d3d af6f 913d c18f 5f3d
00000330: afb9 5d3d becf 563d 33dc 283d abcf 733d
00000340: 3129 833d 3c71 333d 6cda 413d 6fe6 5f3d
00000350: 8dd0 503d 5bd5 383d dadf 1c3d 16ad 7b3d
00000360: b786 3b3d f853 423d c39f 263d adfb 4e3d
00000370: 0553 4c3d eee3 423d 21c3 593d e38c 4f3d
00000380: 1b74 643d 1fd6 6c3d 17e2 463d 22fa 823d
00000390: 0a52 753d b88e 363d 6728 7c3d 255b 8b3d
000003a0: ec3d 453d e1e6 863d ab89 3f3d 932e 5d3d
000003b0: 5fc7 873d 5fbf 333d eae5 6e3d bc4b 383d
000003c0: 768d 7d3d b551 2e3d 5337 873d 2d30 3b3d
000003d0: 2028 7d3d 91d1 653d 2f15 0a3d 35b7 2c3d
000003e0: 04f8 693d 77ac 453d 3efe 433d ba53 813d
000003f0: 8440 883d 66fd 273d bca3 5b3d 4cee 653d
