code/save/model_beta_repr_1.pt (torch, 649964 bytes, 6 tensors)

embed.weight f4 [59, 256]
000000 ed 70 01 be 12 1f a7 3d 6c b7 dc 3d 7d 87 07 bd
       -0.12640734 0.08160223 0.107771724 -0.033088196
000010 84 06 80 bc 4c b5 07 3e 99 52 46 3e 2d ba e6 3c
       -0.015628107 0.13252753 0.19367446 0.028164947
000020 e1 24 18 be d1 e8 c9 3d 70 39 9b 3c 8a 41 6e 3d
       -0.14857818 0.09858859 0.018948287 0.05816797
000030 8d 6b 56 bb b4 0b 16 3e 45 a2 e9 bd 03 96 25 3e
       -0.0032717914 0.14652902 -0.114079036 0.16170506
000040 6c 95 23 be 40 9b c3 bd 18 3d 0b 3e 19 3d 93 3c
       -0.15974969 -0.09551096 0.13597524 0.01797347
000050 f4 eb 04 3e 3f 30 25 3e 51 8f 68 bd d0 e6 c1 bd
       0.12980634 0.16131686 -0.056777302 -0.09467852
000060 b9 f9 bf 3d e6 9f 46 be cf 92 12 3c 8a bf d9 bc
       0.09373803 -0.19396934 0.008946135 -0.02658059
000070 5c 0f 86 3d 0b 26 56 be 74 cf 9b bd fa 45 14 be
       0.06545898 -0.2091295 -0.07607928 -0.14479819
000080 e4 be fd 3d 1d f0 fc bd dc 3f fc 3d 9a 8c 27 bd
       0.12389925 -0.123504855 0.12316868 -0.040905572
000090 28 dd 2b 3d 35 76 fa 3d 94 b2 29 3d 16 ff 0f be
       0.041958958 0.122295775 0.04143007 -0.14062151
0000a0 64 e6 12 bd 17 a0 1b be cc c3 08 3e b2 40 c9 3c
       -0.03586425 -0.15197788 0.1335594 0.024566982
0000b0 80 50 fb 3d 92 4d 60 be f2 59 40 be 4d 86 30 3b
       0.122712135 -0.2190459 -0.18784311 0.0026935518
0000c0 8b f4 0e bd 3d b5 48 3e b4 da 96 bd 41 33 9c 3d
       -0.034901183 0.19600387 -0.07365933 0.076269634
0000d0 0d df 67 bd 00 47 87 3c 42 68 1f 3d 1b b7 43 be
       -0.056609202 0.016513348 0.038917787 -0.19112818
0000e0 96 7d 6b 3e 23 c6 49 3c 18 ce 04 3e 27 21 ab bd
       0.22997126 0.012315306 0.12969244 -0.08355933
0000f0 f3 e7 d6 bd b9 52 32 3e db 29 ca 3c 93 e4 92 3d
       -0.104934596 0.17414369 0.024678161 0.07172503
000100 03 a9 4a 3e 80 f5 21 3e 4a 0a 5e be 1e a9 1e be
       0.19791035 0.15816307 -0.21683612 -0.154942
000110 33 15 af 3c c2 2c 16 3e 88 16 c8 bd 19 80 ba bc
       0.021372413 0.14665511 -0.097699225 -0.02276616
000120 2c dd 48 be ea 3f 71 3e 0f 35 5f bd df d0 15 3e
       -0.1961562 0.23559538 -0.05449396 0.14630459
000130 52 a2 66 3d 39 ac 16 3e 36 be da 3c 3d 4b 21 3d
       0.056307144 0.14714135 0.026702028 0.039378393
000140 3e b1 08 be 09 9e 2c 3d a2 46 21 bd f4 60 3d 3e
       -0.13348863 0.0421429 -0.039374 0.18494016
000150 76 ab 26 3e 18 c7 44 3e 06 96 8b bd d6 73 68 bc
       0.16276345 0.19216573 -0.06815724 -0.014187774
000160 e2 33 8a 3d f5 ee 24 3d 52 c3 77 bb 31 29 29 bd
       0.06748177 0.04026695 -0.003780563 -0.04129905
000170 b2 89 20 be dc d7 0f 3e 69 39 26 be f6 4f 34 bd
       -0.15677527 0.14047188 -0.16232838 -0.04402157
000180 c7 ac 90 bd 31 b4 c6 3d 54 5f e3 bd 1b 07 18 bc
       -0.07064205 0.097023375 -0.11102167 -0.009279038
000190 09 19 60 bd ae b2 19 be 07 e0 d8 bd b1 e5 08 be
       -0.054711375 -0.15009567 -0.10589605 -0.1336887
0001a0 dc 7e e1 bd 65 da 8d bd e6 0a 58 3e 8b cc ce bd
       -0.11010525 -0.06926421 0.21097907 -0.10097607
0001b0 da 4a ce 3d b0 60 43 3e 87 e9 48 be 88 65 ef 3c
       0.100728706 0.19079852 -0.19620334 0.029223219
0001c0 8f aa 51 3e eb a6 03 be 94 cb c1 3d c2 6f 93 bd
       0.20475219 -0.12856643 0.094626576 -0.071990505
0001d0 e6 46 68 be cb 17 d1 3a 10 35 33 be 66 fe a9 3c
       -0.22683296 0.0015952525 -0.1750071 0.02075119
0001e0 f1 99 24 be f6 37 f3 bd 95 52 e0 3d 22 1c 34 3c
       -0.16074349 -0.11875908 0.10953251 0.0109930355
0001f0 70 45 7f 3d d9 8c 48 3e 90 52 bc 3d 7d cb 94 3d
       0.06232208 0.19584979 0.09195435 0.07265375
000200 75 2a 19 be 30 00 5d 3e 93 74 2c 3c e2 6f 3b 3e
       -0.14957602 0.21582103 0.01052584 0.18304399
000210 5a 0b 98 3c 89 56 ac 3d d5 a8 34 3e d4 ec f8 3c
       0.0185601 0.08414943 0.1764253 0.030386366
000220 82 7a 56 3d be 87 ee bd b5 dc 37 bd 87 9b 56 3d
       0.052362926 -0.116469845 -0.044888217 0.052394416
000230 de a5 2f 3d 28 5a 10 bd 3a 97 99 bd e6 97 17 be
       0.042882793 -0.03524223 -0.07499547 -0.14804038
000240 4c 38 1c be 6f 9d 01 3e a7 b5 47 3d 4b 40 46 3e
       -0.1525585 0.12657712 0.04875722 0.19360463
000250 b2 e7 06 be fb 72 2c 3e d2 a0 50 be 26 10 b5 bc
       -0.13174322 0.16840737 -0.20373848 -0.022102427
000260 3e 08 17 be d6 69 0d be 4c d2 8b bd d4 4e aa 3d
       -0.14749238 -0.13809904 -0.0682722 0.083158165
000270 d2 5d a8 3d 5f 4a 69 be ce a3 3e 3d 61 39 9f 3d
       0.0822102 -0.22782277 0.046542935 0.07774616
000280 72 0e 23 bd 3b ba 5b be 4b d3 0a be f0 b1 74 3c
       -0.039808698 -0.2145776 -0.13557164 0.014935002
000290 01 c5 9c 3c a5 dd 95 3d e0 3d f6 bd de 10 1e bd
       0.019136908 0.07317666 -0.120235205 -0.038590305
0002a0 6c bb ce 3d 01 d7 5a be fb 4e aa bd 36 05 2b be
       0.10094342 -0.2137108 -0.083158456 -0.16701207
0002b0 37 78 0b be d7 de d2 3a a7 7b d1 3d 45 47 dc 3d
       -0.13620077 0.001608814 0.10228663 0.10755781
0002c0 e8 fe 4b 3e 71 e1 25 be f5 f9 08 be a1 01 af bd
       0.19921458 -0.1619928 -0.13376601 -0.085452326
0002d0 61 7c 76 3c 34 d3 b9 bd fb 79 30 3e 9a 94 33 bd
       0.015044303 -0.09073487 0.17234032 -0.04384289
0002e0 5e 7c 0b 3e 7e d3 5f be 92 7c e4 3d 20 60 da 3d
       0.13621661 -0.21858022 0.111565724 0.10662866
0002f0 9f 66 e8 bd b9 96 b1 bd de 1f ed 3d ee 56 31 be
       -0.113476984 -0.08671326 0.11578344 -0.17318317
000300 9b bf 46 3e 29 b7 3d 3e 71 d8 15 be 15 b3 21 3e
       0.19409029 0.18526901 -0.14633347 0.1579097
000310 93 df 26 be 70 46 e8 3d 75 58 11 be a3 a8 09 3b
       -0.16296224 0.1134156 -0.141939 0.0021005056
000320 d3 a6 20 be 16 76 4c 3e 15 01 69 3e 72 72 16 bc
       -0.15688638 0.19966921 0.22754319 -0.009182559
000330 bf 41 4e be d2 fe 47 be dc 18 8c bd 14 2f a4 3d
       -0.20142268 -0.195308 -0.06840679 0.08016792
000340 12 3b 13 be 9a 13 ae bb 2f b2 2d bd 69 6a 13 3e
       -0.14378002 -0.0053123953 -0.042406257 0.14396061
000350 4b 1c d9 3d af 92 98 3d cc 8c 2e bd 51 21 1e 3e
       0.106010996 0.07449853 -0.042614743 0.15442397
000360 b8 eb 9f 3c 6c ca 87 3b f6 9d fa bc d5 e9 8e 3d
       0.01952158 0.0041440036 -0.0305929 0.06978194
000370 ab 95 43 bd c3 d2 18 3e 14 a9 db bd 44 2d b1 3d
       -0.047750156 0.14924149 -0.107256085 0.08651212
000380 c2 ab 26 3e 4c 2a 0f bd a7 3b b7 bc c2 72 32 3e
       0.16276458 -0.034952447 -0.022367312 0.17426589
000390 31 97 49 be 93 29 17 3c 6a 7a 05 3d 6d bf 2c be
       -0.19686581 0.009226221 0.032587446 -0.16869898
0003a0 60 db 3a 3d f6 21 2e bd c9 e4 c3 3d 59 3b ab 3c
       0.04561937 -0.042512856 0.09565122 0.020902323
0003b0 02 5b 82 be 9f de 9d 3c b8 ef 93 bd 9a 97 1b 3a
       -0.25460058 0.019271193 -0.07223457 0.0005935371
0003c0 9f ea 50 3e 69 c7 3c 3e f5 4a 58 3d 48 09 ec bd
       0.20402001 0.18435444 0.05280586 -0.11525208
0003d0 8f 1c 4c be f0 3a 30 3d 12 34 27 3e 93 6c 09 bd
       -0.19932769 0.043024957 0.16328457 -0.03355081
0003e0 09 ef bd bd 6c 97 b6 3c ec 68 e0 bd 09 b0 55 3e
       -0.09274108 0.022289 -0.10957512 0.20867933
0003f0 27 26 32 be b2 d7 d3 3c 6c 4e 34 be 10 f6 19 3e
       -0.17397366 0.025859687 -0.1760804 0.15035272

unembed.weight f4 [59, 256]
000000 06 cc f2 3d 3a a5 7a 3a 54 68 86 3d 76 53 6f 3e
       0.11855321 0.0009561364 0.06562868 0.23371682
000010 d9 30 06 3d d3 e3 42 be 92 fe 04 be b1 3b f8 3d
       0.03276143 -0.1903222 -0.12987736 0.1212076
000020 04 08 bc 3d 14 44 4a 3e 55 a4 f1 bd a2 69 0d 3e
       0.09181216 0.19752532 -0.11798922 0.13809827
000030 42 f8 a5 bc 7b b1 81 3d e1 88 c7 bc 03 66 b5 3c
       -0.02025998 0.0633268 -0.024357261 0.02214337
000040 51 ef a5 3d 28 6c a4 3d 4e 29 2c be d5 64 02 be
       0.081022866 0.08028442 -0.16812631 -0.12733777
000050 bd 34 d5 bd 50 82 4f bd 2f bc cd bc 57 0d c8 3d
       -0.1041045 -0.050661385 -0.025114147 0.097681694
000060 08 bc 3a 3d 8e 58 0c 3e 1a b5 4b be 7b db 27 be
       0.045589477 0.13705656 -0.19893304 -0.16392319
000070 fd d3 eb 3d e7 28 1b 3d 05 df 2a 3c fa 42 82 bd
       0.11515043 0.037880804 0.010429149 -0.06360431
000080 e1 a7 81 3d a4 05 d6 3c 59 32 25 be 3e 92 31 3d
       0.063308485 0.026125737 -0.16132487 0.043352358
000090 2e 9b f6 3d ff e4 29 3e fd 6d c7 3d f5 17 43 3e
       0.12041317 0.16591261 0.097377755 0.19052108
0000a0 99 cc 06 be 1c db 27 be 68 58 2c be 10 2e 3e 3e
       -0.13163985 -0.16392177 -0.168306 0.18572259
0000b0 9b 9e 0c 3e a5 e0 d8 3d 4a 3f 2a 3d 1b c1 f9 bc
       0.13732378 0.105897225 0.041564263 -0.030487588
0000c0 df 7b 5a bd 4d 2a 0b bd 6a 7b 87 3d cf 51 61 bd
       -0.05334079 -0.033975888 0.06615336 -0.05500966
0000d0 92 5b 58 bb 2f 32 38 bd 71 8a a5 3b ad e9 00 be
       -0.0033013565 -0.044969734 0.005051904 -0.1258914
0000e0 9c fc 36 3d 28 c4 3b 3d 74 a5 a0 3d 7c 80 17 3e
       0.0446745 0.045841366 0.07844058 0.14795107
0000f0 c2 aa 29 be c5 d8 f0 3d ff 38 f7 bd 55 44 84 3e
       -0.16569045 0.117600955 -0.12071418 0.25833383
000100 18 96 41 bd 53 a6 95 bd 41 c1 04 3c 32 92 43 3e
       -0.04726228 -0.073071145 0.008102716 0.19098738
000110 70 6b 03 3e fa 7a e1 3c 5a 79 f2 bd 9f 33 25 be
       0.12833953 0.02752446 -0.11839552 -0.16132973
000120 38 85 18 3e db 11 1c be 2a 62 17 3e 9a 69 cf 3c
       0.14894569 -0.15241186 0.1478354 0.02531891
000130 75 f6 00 3d db 9c 19 be 98 4f f1 bd 4d 56 e5 bd
       0.03148504 -0.15001242 -0.117827594 -0.11198101
000140 b2 20 08 be d7 eb f7 bb ad db 00 bc 0e 0f a7 3d
       -0.13293722 -0.007565956 -0.007864875 0.08157168
000150 8f fc 23 3e 6f f7 f2 3d d8 67 83 3d 0d a6 3d be
       0.16014312 0.118636005 0.06416291 -0.18520375
000160 d2 73 2a be 50 ae 44 3e a2 7d 2e 3e 83 6a 93 bc
       -0.16645744 0.1920712 0.17040113 -0.017995125
000170 f0 c6 78 3c f7 45 a9 bd 96 aa e0 bd de 08 2a be
       0.015184149 -0.08265298 -0.10970037 -0.16604945
000180 a9 1b 4e be 62 bc f5 bd a4 56 d1 3c 63 87 2f be
       -0.20127739 -0.11998822 0.025554009 -0.1714149
000190 5e 62 69 bd 8c 59 ab 3c ff ab 87 3b 30 62 9a bd
       -0.056978576 0.020916723 0.0041403766 -0.07538259
0001a0 61 9c 3c 3e 05 89 ec bd ed ce ac 3d 25 6a 11 3e
       0.18419029 -0.11549572 0.084379055 0.14200647
0001b0 12 16 fb bc 84 e0 ae 3d fe c0 b0 3c 1f 3e 14 3d
       -0.030650172 0.08538917 0.0215764 0.036192056
0001c0 83 82 ea 3b e2 24 0f be 4d c1 25 be 85 b2 10 be
       0.0071566715 -0.13978913 -0.1618702 -0.141306
0001d0 7d fa 79 bd 2e 6a 35 3e d2 42 7e bd 66 66 32 3e
       -0.0610299 0.17716286 -0.062075444 0.17421874
0001e0 91 0a ab 3b 33 d0 39 be 41 42 0b bd 30 8a 48 3c
       0.0052197655 -0.18145828 -0.03399873 0.012239978
0001f0 11 09 c2 3d 22 5f e6 bd 70 93 6d 3d e4 50 08 3e
       0.094743855 -0.11248614 0.058001935 0.13312107
000200 aa 59 42 be a4 13 26 3e c2 e4 20 3d c5 e0 23 3e
       -0.18979517 0.1621843 0.03928066 0.16003712
000210 1e e1 24 3e 7f bf 14 be b8 13 f0 bd 2b be 1d bb
       0.161015 -0.14526175 -0.11722511 -0.0024069648
000220 07 c3 4b 3e 70 1c 89 bd fe 1d 23 bd 93 7f 23 3e
       0.19898616 -0.06694877 -0.039823525 0.15966634
000230 54 ff e6 bc 9b 43 b7 bd 7a 89 32 3e 78 da 28 be
       -0.028197922 -0.089484416 0.17435256 -0.16489589
000240 a6 ab 3f be e4 96 b4 3d fc 23 94 3d 7e 06 85 3d
       -0.18717822 0.088178426 0.07233426 0.06495379
000250 31 e1 f3 3d 4d 93 16 3e f8 79 f7 3d d0 4a 4d 3e
       0.11908186 0.14704628 0.120838106 0.2004807
000260 99 9b 18 3c 7f 85 00 be cf df 34 be 7d b3 3b be
       0.009314441 -0.12550925 -0.17663501 -0.18330188
000270 8c f6 34 be 87 24 f1 3d 19 76 6b 3d f6 d7 bf bd
       -0.17672175 0.11774545 0.057485674 -0.09367363
000280 c1 ae 0b bd 66 c7 fd bd be 4a 06 be 48 c2 51 3e
       -0.034102205 -0.12391548 -0.1311445 0.20484269
000290 56 b8 c4 bc 9a 5f 78 3d c1 fc f9 bc 6d 07 43 3e
       -0.02401368 0.060638048 -0.03051603 0.19045801
0002a0 d5 45 30 be c7 fa dc 3d 4e a1 a0 bd 17 a3 85 3c
       -0.17214139 0.107900195 -0.078432664 0.016313119
0002b0 e0 30 52 be be 31 44 be 5d 8b e9 3d b2 2a df bd
       -0.20526457 -0.191596 0.114035346 -0.10896815
0002c0 0e 97 7a be 36 46 cb 3d c1 07 0c 3e 9c c1 86 bd
       -0.24471685 0.09925501 0.13674833 -0.06579897
0002d0 b9 7c 67 3d 61 36 36 3e 27 cc 2d 3e 2f 74 b0 bd
       0.05651543 0.17794181 0.16972409 -0.0861591
0002e0 21 d5 92 3d 45 8b 04 bc 3b 1e ca 3c 93 e2 e9 bd
       0.07169557 -0.008089845 0.024672618 -0.11420169
0002f0 32 bc 44 3d 75 70 c9 3d f0 a3 46 3d f0 34 16 3e
       0.04803104 0.098359026 0.048496187 0.14668632
000300 8c a8 49 be 99 f8 02 bd 1b 5c c8 3d 29 e8 c2 bd
       -0.19693202 -0.031975362 0.09783193 -0.09516937
000310 02 02 61 3d fa c1 00 be 96 bd 40 3e 8c 43 b5 bd
       0.054933555 -0.12573996 0.18822321 -0.08850774
000320 22 83 c6 1e 20 f5 72 bd 11 2e 4e 3e 14 9e 26 3c
       2.10183e-20 -0.0593158 0.2013476 0.010169525
000330 17 34 4c be e5 42 6d bd 5e a7 3d bd 78 35 eb bc
       -0.19941746 -0.057925124 -0.046302192 -0.02871202
000340 98 bb 0c be b7 d4 92 bd 23 32 3c 3d 55 b2 16 3e
       -0.13743436 -0.071694784 0.04594625 0.14716466
000350 d2 1f 4f 3c 30 46 03 be e2 83 41 be 7e 69 64 3e
       0.012641864 -0.12819743 -0.18897966 0.22305867
000360 d5 75 12 bc 4c 7b 7f bd 1d ca 47 be 43 ab 93 bc
       -0.008939226 -0.062373444 -0.19510694 -0.018026
000370 96 90 8a bd f0 df 08 3e 15 c8 41 3e 87 05 40 3d
       -0.06765859 0.13366675 0.18923981 0.04688027
000380 7a 3d fa 3d b0 5c a5 3d 68 e7 08 3e d3 55 ea 3c
       0.12218757 0.08074319 0.13369524 0.028605377
000390 24 4f bc bd 38 26 83 3d 89 09 70 3d 6f fd db a0
       -0.091947824 0.06403774 0.058602843 -3.7267751e-19
0003a0 86 e8 31 be 34 64 91 bd 6b ba ca a0 3f 33 52 3e
       -0.17373857 -0.0709919 -3.4343492e-19 0.20527361
0003b0 04 d5 3a 3c db c9 43 3d 10 23 15 bd a1 f4 35 be
       0.011403326 0.047799926 -0.03641039 -0.177691
0003c0 15 c2 1c be db 47 20 be b8 18 2d 3e 76 d0 ba bd
       -0.15308411 -0.1565241 0.1690396 -0.09121792
0003d0 e1 c0 7a bc 6c 0c 17 bd 95 99 b9 bd 6e c6 08 be
       -0.015304775 -0.03687708 -0.090624966 -0.13356945
0003e0 c3 4d d1 3c 3b 24 dc bc f8 53 4c 3e eb c6 80 3d
       0.025549775 -0.026872745 0.19953907 0.062879406
0003f0 48 66 5e 3d 61 36 4a 3e 97 59 d0 bc 1d 27 03 be
       0.05429676 0.19747306 -0.025433345 -0.1280789

l1.weight f4 [256, 256]
000000 6f b1 41 bd 5a 39 6e 3d 50 28 39 3d fb 2a 13 be
       -0.047288354 0.058160163 0.04520446 -0.14371864
000010 28 53 c2 bd 62 e0 80 3d 4f 4f d8 bd 4c 47 7d bd
       -0.09488517 0.062927976 -0.10562002 -0.061835572
000020 43 f6 1d be 2a 78 e8 3d 40 5e 8e 3c 43 61 cb 3d
       -0.15425973 0.113510445 0.017378926 0.099306606
000030 d5 16 9c bc 1a 2a 30 bd 91 61 6f bd 09 97 ef 3d
       -0.019053856 -0.0430089 -0.058442656 0.116987295
000040 ba 64 11 be 08 23 d8 bd a7 22 04 3e ca 23 66 ba
       -0.1419858 -0.10553557 0.12903844 -0.00087791367
000050 c3 bd c5 bd 78 89 d3 3d b7 78 9e 3d 8c 74 e1 bd
       -0.09655335 0.103289545 0.07737868 -0.11008558
000060 73 5b a0 3d 0f 03 67 bc 3e 6f b1 3d 87 c1 5d 3d
       0.078299426 -0.01409985 0.08663796 0.05413964
000070 bd 15 59 bd fd 8b 92 bd 55 23 0a 3e f3 35 a7 bd
       -0.052999247 -0.07155607 0.1349004 -0.08164587
000080 ff 1e a9 3d 21 47 7e 3d fc c3 db bd 93 7f 2d 3d
       0.08257865 0.062079553 -0.107307404 0.042357992
000090 85 23 f6 bd e5 12 06 ba 91 42 9c bd a0 c6 4f 3d
       -0.120184936 -0.000511451 -0.07629884 0.050726533
0000a0 79 97 a5 3c 1b eb 95 bd 14 44 25 3d 61 ce 50 3c
       0.02021383 -0.073202334 0.040348127 0.012744517
0000b0 7a eb 79 bd 24 91 cd bd 3c 84 76 3c a5 82 a9 3d
       -0.061015584 -0.10037449 0.015046176 0.082768716
0000c0 c2 91 fd 3c 6f 05 f2 3d 79 ed a5 bd 00 18 c2 3d
       0.030953292 0.118174426 -0.08101935 0.09477234
0000d0 9b 49 c3 3d 0e 56 c6 3d 27 bb 8e bc ac bc 0f 3d
       0.095355235 0.096843824 -0.017423226 0.03509204
0000e0 a9 2c c7 3d a0 c1 41 3d 69 91 06 3e f9 9d 1e be
       0.09725315 0.047303796 0.13141407 -0.1548995
0000f0 b1 d8 c7 bd e3 c1 ac bd e6 79 16 3d 90 74 70 bd
       -0.097581275 -0.084354185 0.036737345 -0.058704913
000100 d2 ca ce bc 85 5b e8 3d 04 1c 3a bd b9 0a b9 3d
       -0.025243197 0.11345581 -0.045436874 0.09035248
000110 df 24 cf 3d 43 64 07 3e 04 3c 72 bd 0c b3 bb bd
       0.101144545 0.1322184 -0.059139267 -0.0916501
000120 34 8e 7c bc a8 e2 f1 3d 77 7f 67 bc c0 ff c1 3d
       -0.015414763 0.118108094 -0.014129511 0.094726086
000130 0a d5 ed 3d c9 38 26 3d 7b 3b c7 3d 9a 87 cd bd
       0.116128996 0.0405815 0.09728142 -0.100356296
000140 6f 4b 06 be b3 88 be 3d 7c f0 0d 3e f3 5a aa 3c
       -0.13114713 0.09303417 0.13861269 0.020795321
000150 1b 73 02 3e 0f e9 05 3e 11 ff 56 3d fa 19 c6 3c
       0.12739222 0.13077186 0.052489344 0.024182308
000160 36 94 12 3e 8d 70 c0 bb 48 79 8e bd 74 4b ac 3d
       0.1431435 -0.005872792 -0.06956726 0.08412829
000170 e6 52 c6 bd db 00 bb 3d 79 19 a2 bd c1 f9 fe 3d
       -0.0968378 0.091310225 -0.07915015 0.124499805
000180 1e 97 c4 3d c2 33 e4 3c 2e a3 a3 bd ea 70 c6 3d
       0.09599136 0.027856711 -0.079901084 0.096895054
000190 a3 d1 80 bd 49 28 c6 bd 01 e2 bc 3d b6 3e 36 bd
       -0.06289985 -0.096756525 0.09222794 -0.0444934
0001a0 bd c1 10 be a3 4e c4 bd 88 ad 9c 3c 30 b5 f8 3c
       -0.14136405 -0.09585311 0.019125715 0.030359834
0001b0 87 5c c4 3c 65 41 c8 bd c4 4b bb 3d 37 b0 12 3e
       0.023969902 -0.09778098 0.091453105 0.14325033
0001c0 6c 3d ab 3d 29 6c 11 3d 44 2a ec 3d e8 33 04 3d
       0.08361325 0.03550354 0.11531499 0.032276064
0001d0 ce 46 f8 bd 66 1f 0d 3e 7b 96 d5 3c f2 2c c4 3d
       -0.1212288 0.13781509 0.026072731 0.09578885
0001e0 bb e1 be bd 8f 54 0c 3e ee b2 21 3d 27 27 0a 3d
       -0.093203984 0.13704132 0.03947728 0.033728745
0001f0 cf ed e5 bd 13 9e fd 3d d5 9e ca bd b9 65 bd bb
       -0.11226999 0.12383666 -0.09893576 -0.0057799486
000200 3b 4a 07 be 3e be cf 3d c8 50 90 bc f1 1c e1 3d
       -0.1321191 0.10143708 -0.017616645 0.10991848
000210 63 62 02 be 7a c2 bf bd 72 56 78 3d 61 34 db 3d
       -0.12732844 -0.09363265 0.060629316 0.1070335
000220 54 e3 c5 bb da 8c c7 3d ba 43 0d 3d 21 f0 18 be
       -0.0060390625 0.09743662 0.034488417 -0.14935352
000230 70 d9 b6 bd ed 6e a4 3d 5b bb f8 bc b8 7e 1d 3d
       -0.08928192 0.0802897 -0.030362776 0.038450927
000240 c6 07 ec 3d 0d 57 b9 3d 2e 58 18 bc e3 c7 fb 3b
       0.1152492 0.09049807 -0.009298367 0.0076837405
000250 bd a0 f7 bd aa fe dd 3d f4 52 d7 bd f8 f7 db 3d
       -0.12091205 0.10839589 -0.10513869 0.10740656
000260 90 9b fc bd 4b a7 c9 3d 37 01 f2 bc 85 be 0f bd
       -0.12334359 0.09846362 -0.029541595 -0.035093803
000270 d9 92 f1 bc ad b1 cd 3d 60 18 8e bd 52 54 d3 bd
       -0.029488968 0.100436546 -0.06938243 -0.10318817
000280 c4 e4 06 be e4 f2 b1 bd 6f 81 e5 bd 2c b5 05 3d
       -0.13173205 -0.08688906 -0.11206328 0.032643482
000290 1f c1 a1 bd 59 80 86 bd 4d c2 10 be e7 c5 f8 3d
       -0.07898163 -0.06567449 -0.1413662 0.12147122
0002a0 58 7f 26 bc ee 3b 2b 3d 7d c9 0e be ed e9 a0 bc
       -0.010162197 0.0418052 -0.13944049 -0.019642795
0002b0 2e 8f f3 3d fc 15 26 bd be e9 02 3e d4 0f 13 be
       0.11892544 -0.04054831 0.12784478 -0.14361507
0002c0 ea 92 08 3e 28 37 93 bd 77 f7 40 bd 4a d3 20 3b
       0.13337293 -0.071882546 -0.047111 0.002454
0002d0 7b 5d a4 bd 29 13 2e 3d f9 b5 df 3d c3 2f 0c be
       -0.080256425 0.04249874 0.109233804 -0.13690095
0002e0 7d 0d 08 3e 63 bc 9c bd 9d 31 01 bd 2b 37 25 3d
       0.13286395 -0.076531194 -0.031541456 0.040335815
0002f0 39 96 bb 3d d3 4b fa bd 70 3b 0f 3e b6 f8 06 be
       0.09159512 -0.122214936 0.13987517 -0.13180813
000300 7b 2e b6 3d 0d 11 0c bd ee 82 4d 3c 63 5b 1c be
       0.08895584 -0.03419595 0.012543423 -0.15269236
000310 a3 09 9c 3d fd 41 1f 3e c9 57 73 bd 79 35 17 3d
       0.076190256 0.15552516 -0.05940989 0.03691623
000320 98 a7 fb bd 7d 01 33 bd bc 4e ba bc d0 a4 39 bd
       -0.12287825 -0.04370259 -0.022742622 -0.045323193
000330 74 5a ac bd 48 d3 12 be fb 44 cf 3c 37 01 b9 3d
       -0.0841569 -0.1433841 0.025301447 0.09033435
000340 9f 20 27 3c 3b 61 8c 3d 3c 43 d7 bd fe d1 09 3d
       0.010200649 0.06854483 -0.10510871 0.03364753
000350 bc 47 c1 bd 3d c8 71 3c 18 33 e9 bd 44 12 9c 3d
       -0.0943751 0.014757213 -0.113866985 0.076206714
000360 ac a4 04 3e 07 5f 5e bd af fb d7 3d 2e de 65 3d
       0.12953442 -0.054289844 0.10546052 0.05612009
000370 66 a1 83 3d 89 61 b9 3d 69 33 a1 3d f8 21 98 3d
       0.06427269 0.090518065 0.07871134 0.07428354
000380 35 64 b1 bc e2 b8 42 3d 43 a6 0b 3e e7 5e b4 3b
       -0.021654228 0.0475396 0.13637643 0.0055044773
000390 7f 94 5b bb 19 86 06 3e 3a 49 e9 3d 1b 17 9c 3d
       -0.0033505259 0.13137092 0.1139092 0.076215945
0003a0 f9 9e d3 3d 44 81 cf bc a1 ba 52 3d 1f b9 d6 bd
       0.10333056 -0.025330193 0.051447514 -0.10484528
0003b0 c0 5c 89 3c 8b ce ff bd eb 61 db 3b 7e 7e 9c 3c
       0.01676786 -0.12490567 0.0066950223 0.019103285
0003c0 4f b7 13 3e 3f 8f dd 3d bc d9 99 bd 3f c8 0e be
       0.14425395 0.10818338 -0.07512233 -0.13943575
0003d0 8a 59 df bd 9c 10 46 3d 64 e2 dd 3d 77 50 73 bd
       -0.1090575 0.048355684 0.10834196 -0.05940291
0003e0 ad 6f fb bc 8f 64 ba bc 63 47 61 bd 71 d4 0b bd
       -0.0306929 -0.022753028 -0.05499972 -0.034138147
0003f0 92 41 d7 b7 a3 0f 5d 3d fe b0 1b be 81 c6 e6 3d
       -2.566053e-05 0.05396999 -0.15204236 0.1126833

l1.bias f4 [256]
000000 04 12 f9 3d 56 a3 3b 3e ec cf 3e 3e 94 7b b3 3d
       0.12161639 0.18324026 0.18634003 0.08763805
000010 ec 92 28 3e 15 15 0d 3b 8a cb 54 3e de d9 33 3c
       0.16462296 0.0021527458 0.20780769 0.010977237
000020 22 20 2b 3e d9 0a d2 3a 89 6e 93 3d cf 11 5e 3d
       0.16711476 0.0016024961 0.07198817 0.054216202
000030 a1 0c 14 3e db 7c dd 3d 7b e8 18 3e 35 63 a2 3a
       0.14457943 0.1081483 0.14932434 0.0012389185
000040 fc f6 fd 3b 41 8e 38 3e e2 54 68 3d a6 fb e8 3d
       0.00775039 0.18023016 0.056721576 0.11376123
000050 1c f8 4e 3d 8e 02 54 3e 26 bd 19 3e 3c f6 ab 3d
       0.050529584 0.207041 0.1501356 0.08396575
000060 bf f0 ec 3d a5 5f 19 3e ec d6 0c 3e b5 72 04 3e
       0.11569356 0.14977892 0.13753861 0.12934382
000070 a2 dd ff 3d b4 cb 46 3e cd 95 23 3e d3 6b c7 3d
       0.12493445 0.19413644 0.15975113 0.09737363
000080 df 72 a3 3d 54 eb cb 3d f2 de ad 3d 6a e0 88 3d
       0.07980894 0.09956995 0.08489789 0.066834286
000090 a2 2e 75 3d 4c 41 0b 3e 0a 8f 04 3e f6 37 26 3e
       0.059858926 0.13599128 0.1294519 0.16232285
0000a0 16 6e ef 3d 8e ab 45 3e b7 7d 52 3e 57 49 01 3d
       0.11690919 0.19303724 0.20555769 0.031564083
0000b0 01 4d 17 3e 9f 18 1a 3e 92 23 d2 3a f1 50 54 3e
       0.14775468 0.15048455 0.0016032329 0.20734002
0000c0 8c a9 b0 3d 2b 67 b9 3d b7 00 68 3d 7c 3c eb 38
       0.086260885 0.09052881 0.056641307 0.00011216939
0000d0 fd 87 06 3e 1f 25 b3 3d 84 24 0c 3e aa 93 1a 3e
       0.13137813 0.08747315 0.13685805 0.15095392
0000e0 30 80 68 3d 25 cf 23 3e 6c 06 18 3e 6e ca 08 3e
       0.056762874 0.15996988 0.148462 0.13358471
0000f0 e7 ce 05 3e 5d b1 5f 3e 60 e4 9f 3d 21 02 cf 3d
       0.13067208 0.21845002 0.07807231 0.10107828
000100 9b c9 03 3e ef 73 a9 3d 64 c5 0f 3e 6e b4 16 3e
       0.12869875 0.08274066 0.14040142 0.14717266
000110 75 04 07 3e f8 95 ad 3d 0c c7 8f 3d 18 37 0c 3e
       0.13185294 0.0847587 0.07020387 0.13692892
000120 81 48 07 3e 09 29 2f 3e 0f 0c 81 3d 16 3c f9 3d
       0.13211252 0.17105497 0.06301128 0.121696636
000130 6e b6 ff 3d b2 70 04 3e 8d b5 a8 3d f5 ab 15 3e
       0.124859676 0.12933615 0.08237753 0.14616378
000140 9a e3 96 3d 1c fa d8 3d 0e 2e af 3d 9f fa 01 3e
       0.0736763 0.105945796 0.08553706 0.1269326
000150 42 97 e2 3d d7 53 89 3c a4 c4 f9 3c 78 90 28 3d
       0.110640064 0.01676361 0.030489273 0.0411534
000160 f9 34 d6 3b 69 b4 58 3d 02 0a fd 3d 69 b3 a6 3e
       0.0065370766 0.052906428 0.123554245 0.32558754
000170 09 f5 13 3e 22 e3 8c 3d 9c 3e 0d 3e 43 64 27 3e
       0.14448942 0.0687926 0.13793415 0.1634684
000180 da cf 2e 3e 34 19 89 3d 9a a5 2c 3b fc 7b 20 3e
       0.17071477 0.0669426 0.0026343823 0.15672296
000190 ec 3e 36 3e 81 a4 48 3e 5e aa dd 3d 0a fc 8e 3b
       0.1779744 0.19594003 0.108235106 0.0043635415
0001a0 8a ee 13 3e a1 dc 3a 3e 1f d4 3c 3e a8 7c 93 3a
       0.14446464 0.18248226 0.18440293 0.001125236
0001b0 0a e9 a5 3d 7f bd ea 3d 75 0d 42 3e 0b a9 54 3e
       0.08101089 0.11461925 0.18950446 0.2076761
0001c0 14 82 35 3e ec b5 86 3d 08 fe 81 3d 3f e5 8a 3d
       0.17725402 0.065776676 0.06347281 0.067820065
0001d0 3b fd 17 3e fc 3c 4b 3e 5a 5c c8 3d da 57 2b 3e
       0.14842694 0.19847482 0.0978324 0.16732731
0001e0 ca 20 11 3d a3 09 8b 3e 40 78 20 3e 4d 98 d1 3d
       0.03543166 0.2715579 0.15670872 0.10234127
0001f0 af 51 3c 3e 14 ed 85 3d 06 31 47 3e 82 ce 95 3d
       0.18390535 0.0653936 0.19452295 0.07314779
000200 21 bb b2 3d bd cb 33 3e 93 c6 83 3d dc c6 d5 3b
       0.08727098 0.17558189 0.064343594 0.00652395
000210 aa b8 4c 3b 6e 4b 55 3e 25 df 4e 3d 16 ab 4e 3b
       0.0031237998 0.20829555 0.050505776 0.003153508
000220 ee 32 20 3e 05 29 05 3d 59 14 1d 3e 9d 46 2d 3e
       0.15644428 0.032509822 0.15339793 0.16921468
000230 da 5f 2b 3e 0d 96 f3 3d 42 96 32 3e da 03 1c 3e
       0.16735783 0.11893854 0.17440131 0.15235844
000240 44 90 16 3e c5 c1 1b 3e 2e 49 03 3e 87 b3 23 3d
       0.1470347 0.15210636 0.12820885 0.039966132
000250 5f 30 ce 3d 17 12 7b 39 ba 30 1a 3e 7d dd 44 3e
       0.1006782 0.00023943964 0.1505765 0.19225116
000260 b3 91 04 3e 2f 8d ba 38 75 18 7b 3d 42 55 93 3d
       0.12946205 8.8954686e-05 0.06130262 0.07193996
000270 bb ab a2 3d 01 9e 14 3e 0e c7 5c 3e 82 84 c7 3d
       0.07942911 0.14513399 0.21560308 0.09742071
000280 bf 13 0c 3e a0 c3 f1 3b 09 24 90 3d 1c 59 37 3e
       0.13679408 0.0073780566 0.07038123 0.17905086
000290 ed cb 04 3e 69 03 ce 3c c6 1c 41 3e e4 90 4b 3e
       0.12968417 0.02514811 0.18858632 0.1987949
0002a0 b0 26 9b 3d 53 a5 99 3d a4 f8 a5 3d c8 e0 17 3e
       0.075757384 0.07502236 0.08104065 0.14831841
0002b0 17 73 1a 3e ee 17 ea 3d 8b 12 a2 3d 5c c0 0f 3e
       0.15082966 0.114303455 0.07913693 0.14038223
0002c0 32 61 53 3e 92 af 88 3d b5 c3 3f 3e c8 ca d3 3d
       0.20642546 0.066741124 0.18727 0.10341412
0002d0 52 8b 1a 3e c8 39 f0 3d 8b fd c5 3d 21 a5 26 3e
       0.15092209 0.11729771 0.096675 0.16273929
0002e0 b1 f4 35 3e cf 53 0b 3e 0e 6a 94 3d cd be 59 3e
       0.17769124 0.13606189 0.07246791 0.21264191
0002f0 68 81 e7 3d 96 3e 33 3e 44 d3 6d 3a 8e aa 57 3e
       0.11303979 0.17504343 0.00090723136 0.21061155
000300 7c 1d db 3d 95 49 60 3d ee 2a 33 3e 25 52 1d 3e
       0.10698983 0.054757673 0.17496845 0.15363367
000310 c2 c0 d7 3d 49 3a 2c 3e 90 de 32 3e 34 40 31 3e
       0.105348125 0.16819109 0.17467713 0.17309648
000320 00 2b a1 3d 02 30 13 3e 34 ec 19 3e e3 df 75 3a
       0.0786953 0.14373782 0.1503151 0.000937937
000330 61 92 1e 3e 6c 63 96 3c 1e d5 2a 3e 45 ad 1a 3e
       0.15485527 0.018357955 0.1668286 0.1510516
000340 89 34 39 3e d5 73 29 3e 01 12 de 3d de 84 31 3e
       0.18086447 0.16548093 0.10843278 0.17335841
000350 cb 74 b4 3d c7 3c 6c 3c 13 ff 89 3e 09 75 91 3d
       0.08811339 0.014418787 0.2695242 0.07102401
000360 d8 b1 f4 3b d5 29 15 3e 86 33 09 3e 5d 30 29 3e
       0.0074674897 0.14566739 0.13398561 0.16522355
000370 c4 7d 3a 3e e7 2b 3e 3e 2a 5d 9e 3b 04 ac 2c 3e
       0.18212038 0.18571435 0.0048328834 0.16862494
000380 4d a4 0e 3e 46 a9 39 3e 58 90 89 3d f7 3e ff 3d
       0.13929863 0.18130979 0.067169845 0.124631815
000390 89 40 a4 3d 05 17 30 3e bc d6 38 3e a4 c0 15 3e
       0.080201216 0.17196281 0.18050665 0.14624268
0003a0 4c 42 09 3e 25 32 e2 3c b5 ef 21 3e 28 ef 28 3e
       0.13404197 0.027611801 0.15814097 0.16497481
0003b0 9a 63 be 3d 46 37 4e 3d ca ac f0 3d 65 a0 5e 3b
       0.09296341 0.05034568 0.11751707 0.0033970114
0003c0 4f fe a8 3d 4a 11 c5 3a 28 79 06 3e cd 01 89 3d
       0.082516305 0.001503506 0.13132155 0.066897966
0003d0 ac cf 38 3e 4a 4e fc 3d 7c d9 0c 3e 12 44 36 3d
       0.1804797 0.1231962 0.13754839 0.04449851
0003e0 b0 71 25 3e a7 34 28 3e a7 76 32 3e 41 e1 3b 3e
       0.1615665 0.16426335 0.17428075 0.18347646
0003f0 d9 db 18 3e cc de 85 3d 2a 3e a9 3d 3a ac 1f 3e
       0.14927615 0.06536636 0.0826381 0.15593043

l2.weight f4 [256, 256]
000000 3e d4 1d 3d a6 1b 64 3d 49 81 df 3c 1e f6 a0 bd
       0.038532488 0.05569043 0.027283328 -0.07859443
000010 79 53 ee 3d d7 57 15 3b 5a 2c bb 3d e5 39 11 bc
       0.11637015 0.0022787952 0.09139319 -0.008863901
000020 42 58 50 3d b4 e9 5d 3a 06 5d 90 bd 81 08 b7 bd
       0.05086542 0.00084653054 -0.07048993 -0.08937169
000030 9f ed 00 3e 67 5e 75 3d 2e 6c 91 3d fb 20 d3 b8
       0.12590645 0.059904482 0.07100712 -0.00010067407
000040 4b 4d 10 bb 21 9a 67 bd 2f 80 0b 3c 46 49 68 bd
       -0.0022018726 -0.056543473 0.008514448 -0.056710504
000050 b3 2f a6 bd 71 dc 1b bc d1 80 44 3a c1 f9 a8 bd
       -0.08114567 -0.009513007 0.0007496002 -0.08250762
000060 e4 5f 7b bd 9e 38 19 3d a5 9d 83 3d a9 a5 d0 3d
       -0.061370745 0.03740751 0.06426553 0.10187847
000070 af 42 2f 3c 8e 61 23 3d ec ab 21 bd cc c5 64 bd
       0.010697051 0.039887957 -0.039470598 -0.055852696
000080 c0 51 c7 bd ff 8d 08 3d 33 97 96 bd 0d 19 b1 ba
       -0.097323895 0.033338543 -0.07353058 -0.0013511494
000090 b4 a1 82 3d a5 3b 78 3d 1e 49 79 3d f2 ae 9e 3d
       0.06378499 0.060603756 0.060860746 0.07748212
0000a0 9f d7 1d bd ec 62 fe 3c 29 95 03 bd 63 70 11 3d
       -0.03853571 0.031053029 -0.032124672 0.03550757
0000b0 31 20 6a bd ba 70 8e 3d fc 10 49 39 d4 51 10 3e
       -0.057159606 0.06955095 0.00019175181 0.14093715
0000c0 e3 a4 0e bc 5e cc a5 bd 65 9e 98 3d ce 77 7b 37
       -0.008706304 -0.080956206 0.07452086 1.498866e-05
0000d0 23 88 5a bc a2 8b 1a bd e0 42 13 3e a5 cc 4f 3d
       -0.013338122 -0.03773082 0.1438098 0.050732274
0000e0 98 6f 0e 3c 18 1e a9 3b 6d 2f c5 bd d0 b2 4a 3d
       0.008693598 0.005161058 -0.096281864 0.049486935
0000f0 18 23 47 bd 4a 86 33 3d 45 bd a3 3d 8d f6 84 bd
       -0.048617452 0.04382924 0.07995085 -0.06492338
000100 9e a7 ab bd b2 c2 a5 3d c7 00 eb 3d 89 13 e6 3d
       -0.0838158 0.08093776 0.11474758 0.11234195
000110 da b8 f2 3d 51 79 97 bc 58 22 8a bd d4 63 00 3d
       0.11851664 -0.018490465 -0.06744832 0.031345204
000120 5a cd c6 3d db 2d e8 bc 32 3f 35 bd 48 57 2f bd
       0.097071365 -0.028342178 -0.04424972 -0.042807847
000130 a8 54 9c 3d 4a fc 0a 3e 4f f8 98 bd c1 b7 dd bd
       0.076333344 0.13572803 -0.07469236 -0.10826064
000140 6d e4 77 bd aa 14 a5 3d 89 00 3f bc ce 1d c0 3d
       -0.06052058 0.08060582 -0.011657842 0.09380685
000150 52 12 39 bd 31 96 06 bb 35 dd a4 3c 28 a5 b0 bd
       -0.045183487 -0.0020536298 0.020125011 -0.08625251
000160 8f b7 50 ba f1 92 34 bc 9a e8 3c 3d a2 b7 29 3d
       -0.00079619227 -0.011021362 0.046120264 0.04143489
000170 ab 77 77 3c 0f fb 66 3d 35 01 9b 3d 02 45 69 3c
       0.015104215 0.056391772 0.075685896 0.014237644
000180 a8 3e 65 bc 31 c0 a2 3d 24 9c 3f 39 58 1a 74 3c
       -0.013991989 0.07946814 0.00018273346 0.014898859
000190 fc f6 ce bd a2 76 c6 bd 58 64 88 3d 5f f5 c4 ba
       -0.10105702 -0.09690596 0.06659764 -0.001502674
0001a0 ed f1 bd bd de cd 1b bc 93 35 36 bd 2a f4 43 b9
       -0.09274659 -0.009509532 -0.044484686 -0.00018687607
0001b0 3b 3c b6 3d ef e1 a6 bd 02 dc d9 bd 6b 38 ec bd
       0.08898207 -0.08148562 -0.10637666 -0.115341984
0001c0 47 68 00 3e 10 bb 7e 3d 16 fd a8 3d 51 1e 9e 3d
       0.12539779 0.062190115 0.08251397 0.07720626
0001d0 c1 d1 99 bd 6b df 88 3c 6d 0c 98 3c 20 e5 f1 3d
       -0.075107105 0.016708096 0.018560613 0.1181128
0001e0 a0 d9 e2 3c d5 7c 01 3d 3c 45 30 bd d5 96 8f bd
       0.027691662 0.03161319 -0.043034777 -0.07011191
0001f0 c0 f6 e6 3d 6f 9f 1c 3e 84 7e d3 3d 86 35 83 3d
       0.112775326 0.15295194 0.10326865 0.06406693
000200 a3 9c e2 3d f9 e7 bd 3c ce c6 b0 bd 98 2e cc 3a
       0.11065032 0.023181902 -0.08631669 0.0015577851
000210 ff 78 7c 3a 9a c6 b8 bd 00 49 05 3e e5 44 13 3b
       0.0009631067 -0.09022255 0.13016129 0.0022471484
000220 db 2a 0a 3e 03 da a8 bd c6 73 94 3c f0 36 81 3d
       0.1349291 -0.082447074 0.018121611 0.063093066
000230 dc af 70 bd 46 db 74 bd cf 30 32 bd 75 03 6c 3d
       -0.058761463 -0.059779428 -0.04350358 0.057620484
000240 ed 10 60 3d 88 aa 06 3e 2a a2 05 bd ce 28 bc bd
       0.05470364 0.1315099 -0.032625355 -0.091874704
000250 25 e3 51 bd d7 18 66 38 b7 aa 83 bc 16 61 b5 bd
       -0.051242013 5.4859407e-05 -0.016072614 -0.08856408
000260 8a 88 51 bc 90 31 20 38 2b 95 06 3e 5e 7d 02 3e
       -0.012788901 3.819313e-05 0.1314284 0.12743136
000270 cd f7 35 3d e4 db 28 3d f4 db 69 3a 69 b1 18 bd
       0.044425774 0.04122533 0.000892102 -0.037278567
000280 32 37 b6 bd e7 0f 00 3c 2d c0 0f 3d de 73 70 3d
       -0.088972464 0.007816291 0.035095382 0.05870425
000290 a2 b7 97 3c 4d 05 f5 ba 84 df 03 3e 61 b7 e2 bc
       0.01852018 -0.0018693596 0.12878233 -0.027675333
0002a0 79 c8 dd bc 99 75 bd 3c 23 1b fe 3c 0c ae 5d bd
       -0.027073132 0.023127364 0.0310188 -0.054121062
0002b0 93 39 3b ba ce e1 75 3d 7f 3f 02 3d f6 f8 af 3c
       -0.0007142063 0.060029797 0.031798836 0.021481019
0002c0 cb 21 0d 3d 46 46 69 3c f8 54 dc bc 2c e4 94 3d
       0.034456056 0.014237946 -0.026895985 0.07270083
0002d0 bf fc f2 3d ad db 83 3b 95 7b 5d bd 56 c2 24 3d
       0.11864614 0.00402399 -0.054072935 0.040224396
0002e0 ed f1 bd bc ac 2b 30 bd be 80 84 bd 86 26 3f bd
       -0.023186648 -0.0430104 -0.06469868 -0.0466676
0002f0 44 e7 10 bd 92 79 cb 3c f9 af 10 b9 29 d6 50 3d
       -0.035376802 0.024838243 -0.00013798465 0.05098549
000300 78 94 a5 bd 41 be 95 bd 50 c8 8c 3b 4f 47 2d 3d
       -0.08084959 -0.07311679 0.00429634 0.042304333
000310 27 fd a6 3d 3d 9c dd 3d f6 e9 10 3e a9 61 14 3c
       0.08153754 0.10820816 0.14151749 0.009056487
000320 65 b9 98 3d 6e 8d 04 3d c2 d7 b4 bd 59 ab 61 39
       0.07457236 0.03236144 -0.08830215 0.00021521504
000330 10 75 bc bd 38 f3 a6 bb 93 46 67 3d d4 62 c4 bd
       -0.092020154 -0.005094912 0.05646379 -0.095891625
000340 82 24 45 bd 13 90 ff 3d a4 50 7a 3d 26 69 df 3c
       -0.04813052 0.12478652 0.06111206 0.027271818
000350 3f 4a 8f bd 51 bb 82 3a d2 d0 37 3d f5 fe 8b 3c
       -0.06996583 0.0009974038 0.04487688 0.017089346
000360 9a 8e 8d 3b a0 70 d6 bd 8b 75 81 3d 6a 12 80 3d
       0.004319978 -0.104707 0.06321248 0.06253512
000370 16 a4 f0 3d 84 b7 e9 3d 14 64 9d 3b 52 46 d3 3d
       0.11750047 0.11411956 0.00480319 0.10316147
000380 46 7c 80 bd e0 d5 37 bd 08 58 aa 3d e4 4a 99 bd
       -0.06273703 -0.0448817 0.08317572 -0.074849874
000390 1e cf 8e bd ab df c3 3d c3 a6 d2 3c 22 71 03 3e
       -0.06973098 0.09564146 0.025714284 0.12836125
0003a0 4f 56 91 3c ec 77 02 3d 50 cc a1 3d 7c 1f 93 bd
       0.01774135 0.031852648 0.07900298 -0.071837395
0003b0 e4 a4 9e bd c6 52 1c bd e8 05 10 bd 32 0c ba b9
       -0.07746294 -0.038164876 -0.035161883 -0.0003548577
0003c0 66 e5 ae 3d 5d 3f 16 3a d8 6b c5 bd a6 b5 26 3e
       0.08539848 0.0005731488 -0.0963971 0.16280231
0003d0 45 22 3d bd a2 c0 21 3d 51 d5 7a 3d 40 ca f1 3c
       -0.04617526 0.03949035 0.06123859 0.029515386
0003e0 fd 68 b8 3b 19 3f 0f 3e e7 a3 0f bd 97 9d 0d bc
       0.00562775 0.13988914 -0.03506842 -0.008643529
0003f0 13 51 63 bd 78 42 88 3d 12 5f 9c bd 2b a5 31 3d
       -0.05549724 0.06653303 -0.07635321 0.043370407

l2.bias f4 [256]
000000 78 b4 54 3d 23 ae 98 3d e2 66 55 3d f8 1b 7b 3d
       0.05192992 0.07455089 0.05210007 0.06130597
000010 3e 18 82 3d 96 eb 64 3d ca d1 61 3d ea 0d 64 3d
       0.0635228 0.055888735 0.05513171 0.055677332
000020 99 5e a2 3d ad f2 8c 3d 3f b6 35 3d c5 fe 74 3d
       0.07928199 0.06882224 0.044363257 0.05981328
000030 be df 66 3d 1a c9 37 3d 40 8a 83 3d 28 3a 7d 3d
       0.05636572 0.04486952 0.064228535 0.06182304
000040 3e 42 5a 3d 76 48 a2 3d d1 46 7d 3d 66 c5 80 3d
       0.05328583 0.07923977 0.061835114 0.06287651
000050 70 ee 8a 3d 41 40 96 3d 7e 2c 58 3d ef d2 3d 3d
       0.067837596 0.07336474 0.052776806 0.04634374
000060 14 e8 97 3d 47 79 28 3d 39 28 78 3d 6c 7c 70 3d
       0.07417312 0.041131284 0.060585234 0.058712408
000070 a1 26 98 3d 98 cd 68 3d 63 d8 6f 3d 8f e4 4f 3d
       0.07429243 0.056836694 0.05855597 0.05075508
000080 68 3f 85 3d 89 c2 90 3d 4e ff 84 3d 3f 81 67 3d
       0.065062344 0.07068355 0.06494008 0.056519743
000090 14 28 43 3d 93 39 8c 3d a2 52 4f 3d bd 51 63 3d
       0.047645643 0.06846919 0.050615914 0.055497874
0000a0 af 37 7d 3d bf 3e 86 3d 69 f3 77 3d 48 dc 6d 3d
       0.061820682 0.065549366 0.06053487 0.058071405
0000b0 54 57 66 3d 65 4d 4e 3d e2 99 66 3d 6b 71 6f 3d
       0.056235626 0.050366778 0.056299098 0.058457773
0000c0 79 bc 5d 3d b3 10 85 3d 43 9d 6c 3d 26 9f 3e 3d
       0.05413482 0.06497326 0.057767164 0.046538495
0000d0 6a 25 56 3d 4d 3a 8b 3d b3 b7 b3 3d 1f 3f 22 3d
       0.052281775 0.06798229 0.08775272 0.03961098
0000e0 08 fe 5b 3d 33 2c 77 3d c5 98 8f 3d 69 25 2b 3d
       0.05370906 0.060344886 0.0701156 0.041783724
0000f0 30 52 43 3d 0b 3a 66 3d 0f 9e 73 3d 50 48 84 3d
       0.047685802 0.056207698 0.05947691 0.06459105
000100 c0 82 71 3d de 88 7f 3d 5a 0b 51 3d 78 5c 58 3d
       0.058962584 0.062386386 0.051036216 0.05282256
000110 82 de 55 3d 35 ea 87 3d c8 71 8d 3d 89 7a 70 3d
       0.052214153 0.06636468 0.06906468 0.05871061
000120 3f f4 90 3d 5a ad 81 3d f8 5b 98 3d 7b 01 37 3d
       0.07077836 0.06331892 0.07439417 0.044679146
000130 0d 6c 88 3d e9 45 80 3d cd ac 5a 3d 7c 15 69 3d
       0.06661234 0.06263334 0.053387452 0.056905255
000140 9b 44 9b 3d 7a 49 74 3d 10 ff 4d 3d c0 a1 41 3d
       0.07581445 0.059640385 0.050292075 0.047273397
000150 b5 b7 59 3d 39 64 79 3d 8c c0 8b 3d db 63 9d 3d
       0.053153712 0.060886595 0.06823835 0.076850615
000160 82 f0 7a 3d dc 87 76 3d c8 91 85 3d 50 a0 5f 3d
       0.061264522 0.06018816 0.06521946 0.054596245
000170 e2 2d 71 3d 92 b4 8d 3d f9 13 70 3d 47 f8 62 3d
       0.058881648 0.06919207 0.058612797 0.055412557
000180 dc c9 8a 3d 7a 07 86 3d ea 13 62 3d 47 f2 6b 3d
       0.06776783 0.06544395 0.055194773 0.0576041
000190 b3 b5 99 3d 60 b4 99 3d 03 f5 43 3d fd f2 87 3d
       0.075053595 0.07505107 0.047841083 0.06638143
0001a0 ed 59 86 3d ab 9f 54 3d a0 eb 55 3d ae d3 2f 3d
       0.06560121 0.051910084 0.052226663 0.042926483
0001b0 ff 5c 46 3d 47 54 8b 3d 24 c1 2c 3d ef f6 9f 3d
       0.04842853 0.06803184 0.04217638 0.07810771
0001c0 a6 e5 7a 3d 05 85 58 3d d6 f2 57 3d 10 c3 90 3d
       0.061254166 0.052861232 0.05272182 0.07068455
0001d0 56 a6 19 3d 25 a5 62 3d b1 86 86 3d 13 d1 63 3d
       0.037512146 0.055333275 0.06568659 0.05561931
0001e0 d1 a7 84 3d 82 cb 91 3d 97 e4 66 3d a8 60 8c 3d
       0.06477321 0.07118894 0.056370344 0.06854373
0001f0 7b 28 46 3d 2d 4d 74 3d a7 e3 78 3d f8 0c 57 3d
       0.04837845 0.059643913 0.06076398 0.052502602
000200 52 5c 21 3d a2 dc 5c 3d 63 ff 88 3d c4 27 84 3d
       0.039394684 0.05392135 0.06689336 0.06452897
000210 e7 84 66 3d ea 30 2b 3d 13 3a 9d 3d ea 8c 8b 3d
       0.05627909 0.041794695 0.076770924 0.068139866
000220 59 8b 5c 3d c3 70 82 3d f8 a3 83 3d a9 13 8a 3d
       0.05384383 0.06369164 0.06427759 0.06742031
000230 85 f0 7a 3d cc 02 32 3d 2a 0b 6a 3d 84 0b 84 3d
       0.061264534 0.0434597 0.057139553 0.06447509
000240 91 2b 9f 3d 54 19 83 3d 19 d5 4c 3d 7a 4b 81 3d
       0.077719815 0.06401315 0.050007913 0.06313224
000250 61 5d 4a 3d 49 f2 5a 3d 66 02 90 3d ee 6a 64 3d
       0.04940546 0.053453717 0.070317075 0.05576604
000260 44 62 69 3d 50 ba 5a 3d 9d 48 8f 3d 94 f3 a0 3d
       0.05697848 0.053400338 0.06996272 0.07858959
000270 16 0d 89 3d 3a 44 55 3d 1c af 3a 3d f7 22 48 3d
       0.06691949 0.05206702 0.045577154 0.04886147
000280 9d ae 64 3d 6d 22 5d 3d eb 52 73 3d c6 20 53 3d
       0.055830587 0.05398791 0.05940525 0.051544927
000290 ad 26 5e 3d 13 e9 94 3d 30 8f 5f 3d 34 b1 9b 3d
       0.054236103 0.07271018 0.054579914 0.07602158
0002a0 ff 73 8b 3d f6 f4 70 3d 5d 8b 3e 3d e1 5f 66 3d
       0.06809234 0.058827363 0.046519626 0.05624378
0002b0 9d ab 82 3d e1 6d 5e 3d 49 e2 3b 3d 4e b3 76 3d
       0.06380389 0.054304007 0.0458701 0.060229592
0002c0 45 57 8e 3d a8 44 78 3d 16 45 4a 3d f1 6f 53 3d
       0.06950239 0.06061235 0.04938229 0.051620428
0002d0 0e 0f 63 3d 67 a1 5a 3d 96 cb 6e 3d 34 ae 63 3d
       0.05543428 0.05337658 0.058299623 0.055586055
0002e0 da e9 92 3d 17 ef 71 3d 0c 18 87 3d 4d aa 60 3d
       0.0717351 0.059065904 0.065963835 0.05484991
0002f0 fa 6c 81 3d d9 a3 65 3d 7d 91 8f 3d 98 42 56 3d
       0.06319614 0.05606446 0.070101716 0.052309602
000300 74 74 85 3d 24 61 63 3d 7a dd 7b 3d 4f a8 73 3d
       0.06516352 0.055512562 0.061490513 0.059486683
000310 7e 0f a6 3d a6 f3 96 3d 0b 3a 74 3d a2 b8 85 3d
       0.08108424 0.07370691 0.059625667 0.065293565
000320 50 21 93 a0 c9 ce 0e 3d 8a 8a 66 3d d9 f1 35 3d
       -2.4924813e-19 0.034865174 0.056284465 0.044420097
000330 62 ea 4c 3d 4e fb 6d 3d 4d 16 84 3d d2 aa 89 3d
       0.050028212 0.05810099 0.06449566 0.067220345
000340 73 9d 58 3d 26 06 87 3d 6c 40 4b 3d 9d 09 97 3d
       0.05288453 0.065929696 0.049621984 0.073748805
000350 aa 7b 96 3d 37 10 8f 3d f4 c6 7e 3d 32 51 80 3d
       0.07347806 0.069855146 0.062201455 0.06265487
000360 ee 62 1e 3d 1e 9d 95 3d a7 b6 80 3d 30 d8 3d 3d
       0.038668565 0.07305358 0.06284838 0.04634875
000370 bf 5f 2e 3d 2b 50 79 3d d1 dd 77 3d 23 41 9e 3d
       0.04257178 0.06086747 0.060514275 0.077272676
000380 e4 81 8d 3d f1 e8 3a 3d 0b 7f 98 3d 1b a1 83 3d
       0.0690954 0.045632306 0.074461065 0.06427213
000390 72 dc 39 3d 19 08 64 3d 56 98 81 3d b8 4c 7d a0
       0.04537625 0.055671785 0.06327884 -2.1455318e-19
0003a0 d5 30 35 3d 1a 11 84 3d 46 b3 92 a0 1a 50 83 3d
       0.044236023 0.06448574 -2.4851995e-19 0.064117625
0003b0 2b fd 5b 3d 53 64 a2 3d 69 aa 83 3d 4a ea 61 3d
       0.053708237 0.079292916 0.064289875 0.055155076
0003c0 94 8e 56 3d cb e6 8f 3d 94 63 6d 3d 62 38 48 3d
       0.052382067 0.07026442 0.057956293 0.048881896
0003d0 f5 7e 5c 3d c9 70 86 3d 78 31 84 3d 8a 9f 53 3d
       0.053832013 0.06564481 0.06454748 0.05166582
0003e0 fe a5 45 3d 50 a7 71 3d 53 1a 51 3d b6 66 51 3d
       0.048254006 0.058997452 0.051050495 0.051123343
0003f0 3a 9b af 3d 5e 8f 87 3d 46 e8 80 3d e8 8a 6c 3d
       0.08574529 0.06619142 0.06294303 0.05774966
