code/save/model_delta_embeddings/model_delta_4.pt (torch, 355968 bytes, 4 tensors)

embed.weight f4 [59, 128]
0.15772457 -0.12948994 -0.32652822 -0.38638362 0.1581125 -0.2772586 0.29891098 -0.46207607
-0.16230415 -0.23926082 0.31864828 0.11037449 0.24982928 0.23105243 0.28675196 -0.115435
0.32480484 0.12054279 -0.092123106 -0.23135918 0.27965945 0.21871157 0.21513356 -0.38067865
0.026118595 -0.0025034675 -0.36433834 -0.00869442 0.32760286 -0.29766837 -0.36694998 0.13758335
-0.19662024 0.1548429 0.11628709 0.09988261 -0.05735126 0.22437723 -0.30620545 0.306948
-0.3262426 0.29419607 0.32401028 -0.14127684 0.24821429 0.15807314 -0.16537271 0.28113803
-0.022456042 -0.22133797 -0.22346978 -0.32124147 -0.008771457 0.24747875 -0.15219499 -0.2795236
-0.2003238 0.12665191 -0.21776481 -0.13687941 -0.20629162 0.27973053 -0.44800907 -0.34978178
-0.24947101 -0.22801591 0.21931475 -0.3564889 0.28059316 0.19646642 -0.27725825 -0.11609092
0.3219523 0.21454519 -0.2206048 -0.21849377 0.113868184 0.04700946 0.070994064 0.010125949
-0.31854153 0.32675865 -0.103902966 0.09004599 -0.33434772 -0.2767129 -0.19927032 -0.112224415
0.2617862 -0.013951143 0.045594215 -0.40679497 -0.37570193 0.24686742 0.3468826 -0.1747397
-0.033056002 0.1983089 0.08530102 0.21495159 0.1907444 -0.08232397 0.41444805 0.2823958
0.42717087 -0.19491445 -0.19312371 -0.07381525 0.19510365 0.21871637 0.053398434 -0.26299363
0.105510086 -0.2037922 -0.048092984 -0.23075868 -0.08793565 -0.3301774 -0.39401323 0.08539994
-0.16966912 -0.27133158 0.3104817 0.2158647 0.18542632 0.13477688 0.27511334 0.036660813
-0.11927112 0.14854011 -0.3404992 -0.29296285 0.34696063 -0.22730388 0.04788904 0.28961745
0.2835073 -0.34051004 0.29593328 -0.35464585 -0.26412842 0.31107894 0.3814532 0.09388434
-0.14312455 -0.23971103 -0.18739021 -0.183495 -0.09558056 -0.30889514 0.3392469 0.3122981
0.059886407 0.24715458 0.23497124 -0.24935026 0.05929615 0.3653096 0.0729079 0.25533387
0.17871623 -0.030962018 0.30674574 0.15892082 0.29782626 0.1823315 0.3484413 -0.014699419
-0.36073244 -0.19697739 0.19623694 -0.30743122 -0.16043694 -0.30295596 0.007910486 -0.11063426
0.23533504 -0.20365892 0.3208197 0.274328 0.3510936 0.14383791 -0.11588785 0.16452254
-0.0511964 -0.011371562 -0.35912547 0.093859315 -0.23309009 -0.36015302 -0.12419149 -0.081904486
0.11762727 0.44827056 -0.15981995 -0.31740424 -0.22567429 -0.3578516 0.17594808 -0.1339589
-0.429392 -0.26235637 0.26613995 -0.32043546 -0.2890342 -0.23768635 -0.18839546 0.041057225
0.23643589 -0.20793201 0.07408628 0.07287601 -0.2823915 0.122694984 -0.23429173 0.21989569
0.1079273 -0.18790539 0.00037766853 -0.007205856 0.32710055 0.24543838 0.22929624 0.27646503
-0.06532622 0.23944683 0.22562538 0.020158803 0.040952165 -0.15758875 0.29764253 0.20222065
-0.32331294 0.23685294 0.07810944 0.34488106 -0.05417455 0.30828157 -0.18736228 0.06250004
0.13684101 -0.36310053 0.17943569 -0.094820514 0.31557915 -0.266352 -0.12420842 -0.11343177
0.25423887 0.24223082 0.22030945 -0.35400006 -0.35059398 -0.19342671 -0.012996652 0.25076666
00000000: 8d82 213e 0399 04be b52e a7be 13d4 c5be
00000010: 3ee8 213e d7f4 8dbe dc0a 993e 3c95 ecbe
00000020: 0f33 26be ca00 75be de25 a33e 050c e23d
00000030: 3fd3 7f3e 0299 6c3e 27d1 923e 2f69 ecbd
00000040: d24c a63e 23df f63d 0aab bcbd 6ce9 6cbe
00000050: 862f 8f3e edf5 5f3e f94b 5c3e 50e8 c2be
00000060: aaf6 d53c 3711 24bb 8e8a babe 0a73 0ebc
00000070: 90bb a73e fd67 98be dee0 bbbe a6e2 0c3e
00000080: d156 49be 238f 1e3e ed27 ee3d 418f cc3d
00000090: 28e9 6abd 25c3 653e f6c6 9cbe 4a28 9d3e
000000a0: 4509 a7be dea0 963e ade4 a53e e0aa 10be
000000b0: e32b 7e3e eddd 213e 7757 29be 53f1 8f3e
000000c0: bcf5 b7bc 6ca6 62be 43d5 64be c379 a4be
000000d0: 28b6 0fbc 126b 7d3e 01d9 1bbe b81d 8fbe
000000e0: af21 4dbe 0ab1 013e bdfd 5ebe 1e2a 0cbe
000000f0: 1c3e 53be d738 8f3e 7261 e5be 9916 b3be
00000100: 5475 7fbe 017d 69be 0c94 603e b785 b6be
00000110: e8a9 8f3e 7e2e 493e cbf4 8dbe 14c1 edbd
00000120: efd6 a43e bcb1 5b3e 3ae6 61be d5bc 5fbe
00000130: b933 e93d fe8c 403d 5665 913d 4fe7 253c
00000140: e017 a3be e94c a73e 14cb d4bd 086a b83d
00000150: a02f abbe 50ad 8dbe 850d 4cbe ead5 e5bd
00000160: d708 863e 5693 64bc 00c1 3a3d 6e47 d0be
00000170: 015c c0be d0ca 7c3e 999a b13e f7ee 32be
00000180: bb65 07bd 7d11 4b3e 4db2 ae3d 451c 5c3e
00000190: 8052 433e 7899 a8bd 8932 d43e 2f96 903e
000001a0: 24b6 da3e a797 47be 39c2 45be 732c 97bd
000001b0: 40c9 473e 2ff7 5f3e 51b8 5a3d 1aa7 86be
000001c0: ac15 d83d e7ae 50be 26fd 44bd 014c 6cbe
000001d0: 9b17 b4bd 030d a9be 1abc c9be 2ae6 ae3d
000001e0: bebd 2dbe f9eb 8abe 75f7 9e3e a30b 5d3e
000001f0: 66e0 3d3e f302 0a3e a8db 8c3e a629 163d
00000200: 6b44 f4bd e61a 183e e955 aebe 3aff 95be
00000210: d3a4 b13e 59c2 68be 4c27 443d bd48 943e
00000220: de27 913e 5557 aebe 9184 973e 2494 b5be
00000230: d73b 87be bd45 9f3e d54d c33e 6f46 c03d
00000240: 3e8f 12be cf76 75be 38e3 3fbe 1de6 3bbe
00000250: bebf c3bd 8127 9ebe c5b1 ad3e 89e5 9f3e
00000260: 734b 753d 1716 7d3e 4d9c 703e ad55 7fbe
00000270: 85e0 723d dc09 bb3e bd50 953d 1fbb 823e
00000280: 6301 373e 0fa4 fdbc c70d 9d3e 24bc 223e
00000290: af7c 983e 1cb5 3a3e e666 b23e d5d5 70bc
000002a0: ecb1 b8be 71b4 49be 56f2 483e a067 9dbe
000002b0: 9549 24be 0b1d 9bbe fc9a 013c 3794 e2bd
000002c0: abfb 703e f78b 50be 7b42 a43e b874 8c3e
000002d0: 8ac2 b33e 3f4a 133e 9c56 edbd 9978 283e
000002e0: 51b3 51bd ca4f 3abc 4bdf b7be 5039 c03d
000002f0: 2baf 6ebe fa65 b8be 1c58 febd 8abd a7bd
00000300: 91e6 f03d b883 e53e d7a7 23be cf82 a2be
00000310: 2917 67be 5338 b7be bc2b 343e 862c 09be
00000320: 45d9 dbbe 9353 86be 7f43 883e 1e10 a4be
00000330: 4afc 93be 0d64 73be bdea 40be 9f2b 283d
00000340: 401c 723e 21ec 54be 8cba 973d 0440 953d
00000350: 9e95 90be 8247 fb3d 2cea 6fbe 562c 613e
00000360: fd08 dd3d 456a 40be d001 c639 1a1f ecbb
00000370: b979 a73e 3354 7b3e a2cc 6a3e d38c 8d3e
00000380: c1c9 85bd 8d31 753e 570a 673e 1324 a53c
00000390: 75bd 273d f25e 21be 9a64 983e ee12 4f3e
000003a0: 4689 a5be 9489 723e d8f7 9f3d 4094 b03e
000003b0: 22e6 5dbd 15d7 9d3e e6db 3fbe 0500 803d
000003c0: 0d20 0c3e 50e8 b9be fdbd 373e 4231 c2bd
000003d0: 9793 a13e 4a5f 88be fc60 febd ea4e e8bd
000003e0: 992b 823e 5b0b 783e cd98 613e 7f3f b5be
000003f0: 0e81 b3be a711 46be e9ef 54bc 7d64 803e

unembed.weight f4 [59, 256]
0.1860022 0.29573464 -0.11465922 -0.113652505 0.31924275 5.9514e-11 0.11108915 -0.08220185
-0.21862507 0.081537366 -0.28871688 0.3441388 -0.18577076 0.19034193 -0.106950134 0.22365959
0.22962779 -0.16097024 -0.22132531 0.3042235 0.25580296 0.20915931 0.05038322 -0.17745586
-0.1759629 -0.32808322 0.18128468 0.26250592 1.1478584e-08 -0.31799236 0.109179966 -0.12830977
0.06555468 6.346886e-07 -0.2057112 0.26066536 1.0394814e-05 0.2982922 0.34954342 9.206955e-07
0.35097465 0.3319061 -0.1971819 -0.18912591 0.124643944 -0.17211176 0.2282648 -0.3204423
-0.16536106 0.2939819 0.3079093 -0.23088259 -3.2413777e-06 0.28285483 0.18150868 -0.015348085
0.15359999 0.33252817 0.30952138 -0.34874186 0.2683701 -0.022528447 0.22675331 0.0066575836
0.13250895 -0.40949157 0.22193845 0.31754667 0.26911116 0.23834123 0.28398174 0.26325506
-0.30323485 0.110826954 -0.27985066 -0.12950647 -0.29300478 -0.21774589 0.003176178 -0.05743907
-0.09169458 -0.11458138 0.15995352 0.30717573 -0.10590813 0.19700664 0.1929549 -0.36029494
0.2573837 -0.33332413 -0.3091277 -0.32076287 -0.36053216 0.1290318 0.2491493 -0.32864094
0.13482147 0.093453206 -0.2505706 -0.27923343 -0.25604948 -0.23059835 -0.29732355 0.067415595
0.15863158 0.22840317 -0.20123003 -0.11387646 -0.25948453 -0.01619868 -0.21959502 0.113458104
-0.28670424 0.31373364 -0.07097585 0.21474114 -0.30597597 -0.15114665 0.20970851 0.1655328
-0.31049165 0.21501154 0.05131587 0.10384371 -0.33354095 -0.13236031 -0.35928455 -0.26917046
0.25792533 0.26307803 -0.062692754 0.1407426 0.20325337 -0.029318605 0.104071416 0.19473833
0.21221691 -0.14253639 0.16868955 -0.30236536 0.026192203 0.23392764 -0.08910818 0.1855636
0.24056302 0.081698045 0.04657677 0.24741507 -0.12048339 -0.2020632 9.282497e-09 -0.026727565
-0.0534594 -0.22574507 -0.041908935 -0.12816401 -0.22508332 0.1443555 0.23301268 -0.10509895
0.19537802 0.18698905 0.09343489 -0.1568747 -0.25204667 -0.15466273 -0.42302036 -0.20962131
-0.20672503 0.22678839 0.29672703 0.030640807 0.36326826 0.19882432 -0.08612814 0.24211024
0.14545994 0.18461892 -0.28627515 -0.16259941 0.16782875 -0.33211184 0.21352816 -0.23779848
-4.8663576e-08 0.067116156 0.23511577 0.26323217 -0.07765477 -0.37278542 -0.39265257 -0.140606
-0.092514575 0.21438973 7.638678e-05 -0.047689825 0.21361867 0.28341383 -0.18461494 0.2525053
0.2591097 0.25405464 0.29768232 -0.111304484 0.158577 0.29001635 -0.13917689 0.13859585
0.24682428 -0.0038568308 0.23359087 -0.22328196 -0.24259877 -0.26462546 -0.12235114 0.29578766
-0.3108297 -0.37561825 -0.11428133 -0.0024806028 0.22458027 -0.3235886 0.278003 -0.40445736
-0.09419657 0.2943572 0.010992243 0.10660474 -8.966658e-08 0.07607312 0.058208525 0.2549553
-0.34299856 -0.043399528 -0.31076857 -0.2671256 0.23488428 0.14187485 -0.3080751 0.17522927
0.108590454 -0.34729192 0.11434133 0.26689148 0.08981599 -0.13290907 0.24470104 0.17395279
-0.052238137 0.3017177 -0.07387849 0.18639055 0.102624215 0.30462602 0.3533799 -0.26281995
00000000: 5c77 3e3e 886a 973e 74d2 eabd a5c2 e8bd
00000010: c973 a33e 67df 822e b582 e33d 7259 a8bd
00000020: 40df 5fbe 10fd a63d b3d2 93be f632 b03e
00000030: b13a 3ebe ffe8 423e ac08 dbbd 0507 653e
00000040: 8c23 6b3e 62d5 24be 1aa3 62be 2fc3 9b3e
00000050: 9bf8 823e dc2d 563e a35e 4e3d fdb6 35be
00000060: 9e2f 34be 86fa a7be b1a2 393e 2d67 863e
00000070: 5933 4532 e5cf a2be bf99 df3d a363 03be
00000080: 8841 863d 785f 2a35 f5a5 52be ee75 853e
00000090: 6365 2e37 c1b9 983e 5bf7 b23e b725 7735
000000a0: f3b2 b33e 99ef a93e 0dea 49be 39aa 41be
000000b0: 5345 ff3d 113e 30be 3fbe 693e 0311 a4be
000000c0: 6954 29be cc84 963e 4aa6 9d3e 7c6c 6cbe
000000d0: 7286 59b6 59d2 903e 69dd 393e 8976 7bbc
000000e0: 5149 1d3e 2241 aa3e 9679 9e3e 4b8e b2be
000000f0: ce67 893e 948d b8bc 0532 683e dc27 da3b
00000100: 6db0 073e e1a8 d1be d543 633e 7a95 a23e
00000110: f0c8 893e b90f 743e 0e66 913e 5ec9 863e
00000120: 9941 9bbe 3ef9 e23d 9648 8fbe 589d 04be
00000130: b904 96be c7f8 5ebe 6d27 503b 3b45 6bbd
00000140: 5eca bbbd a4a9 eabd dbca 233e 2346 9d3e
00000150: 5de6 d8bd 1cbc 493e f895 453e 9478 b8be
00000160: ccc7 833e 76a9 aabe fc45 9ebe 083b a4be
00000170: ac97 b8be ea20 043e fe20 7f3e a043 a8be
00000180: a40e 0a3e 6564 bf3d ca4a 80be aff7 8ebe
00000190: eb18 83be f921 6cbe cb3a 98be 3011 8a3d
000001a0: 5170 223e 85e2 693e 3f0f 4ebe 1038 e9bd
000001b0: 28db 84be 18b3 84bc 84dd 60be b95c e83d
000001c0: e6ca 92be b2a1 a03e c95b 91bd 1ae5 5b3e
000001d0: e2a8 9cbe 30c6 1abe d4bd 563e 6e81 293e
000001e0: c3f8 9ebe fc2b 5c3e 9730 523d 03ac d43d
000001f0: e1c5 aabe 7689 07be 25f4 b7be b6d0 89be
00000200: ca0e 843e 2ab2 863e 0f65 80bd d41e 103e
00000210: a721 503e 922d f0bc 6523 d53d 7c69 473e
00000220: 644f 593e 0ff5 11be f4bc 2c3e a2cf 9abe
00000230: 0891 d63c ba8a 6f3e 597e b6bd 6204 3e3e
00000240: 2756 763e 4e51 a73d 48c7 3e3d 605a 7d3e
00000250: ffbf f6bd a8e9 4ebe db78 1f32 c4f3 dabc
00000260: 3ef8 5abd b729 67be b4a8 2bbd 6d3d 03be
00000270: 3e7c 66be eed1 133e e09a 6e3e 1e3e d7bd
00000280: 2d11 483e 0f7a 3f3e cb5a bf3d c3a3 20be
00000290: 430c 81be e85f 1ebe 2096 d8be f8a6 56be
000002a0: baaf 53be 373b 683e 9bec 973e 6e02 fb3c
000002b0: 4cfe b93e 9a98 4b3e f363 b0bd bfeb 773e
000002c0: 73f3 143e be0c 3d3e a892 92be 7680 26be
000002d0: 4ddb 2b3e 900a aabe 20a7 5a3e 7281 73be
000002e0: 2b02 51b3 3274 893d 30c2 703e 5ec6 863e
000002f0: 7709 9fbd bbdd bebe c209 c9be 05fb 0fbe
00000300: 4878 bdbd fb88 5b3e d731 a038 6856 43bd
00000310: dabe 5a3e 9e1b 913e b30b 3dbe 6048 813e
00000320: 07aa 843e 7313 823e d169 983e 9bf3 e3bd
00000330: 0262 223e 067d 943e 6384 0ebe 12ec 0d3e
00000340: 81bf 7c3e e2c2 7cbb 7232 6f3e 07a4 64be
00000350: d06b 78be fd7c 87be 3c93 fabd 7b71 973e
00000360: 1225 9fbe 0951 c0be 540c eabd 9c91 22bb
00000370: 5ff8 653e 68ad a5be 6956 8e3e 0915 cfbe
00000380: 22ea c0bd fdb5 963e cf18 343c 9653 da3d
00000390: b98e c0b3 39cc 9b3d 106c 6e3d 8089 823e
000003a0: 829d afbe b4c3 31bd 0f1d 9fbe b0c4 88be
000003b0: 8185 703e a447 113e 05bc 9dbe 4d6f 333e
000003c0: ac64 de3d 3fd0 b1be ca2b ea3d 00a6 883e
000003d0: 72f1 b73d 5119 08be e992 7a3e ae20 323e
000003e0: a8f7 55bd be7a 9a3e 9b4d 97bd 2add 3e3e
000003f0: a52c d23d f1f7 9b3e 36ee b43e 5690 86be

l1.weight f4 [256, 256]
-0.15142086 0.2524274 -0.15711737 -0.14337145 0.14806667 -0.21386386 -0.261524 -0.32307813
-0.1660676 0.12878482 0.14473635 -0.21838883 0.21021853 -0.16847001 0.17037666 0.21264933
-0.14252914 0.14556831 -0.08850638 -0.15233967 0.17389926 0.1601715 -0.21753934 -0.0017342003
-0.20671627 -0.20326732 -0.1687218 -0.10721094 -0.05153666 -0.2083857 -0.061148 0.034105245
-0.069683254 -0.155758 0.23506536 0.029378755 -0.23694302 0.14428158 -0.09844162 0.21228564
0.20507969 0.15794902 -0.21746184 0.0837204 -0.07710796 0.23803917 0.08377206 -0.10878769
0.12514351 -0.022348644 -0.24158663 -0.012682076 -0.0344342 -0.012515389 0.21934108 -0.15004314
-0.11462422 0.07837219 -0.19650494 0.1920964 -0.20645477 -0.13935573 0.015284824 -0.0783743
0.15025611 -0.21568523 -0.24174942 -0.06837918 -0.22488904 0.08829311 -0.25313637 0.1554418
-0.12703341 0.17167348 -0.2115941 -0.11487239 0.113708906 -0.050388586 0.029767713 -0.19975305
-0.22806022 0.067055926 -0.22998868 -0.13662882 -0.059832223 -0.21802428 -0.15456146 -0.039891794
-0.10515001 -0.1468207 0.07325851 -0.21695456 -0.22876509 -0.07441552 0.19450623 -0.2921942
0.17349768 0.13694596 -0.1740137 0.12876867 0.17004617 -0.07489694 0.061725985 -0.094962426
0.23957537 -0.24706587 -0.20649675 0.06243959 0.13912001 0.1246039 -0.099322416 -0.008309122
0.25357953 0.07339232 0.16676229 0.12879309 -0.18555675 0.10748527 -0.20746315 0.20002204
-0.15647691 -0.20970026 0.03315356 -0.101465985 0.1939327 0.12470957 -0.16945906 -0.2261526
-0.15703188 0.27656597 -0.13828751 -0.12021256 0.17801724 -0.1683121 -0.20102425 -0.26581895
-0.22319548 0.12608619 0.103123404 -0.21618222 0.23029715 -0.2146768 0.18247184 0.18533695
-0.10147775 0.1235494 -0.13862218 -0.10162525 0.18291679 0.23356517 -0.18923236 0.07286502
-0.23083593 -0.13287188 -0.15923382 -0.06863325 0.0023677326 -0.14580329 0.013915308 0.15509526
-0.07561508 -0.12712158 0.18621334 0.12227629 -0.2126441 0.12396747 -0.14564715 0.19386828
0.22535123 0.20595479 -0.20815717 0.15836953 -0.099207416 0.20706442 0.018707555 -0.074852884
0.16597855 0.03999565 -0.1875329 0.046407048 -0.104098484 0.103030235 0.30486375 -0.19779932
-0.10100008 -0.007679031 -0.17358276 0.1699403 -0.21645935 -0.105170645 -0.140397 0.0044001583
0.08526079 -0.24256794 -0.24198827 0.051205467 -0.24467747 0.115663074 -0.26153517 0.16768526
-0.082079306 0.14523141 -0.18092029 -0.050651845 0.021453207 -0.011893381 -0.045378156 -0.19524503
-0.23915266 -0.027746502 -0.19813727 -0.23438954 0.05830216 -0.25552872 -0.1560225 -0.05348484
-0.17282869 -0.1513417 0.052126344 -0.20136671 -0.28599465 -0.054629285 0.22694275 -0.25894186
0.02193445 0.14163749 -0.13283631 0.20436007 0.14618425 0.04714387 -0.07336773 -0.15511245
0.23632056 -0.18536496 -0.16315754 0.016713118 0.07582661 0.007960557 -0.11536761 -0.12269601
0.24830967 0.1443076 0.029525392 0.14927603 -0.18366137 0.12600179 -0.18962358 0.18371029
-0.1637065 -0.16529325 0.0027291777 -0.13847952 0.23370077 0.18564297 -0.1038106 -0.21768562
00000000: 120e 1bbe 2a3e 813e 60e3 20be f7cf 12be
00000010: ca9e 173e 21ff 5abe 79e6 85be 7f6a a5be
00000020: a00d 2abe 2be0 033e c435 143e 52a1 5fbe
00000030: 8743 573e 6783 2cbe 3877 2e3e bfc0 593e
00000040: 29f3 11be dc0f 153e d542 b5bd eefe 1bbe
00000050: a612 323e ff03 243e a2c2 5ebe 1b4e e3ba
00000060: 6ead 53be 4f25 50be 68c5 2cbe 6991 dbbd
00000070: 1b18 53bd 1063 55be 5376 7abd f1b1 0b3d
00000080: 18b6 8ebd 067f 1fbe f9b4 703e b7ab f03c
00000090: 31a1 72be 8dbe 133e c39b c9bd 6861 593e
000000a0: 6900 523e 63bd 213e 51ae 5ebe 9a75 ab3d
000000b0: c7ea 9dbd 8ac0 733e b090 ab3d 15cc debd
000000c0: 9f25 003e 8114 b7bc 7c62 77be 7bc8 4fbc
000000d0: e00a 0dbd 590d 4dbc f39a 603e e9a4 19be
000000e0: 1ac0 eabd 9981 a03d 9738 49be ebb4 443e
000000f0: e168 53be 45b3 0ebe 336d 7a3c b482 a0bd
00000100: bddc 193e 97dc 5cbe 298d 77be 620a 8cbd
00000110: 5049 66be 05d3 b43d 179b 81be 232c 1f3e
00000120: 0c15 02be 2ccb 2f3e 20ac 58be 3742 ebbd
00000130: 37e0 e83d 4364 4ebd 6bdb f33c 108c 4cbe
00000140: 9e88 69be 9e54 893d 2782 6bbe 6de8 0bbe
00000150: a212 75bd c241 5fbe 5c45 1ebe 9465 23bd
00000160: e358 d7bd 2a58 16be 8f08 963d 5629 5ebe
00000170: 6541 6abe 2a67 98bd a42c 473e 7a9a 95be
00000180: 60a9 313e 903b 0c3e a630 32be efdb 033e
00000190: 9520 2e3e 9163 99bd 63d4 7c3d a97b c2bd
000001a0: 3f53 753e d6fe 7cbe e273 53be a8c0 7f3d
000001b0: 7a75 0e3e 5430 ff3d 8d69 cbbd fc22 08bc
000001c0: 2dd5 813e b64e 963d bcc3 2a3e 56e2 033e
000001d0: 9702 3ebe 3d21 dc3d 3871 54be 94d2 4c3e
000001e0: 7c3b 20be aabb 56be 07cc 073d 66cd cfbd
000001f0: 4b96 463e bb67 ff3d ad86 2dbe 8c94 67be
00000200: f7cc 20be 0e9a 8d3e 3e9b 0dbe 0132 f6bd
00000210: 274a 363e 025a 2cbe 4dd9 4dbe 6c19 88be
00000220: 5b8d 64be bd1c 013e 5d32 d33d df5e 5dbe
00000230: 04d3 6b3e 3cd4 5bbe e6d9 3a3e f8c8 3d3e
00000240: 91d3 cfbd 7807 fd3d f9f2 0dbe e620 d0bd
00000250: 8a4e 3b3e b52b 6f3e 21c6 41be 413a 953d
00000260: 4160 6cbe 910f 08be 310e 23be 978f 8cbd
00000270: f62b 1b3b 754d 15be 08fd 633c 4bd1 1e3e
00000280: 14dc 9abd 292c 02be b6ae 3e3e fe6b fa3d
00000290: 60bf 59be a8e2 fd3d 8724 15be 6885 463e
000002a0: 79c2 663e d0e5 523e 2727 55be 9f2b 223e
000002b0: 422d cbbd b208 543e 9640 993c 784c 99bd
000002c0: 48f6 293e 7bd2 233d a008 40be 5115 3e3d
000002d0: 9631 d5bd 8401 d33d 1a17 9c3e e88b 4abe
000002e0: 21d9 cebd 62a0 fbbb aebf 31be d404 2e3e
000002f0: 85a7 5dbe b563 d7bd 3bc4 0fbe 342f 903b
00000300: 369d ae3d bb63 78be c6cb 77be d3bc 513d
00000310: bb8c 7abe c3e0 ec3d f0e7 85be afb5 2b3e
00000320: 3219 a8bd 8bb7 143e 2b43 39be 4f78 4fbd
00000330: a3be af3c 75dc 42bc 72de 39bd 50ee 47be
00000340: 6fe4 74be a24c e3bc 7fe4 4abe d003 70be
00000350: 3fce 6e3d a9d4 82be 5dc4 1fbe eb12 5bbd
00000360: 01fa 30be 52f9 1abe 6f82 553d 1333 4ebe
00000370: e46d 92be f5c2 5fbd ae63 683e 0794 84be
00000380: e0af b33c 6b09 113e 3e06 08be c443 513e
00000390: 53b1 153e ee19 413d d241 96bd ccd5 1ebe
000003a0: 04fe 713e 50d0 3dbe c512 27be f3e9 883c
000003b0: fb4a 9b3d ff6c 023c da45 ecbd 0c48 fbbd
000003c0: e444 7e3e 5fc5 133e 3cdf f13c d1db 183e
000003d0: ba11 3cbe 9d06 013e af2c 42be 8d1e 3c3e
000003e0: ada2 27be a242 29be 01dc 323b 93cd 0dbe
000003f0: 414f 6f3e 3119 3e3e a79a d4bd fbe8 5ebe

l1.bias f4 [256]
-0.014091186 -0.024084678 -0.022600805 0.008097293 0.026788903 1.1523904e-11 0.001968983 0.009109476
0.031297974 0.032179814 0.018738369 0.0012259206 0.0011299546 0.0008025617 -0.016770756 0.03640999
-0.0061246455 0.0096303215 -0.013662894 -0.009079196 0.009221358 0.050252065 0.019108346 -0.0032017748
0.0138915405 -0.01290955 -0.022494843 0.0060740407 -8.847845e-10 -0.013870167 -0.00072721724 0.038264435
0.008812422 4.0361126e-08 0.019172827 0.019385919 1.2904819e-07 -0.008559439 0.01280234 8.5531855e-07
-0.0142862145 -0.008476356 0.010987442 -0.018146079 0.0065778634 0.0018617925 0.00868423 0.01534574
0.022390489 0.003068506 0.026758071 -0.055845816 1.232705e-06 0.0049721524 -0.015732883 0.013231577
0.01137393 -0.021375833 -0.037139878 -0.020994838 -0.002768516 0.007177707 -0.02085804 0.028985221
-0.018415865 0.015356638 0.005237908 0.05552868 0.014179515 -0.011468611 0.035017237 -0.00395528
0.00022354162 0.009210135 -0.03093542 -0.0034566552 0.022538383 -0.036436424 7.41084e-05 0.064446814
0.013397162 -0.00700462 0.007647842 0.008464435 0.026378924 0.013483662 0.0046976875 0.022486096
0.0056808325 0.006527508 0.032260247 0.0006276976 0.0075455564 -0.041846223 0.008294045 -0.0035504692
-0.010320768 0.010197538 0.02420117 0.020485152 0.012114145 0.004072508 0.02513542 -0.03566925
-0.018779788 0.0031859444 -0.024169745 0.021824826 0.03775646 0.019790377 0.0014953144 -0.0022648114
-0.0246477 -0.024945112 0.053495474 -0.0037746376 -0.02497279 0.013962343 0.006808061 -0.045536578
0.028235292 0.0052312994 0.008780197 -0.009390188 -0.0298466 0.012077367 -0.022429833 0.010017605
0.0039102775 -0.002207766 0.0033149107 0.021778926 -0.0009280596 0.006455655 0.0039543035 0.012598233
0.0046860776 0.008846634 0.0010335828 0.013880939 0.018909605 0.02417922 -0.019595891 -0.026891654
0.015686244 -0.012999578 -0.0021891836 0.0148076285 -0.007137401 -0.032673754 1.8049022e-10 0.0029866286
-0.035715528 -0.028416887 0.01618768 -0.0067029484 0.014064593 -0.012439074 0.0018270358 0.006652925
0.01909421 -0.014277927 -0.02154923 -0.009624646 -0.0311073 0.011529612 0.0353881 0.014600185
-0.009588044 0.023627821 -0.02172452 -0.047638733 -0.060588703 0.0036248448 -0.03829445 0.009495058
-0.015172237 -0.029009026 -0.046163592 0.03319583 0.008364031 0.03487432 0.0004548339 -0.011593551
5.3027374e-09 0.012979378 0.0142466 0.01009379 -0.00142517 0.028115764 -0.032916915 0.00076791114
0.00167628 -0.00095244806 -1.0431526e-06 -0.04449616 -0.022375925 0.03265821 -0.0031375585 0.006744704
0.01993443 0.0004380936 0.0002620905 -0.020464813 0.034187324 -0.037545413 -0.020739432 -0.009275683
0.01562806 -0.00990949 -0.014039054 0.0076292995 -0.010322576 0.023286914 0.022769336 0.0030753452
0.04636791 -0.005387751 -0.010058596 0.065382995 0.00058523525 -0.021001576 -0.00031694828 -0.023988148
0.030531587 -0.0007633917 -0.010537267 0.012294672 -1.2041397e-09 0.015882283 0.0070566717 0.017619861
-0.009077607 0.020446364 -0.018569712 0.0077378214 0.0459218 0.0052694227 -0.026025353 0.0038576215
-0.008247528 -0.008996881 -0.023166554 0.0014096292 0.0012646724 -0.007543014 -0.010464449 -0.03484586
-0.037857067 -0.034686696 0.0012262757 0.047111746 -0.043979224 -0.023050658 0.047711264 -0.023442844
00000000: b8de 66bc 3b4d c5bc 5325 b9bc 82aa 043c
00000010: 6774 db3c 0dbb 4a2d 0e0a 013b e93f 153c
00000020: 4e32 003d fbce 033d 3581 993c 12af a03a
00000030: fc1a 943a 0163 523a d362 89bc a422 153d
00000040: 40b1 c8bb 7fc8 1d3c 55da 5fbc e8c0 14bc
00000050: 2e15 173c 1cd5 4d3d 1b89 9c3c ded4 51bb
00000060: 5899 633c 9482 53bc 1b47 b8bc bf08 c73b
00000070: 2d35 73b0 b23f 63bc b9a2 3eba 2bbb 1c3d
00000080: fa61 103c 8759 2d33 5510 9d3c 38cf 9e3c
00000090: 7f90 0a34 e43c 0cbc e8c0 513c 0b99 6535
000000a0: ba10 6abc 6ae0 0abc ac04 343c 16a7 94bc
000000b0: 1e8b d73b 6407 f43a 4d48 0e3c b36c 7b3c
000000c0: 426c b73c fd18 493b be33 db3c 95be 64bd
000000d0: 6c73 a535 70ed a23b 3fe2 80bc 42c9 583c
000000e0: b859 3a3c 5f1c afbc fc1f 18bd 5efd abbc
000000f0: fe6f 35bb f832 eb3b 7bde aabc 6a72 ed3c
00000100: dedc 96bc 689a 7b3c c2a2 ab3b 0b72 633d
00000110: 3251 683c d7e6 3bbc 3c6e 0f3d 4b9b 81bb
00000120: 7f66 6a39 1be6 163c 476c fdbc 0d89 62bb
00000130: 6aa2 b83c 5c3e 15bd a56a 9b38 b1fc 833d
00000140: c57f 5b3c 0387 e5bb c09a fa3b 6aae 0a3c
00000150: 9d18 d83c 94ea 5c3c 0fef 993b c334 b83c
00000160: 4726 ba3b b5e4 d53b 5223 043d 138c 243a
00000170: b740 f73b f266 2bbd bfe3 073c fdae 68bb
00000180: 7018 29bc 9313 273c 8841 c63c 7ad0 a73c
00000190: 687a 463c ac72 853b cce8 cd3c eb19 12bd
000001a0: 12d8 99bc 47cb 503b a1ff c5bc fac9 b23c
000001b0: 85a6 1a3d 6e1f a23c 6dfe c33a 3b6d 14bb
000001c0: f9e9 c9bc b159 ccbc 121e 5b3d e95f 77bb
000001d0: bd93 ccbc 50c2 643c 2816 df3b 9084 3abd
000001e0: b34d e73c 526b ab3b d1da 0f3c 4ed9 19bc
000001f0: db80 f4bc 26e0 453c c5be b7bc e120 243c
00000200: c921 803b 2bb0 10bb f93e 593b b869 b23c
00000210: 0749 73ba f689 d33b 1a93 813b d268 4e3c
00000220: ab8d 993b 79f1 103c 4979 873a e16c 633c
00000230: 51e8 9a3c 8013 c63c 9087 a0bc e34b dcbc
00000240: 7080 803c 2ffc 54bc 6878 0fbb b29b 723c
00000250: dce0 e9bb ead4 05bd 7b73 462f 50bb 433b
00000260: 724a 12bd 88ca e8bc 079c 843c 68a4 dbbb
00000270: 2e6f 663c 42cd 4bbc 2679 ef3a c800 da3b
00000280: 766b 9c3c f7ed 69bc 0388 b0bc b1b0 1dbc
00000290: bdd4 febc b3e6 3c3c 1df3 103d 9d35 6f3c
000002a0: 2c17 1dbc 228f c13c 9ff7 b1bc d520 43bd
000002b0: dc2b 78bd ce8e 6d3b a4da 1cbd 2991 1b3c
000002c0: f994 78bc 56a4 edbc 0916 3dbd 5af8 073d
000002d0: 4a09 093c 60d8 0e3d c676 ee39 e1f2 3dbc
000002e0: 5f33 b631 75a7 543c 926a 693c 6c60 253c
000002f0: c5cc baba 0853 e63c e3d3 06bd a54d 493a
00000300: a0b6 db3a b5ad 79ba 7302 8cb5 9b41 36bd
00000310: b74d b7bc 9dc4 053d 7f9f 4dbb ae02 dd3b
00000320: 884d a33c edaf e539 3169 8939 d3a5 a7bc
00000330: 0208 0c3d 38c9 19bd bee5 a9bc 09f9 17bc
00000340: 6b06 803c 6a5b 22bc 0f04 66bc 34ff f93b
00000350: 0620 29bc 33c4 be3c c286 ba3c bb8b 493b
00000360: 47ec 3d3d bb8b b0bb cfcc 24bc 85e7 853d
00000370: 796a 193a 7f0b acbc 142c a6b9 cb82 c4bc
00000380: 611d fa3c 5a1e 48ba 80a4 2cbc 986f 493c
00000390: e67e a5b0 901b 823c a73b e73b 8757 903c
000003a0: 3eba 14bc 227f a73c 821f 98bc 8d8d fd3b
000003b0: 7f18 3c3d 1fab ac3b 1f33 d5bc 26d0 7c3b
000003c0: a420 07bc a767 13bc c9c7 bdbc 4fc3 b83a
000003d0: 5dc3 a53a 632b f7bb 1573 2bbc 88ba 0ebd
000003e0: 0310 1bbd a313 0ebd fcba a03a 3ff8 403d
000003f0: 8f23 34bd bcd4 bcbc e36c 433d 350b c0bc
