code/save/model_delta_embeddings/model_delta_0.pt (torch, 355968 bytes, 4 tensors)

embed.weight f4 [59, 128]
00000000: a6db 80be f8a6 6f3e 8942 12be 005d e33d
00000010: 00ed 4c3e 4845 223e fe4a 9e3e a3e1 79be
00000020: 38aa 9abe 7881 823e f8c7 2cbc e964 563e
00000030: 9509 9f3e 1427 ab3e 6116 a2bc cb57 32be
00000040: 0a9d 473e 069c 663e b55c dc3e ebc4 913e
00000050: f474 76bd d836 593e 0c3a 07be 4f14 8d3e
00000060: 45aa 6b3e c9eb c43e 799b b2be 630a 6b3e
00000070: 4256 14be e67a 8fbe 4143 81be d96a c4bc
00000080: 65b2 da3e 1483 2c3e c3ee 3b3e 8811 b13e
00000090: 3e8a 68be b34e 42be d241 293d f3e0 a0be
000000a0: f749 9a3e f55b 3c3e eddc 4b3e d9f2 96be
000000b0: c63c 303e 5300 b8be d168 c23b 400d 6dbe
000000c0: 45ec 8e3e 2781 9f3e 5020 d13e 1680 3e3e
000000d0: 46aa a5be 1c4e 77be 1f5d db3d b147 6bbd
000000e0: e4c9 a63e 34ce 3fbe 48ff 44be 2112 9fbe
000000f0: 4aa4 353e b4e6 9dbd f9ef b83a dfeb bf3e
00000100: 9196 88be 83ef c93e 0f7b 50be a474 23bd
00000110: 10f2 bb3e 1296 9f3e 3499 993e 8a95 483e
00000120: 675c d8bd a891 5b3d e6b0 81bb 2f58 84be
00000130: 1098 babe 9e58 813b 495b 7ebd 25c4 95be
00000140: fe7e a13e a30f 6f3e 28a1 4abe e1db 96bd
00000150: 1543 833d 4d53 313d b35c 123e fa7a dfbc
00000160: 3c44 803e d9cd 58be 5360 e53d 2b59 84be
00000170: 9b13 353e 9e2f 73be a8d5 03be b125 89be
00000180: 8cd9 213e f5e9 3b3e 83bb b83c 21fd 91be
00000190: 016a 96be b09e 503e 0041 1fbe 23da bcbe
000001a0: d9d2 38be fe29 b7be 74bc a63e d8fd b03e
000001b0: 6440 c1be 1ab4 9cbe 7db1 d43d c3ef c5bd
000001c0: 83a5 7f3e 8390 353e 9bfa 1fbe da20 a8be
000001d0: b1b0 c43d 1f70 033d ad7e a6bd 7482 713e
000001e0: 4093 623e 2b05 a83e 5750 e43d da95 84be
000001f0: caac f83d ca3d 8cbc 6f18 643e d7ed 7c3e
00000200: 73af 9dbe 3fc6 29bd 9076 01be 6061 413e
00000210: 2c0e 323d 3984 6fbe 9d9e 96be ed6c bd3e
00000220: c2e9 02be 6a59 adbe d21f a2be 62e8 6a3e
00000230: d9eb 9ebd d05d 81be f4f2 7ebe 87b9 6c3e
00000240: 2855 573e dbc1 733e 512a c53d 5601 8b3e
00000250: 8d21 9fbe 20d5 aabe 81d5 a5be 9ba1 83be
00000260: 9b71 d73d 403f 483e 56cc 873e 5600 f8bd
00000270: 2560 a43e 6270 97be 1ea5 a9be 0918 e93e
00000280: 8a62 89bd f52c 8f3e 9479 6c3e 27e9 8fbe
00000290: 0fb0 f6bd 871e b0bd b15b 6c3e 8139 0f3d
000002a0: a9bd 05be e8f6 883d 4e0f bebd 1e5a 1a3e
000002b0: 2ed5 5abe 37c7 ce3e 7974 70be 714a 6ebc
000002c0: 417e 8abe 10b9 9d3e 71fd 253e 8366 4d3d
000002d0: dc61 5dbe 1c68 b9be 3e2c 19be 9ca0 e03a
000002e0: 2034 153c 88f8 31be faee 6d3e 88fc f3bd
000002f0: 7415 61be 7fec d13d 48a0 823e 7dfb aebe
00000300: e1dd 21be 114c b93d ebeb 9f3e 0a9b 113e
00000310: 5a0b b33e 451b 86be 35fd c23d 9e96 90be
00000320: 92bb 58bd 9ce1 95be 1656 db3d 156f a73d
00000330: 2b7e 953e 61d4 a33e 0b8e 9c3d ca3d 1fbc
00000340: 0ed5 6dbe 07f0 75be 7d9a 8cbe deda 85be
00000350: 1fc6 9c3e 5b25 96be d938 66be 8927 b13e
00000360: 561a 1ebe a031 1bbe ffdb 9d3d 6a10 163e
00000370: 3713 3a3e 6140 ebbe fd8a 8bbe 03c5 f7bd
00000380: d779 9fbe 20ef b43d 3fdd 893e 00e9 dfbd
00000390: b106 24be 6509 afbe 23fd 903e bddd 693e
000003a0: 9e22 853e e4eb 9b3e 6e0f 833e a5ed 423e
000003b0: 3e2e a93e da7f 823e 60b7 513d 2c84 91be
000003c0: 06cf 90be 4a36 95be 7a30 003e 9df1 ac3e
000003d0: 811e 57be e38e a7be 3105 a23e cdbf 813e
000003e0: 2cb5 b53e f3fa 9fbe adea 2abe 1e55 953e
000003f0: 7e0d 84be 15b0 383e 3cf9 683e 6635 45be
-0.25167578 0.23403537 -0.14283194 0.11101723 0.20012283 0.15846741 0.3091659 -0.2440248
-0.30207992 0.25489402 -0.010545723 0.20936932 0.31061998 0.33428252 -0.019786062 -0.17416303
0.194935 0.22520456 0.4303948 0.2847055 -0.06017013 0.21212327 -0.13205737 0.27554557
0.23014171 0.3846114 -0.3488424 0.22953181 -0.1448603 -0.28023452 -0.25246623 -0.02397673
0.4271423 0.16846877 0.18352799 0.34583688 -0.22708985 -0.18975334 0.041322537 -0.31421623
0.30134556 0.18394454 0.19908495 -0.29482153 0.17210683 -0.35937747 0.0059329052 -0.23149586
0.27914634 0.31153223 0.40844965 0.18603548 -0.3235647 -0.2415089 0.10711121 -0.057441417
0.32575905 -0.18731004 -0.19238007 -0.3106852 0.17738453 -0.07710019 0.0014109603 0.37484643
-0.26677373 0.39440545 -0.20359443 -0.03990616 0.36708117 0.31169182 0.29999697 0.19588295
-0.10564499 0.053605705 -0.0039578555 -0.2584853 -0.3644414 0.0039473316 -0.062098775 -0.2925121
0.315422 0.23345809 -0.19788039 -0.07366157 0.06409279 0.043292332 0.14293174 -0.02728032
0.2505206 -0.21172275 0.11200013 -0.2584928 0.1768326 -0.23748633 -0.12874472 -0.2678657
0.15805644 0.18350966 0.02255035 -0.28513435 -0.2937775 0.20373034 -0.1555214 -0.36885175
-0.18049182 -0.35774225 0.32565653 0.34568667 -0.3774444 -0.30606157 0.10385416 -0.096648715
0.24965481 0.17730908 -0.15622942 -0.32837564 0.09604014 0.03208935 -0.0812963 0.2358492
0.22126484 0.32816443 0.11148136 -0.25895578 0.12142332 -0.017119307 0.22274946 0.24700104
-0.3079792 -0.041448828 -0.12642884 0.18884802 0.043470547 -0.23390283 -0.29417887 0.36997166
-0.12784484 -0.3385728 -0.31664902 0.2294021 -0.07759828 -0.25266886 -0.24897367 0.23117648
0.21028578 0.23804419 0.09627212 0.27149457 -0.31080285 -0.33365726 -0.32389453 -0.25709233
0.105197154 0.19555378 0.26523083 -0.12109439 0.32104602 -0.2957793 -0.33133787 0.4552615
-0.06708248 0.27963987 0.23093253 -0.2810757 -0.12045299 -0.08599573 0.23081852 0.03496695
-0.13060631 0.06687719 -0.09280263 0.1507344 -0.21370384 0.40386364 -0.23481931 -0.014544115
-0.2704945 0.30805254 0.16209961 0.05014659 -0.21619362 -0.36212242 -0.14958283 0.0017137709
0.009106666 -0.17379963 0.23235694 -0.11913401 -0.2198084 0.10250186 0.2551291 -0.34176245
-0.15807296 0.09047712 0.3123468 0.14219299 0.34969598 -0.2619268 0.09520952 -0.28239912
-0.052913256 -0.2927369 0.10709779 0.08175484 0.2919782 0.3199797 0.0764428 -0.0097193215
-0.23225805 -0.24017344 -0.27461615 -0.26143545 0.30619904 -0.29325375 -0.22482623 0.34600475
-0.15439734 -0.15155649 0.077079765 0.14654699 0.18171392 -0.45947555 -0.27254477 -0.12098124
-0.31147644 0.08834672 0.2692661 -0.10933113 -0.16018178 -0.34186855 0.28318128 0.22838493
0.26002973 0.30453408 0.2559771 0.19035967 0.33043092 0.25488168 0.05120027 -0.28421152
-0.28282946 -0.29142982 0.12518492 0.33778086 -0.2100773 -0.327262 0.31644586 0.25341645
0.35489786 -0.31246147 -0.16691084 0.29166502 -0.25791544 0.1803592 0.22751325 -0.19258651

unembed.weight f4 [59, 256]
00000000: c8dd d4bd 2246 253d cabf 8ebe 8ede 483e
00000010: 464c 383e c306 443e cfb4 bb3e 59c0 883e
00000020: 3a3a 90be 81a6 b63e 4d21 613e b50d 84b1
00000030: f0bc 1735 0c84 2fb0 fe05 67be 4b43 663e
00000040: 4714 8fbe 2741 a4be d31b 9e33 62ce 213e
00000050: 4cbf 5d3e 51d6 14be 2cc8 883d 97ec 433e
00000060: 0fd9 773e 5935 4abe 10ba 8e3e 8f4f 8b3e
00000070: ffeb 5abe 2c62 883e 8bdb 5d3e 2000 0d3e
00000080: d514 463e 12c1 893e d151 37be 4a5e e33d
00000090: fb21 36be 313a eabb f3f2 4fbe 00f5 463e
000000a0: 9d15 65be 1a40 4a3e 1844 a4be 45d7 b43d
000000b0: 2e6f fdbd dfe3 8b3e 0fc3 93be 045c 50be
000000c0: afe9 8a3e 7242 32bd 8ff7 3cbe 54c9 c53d
000000d0: 48fc 6dbe f526 2e3e 195e c93d 7a40 593b
000000e0: dfe2 4abd ea7c 7cbe 2c8f 923e 3619 8f3e
000000f0: 24a4 473e 685c a3be 422b 1cbe ea9f b93e
00000100: 2138 493e 95c8 b9bd 40eb 363e 9dbf 383e
00000110: d25b 343e 9f4c 99bd c3f8 f43d da27 64be
00000120: b545 9fbe a625 0abd fafd 643e fb6a 863e
00000130: affd 563e b11b 37be 46a0 623e 49ea 6d3e
00000140: 93f5 d43d 4454 1c3e 4430 7e3e 6a5b 8abe
00000150: e4b3 bf3e 43c5 a030 292c 2432 3cf0 a0b9
00000160: 34ec fbbb 14e4 be3d 918a 903e ffdb 593e
00000170: 0765 243e 7712 92be ee6a 70be 3aca 9ebe
00000180: 0590 f9be 8e1a 89be 5063 063e 84d0 8a3d
00000190: 5d5b a8be a522 bdbd de0a 473e d623 dd3c
000001a0: fa85 e2be d3c6 bdbd a18e 7d3e e5b3 cabe
000001b0: da5a 5f3e bec9 41bd 0e9d 97be 40b6 703e
000001c0: 8827 e53c a2d8 76bd d290 9c32 3ebb 8c3e
000001d0: 4521 ae3d 0ffd 9fbe b539 f73c e1ec eb3d
000001e0: a445 173e b2fc 27be c68b 893e 5a3f 04be
000001f0: 7222 48be c1c9 5fbe 2335 0931 61d5 89b3
00000200: 9cb7 5dbe 1e7c 713e ae92 ccbd 76c6 8d3e
00000210: d3f6 b7be 8d9d 9c3d 0880 87bd 0c24 643e
00000220: 0a78 1e3e 15ad 853e 7b86 433e 3370 4a3e
00000230: dde8 973e ff5b c6be 971e 143e 8ce5 963e
00000240: b804 95be 03d8 b2be b247 47be 37f7 a93e
00000250: 27f5 193e 1eb9 84be b67b 94be 56f4 073e
00000260: 2d6d 8d3e 4369 92be b667 81be 3ead 693e
00000270: db87 2cbe 73c5 a2bd 3a86 56be 7023 c6be
00000280: 0a04 313e 1d54 5fbd 9f8a 21be 240b 2cbe
00000290: a94a 903e f3cf 0a3d 5edf 99be aa44 48be
000002a0: d71b 9b3e 2443 a033 5df7 003d ec16 c13b
000002b0: ed30 753e 9bb4 72be f935 803e 6e2f 1935
000002c0: e8d8 7931 f2de 81be bc28 f83c e6f5 563e
000002d0: ef11 a33d aebc d23d 98f2 3cb2 c830 263e
000002e0: 5982 82be e652 a0be a0c2 e13d 07ec 833e
000002f0: 5472 e93d 3e03 823e 7214 8d3d 0dc3 e9bd
00000300: 98ea 6c3d d063 97bd 65e9 72be 44cf 7a31
00000310: 29a2 acbe b46a fb3d 7f96 893e 452f 363e
00000320: 38c9 7dbe eafb 533e 4e90 3f3a 77be 223e
00000330: d94e 0f3e e4d9 313e 521d 08bd bce4 833a
00000340: 5f49 683e b81a 153e 281a fd30 9fe2 8a3e
00000350: 3dca 293e bc7a 18b4 9a2c 64be 5751 b63d
00000360: e77c 5a3e 4599 893d 1ed6 c6be b375 2ebe
00000370: af84 0f3e b666 b6b5 f4c3 8cbd df72 5c3e
00000380: 305d b8be 738f 02bf a9da a43e c79d c9bd
00000390: 8a32 cdbe 3688 eabd c7ae 2eb2 6a65 dabd
000003a0: f64d 37be 5147 ec3d 7db3 183e ed02 633e
000003b0: 2b04 043e be05 e73e 7d5b b1be e021 b43e
000003c0: f127 87be aed7 f1bd 78f6 7c3e 3b11 723e
000003d0: 37c6 3fbe fea9 96be aeac 923e e366 58be
000003e0: f192 5e3e 036d 8bbe 0dac 3d3e 72a7 123d
000003f0: 3314 9c3c fea1 bdbd 43fa b33e 0ab2 5f3e
-0.10393864 0.040350087 -0.27880698 0.19616148 0.17997846 0.19143204 0.36661384 0.2670925
-0.28169423 0.35673907 0.2198536 -3.843264e-09 5.6526824e-07 -6.385228e-10 -0.2256088 0.22486608
-0.27945158 -0.32080957 7.3625095e-08 0.15801385 0.21655005 -0.1453488 0.06678805 0.1913322
0.24203895 -0.19746913 0.2787633 0.27209136 -0.21379088 0.266374 0.2166578 0.13769579
0.19343884 0.26905113 -0.17902304 0.111019686 -0.177864 -0.0071480502 -0.20307522 0.19429398
-0.22371526 0.19751015 -0.320832 0.08830122 -0.123747215 0.2732229 -0.28859755 -0.20347601
0.2713141 -0.0435204 -0.18453811 0.09657541 -0.23240769 0.17007048 0.09832401 0.0033150003
-0.049532767 -0.24657026 0.28624856 0.27948922 0.19496208 -0.31906438 -0.15250877 0.36254817
0.19650318 -0.09071461 0.17863178 0.18041845 0.17613152 -0.074853174 0.1196151 -0.22280827
-0.3110787 -0.03372731 0.2236251 0.26253495 0.2099521 -0.17881657 0.22131452 0.23233904
0.10398402 0.1526652 0.248231 -0.27022868 0.37441933 1.1697597e-09 9.556097e-09 -0.00030696567
-0.0076880697 0.09320846 0.28230718 0.21275328 0.16054164 -0.28529713 -0.2347829 -0.31013662
-0.4874269 -0.26778072 0.13123822 0.067780524 -0.32882205 -0.092351235 0.19437739 0.026994627
-0.4424284 -0.09266438 0.2476144 -0.39590374 0.21812001 -0.047311537 -0.2961201 0.23507023
0.027972952 -0.06026519 1.8226647e-08 0.27486604 0.085024394 -0.31247756 0.030178884 0.115197904
0.1477266 -0.1640499 0.2686445 -0.12914792 -0.1954439 -0.21854307 1.9966329e-09 -6.418373e-08
-0.21652073 0.23582503 -0.099889144 0.27690476 -0.359305 0.07647238 -0.06616217 0.22279376
0.15475479 0.26108614 0.19094269 0.19769363 0.29669848 -0.38742062 0.14464794 0.29472005
-0.29105163 -0.3493043 -0.19460943 0.33196422 0.15034924 -0.25922483 -0.29000634 0.132768
0.27622357 -0.28595933 -0.25274438 0.22819993 -0.168487 -0.07947817 -0.20949641 -0.38698912
0.17286697 -0.054523576 -0.15775536 -0.16801125 0.2818196 0.033889722 -0.30053228 -0.19557443
0.30294678 7.4627934e-08 0.031485904 0.005892625 0.23944445 -0.23701708 0.25041178 5.706596e-07
3.6357566e-09 -0.25365406 0.030292861 0.2099224 0.07962405 0.10289894 -1.09982e-08 0.16229546
-0.25490072 -0.31313246 0.1102345 0.25766012 0.113987595 0.253931 0.06888665 -0.11414156
0.057840914 -0.073920846 -0.23721845 3.6497605e-09 -0.33717468 0.122762114 0.26872632 0.1779147
-0.2478379 0.20701566 0.0007307575 0.15892969 0.13994922 0.17368275 -0.033231087 0.0010062675
0.22684239 0.14560974 1.8415607e-09 0.27126023 0.16581054 -1.4200754e-07 -0.22282639 0.08902233
0.21336709 0.06718687 -0.38835233 -0.17037086 0.14015459 -1.358995e-06 -0.068733126 0.21528195
-0.36008596 -0.51000136 0.32198074 -0.09844547 -0.4007762 -0.114517614 -1.0167873e-08 -0.106638744
-0.17900833 0.1153704 0.1491222 0.22169085 0.12892215 0.45121568 -0.34640113 0.35182095
-0.2639766 -0.11808716 0.24703395 0.23639385 -0.18727957 -0.2942657 0.2864737 -0.21132998
0.21735741 -0.27231607 0.18522663 0.03580422 0.0190526 -0.09259413 0.35151872 0.2184526

l1.weight f4 [256, 256]
00000000: 2bc4 873d 33bc f3bd d810 00be a6bd a8bd
00000010: bdd8 34be cc8f dc3d 3052 173e 47d4 333e
00000020: 4321 7b3e 8f86 ddbc 1120 323e ed65 20be
00000030: 7af3 683e 5832 a93c 6b3d 813d 56d9 473d
00000040: 9961 d43d 8f40 413e ec09 a1bd 8391 53be
00000050: 4bdd a63d 4fab 1c3c fce7 183e aa05 2c3e
00000060: 583d bdbd ebbc 613d 5570 06be 5884 02be
00000070: 73c9 e5bc a879 e23d 5635 eb3c 22fe 83be
00000080: 4b4a 923c 829d 5dbe 9609 08be 7515 e63d
00000090: 4ff1 283e ad83 283e 5656 953d 0794 163e
000000a0: 000a 02be 4dde 3b3d 3cec 1dbd b7ec b73c
000000b0: 0e3d ff3d 4c54 5ebe 814f f53d b85b 133e
000000c0: d8d8 083e 5e93 0a3e dabd 9ebd 0acb dd3d
000000d0: 1f75 afbd 1233 e53c 0ab0 023e 9e87 56be
000000e0: 94e1 3f3e ff88 bcbc ce39 f8bd cbb4 a7bd
000000f0: 2b66 373e a09f 7a3d 85d1 f13c 05a4 da3d
00000100: 5695 823d 911b 48bc 5069 2b3e 752f 87be
00000110: 4f81 e73d 106a 6fbd 0025 ca3d 80f3 13be
00000120: 5e0f 42be e7e7 0ebe 735d 9fbd 32a6 0a3e
00000130: 7f32 24be e4ac 06be bee1 e7bd 0f84 853d
00000140: 1e88 073e 1d4c bcbd 24c5 fb3d 0aaf 0e3e
00000150: c808 303e 86f4 0abe c242 d43d 2c56 2fbe
00000160: 69cd 81bd 5a29 09be 76cb 113e 0e2d e53d
00000170: 6bd1 963d 540b a6bd 9b98 ee3d 97f6 fa3d
00000180: 6e86 e03d 5df9 803d 4d9e 583d 84e9 333e
00000190: 6f38 d53d 1914 443e 4593 123e 422c dcbc
000001a0: 2971 20bd dc8f 19bd 3e9e 4fbe c588 323e
000001b0: 3217 aabd 87d4 f6bc b30a 67be 9fd3 3b3e
000001c0: 5c8f 0e3d ff4a 0b3d f993 99bd a28c 16be
000001d0: 5ea2 7b3d 4642 1a3e b38d 0b3e 1deb 293e
000001e0: 8b4d 24be 2fa6 f33d 703f 2c3e cd2d ff3c
000001f0: 07d5 2abe 9b23 8bbd 53a9 f63d a0e9 19be
00000200: c24f 873d e48d 203e 51ae 78bc 342c 12bb
00000210: 8e2d 5abd 575b a93d f425 393e 4bc6 d63d
00000220: 8eff 4c3e 44b3 373e 8f6d 973d 633f d7bd
00000230: d2ec 513e 2ca7 08be 00bf 2c3e ce90 6ebc
00000240: 9246 993d 66ed 343e b953 a53d 935f adba
00000250: 2bc4 813d aa75 2f3e 7500 553e 5ce3 1a3e
00000260: 90cc b53d 5d2f 173e bd8b 24be dcc7 a23d
00000270: 5f49 1c3e 8f47 c8bd 219d 26be 730d 79be
00000280: 5ad9 2b3e 8a43 2fbe 3bdf c4bd d3d0 f83d
00000290: 535d eb3d 84cf 6cbd 45d9 8bbd 309f 8cbd
000002a0: 4984 f5bd 0fb5 743e b4d4 22be 28a8 67bd
000002b0: 5f24 2e3e caea 28be 55c0 173e 5df2 e73d
000002c0: cab7 393e 57f8 62bc 4548 0f3e fad4 9c3d
000002d0: 3019 823d e5eb d73d 4c22 233e eea0 9ebd
000002e0: d487 ff3d 8f23 103e 6105 19be c1fd ebbc
000002f0: 55cc 423d c195 063e 9b6b 18be f3a0 143e
00000300: 6f62 423e f5e8 d7bd 8ff4 c03d 5295 4cbd
00000310: 81db 973c 70e0 0ebe e07b 1f3e 25b3 f8bd
00000320: 1967 63bd b548 51bd ffdb d6bd fb57 48bd
00000330: acc7 39be b5f5 f0bd 7367 743d 5872 133d
00000340: 7ea5 173e 3268 ad3d 10d6 b1bd 616c 093e
00000350: 7ec0 133e c804 2cbe 4172 e83c da5a 5abd
00000360: 406a 183e 4fc6 d2bd 87b9 243e e3f9 a13b
00000370: ec85 f3bd e56e cabd 2421 0f3e dacd 903d
00000380: 9b6d 273e 68bb bdbd a86e 723e 1f5d 9b3d
00000390: 97a6 293e 1c9e a13d 00a6 853d 5292 86bd
000003a0: c783 1dbe 0f38 22be 7b74 c0bc 54bd 163e
000003b0: 7755 69be 4996 17be 90aa 0abe 538d 343e
000003c0: f9f2 0b3e 9bfc dd3d 20e0 babd 3bdc 46be
000003d0: a768 05be ba16 2e3e 86a5 4a3d df22 363e
000003e0: acb9 e13d 3a74 673e 113b 293e 4413 02be
000003f0: 0372 c3bd b710 dfbd ba23 973d 0ab0 e83c
0.06629213 -0.119011305 -0.12506425 -0.082392976 -0.17660804 0.107696146 0.14777446 0.17561446
0.24524407 -0.027041702 0.17395045 -0.15663882 0.22749129 0.020653889 0.06310543 0.048791252
0.10370178 0.18872283 -0.078632206 -0.20660977 0.08147677 0.0095623275 0.14932245 0.16799036
-0.09240216 0.055111807 -0.13128789 -0.12745798 -0.02805016 0.1105836 0.028711956 -0.25779825
0.017857691 -0.21642116 -0.13284907 0.11234561 0.16498302 0.1645648 0.07291858 0.14704905
-0.12699127 0.0458663 -0.03855537 0.022451742 0.12462817 -0.21711844 0.11978055 0.14390457
0.1336397 0.13532779 -0.07751055 0.10829742 -0.08567261 0.027978454 0.12762466 -0.20950171
0.18738395 -0.023014544 -0.121204 -0.081887804 0.17910068 0.061187387 0.029518852 0.106758155
0.0637614 -0.012213604 0.16739392 -0.26403394 0.113039605 -0.05845076 0.098703384 -0.14448357
-0.18951175 -0.13955651 -0.07781496 0.13539961 -0.16034888 -0.1315189 -0.11322354 0.06519329
0.13235518 -0.09194205 0.12293461 0.1393396 0.1719085 -0.13569841 0.103642955 -0.17122716
-0.06338007 -0.1339468 0.1423777 0.11190234 0.07364162 -0.081076294 0.11650201 0.122540645
0.109631404 0.06297562 0.052885342 0.17569548 0.104111545 0.19148292 0.14313991 -0.026876573
-0.039170418 -0.03749071 -0.20275208 0.17434986 -0.083052054 -0.030130638 -0.22562675 0.18342446
0.034804687 0.03400707 -0.07498927 -0.14702085 0.061434142 0.15064344 0.13628273 0.16593595
-0.16045205 0.118969314 0.16821074 0.03114977 -0.16682826 -0.067939006 0.12044015 -0.15030527
0.066070095 0.15679127 -0.015178279 -0.002230418 -0.0532661 0.08269375 0.18080884 0.1048704
0.20019361 0.17939478 0.073939435 -0.10510137 0.20500496 -0.13345021 0.16869736 -0.014560891
0.07484163 0.17668685 0.080726095 -0.0013227336 0.06336244 0.17134729 0.20800956 0.15125793
0.08876908 0.14764161 -0.16068931 0.079482764 0.15262364 -0.09779274 -0.16270877 -0.24321537
0.16782132 -0.17115608 -0.0961289 0.12149205 0.114924096 -0.05781509 -0.0682855 -0.068663
-0.11988122 0.23897193 -0.15901452 -0.05655685 0.17006062 -0.16495815 0.14819463 0.11325524
0.18136516 -0.013853154 0.13992412 0.076578096 0.063524604 0.1054304 0.15931052 -0.07745539
0.12477079 0.14076065 -0.14943458 -0.028807523 0.047558147 0.13143064 -0.14884798 0.14514522
0.18982862 -0.1054248 0.09421646 -0.04994709 0.018537285 -0.13952804 0.15574598 -0.12143544
-0.055518243 -0.05109473 -0.1049118 -0.04891203 -0.18142575 -0.11765615 0.05966897 0.03599772
0.14809224 0.08467139 -0.08683407 0.1342025 0.14428899 -0.16798699 0.028374793 -0.0533093
0.14884281 -0.102917306 0.16086398 0.004943119 -0.11890778 -0.09884433 0.13977486 0.07070513
0.16350405 -0.092642605 0.23675025 0.07586121 0.16567455 0.07891485 0.065258026 -0.06570877
-0.153823 -0.15841697 -0.023493042 0.1472066 -0.22786509 -0.14803423 -0.13541627 0.17632036
0.13666905 0.10839196 -0.0912478 -0.19419949 -0.13028203 0.17000857 0.04947426 0.1778674
0.11021742 0.2260293 0.16526438 -0.12702662 -0.095432304 -0.1089186 0.07379861 0.028404254

l1.bias f4 [256]
00000000: cc7a 653c 014c 32bd b4a6 a03c a4ed 003d
00000010: 8bee 1e3b b611 cd3c f741 c1bb b789 453c
00000020: 6b10 acbc 9a0b d83c 30e0 693c 5dad b930
00000030: f2eb 1834 feca 112f 6bc9 9c3c 7cef 823c
00000040: c2a2 8a3c 4dec 11bc 774d d432 788f 6c3c
00000050: 7b90 d0bb ee90 bb3c c86d e4ba a941 963b
00000060: 0ef0 92bc f076 54bc 71ec ed3b 1f31 e73c
00000070: 3725 0bbc 19b3 e5bb 8685 13bb 9fcc 1fbd
00000080: 5074 52bc d22d 87bc 5dd1 a7bc 56ef 39bc
00000090: a59d e5bc 5ba5 813c b71f 303b ec88 0bba
000000a0: 2a58 9ebd c7c3 33bd ce74 b93c 7f3a 8e3b
000000b0: daa9 c1bc 3a56 913c 9d44 373c 2998 4a3c
000000c0: 3767 d93b 1f16 25bc 111b 7f3c 7f8d b03c
000000d0: 202c 1e3c 4f77 943a b5af 5f3b 64f2 973a
000000e0: 55fb 413c 3d2d 6a3c 3bf5 843d 1cfc 42bc
000000f0: 3440 0e3c 7777 a93b f5e2 1d3c 340d ddba
00000100: 50a1 c8bc da09 eabc 1eb7 64bc 3f91 233d
00000110: 0458 fdbc 0a96 31bc 7ce0 dfbb 3616 98bb
00000120: 2003 ac3b 2787 5ebc c1ea 203d 7e8a bd3b
00000130: 7bc0 04bd 35f4 5d3c e673 a13c b90f 01bd
00000140: 8d9c d33b 6b71 003d 703f 253d 1167 4abc
00000150: 115f 9fbc b36a 5a30 f05d 4eaf 3b66 643c
00000160: 3ce9 103d 2e96 b83c 8623 8f3d 48d2 9cbc
00000170: b3ef 3cbd 4766 d93c f51d e13c befb 063c
00000180: 4707 793b d0ec 793c ad0d 293b 5c8a 6a3c
00000190: 0ee7 06bb 65e8 17bc 6584 833c bdd2 323d
000001a0: 96be 5d3c c499 74bd 0e56 433d cc0d 433b
000001b0: 2872 24bb a039 23bc cd5d 163d 0405 5f3a
000001c0: 56bb d9bc f1da 9b39 d3a1 8532 44c3 83bb
000001d0: 3e4d d2bc 083a e3bc bfc8 f8b9 f4c0 02bd
000001e0: bb13 463b 2ef4 f73b 85d0 353c 0f70 5b3c
000001f0: 7733 b53c b929 093d ab20 af30 73cb b232
00000200: 88cd 73bc f110 d5bc 1236 80bd 1692 dc3b
00000210: b7fc 4f3c 581f 533c 8756 d33c 6992 b53c
00000220: 2aee 4b3d c547 edbb 589b 8c3b 8d61 14bc
00000230: 04cd c439 f00f 513d 8300 0c3d 0f95 b93a
00000240: 8d04 8f3d 56fe 18bd 67a7 8d3c d326 1f3d
00000250: 09f3 833d 4640 20bd 472e f1bc 15fb 0a3d
00000260: 8e5e 25bb ae36 e1bc 3902 133a 124a 74bc
00000270: cdc7 843b c0e4 d53c 0a9e 74bd d94e 65bc
00000280: fd2f f7bb 098d 56bc 6b4c 01bb 988a 833c
00000290: c6f9 b83b ef52 b03c bdd5 343b 8349 673c
000002a0: b10c 033d 2c7e 2531 5026 cbbb df4f e9b9
000002b0: f337 74bc 64d3 e9bb 3051 ccbb 7bba ac32
000002c0: a0c8 4d30 dcba b53b ef66 9dbc 62a0 453c
000002d0: 5206 493c 4bb6 933c 7a34 3131 6297 45bc
000002e0: 222a 243c fe17 dbbc c1ed c4bb c7f2 aabc
000002f0: 6048 7fbb 24cb 7cbd 5005 d8bc ab5f fbb9
00000300: e63e c93c b278 13bc b077 d63c 06d1 9130
00000310: 727b 613d 1cd1 2c3c b777 2dbb 7108 a2ba
00000320: 3761 833b f1d5 723b 9e5e 91bc 8894 523d
00000330: 0a51 5c3c ec8e 2dbd 8958 51bb 6d8e 8739
00000340: 8164 993d 6c01 8abc f5ef a82e 7ce1 d03c
00000350: 863b c23b 751b 0a32 3b8f 10bd b59a 56bc
00000360: a2f7 0d3d a570 22bb 6018 aabb 14ff 12bb
00000370: 534f 62bb 6d60 c736 7ef9 9e3c 4000 dc3b
00000380: d0ab 553c 18a1 38bd e923 5dbd d113 9a3a
00000390: b263 ddbb 7c94 f9bb f840 1faf 8eef 7abc
000003a0: 8e29 6bbc 6883 ba3c 2299 a3bc 1d42 afbc
000003b0: fbf0 adbc 9e4b 68bd 437f 383c 19d7 c83b
000003c0: b6cd 2bbb 2adc f43c 983c 943c c563 a63c
000003d0: 16a2 4dbc 2397 243d 4c62 f33c 8cee fdbb
000003e0: 3583 4c3d f58c b43a 13c1 c5bb 9a49 f7ba
000003f0: af2a 7dba 41f4 1e3d 00fb ba3b ab1f ae3b
0.014006328 -0.043529514 0.01961074 0.03147663 0.002425107 0.02503286 -0.005897756 0.01205676
-0.021003922 0.02637272 0.014274642 1.3509794e-09 1.424194e-07 1.325979e-10 0.019139012 0.015983336
0.016923312 -0.008906436 2.4715275e-08 0.0144385025 -0.0063648797 0.022896256 -0.0017427737 0.004585464
-0.017936733 -0.01296781 0.007260852 0.028221665 -0.008492759 -0.0070098755 -0.0022510006 -0.0390135
-0.012845114 -0.016501341 -0.020485574 -0.011348566 -0.028029272 0.015825918 0.0026874372 -0.0005322832
-0.0773166 -0.04388788 0.022638705 0.0043404694 -0.023640562 0.017741311 0.011185792 0.012365379
0.0066346186 -0.010076075 0.015570418 0.021551846 0.009654075 0.0011327061 0.003413183 0.0011592624
0.011839707 0.014293012 0.064920865 -0.011900928 0.008682299 0.005171712 0.00963663 -0.0016864897
-0.024490982 -0.02856915 -0.013959674 0.03993344 -0.030925758 -0.010838995 -0.0068321805 -0.0046413196
0.005249396 -0.0135820275 0.03928638 0.005784332 -0.032410126 0.013546993 0.019708585 -0.031509135
0.0064578713 0.031358164 0.0403437 -0.0123536745 -0.01945451 7.9459567e-10 -1.8768964e-10 0.013940389
0.03537868 0.022532549 0.069891974 -0.019143239 -0.046127032 0.026538027 0.027480105 0.008238731
0.0037998722 0.015254214 0.0025795505 0.014315214 -0.0020584497 -0.009271716 0.016054342 0.043658007
0.013534209 -0.059716955 0.04768949 0.0029762862 -0.0025092456 -0.009962469 0.03671055 0.0008507522
-0.026578587 0.00029727028 1.5556827e-08 -0.00402108 -0.025671598 -0.027737632 -0.00047451814 -0.031922296
0.0030224163 0.0075669503 0.011097078 0.013393416 0.022119267 0.033487055 1.2742211e-09 2.0814445e-08
-0.014880545 -0.026009055 -0.06260313 0.006731282 0.012694529 0.012885891 0.025798095 0.02216454
0.049787678 -0.0072412216 0.0042909794 -0.009056461 0.00037536782 0.05104059 0.034180176 0.0014158803
0.0698329 -0.03735193 0.017291738 0.038855385 0.0644284 -0.039123796 -0.029441012 0.033930857
-0.002523336 -0.027491894 0.0005607936 -0.014910238 0.0040521384 0.026110053 -0.05972103 -0.0139958495
-0.0075435624 -0.013095149 -0.0019729387 0.016057298 0.0056450097 0.02152392 0.0027593218 0.014116648
0.031994525 2.408238e-09 -0.0061996356 -0.00044500732 -0.014905917 -0.0071357954 -0.0062352642 2.0108237e-08
7.486367e-10 0.005545957 -0.019214122 0.012062164 0.012269573 0.01803126 2.578672e-09 -0.012060018
0.010019811 -0.026744839 -0.006009788 -0.020867718 -0.003895305 -0.061717167 -0.02636972 -0.0004794573
0.024566125 -0.009000944 0.026180118 1.0609547e-09 0.055049367 0.010547902 -0.002646906 -0.0012362135
0.0040093916 0.0037053789 -0.017745312 0.05141118 0.013447056 -0.04237263 -0.003194364 0.00025855322
0.07489873 -0.016846381 7.6823804e-11 0.025498144 0.005927506 8.0389e-09 -0.035292845 -0.0130984085
0.03465999 -0.002478638 -0.005190894 -0.002242987 -0.0034532144 5.9418876e-06 0.019406077 0.006713897
0.013041452 -0.045075506 -0.053989325 0.0011755173 -0.0067562694 -0.0076165777 -1.4484047e-10 -0.015315903
-0.014353169 0.022767738 -0.01997048 -0.02139383 -0.021233073 -0.05671274 0.01126081 0.0061291573
-0.0026215143 0.029890139 0.0180953 0.020311246 -0.012550851 0.040183198 0.029709958 -0.0077493843
0.049929816 0.0013774919 -0.006034979 -0.001886654 -0.00096575444 0.038807157 0.005706191 0.0053138337
