code/save/model_delta_embeddings/model_delta_3.pt (torch, 355968 bytes, 4 tensors)

embed.weight f4 [59, 128]
00000000: 1d7c 803e 060f 3dbe e97b e4bd c5f2 bebd
00000010: 59ba 903e c1af 86be 296d 7a3e 5782 ea3d
00000020: c991 8ebe d6b6 3fbe d1d3 89be f176 2c3e
00000030: 7506 dc3d 7082 783e a0d2 a03e e8a2 bd3e
00000040: 1303 40bd b451 6f3e a0c7 91be c895 aa3d
00000050: 0601 b33e 592c e7bd 451a d1be 35a6 fbbc
00000060: addd b63d 463e 7ebe 44b6 60be b2ec a4be
00000070: 49ae f53d 8150 69be d809 9e3d 215d 8bbc
00000080: fbf5 a43e 99c0 b0be d5c6 833e 50f8 5ebe
00000090: 2934 f43d b7f5 01be 5473 b83e a872 a8be
000000a0: 35f7 bc3e 5e3d 813e 64e2 8b3e 9bf9 c13e
000000b0: 5330 a6be ca97 3dbe e589 cbbe a1d7 25be
000000c0: dc22 a13e 20d6 a93c bed4 cbbc 0f4b bfbe
000000d0: a41d 523e 840b 68be c7e5 6fbd 6307 b43e
000000e0: 7a6f a6be 9b4f 68be 9a22 c53d 9135 ae3c
000000f0: cfc8 e63d 980d 673e aeb2 963d a9bb 8dbe
00000100: 9901 583e 6306 963e 8cb8 9abe 479a a43e
00000110: 4f96 b83c 2189 3bbe b6a1 9fbd 24b1 6cbe
00000120: a1a3 b4be 9179 053e cc92 5bbe ba53 953e
00000130: ccca 8bbe f7d8 8cbe f871 073e 50ef 9f3e
00000140: add3 06be b261 56bd 6a3f b43e c24e c7be
00000150: 7638 153e 272f e0be ed31 74be b6d9 76be
00000160: df34 d43e 7b41 9dbe 20ed 77be 53cf c83c
00000170: e322 99be 3a12 8ebd e582 a2be 9f16 c6be
00000180: 3ec9 32be 6eaa 633e 9403 27be f8b7 773e
00000190: eb0c 323e e70f 5abe e003 463e c9b0 7f3d
000001a0: 4e66 c9be fe5b 36bd 9c2e 16bd 0843 2fbe
000001b0: 0134 603b a786 7fbe 360c c1be 8663 4bbe
000001c0: c69a 8a3e 5d0b 353e a5f7 1fbe af19 1cbe
000001d0: 1f22 c1bc 0a9f 7cbe 7dfd 523d b45d 96be
000001e0: 6a72 17be 33cb b73e 0654 52be 7e7c 963d
000001f0: ef7d 9c3e 73a7 6c3e e3f5 98bc 13b8 5cbe
00000200: b237 b4be 0eec 6dbe 9e9e d7bb 8b94 1d3e
00000210: 4b7e 9bbe 3ce6 abbe 472a 403e ee1f 983e
00000220: f65f 80be b674 17be 20d0 aebd a43f 683e
00000230: ef26 a0be a855 a33e 821a cfbe 2789 c23e
00000240: e054 3fbe 8734 533e f59d 8d3e 3c1f 4b3e
00000250: 1c66 c73e 04af 6d3e dce7 ad3c 0841 bb3e
00000260: 4d2b 7fbe e8ed 963e 5c5b 30be ae0c 67be
00000270: aada c2be edad 8ebd 4277 87be b5b7 0bbe
00000280: 4be7 63be 3322 6b3e aeba 9b3e 8681 09bd
00000290: cccc 1c3e d593 de3e 1fb1 4e3e 18fc aebe
000002a0: 5088 86be 4c57 82be 4bb1 713e 0644 8f3d
000002b0: dfce 54be c04e 853e 7dd7 a83d 2f7a adbe
000002c0: 6660 d23c facd 9ebc 57cc 673e c951 bf3e
000002d0: f37e 1e3e 4eec 013d c435 a13d 08eb 19bb
000002e0: 7e54 afbe e26b 98be d307 823d 13e2 833e
000002f0: 5498 a8be 4bab d4be c9fe 073e aa49 60be
00000300: f849 8a3e ff8c 913e ebb5 5a3e 3a0b c2bd
00000310: df10 1cbe bed8 eb3d f988 e7be 919b 983e
00000320: c8d0 a2be e6e8 303e a751 92be 6651 45be
00000330: d2a7 0dbe 9de8 813e e541 83bd fbfe 45bc
00000340: fd43 eebc 84fa d93e 9483 453e 89cd a33e
00000350: 71d7 45be fa6c 6abb 44ef 193e 34dc 7b3e
00000360: 632c 5c3e 015f cfbe 901f 4a3d c6b5 993e
00000370: 6c28 56be 19c2 873e 6ead 85bd 6749 9e3d
00000380: c9e3 debe b864 53bd 0274 883e 2a04 7b3e
00000390: aaf1 8c3d d5ee 56be fee8 d03d 3b8e 873c
000003a0: 4bc8 d9bd 4b76 b7bb dbf4 07bd 731c 9ebe
000003b0: a0b1 963d b54d 60be 27cc c2bd 98ce bc3e
000003c0: 8aca 283e 3fb3 d6bd d928 743b 5111 4f3e
000003d0: 448c 473e 6d78 523e 0f63 a93e 31e3 2bbe
000003e0: 9bb0 6cbc db46 bfbe 5e57 7b3e 9a16 083d
000003f0: f030 62be 8f95 413d 7ac9 423e 2161 58be
0.2509469 -0.18462762 -0.111564465 -0.09323648 0.28267172 -0.26305965 0.24455704 0.114506416
-0.278456 -0.1872209 -0.26919416 0.16842248 0.10743419 0.24268508 0.31410694 0.3703835
-0.04687793 0.23371011 -0.28472614 0.0832935 0.34961718 -0.112877555 -0.40840355 -0.030718902
0.08929 -0.24828443 -0.21944529 -0.32211834 0.11996133 -0.22784616 0.07716721 -0.01701218
0.32218918 -0.3452194 0.25737634 -0.21774411 0.11924011 -0.12691389 0.36025488 -0.32899976
0.36907354 0.25242132 0.2732116 0.37885746 -0.32458743 -0.18514934 -0.39753643 -0.16195537
0.31471908 0.020731986 -0.024881717 -0.37361953 0.2051912 -0.22660643 -0.058568742 0.35161886
-0.32506925 -0.22686617 0.0962574 0.021265777 0.1126877 0.2256378 0.07358299 -0.27682236
0.2109436 0.29301748 -0.30218923 0.32148954 0.02253261 -0.1831403 -0.07794516 -0.23114449
-0.3528109 0.13034655 -0.21442717 0.2916544 -0.2730316 -0.2750928 0.1322707 0.31237268
-0.13166685 -0.052339263 0.3520463 -0.38927275 0.1457232 -0.43785974 -0.2384717 -0.24106488
0.41446587 -0.3071402 -0.2421155 0.024512922 -0.2990943 -0.0693707 -0.3174049 -0.38689134
-0.1745958 0.22232983 -0.16309959 0.24191272 0.1738774 -0.21295129 0.19337416 0.062424455
-0.39335865 -0.044521324 -0.036665544 -0.17115414 0.0034210684 -0.2495371 -0.3770463 -0.19862184
0.27071208 0.17680116 -0.15621813 -0.15244173 -0.02357584 -0.24670044 0.051511277 -0.29368365
-0.14789739 0.35897216 -0.20539865 0.07347964 0.3056483 0.23110752 -0.018671935 -0.21554594
-0.35198742 -0.23234579 -0.006580188 0.15388696 -0.3036979 -0.33574092 0.18766128 0.2971186
-0.25073212 -0.14790615 -0.085357904 0.22680527 -0.31279704 0.31901288 -0.4044991 0.37995264
-0.18684721 0.20625506 0.27659574 0.19836134 0.3894509 0.23211294 0.021228723 0.36573052
-0.24918862 0.29478383 -0.17222351 -0.2256343 -0.38057452 -0.069667675 -0.26458174 -0.13644297
-0.222562 0.22962265 0.30415863 -0.03357079 0.15312499 0.43472162 0.20184754 -0.34176707
-0.26275873 -0.25457227 0.23602788 0.06995396 -0.2078204 0.26036644 0.08244226 -0.3388228
0.025680732 -0.019385327 0.22636543 0.37367085 0.15478115 0.0317195 0.07871583 -0.0023486037
-0.3424415 -0.29769808 0.063491486 0.25758418 -0.32928717 -0.41536936 0.13280787 -0.219031
0.2700956 0.28427884 0.21358459 -0.094747975 -0.15240811 0.1151595 -0.4522169 0.29806188
-0.31799912 0.17276344 -0.2857792 -0.19269332 -0.1383355 0.25372782 -0.06409053 -0.012084718
-0.029085154 0.4257394 0.19288474 0.31992748 -0.19320466 -0.0035770521 0.15032679 0.2459572
0.21501307 -0.4050217 0.049346507 0.30021495 -0.20913857 0.26515272 -0.0652722 0.07728844
-0.4353316 -0.051609725 0.26651007 0.24513307 0.06882031 -0.20989545 0.1020069 0.016547313
-0.10633906 -0.0055988184 -0.033192497 -0.3088108 0.07358098 -0.21904643 -0.09511595 0.3687637
0.16483513 -0.10483407 0.0037255792 0.2022145 0.19487101 0.20553751 0.33083388 -0.16785885
-0.014446403 -0.37358746 0.24545047 0.03322468 -0.2208898 0.04726177 0.1902217 -0.21130802

unembed.weight f4 [59, 256]
00000000: 016c 8a3e 6cf5 2dbd f703 06be 6a77 9abd
00000010: 5be8 5b3e dfc8 50be 0663 12be ce45 493e
00000020: 38db b3be 60e2 22be a6be 573d 068d 14be
00000030: c805 cebd e5f2 b2be 8d97 27b6 7557 10b5
00000040: 1e60 c0be 5526 2bbe 22d0 6dbe bb28 863e
00000050: ebe4 3bbe 335f dbbc 3111 853e c475 ba3e
00000060: 361c 15bd b81a 82b7 91a4 2c3e ef5b 44be
00000070: 73ed 5e3e 6563 adbe dacc 8e3e d8a4 943e
00000080: fa3f 89be a3f6 193e 839f b2be 5a88 a1be
00000090: 973d c1be fcba 8ebc c884 173e e5c1 0e3e
000000a0: 4921 253e 6848 673e 86a2 6d3e bffd 73be
000000b0: ded3 ba3d 9da6 68be d456 943d 150e cebe
000000c0: 0f8a 043e 127b bb36 8c32 523e 0890 31be
000000d0: 7aa5 2b3e c720 32bd 8389 1f3e fef3 c7be
000000e0: 9215 963d 7c35 8a3e 2bba 0c32 39d1 683e
000000f0: 1059 51be e901 9a3d 18e4 6c3e 8a6e ad3e
00000100: f5aa 923e 9700 3abe 28d5 43be a0f3 57be
00000110: 3529 0bbe 080d 45be 0ce0 65be 27f8 2ab2
00000120: 4ea7 0ebd 38b7 e53e 9e85 88bc 63c1 64be
00000130: f443 b2be b3dd 44bd 0821 97be 810a 363e
00000140: ee58 843e 70d1 2b3e df67 ee3d abae 093e
00000150: bb56 11be 9135 4b3e f22b c93e 3df5 20be
00000160: cbd8 f5b1 0e57 40bb ff75 afbe eadc 1c3e
00000170: fefd 653e 61be b9bb 7ece bd3e e887 12be
00000180: 4c23 083e 82f7 873e b9b3 a8bd a2db 593e
00000190: a0f3 8cbe b44b aa36 16ca 463d f35f 803e
000001a0: 107e 733e 2afe 3d3e a1a0 6fbe 6e33 2e3e
000001b0: cbd3 f8be 3c32 633e b4ad 4a3e 88cd 1dbe
000001c0: 0de9 3e3e 589b a8b4 f04b d4bd 6fb4 6c3e
000001d0: e208 723e fcdd e0bc 14e0 883e 8f5e b43c
000001e0: dc5f 8d3e 2ef2 75be a75a 8a3e 9523 4abe
000001f0: 3f96 82be 795b 853e 1963 14be 1b2f 4ebe
00000200: c142 19be b5dc 1abe d1e4 c9be 5e68 713d
00000210: 3ed0 81be 5499 6b3e f078 94be 7939 93be
00000220: bf2d 7abe 522a 13be c5b0 373e bd54 373e
00000230: a854 d2bb 3f15 233e 8db3 83be 8223 99be
00000240: b541 be3d 4e7c 49be 756a 863c f7b2 753e
00000250: 6aca 57be e6fe 3e3e 409e 293d bc0f e13d
00000260: 9aee 683e 420d c1be b386 1b37 21e6 a53e
00000270: 8661 343e e138 7e3d 7767 53be 943d f6bd
00000280: 2b06 02b8 7d76 833e 1bbf 8bbd a498 7e3e
00000290: 4c5e 433e 6805 2a3e b2ca bbbe 0670 053e
000002a0: ade7 1abe 58df 693e ca07 223e 9e15 04bd
000002b0: 52c5 8b3e 2a68 2d3a 8d0a cfbe 3535 25b7
000002c0: 4eb5 d8bd bb5c 22be dfdb 03be 0c18 b2be
000002d0: af9b 8dbe 96d9 06bc aaa5 c73c 1b9a b8bd
000002e0: dc50 d83e b229 8ebe 3e56 e13c 1474 c2be
000002f0: 9e0d 903e a71b dabd 60b9 7d3e a39a 803e
00000300: 3a35 353e cecd 99be b291 f63d b39a 063f
00000310: 514a 233e 9ab5 f63d b42c 90be 378f 4f3e
00000320: 1c70 703e 1c8e 3ebe c6f9 6c3e db23 8f3e
00000330: 8c0f 753e 7057 463e af89 9ebe 06e1 e1bd
00000340: 4b43 0bbe a10d a5bd 7a64 693e bb0c 31be
00000350: ba94 efbd acb0 883e 9d43 ef3d 8c4d 9b3e
00000360: b5d1 83be 5639 3eb9 17c7 a63e 30a0 273e
00000370: 8b02 a0be 054b b2bd 4e52 b0be 5a00 3fbd
00000380: 9b10 583e 4fde 8c3e 6d74 933e 6e75 d5bd
00000390: 18ea ce39 dc83 5b3e 66ba 273e 6b73 653e
000003a0: 2ba8 6c3e eaa9 69bc 6ee9 363e a088 c3be
000003b0: 1683 983e 9396 273e 837a 0bbe e262 803e
000003c0: 913c cbbd 25b2 8f37 6fdd 8ebe 043d 6a3d
000003d0: e417 10be 3fd1 043e 58e8 8dbe 11b4 40bd
000003e0: 8b5a 3fb8 77ce 76be 0123 84be 7cd1 883e
000003f0: 696b 773e 1f5e 743e 1044 903e 9681 a3be
0.27035525 -0.04247038 -0.1308745 -0.07542308 0.21475355 -0.20389126 -0.14295587 0.19655535
-0.35128188 -0.15906668 0.05267205 -0.14506921 -0.100596964 -0.3495094 -2.4973153e-06 -5.3771447e-07
-0.37573332 -0.16713841 -0.23223928 0.2620295 -0.18349044 -0.026778793 0.25989679 0.36417973
-0.036403857 -1.550965e-05 0.16859652 -0.19175695 0.21770267 -0.33864895 0.27890664 0.29032016
-0.26806623 0.1503549 -0.34887323 -0.3154934 -0.37742302 -0.017423145 0.14796746 0.13941152
0.16125979 0.22586215 0.23206529 -0.23827265 0.09122442 -0.22719808 0.07243124 -0.4024512
0.1294329 5.5873616e-06 0.20527095 -0.173401 0.16762343 -0.04348829 0.155798 -0.3905334
0.07328333 0.2699393 8.191402e-09 0.22736062 -0.20444131 0.075198956 0.23133886 0.33873397
0.28646055 -0.18164288 -0.19124281 -0.2108903 -0.13589938 -0.19243252 -0.22448748 -9.951726e-09
-0.034827523 0.44866347 -0.016665276 -0.22339396 -0.3481747 -0.04806299 -0.29517388 0.17777444
0.25849098 0.16779113 0.116409056 0.13445537 -0.14193241 0.19844653 0.3929134 -0.15718551
-7.155085e-09 -0.0029348764 -0.3426971 0.15318647 0.22460172 -0.005668447 0.37071604 -0.14309657
0.13294715 0.2655602 -0.082374044 0.2127519 -0.2752962 5.075208e-06 0.048532568 0.25073203
0.23778558 0.18553987 -0.23401119 0.17011806 -0.48599085 0.22187132 0.19792825 -0.15410435
0.1864359 -3.1405466e-07 -0.103660464 0.23115705 0.23636201 -0.0274496 0.26733458 0.022017745
0.27612197 -0.24018165 0.27022287 -0.19740136 -0.25505254 0.2604635 -0.14490928 -0.20135157
-0.14966871 -0.15123256 -0.39432386 0.058937423 -0.2535419 0.23007709 -0.28998518 -0.28754786
-0.24431513 -0.14371613 0.17938526 0.17903419 -0.006418783 0.15926073 -0.25722924 -0.29909903
0.09289876 -0.19676325 0.016408185 0.23994051 -0.21073309 0.18651924 0.041410685 0.10989329
0.2274727 -0.37705427 9.270082e-06 0.32402137 0.17615327 0.062065963 -0.20644937 -0.12023464
-3.100016e-05 0.25676337 -0.0682356 0.24862915 0.1907894 0.16603625 -0.36678082 0.13031015
-0.1512744 0.22839105 0.15823284 -0.03224718 0.2729898 0.0006614948 -0.40437737 -9.847155e-06
-0.10581456 -0.15855686 -0.12876843 -0.3478397 -0.2765784 -0.0082305875 0.024370987 -0.09013768
0.4224919 -0.27766186 0.027506944 -0.37979186 0.2813539 -0.106498055 0.24777746 0.25117978
0.17696086 -0.3003983 0.12039508 0.525798 0.15946318 0.120463565 -0.28159106 0.20269476
0.23480266 -0.18608898 0.23142156 0.27957043 0.23931712 0.19369292 -0.3096442 -0.11029248
-0.13599889 -0.0805924 0.22792235 -0.17290013 -0.11698289 0.2669729 0.11682818 0.303326
-0.2574593 -0.00018141171 0.32573768 0.163697 -0.3125194 -0.08705715 -0.34437793 -0.046631195
0.21100084 0.27513358 0.28799763 -0.104227886 0.00039465795 0.21437019 0.16379699 0.2240731
0.23111026 -0.014261702 0.17862484 -0.38190174 0.2978751 0.16366033 -0.13620953 0.25075442
-0.099236615 1.7129883e-05 -0.27903315 0.057187095 -0.14071614 0.12970446 -0.27716327 -0.047046725
-4.5622273e-05 -0.24102198 -0.25807956 0.26722324 0.24162067 0.2386403 0.28176928 -0.31934804

l1.weight f4 [256, 256]
00000000: b1c3 02be f223 813e 28e2 f8bc d974 3e3e
00000010: 5bd0 2ebe a752 79be 6d39 413e 7c46 35be
00000020: 9c7d 5abe 07b7 9e3d 85bf 60be bfe1 823e
00000030: acd0 403d 2a70 4b3e 4d8b 1b3c 5d13 8f3e
00000040: 7022 30bd 8741 3dbe 0ded 823d 54a6 fdbd
00000050: dc51 0b3e 382b 00ba 1e93 903d b13d 423e
00000060: c592 54be abf6 19be dcf8 843e 93e8 7bbc
00000070: f985 c3bd 6b7b 8dbe 91a1 36be 7103 bd3d
00000080: 6b28 46be 3281 333d 52a8 9b3e 6ca1 cabd
00000090: 7692 64be f732 743e a9b0 883e fe0f 79bd
000000a0: 1a87 ef3d 2298 dabc 2859 fd3c b590 673e
000000b0: e925 97bd 2d3a 493d 2f13 04be b6e0 923d
000000c0: c948 043e 68f6 6b3e 4c57 a2be 3475 d53c
000000d0: fe29 1b3e 5b76 2bbe fb6b 323e b44e 2b3e
000000e0: 31a0 583e 4cc4 8dbe a396 44be 0961 143d
000000f0: ff9c 523e b55b a23e 1f23 65be 2c2e 493e
00000100: 3d4e 80be ad15 5c3e dbfa 293e e9b8 933e
00000110: 72b2 2ebe 0f35 063e 06cb 4bbe 0135 503d
00000120: 4e94 90be 10e2 6a3e db85 11be 706a 1b3d
00000130: 32db 4fbd 849d a2bd 0db7 3d3d c2ee f5bd
00000140: b3bc 88be 8546 333e 9134 2b3e 63d3 b73d
00000150: b6bf c33b 2c03 aabd 685e f3bd f7c5 eb3d
00000160: a3d9 b4bc bd8c 79be ec52 b2bd f400 5b3e
00000170: cebe 523e f734 4c38 bf4f 21be cd96 093e
00000180: 3cad 88be 430e 833e 7c1c 4f3e 9450 503e
00000190: d9a8 1d3e 45c5 0bbe a00f 84bd a7f6 243e
000001a0: 0dce 62be b41b 78be 6bbe 4dbe 4eb6 61be
000001b0: 5930 73be f222 7ebe c5cd 84be c5d3 4cbe
000001c0: 9383 243d 7a92 563d 7a7f 82be 64c4 89bc
000001d0: d69e 243c 321f 363e ab5f 343d 1b36 13be
000001e0: fdb6 17bd f886 fcbd 111e 81be 1efa 9a3d
000001f0: 2eba 163e 4df9 48be 3730 903e 59af 3cbe
00000200: 070c 383e 8536 5ebe 2ebd 50bd bb40 54be
00000210: 4ad4 2d3d 18d2 303e 89d2 3dbe 9e21 543e
00000220: f90e 123e 4c9d 23be 1236 4e3e 09c0 2abe
00000230: 7bfe 43be 650f 7fbe c377 1e3e 8265 58be
00000240: 92ce 3e3e 9a4e 103e cef0 673d b988 a43c
00000250: d0c6 28be 6aba 4d3e 41db a3bd e0b1 85be
00000260: 2b51 893e 64d9 b33d 2623 03be 6199 b4bd
00000270: 1297 103e 9dfb 653e 33d0 6c3e 59d7 cfbd
00000280: 6de6 193c 4d47 3abe 1557 90be 7417 2abd
00000290: ade5 5e3e bfdf 0cbe 948a bbbd 030b 7a3d
000002a0: 57f4 86be 25eb 1c3e 9e43 c8bc 27d4 01be
000002b0: 5934 1a3e 915b 72be 7f8d 8e3e 19f4 ffbd
000002c0: ca4f 983c 7bbb 90be 92c7 9d3e d649 49be
000002d0: 9012 82bd 0078 4f3e 4c44 2abe a797 0a3e
000002e0: dea6 b6bd 07e6 e23d c7b1 e53d 883b 563d
000002f0: b9ae 65be 1049 87be dbbc 313e 6e44 90be
00000300: a973 3d3e fa35 7cbe 998d 30be c02d 4cbe
00000310: d4a0 863e 1289 15be 6c7c 073e 2405 78be
00000320: adf8 333e feee 35be 90ec 893e 4559 1f3e
00000330: bf55 493e 1d80 2cbe abe3 af3d 07c2 733e
00000340: 96a5 863e fc14 dfbd 831b 3fbe a92e 05be
00000350: e6f3 afbd b59f ae3d f60c 6a3e 6ea6 c93c
00000360: bd45 583c 51c9 953e d7a5 04be fe6f 57be
00000370: 8928 04be f52f 2dbd 81d3 96bd e17e 2bbe
00000380: e503 fb3d 7cf8 46be 7ec8 50be 30aa a5bb
00000390: 673c 8e3b 9faa efbc 2a65 493e 868a 8e3d
000003a0: a7d7 523e 02ef 7a3e a591 eb3d 66d4 943e
000003b0: bd7f 353e bd92 5c3e 1d1a 683e 0713 733e
000003c0: a24f 2a3e d30a aa3d 9130 593e a650 1fbe
000003d0: e24a d9bd 3e82 e2bd c7e2 ffbd 0467 c83c
000003e0: 171f 623e 897f 403e 2fb7 4e3e ec11 063d
000003f0: 5216 31be e4ad 103e 75d0 73be f0db 813e
-0.12769963 0.25222737 -0.030381277 0.18599261 -0.17071669 -0.24347936 0.18869562 -0.17702669
-0.21336979 0.077497534 -0.21948059 0.25562856 0.047074005 0.19867006 0.009493661 0.2794446
-0.043001592 -0.18482028 0.0639287 -0.1238524 0.13605446 -0.00048892526 0.070593104 0.18968846
-0.20759113 -0.15035503 0.25971115 -0.015375274 -0.09547038 -0.27633223 -0.1783507 0.09229172
-0.19351356 0.043824382 0.30401856 -0.0989407 -0.22321495 0.23847567 0.2669728 -0.060806267
0.116956905 -0.02668387 0.030926302 0.22613795 -0.07380278 0.049127746 -0.12897943 0.071717665
0.1291839 0.23043215 -0.31707227 0.026056863 0.15152737 -0.16744368 0.17424004 0.16729242
0.21154858 -0.27688825 -0.19198088 0.036225352 0.20567702 0.31710592 -0.22376679 0.1964652
-0.2505969 0.21492644 0.165996 0.28852013 -0.17060259 0.13106178 -0.19901666 0.0508318
-0.28238147 0.22937799 -0.14211218 0.037943304 -0.05074615 -0.079402 0.04631715 -0.1200843
-0.26706466 0.1750737 0.16719271 0.08975866 0.0059737815 -0.08301386 -0.11883241 0.11512368
-0.022076434 -0.24370094 -0.08707222 0.21387082 0.20580599 4.8686717e-05 -0.15753077 0.13436432
-0.26694667 0.25596818 0.2022571 0.20343238 0.15396442 -0.13649471 -0.06448293 0.16109715
-0.22148915 -0.24229318 -0.2009217 -0.220422 -0.23748912 -0.24818018 -0.2593824 -0.20002659
0.04016454 0.052385785 -0.25487882 -0.01681728 0.010047635 0.17785338 0.04403655 -0.14376108
-0.037039746 -0.12330431 -0.2521825 0.07567237 0.1471946 -0.1962635 0.28161785 -0.18426265
0.17973338 -0.21700485 -0.050961666 -0.20727818 0.042438783 0.17267644 -0.18537344 0.20715949
0.14263524 -0.15977973 0.20137814 -0.16674818 -0.19140045 -0.24908216 0.15475373 -0.21132472
0.18633488 0.14092484 0.056626134 0.020084726 -0.16482091 0.20090643 -0.08000804 -0.2611227
0.2681974 0.08781698 -0.12806377 -0.08818317 0.14120129 0.22459264 0.23126297 -0.10148496
0.009393317 -0.18191262 -0.28191438 -0.041526273 0.21767302 -0.13757227 -0.09157291 0.061045658
-0.26358292 0.15324076 -0.024446305 -0.12678586 0.15059032 -0.23667742 0.27842328 -0.1249773
0.018592734 -0.28268036 0.30816323 -0.19657072 -0.06351197 0.2026062 -0.16627616 0.13534413
-0.08918546 0.110790305 0.11215549 0.052302867 -0.22429933 -0.2642293 0.17357199 -0.28177208
0.18501152 -0.24629965 -0.17241515 -0.19939327 0.26294577 -0.1460307 0.13231057 -0.24220711
0.17575331 -0.1776695 0.26938295 0.15561397 0.19661616 -0.16845746 0.08588346 0.23804484
0.26298207 -0.10892674 -0.18662839 -0.1300608 -0.08591442 0.085265554 0.22856507 0.024615493
0.013200221 0.29255155 -0.12953888 -0.21038815 -0.12906088 -0.042282064 -0.0736456 -0.16747619
0.12256602 -0.19430727 -0.20388982 -0.0050556883 0.0043406966 -0.029256163 0.19667497 0.06960015
0.20590077 0.24505237 0.11502389 0.29068297 0.1772451 0.21540351 0.22666211 0.23737727
0.1663194 0.08302846 0.21209933 -0.15558109 -0.10609986 -0.11059998 -0.12494426 0.024463184
0.22082172 0.18798651 0.20187066 0.032731935 -0.17293671 0.14128834 -0.23809989 0.25363111

l1.bias f4 [256]
00000000: 5bec ddbc 6e3c 313d e8a1 263c c46b c4bc
00000010: d555 443c ebc5 a73b c8e7 8d3c 0ca4 a13a
00000020: 01b4 01bc 20da e33c 176b 16bc 0456 243b
00000030: d35d 6ebb 70b9 b73b 04af 9c34 fab7 2433
00000040: adbc 87bc 8edd 033c 95ba 263b 1b65 fc3b
00000050: 602c ae3c 4c51 113c 5ebd ebbc faae 81bb
00000060: 6658 61bc f57c 1e35 7314 583d 877e ee3b
00000070: 67f5 973c c17e 47bc a56f 323d e470 cc3c
00000080: 5e4e 95bb 991b 513d b6f0 02bd 7b31 4d3c
00000090: f31b 44bc 673b c1bc 582b 89bc c9de c53c
000000a0: 4c0e 65bb 66d1 363c 975a 4e3b 5363 39bc
000000b0: da72 f7ba c7ef 933a 54d8 4fbc b725 ceba
000000c0: 7345 46bd b9b3 cb34 64c2 35bc 56f8 513c
000000d0: 3a78 02bc 7fdc ebba 3013 773a 3bb4 c63b
000000e0: 58f3 143c 5f22 863c af8a ec30 b3ac 0fbc
000000f0: d419 0b3c 2969 23bd 0cd8 a9bb eaa8 373b
00000100: caaf 8fbc 1d80 c0bc 1074 2a3d 9617 d83a
00000110: 3015 d0bc 9824 d6bc 0abc 18bb 044b c130
00000120: 50e0 643b 19c5 013d d669 ae3a 1da5 4a3c
00000130: a876 1f3c 14e1 94bc 2198 89bc 256e eebc
00000140: 6422 43bd ffcd 0fbb 0418 68bc 1fca c73c
00000150: 9323 3aba 6954 ffba 2f3d 8e3c d47b 68bc
00000160: 01e5 df2f a52a df3b 6cc4 7f3c cbc8 3a3b
00000170: a89e db3b 4886 44bc 6925 353c 7d49 323c
00000180: de15 d93c bc21 933c fb72 843c 3772 93bc
00000190: 5c8e 4c3b 8f92 1f35 9f7a 3fbd fbe1 96bc
000001a0: 990d 813c a6ca 42b8 3115 d2b8 ebd0 95bc
000001b0: 2c7d c2bc f624 683c 1fb3 b1bc 80da 8aba
000001c0: 510f 293c b39a 1d33 d53f 463c 6eba 713d
000001d0: 22bf 563b 71bf 94bc 28fe 2bbd 8faa 9fbb
000001e0: 8d0b 483d 4618 813c f662 f73c fe9a 4dbc
000001f0: 6f6e 00bd c130 b23c da08 25bc d496 dd3c
00000200: 86f0 ae3c 9a5c 633b 40e8 ad3c 28eb b5bb
00000210: 6035 8939 cdfb 8abd 85bc ab3c c92a f23b
00000220: 231b e3ba 5a53 9ebb df4c 483d 4e87 2d3c
00000230: a9cb 3139 16ff 6abc 7a2d cdbc c374 34bc
00000240: defe 0abc 6dd0 33bc 54df 24bc 0822 56bc
00000250: 3253 5bbc bdba 973d d831 483d 51f3 98bb
00000260: 378e 6fb9 b9eb b33c b92d 33b5 4680 443c
00000270: 2094 003d a5c7 143d 27dd 3a3c abde 6abc
00000280: 4e55 3236 23ff b73c 3707 83ba 55b6 2c3d
00000290: d003 073d c81e 8ebb 46cd 97bc ad14 9d3c
000002a0: cf77 433b de30 ab3c e40e e4b9 e073 3f3b
000002b0: 7e8d 883c 9faa 2238 17cc b1bb 8218 8437
000002c0: e742 fc3c eee0 ff3c 6307 633c 4650 6dbb
000002d0: a8de f33c 9b05 c839 6c31 113c 1e3d 7e3d
000002e0: ef5e 013d 9e6e 903a 1603 e63c fda0 39bc
000002f0: ebab a1bc 60af 9d3b 38bd d43a 3361 61bb
00000300: 47c4 f8bb ab56 0d3d 5277 2b3d a06d 643c
00000310: eb03 e73b 2a4a 1f3d b955 933c 14a2 3c3a
00000320: 3885 9fbc f18d 1e3c 4e67 59ba 50b2 dd3c
00000330: 67a0 b7bb 4532 67bd 57c9 1a3d d62a 933c
00000340: 2db4 6a3b 84c9 11bd 70a1 bc3b a9fa 9b3c
00000350: 4b3a 853d 9aa3 57ba 7fe4 1ebc 2032 a93a
00000360: 70ec 37bd 2234 eb39 bc4a 59bc 18c1 423c
00000370: 933d 293c 949b 0cbd a4fb bb3a 8c94 f63c
00000380: 3999 febb dd29 493c 49ac 9cbc 0f2c 2e3d
00000390: f5dc 4cbc 5809 4bbd c43d 1cbc 65f2 053d
000003a0: b08a 633b 914a 0abd 21a0 fc3c 1d33 343b
000003b0: e5f4 d73b 67f3 9b3c bdb5 9fbc 20e5 08bc
000003c0: 1c80 a23c e65f 2a36 e150 013d 8b38 33bd
000003d0: 5e1e 653b bad5 033c 0a87 2ebd c375 a9bb
000003e0: 3d15 5637 b217 f23b b273 443b d0c0 483c
000003f0: 6ae2 a73d d1e4 eabc b8cd f4bc 3474 41bd
-0.027090242 0.04327052 0.010170437 -0.023977168 0.011983355 0.005120029 0.017322436 0.0012332215
-0.007916451 0.027813971 -0.009180806 0.0025075683 -0.0036371842 0.0056068227 2.9184605e-07 3.835155e-08
-0.01656946 0.008048428 0.0025440801 0.0077024824 0.021261394 0.00886948 -0.02877682 -0.0039576264
-0.013753986 5.9041423e-07 0.052753877 0.007278267 0.018549634 -0.012176217 0.043563504 0.024956174
-0.0045564612 0.05105171 -0.03196784 0.012524004 -0.011969554 -0.023587896 -0.0167443 0.024154084
-0.0034951149 0.011158323 0.0031487101 -0.011315185 -0.0018878833 0.0011286669 -0.012685854 -0.0015727793
-0.048406076 3.7942462e-07 -0.01109371 0.012815556 -0.007963235 -0.001799479 0.00094251614 0.0060639656
0.009091221 0.016373811 1.7210676e-09 -0.008769202 0.008490045 -0.03989521 -0.0051832255 0.0028024265
-0.017539877 -0.02349859 0.041614592 0.0016486521 -0.025400728 -0.026140496 -0.002330544 1.4063919e-09
0.003492374 0.031682108 0.0013306688 0.012368468 0.00973288 -0.018173732 -0.016796174 -0.029105255
-0.04764022 -0.0021942852 -0.014165882 0.024388371 -0.0007100638 -0.0019480112 0.017363159 -0.014189679
4.072618e-10 0.0068105035 0.0156107955 0.002850103 0.006702263 -0.011994906 0.011056283 0.010881779
0.026499685 0.017960422 0.016168108 -0.017998798 0.0031212782 5.9445387e-07 -0.0467478 -0.018418303
0.015753554 -4.6441935e-05 -0.000100175275 -0.018288096 -0.023741327 0.014168968 -0.021691857 -0.0010593683
0.010318593 3.669511e-08 0.01210018 0.059015684 0.0032767733 -0.018157693 -0.04199043 -0.004872627
0.04883914 0.015758645 0.030198555 -0.01254916 -0.031355318 0.021751763 -0.010072911 0.02704946
0.021354925 0.0034692646 0.02122891 -0.0055517145 0.00026170444 -0.067863084 0.020963917 0.0073903543
-0.0017326813 -0.0048317136 0.048901435 0.010591341 0.00016955905 -0.014343044 -0.025046099 -0.011014166
-0.008483617 -0.010974986 -0.010063011 -0.013069637 -0.0133865345 0.074086644 0.04887566 -0.0046676775
-0.00022845795 0.021962987 -6.674923e-07 0.011993473 0.031391263 0.03632321 0.011405266 -0.014335315
2.657372e-06 0.022460526 -0.0009996657 0.042166073 0.03296262 -0.0043371655 -0.0185305 0.019174898
0.002982605 0.020897325 -0.00043498643 0.0029213354 0.016669031 3.8782713e-05 -0.0054259407 1.5747039e-05
0.03079362 0.031235185 0.013856742 -0.0036211177 0.029769257 0.0003815115 0.008861881 0.062070005
0.031584676 0.0011019295 0.028077643 -0.0113298865 -0.019735297 0.004812166 0.0016230708 -0.003439021
-0.0075917575 0.03450648 0.04186184 0.013942152 0.0070500276 0.038889088 0.017985212 0.00071957824
-0.019472703 0.009677396 -0.00082932867 0.027062565 -0.0056038382 -0.056444425 0.03778967 0.017964762
0.003581296 -0.03559257 0.0057565495 0.019040423 0.06505259 -0.00082259777 -0.009698032 0.0012908615
-0.04490322 0.00044861535 -0.013262447 0.011886857 0.010329622 -0.03432806 0.0014341963 0.03010013
-0.0077697304 0.012278047 -0.01912512 0.042522486 -0.012503852 -0.049569458 -0.00953621 0.03270187
0.0034720115 -0.03376252 0.030838074 0.0027496286 0.006590473 0.019036962 -0.01949584 -0.008355409
0.019836478 2.5387794e-06 0.031571273 -0.043755095 0.0034960727 0.008046562 -0.042609252 -0.005171509
1.2760339e-05 0.0073880786 0.0029976186 0.012253001 0.08197482 -0.028673561 -0.02988325 -0.04722996
