code/save/model_beta_embeddings/model_beta_4.pt (torch, 649914 bytes, 6 tensors)

embed.weight f4 [59, 256]
00000000: 6c0b edbd 1d28 03be 534a 87bd e385 113d
00000010: d208 203d 4dc5 f3bd 8792 143e b216 9bbd
00000020: a737 3a3d c706 a6bd 6d04 45be 7c0a 0abe
00000030: c173 373c 454f 1f3e c3ef 33be ca01 aabd
00000040: 0e1f f93d c5be 063e aefa b53d fc00 15be
00000050: c4f6 abbd 7f61 a7bd 385f a4bd 1a9c 11be
00000060: 1622 e2bd d6cb 503e de7c 9bbd 2d06 1f3e
00000070: b217 2c3e f78c c1bd adaf 6abc bfcb 1b3d
00000080: 1f94 9d3d 85c3 463e 18e0 0d3d 39a4 1a3d
00000090: a92e 07be 4ae8 89bd 20a0 50be a5de 14be
000000a0: b16b 36bd 8c99 46be 1e98 2bbe b877 323e
000000b0: d0ee 86bd 3a11 e1bc 4585 4ebd dd2c ad3d
000000c0: 3bbc 64be 565a 3d3e 5a92 96bd 2280 1a3c
000000d0: 08b2 bb3d 7971 1c3e c8c8 c03d 4463 203e
000000e0: e656 013e f77f 433e 5a9b 39bd 9a8f abbc
000000f0: 7c5f 54be 9e19 c43d 0256 3fbe d47f bb3d
00000100: 0720 efbd 2580 8fbd 8efa 23be b565 65bd
00000110: 64d5 c2bc 9b4d ed3d 0459 12be 5c49 c43c
00000120: e44c 89bd d479 23bd de8e 2e3d 4de5 073e
00000130: 766e e43d e035 45bc b62f 123e 0161 8630
00000140: b1fa 9c3d 5993 8abd dfeb 2ebe 5d27 0d3e
00000150: ab78 f3bc 3a14 18be 1d6f 37be 914c 0b3e
00000160: fd77 07bd d29f 163e ed0b 1d3d ac50 fa3d
00000170: e8ed 94bc 05d7 033d bfb4 acbd fe9a 78bd
00000180: b7fd 093e 6997 08bd c0eb 26be c588 173c
00000190: 297e 0fbe 4e08 babd b572 8abd 595a 48bd
000001a0: 7bb8 db3d 3c9b bd3d 3e34 f0bb 8baf 03be
000001b0: eaf3 483e f12e a23d 1f12 9b3c 8455 453e
000001c0: 2f06 37be f670 143e e1da aebb e930 6fbe
000001d0: ce30 a4bc a1f2 863c 4aa1 013d 6427 223e
000001e0: 0531 393b 0ae2 113e 7772 20bd a356 633d
000001f0: a595 04bd 8001 af3c 8633 223e b233 fabd
00000200: e411 11be e174 36be ce2e 54be 49e0 1f3e
00000210: 39ca abbd 503c 8d3d b3e4 44be ed60 44be
00000220: a3dd 33be 9ba4 e5bc b194 883d 1f7f ed3b
00000230: db43 4a3e 9ddb 2ebd 7ef9 143e 0365 24be
00000240: bb3d de3d 9a8d 7d3d 224f 07be 5a03 41bd
00000250: deaa 4d3c a338 0c3e 4b8c d2bd 1c9d 5a3e
00000260: a850 5e3d 9f89 ed3d 7d15 42be 65ba 0b3e
00000270: 6833 493d dadd 5ebd 5a10 5c3e 8176 9e3c
00000280: 73a8 3abe 8606 133e ef81 d53d 1268 1fbd
00000290: 8bb2 96bd 6714 803e 6ac7 36be 7e44 b6bd
000002a0: df99 493e da7a a63d 4dfe f33d 94f9 41bc
000002b0: e86c e73d d5df 4fbe f38a 38be c139 26be
000002c0: b45c 563d c7d3 c9bd 9a15 313e 8a3e e8bd
000002d0: 1703 243e 2283 06be 0133 20be feb0 f1bd
000002e0: 5f70 1c3e 8d89 183c 6bea 7dbc 055d 09be
000002f0: bb2f a23b 98af d93d 2716 32be 0320 67bc
00000300: 03b5 3e3e 9404 24bd 3c2e 32be 07e0 5e3d
00000310: 08a4 89bd 7e59 db3d 3d23 573e 5e1d 33be
00000320: 0c30 24be eba6 2f3e deba f83d 43b1 443e
00000330: 8dcf 33be 846c 28be 0218 63bb 7b15 a03c
00000340: 18c4 0ebe 1520 5a3d 9a26 153e 4d83 2f3e
00000350: 8bee b63a e5ca 7c3d d6c6 0e3c 7008 3abd
00000360: efbe 61bb 7902 a7bc 4d9c 1ebe f258 30be
00000370: 4e67 98bd 4e20 323e 36cc bb3d 2d2c c0bb
00000380: 4dd7 e33d fcdc 943d 4c2c f9bd ffed 2ebe
00000390: 09de f63d 7463 2a3e bbd2 483e 845a efbc
000003a0: 3194 c03d da26 27be 9349 aa3d 56cd 233e
000003b0: 117b f0bc db36 f43d c9bb 193e bcef bc3d
000003c0: 21af 46be 2687 38be a83f 81bd 9a78 b83d
000003d0: bee8 393d df42 17be 6942 06be 2659 b8bd
000003e0: 4490 3f3e df5f dabd 8198 febd 2be8 09be
000003f0: 4d66 823c 104c 11bc 463c 2f3e 8424 7a3c
-0.11574444 -0.12808271 -0.06605973 0.035528075 0.03907091 -0.119028665 0.14509021 -0.07572688
0.04546323 -0.081067614 -0.1923997 -0.13480562 0.0111970315 0.15557583 -0.1757193 -0.083011225
0.12164126 0.1315871 0.08885704 -0.14551157 -0.08396676 -0.08172893 -0.08025974 -0.14219704
-0.110416576 0.20390257 -0.07592176 0.155297 0.16805914 -0.09450715 -0.014324111 0.038036104
0.076942675 0.19410522 0.03463754 0.03775427 -0.13201393 -0.06733759 -0.20373583 -0.14538057
-0.044536296 -0.19394511 -0.16757247 0.17428482 -0.065885186 -0.027474035 -0.050420064 0.084558226
-0.22337429 0.18491492 -0.07352133 0.009429963 0.09164816 0.15277661 0.09413296 0.15662867
0.12630805 0.19091783 -0.04531417 -0.020942498 -0.2073955 0.095751986 -0.18685153 0.09155241
-0.116760306 -0.070068635 -0.16013548 -0.0560052 -0.023783393 0.11587068 -0.1429177 0.023960762
-0.06704119 -0.039911106 0.042616718 0.13271065 0.11153881 -0.012036771 0.14276013 9.777353e-10
0.07665003 -0.067663856 -0.17082165 0.13784547 -0.029720625 -0.14851466 -0.1791348 0.13603427
-0.033073414 0.14709404 0.03834145 0.12222418 -0.018179849 0.03218748 -0.08432912 -0.060694687
0.13475691 -0.03334752 -0.16300869 0.009248917 -0.1401297 -0.09083615 -0.0676016 -0.048914287
0.10728546 0.09258124 -0.0073304465 -0.12859933 0.19624296 0.079191096 0.01892954 0.19270903
-0.17873453 0.14496216 -0.005336151 -0.23358501 -0.020042803 0.016473116 0.031647958 0.15835339
0.0028257978 0.14246383 -0.039171662 0.055502545 -0.032369275 0.02136302 0.15839967 -0.12216891
-0.14166981 -0.17818023 -0.2072098 0.15612902 -0.0838818 0.06896269 -0.19227867 -0.19177599
-0.17565016 -0.028032592 0.06668986 0.00724782 0.19752447 -0.04268991 0.14548299 -0.16054158
0.10851618 0.06190262 -0.1321378 -0.047122337 0.012552945 0.1369348 -0.10280665 0.21348995
0.05427614 0.11598515 -0.1895351 0.13645323 0.04912129 -0.054410793 0.21490613 0.019343616
-0.18228321 0.14357957 0.104251735 -0.03891761 -0.07358273 0.25015566 -0.17849508 -0.088997826
0.19687603 0.08128901 0.119137384 -0.011839289 0.11300069 -0.20300229 -0.18021755 -0.16232969
0.052334502 -0.098548464 0.17293397 -0.113400534 0.16016804 -0.1313596 -0.15644456 -0.11801337
0.15277241 0.009310138 -0.015497784 -0.1341439 0.0049495376 0.10629195 -0.17391263 -0.014106753
0.18623738 -0.04004343 -0.1740045 0.054412868 -0.067207396 0.10710429 0.21009536 -0.17491671
-0.16033953 0.17153518 0.12145017 0.19208245 -0.17559643 -0.16447645 -0.003465176 0.019541493
-0.13941991 0.053253252 0.14565507 0.17139931 0.0013956589 0.061716933 0.008714398 -0.045418203
-0.003444608 -0.020386921 -0.15489312 -0.1722143 -0.07441579 0.17395136 0.091698095 -0.005864641
0.1112505 0.07268712 -0.12166652 -0.17082976 0.120540686 0.16639501 0.19611637 -0.029217966
0.09403265 -0.16323414 0.083148144 0.15996298 -0.029355558 0.11924525 0.1501304 0.09225413
-0.19402744 -0.18020305 -0.063109696 0.09007378 0.045387976 -0.14771603 -0.13111271 -0.09001379
0.18707377 -0.10662817 -0.124314316 -0.13467471 0.015917921 -0.008868232 0.17112836 0.015267495

unembed.weight f4 [59, 256]
00000000: b468 f33d 8355 ce3d c6b7 7e3c 24f6 54be
00000010: 6f9a dabc 0fe4 08be 17b7 ec3d 8a51 383e
00000020: 1948 913b faba 1f3e f380 bdbd 66f6 82bc
00000030: 1889 5d3e 7258 af3c 9a80 64bd 567a 0fbe
00000040: 8d52 843d 7149 573d c056 193e f19b 153b
00000050: 799d 25be 10a3 bb3d ae3d 52be 267c 513d
00000060: cc35 dabd 98be 14be 124f 623c 1758 1dbe
00000070: 490f 9c3d f638 8b3d ba24 0f3e 07ef bd3c
00000080: 6ed0 1b3e 510c 4b3e 77ce 573c b37e 2d3e
00000090: 9332 a8bb 10c2 693e ba57 423d a23d 3cbe
000000a0: a20d 253c 0495 d53d d11e 46be b305 153e
000000b0: 4b37 35be 32c0 0fbd 7b89 1cbe 2a1d 523e
000000c0: a355 413d 3975 1dbe abd6 49be 286e d3bd
000000d0: 45d4 123e cca9 133d ac66 dd3c 27e8 23be
000000e0: 5473 413e 41b3 26bd 86e7 183d 64ec 5e3d
000000f0: c93e 6abe 53d8 ec3d 52a9 8b3e d3d7 06be
00000100: 993a 92bb 8a3c c2bd 5666 fcbd 0497 fb3d
00000110: 13d9 4fbd e40f 9a3d 43a6 35be e33c fb3d
00000120: 5137 053e eb8e 413e 2497 19be 9448 0e3d
00000130: 4096 03be ef3a e23d 7dac d5bc 458c 4ebe
00000140: 5185 8e3d 55dd 4a3e a827 183d 11ea 543e
00000150: 1cd7 98bd 4939 b4bb 3405 49bd 88ee 1b3e
00000160: a128 40bd 5d1f 0dbe d3a7 14bd bc55 403e
00000170: 0a51 d0bd 7994 61be c92b 08be f4e2 28be
00000180: b2ca de3d dc04 19bd 52aa 883d 2a23 663e
00000190: c1c2 e1bd c887 2ebe 13b2 19be 98b5 b33d
000001a0: ab7d ecbd 91af 2dbb 0329 0bbd f796 31be
000001b0: 720e 8e3d 9261 353e e0b0 3fbc 2703 0c3d
000001c0: e950 87bd 73a1 a7bd 5bfa 15bd 8596 54bd
000001d0: b5aa 093e 1fd4 c3bd 49de 84bd 0116 9b3d
000001e0: 0580 3b3d d441 14be cd43 873d 8d99 003e
000001f0: 7bd5 dcbd b46e 583d f983 2dbe 79da 853d
00000200: 5e66 bd3d fb47 c43d 530d 92bd c002 023e
00000210: c65c 84bd 81e1 4dbd 5fc5 fa9f 06e8 c7bd
00000220: fe48 83bd 90f2 e33d 6d0b 4abd c142 a4bd
00000230: d8b3 e2bb 2910 1f3e 9391 b43d 50dc 133e
00000240: b9c8 a93d b056 ce3d de7d 0f3e 2e90 e33c
00000250: 7a88 023d 82c1 84bc db6c 1abe c2b3 0b3d
00000260: 5c33 0bbd 21af 2e3c 2afd a9bd 4b77 9e3d
00000270: 44c0 37bd 6533 3cbb a751 153e 3b63 ac3d
00000280: d7d5 82bd db66 aabd 6028 13be 251c 13be
00000290: aa03 823e 02da b63d c3e0 383e a401 3ebe
000002a0: 94e3 253e 84aa 51be 3d80 f7bd fbf2 5dbd
000002b0: 349a c1bd 5dd3 0cbe f438 88bd 5f30 6a3c
000002c0: a2e1 22be 849e 42bc 4205 c9bd bf68 cc3d
000002d0: b632 19be c862 86bd c2ae 29be 5b21 1abe
000002e0: 2be5 2e3e 6982 c8bc cba6 373e c472 273e
000002f0: 391b d43c 21c3 2e3e 9856 af1f 11d6 14be
00000300: 11ee 153e ecba 41be adc2 863d e476 1b3e
00000310: 04ee c2bd 8aee 02bc 46e0 11be 6ac7 503e
00000320: b38d 29bd 0447 1bbe 16fc 263e 7c80 a3bc
00000330: fc5d 37bb f522 0a3d da0c cd3d 1533 913d
00000340: d41c 27be b24d a83d 58cd 2abc d5ec 4abe
00000350: f4d2 d13c eaa8 53bd 60db ac3d 6de4 ca3d
00000360: 644a 0bbd dd33 a9bc 225b 633d e2c4 bd3c
00000370: 5279 4f3d b472 8d3d 95eb 64bd 5b9d d2bc
00000380: 62ab bebd a159 80bd 97fe 50be a21a a9bd
00000390: 10f2 593e fd7d bb3c 32b5 4c3e d60c 48be
000003a0: 681a 483d d121 12bd 4ba2 44bd cdb9 233e
000003b0: ca70 0dbe fd1e 1dbd 8ad9 0abd e728 b4bd
000003c0: a581 e23d 5dba c93d c9e4 043b 0ac7 3d3e
000003d0: 0ac2 88bd 3e77 0f3e 5ea9 c8bd 4a5a 35be
000003e0: 1a2a 33be 6ae1 3dbe cca8 2f3e bea2 6bbc
000003f0: 6228 db3d 164d d13c 83aa 25bb 74a1 38be
0.11885205 0.10074904 0.015546745 -0.2079702 -0.026684968 -0.13368247 0.11558359 0.17999855
0.0044336435 0.1559867 -0.09253111 -0.015986633 0.21634328 0.021404479 -0.055786707 -0.14011511
0.06461058 0.052560274 0.14974499 0.0022828544 -0.16173352 0.09161961 -0.20531341 0.051143788
-0.10654792 -0.14525831 0.013812797 -0.15365635 0.07620103 0.06797974 0.13978854 0.023185266
0.15216228 0.19828917 0.013171784 0.16942863 -0.005132982 0.22827935 0.047446944 -0.18382886
0.010074051 0.10428813 -0.19347693 0.14552955 -0.17696874 -0.0350954 -0.1528682 0.20518938
0.04720081 -0.15376748 -0.19710796 -0.10323745 0.14338787 0.036050603 0.027026497 -0.16006528
0.1889165 -0.040698294 0.037330173 0.05442466 -0.22875513 0.11564698 0.2727762 -0.13168268
-0.004462552 -0.09484203 -0.123242065 0.12284663 -0.050744127 0.07522562 -0.17739205 0.122674726
0.13009383 0.18902175 -0.14999062 0.034737185 -0.12850285 0.11046397 -0.026083225 -0.20170696
0.06959022 0.19810994 0.037147194 0.20792414 -0.07462904 -0.005499993 -0.049077228 0.15227711
-0.046913747 -0.13781495 -0.036292862 0.18782705 -0.10171707 -0.22029294 -0.13297953 -0.16492826
0.10878505 -0.03735815 0.06673111 0.22474352 -0.110234745 -0.17043984 -0.15009336 0.08774871
-0.11547407 -0.002650235 -0.03397466 -0.17342745 0.06936349 0.17713001 -0.011699885 0.034182694
-0.06607229 -0.08185091 -0.03661571 -0.05190136 0.13444026 -0.09561943 -0.0648771 0.07572556
0.045776386 -0.14478236 0.06604729 0.12558575 -0.10782906 0.05283995 -0.16944875 0.06535811
0.092480406 0.09584042 -0.07131448 0.12696362 -0.06463008 -0.050263885 -1.0620564e-19 -0.09761052
-0.064104065 0.111302495 -0.049327303 -0.08020545 -0.0069184117 0.15533508 0.088168286 0.14439511
0.08290238 0.10075128 0.14012858 0.027778711 0.031868435 -0.016205553 -0.15080588 0.034106977
-0.033984527 0.010661871 -0.0830024 0.07737597 -0.044861093 -0.0028717157 0.14581929 0.08417364
-0.06388443 -0.083203994 -0.1437087 -0.14366205 0.2539342 0.089283004 0.1805449 -0.18555313
0.16200095 -0.20475203 -0.120850064 -0.054186802 -0.0945324 -0.13752504 -0.06651488 0.014293759
-0.15906385 -0.011878613 -0.09815456 0.09980916 -0.14960751 -0.0656181 -0.16570571 -0.15051787
0.17079608 -0.024476247 0.1793472 0.16352373 0.025891887 0.17066623 7.425864e-20 -0.14534785
0.14641596 -0.18918961 0.065801 0.15182072 -0.09518054 -0.007991442 -0.1424571 0.2038857
-0.0413949 -0.15163809 0.163071 -0.019958727 -0.0027979603 0.033724744 0.10012217 0.07089821
-0.16319591 0.08217944 -0.010424934 -0.19816907 0.025613286 -0.05167476 0.0844028 0.0990685
-0.03400649 -0.020654613 0.055506833 0.02316517 0.05065281 0.069066435 -0.05588873 -0.025709799
-0.093100324 -0.06267095 -0.20409618 -0.08257033 0.21283746 0.022887224 0.19990996 -0.19536147
0.048853308 -0.03567678 -0.048006337 0.15988846 -0.13812557 -0.03835963 -0.033898868 -0.08796864
0.11059884 0.09849999 0.0020277968 0.18532959 -0.06677635 0.14010331 -0.09797929 -0.17710224
-0.17496529 -0.1854302 0.17154235 -0.0143820625 0.10701062 0.025549453 -0.0025278635 -0.1803034

l1.weight f4 [256, 256]
00000000: 2677 b1bc ca64 083c 25a5 483c 643a 91bd
00000010: 46cb 62bd b943 b23c 7aa3 9b3c 8c83 4c3d
00000020: e65b 56bd 6357 f6bd 9cb2 243d 65e2 77bd
00000030: d5ec b23c 342d babc ad7a 87bd 7b18 6cbd
00000040: d92d 5cbd 86b6 b53d 09ab 8cbd 7c0d 0bbd
00000050: 40cc aa3d 6561 49bd 91b8 b93d 7911 4d3d
00000060: 3779 813c 982c ebbd dd18 d03c 4df3 92bd
00000070: 11dd adbd 85bc d8bc 9249 923c d98b 283d
00000080: da58 4bbd 1c53 94bd 2368 ef3c c3cb 96bd
00000090: 26a9 143d 06ed 6e3d f803 3a3d d2ae 7c3d
000000a0: f088 13bd abd8 123b 1bc9 9d3d 95b4 f5bd
000000b0: 6fa1 8abd 85f5 bcbd d209 e73c 3466 17bd
000000c0: 588a c23d 02f6 443d 00f4 14bb 03eb f2bd
000000d0: 005a cb3d 5370 423c 1d37 babd 3a5b 4e3d
000000e0: 1cfc 01bd fc27 dabd bc45 983d 5cb0 87bd
000000f0: 47f2 653d 68dc ecbc da48 9b3d f833 2c3c
00000100: ad3c 66bd 84e2 a83c 3a48 87bd a76d 58bb
00000110: fcf0 ebbd 3529 8e3d cd65 8bbd 9f9f 4dbd
00000120: cf33 553d 176f cebc 7bbc 20bd 34eb 66bd
00000130: b108 13bd 9882 4f3d bb35 3bbd f493 9ebb
00000140: 10ab 25bd ee53 95bd 0601 043d 46af 7abd
00000150: 05ed e2bd 9cc6 c03c 580e cb3d c85d 8dbd
00000160: 1c21 793d 33fb c2bd 1ea8 dd3c 566a 5bbd
00000170: 6c3e f93c d61a 3dbd 7bde 5e3d 9eb3 f83c
00000180: 4f5b 95bd 5c6c 16bd f0a2 423b 8c9f e23d
00000190: 092e e23d 4c94 863d dbdb 49ba 3662 a8bc
000001a0: 84f4 263d 6122 c4bd c443 2fbd a1f7 5dbc
000001b0: 41cd 1cbd d655 6a3d 7906 d5bd cca4 253d
000001c0: bc68 c23b ff64 98bd a45e 083d 2589 d9bb
000001d0: 2544 153d e347 a13c f99c b2bd c288 34bd
000001e0: 677f 3cbd cf21 1a3d e1c8 bd3c c3b1 e13d
000001f0: 24d3 29bc 5f02 cfbc 4d99 d9bd 8090 8b3d
00000200: cd44 29bc 61f7 c63d f4b2 a13c 5ba9 d7bd
00000210: c1b7 813d 7edc a3bd 168b 043d 1e62 e139
00000220: 2dec 8b3d f3b5 b0bd 46cf a6bd 2ba9 c63d
00000230: c91c adbd d97c d63d fd46 82bc fa77 4b3d
00000240: 728f 98bd 0583 8bbd dd2d 273d 8674 4ebb
00000250: ae04 4ebd d81e 11be 4c14 30bd 0fd0 e6bd
00000260: dc12 aebc cd06 f6bd e94a 0f3d dc8f aebd
00000270: eb9f 843d b3a7 2bbc 9d28 de3d 870f 4f3a
00000280: 291f 2d3d 122a 3abd fe95 87bd dccd 2b3b
00000290: aeaa 8abd 81c9 ac3c cbd1 90bb c210 e73d
000002a0: e288 9abd babb 94bd c84a f2bc 20fa 673b
000002b0: bb08 9abd 2e78 f73d 079c c83d 8076 473d
000002c0: 7279 5dbd 2572 793d 224c c7bd 7e0f 27bd
000002d0: 6516 d0bd 7a51 f33c 2507 753d 89e4 9c3c
000002e0: 5ab3 e5bd 8f19 96bc 61bd 0c3d 42e1 073d
000002f0: dde4 9d3d acf1 963d 5876 8c3d 5114 80bd
00000300: 22f7 cf3a 3699 9f3d cca4 0e3d 052a a5bd
00000310: d46c 25bc 7558 dcbc e5b9 aabd 5ae7 0ebc
00000320: 8b41 143d 9cf6 bebd dc73 9ebd 3cb8 9bbd
00000330: 3ff5 e33d 3a97 bc3d 67fb 87bc c962 2fbd
00000340: b8b4 3e3d c88b 683d 8f2a 94bd 92d8 6ebb
00000350: a284 dbbc a1d0 c93d b338 733d b8a2 03bd
00000360: 2ed6 26bc 1fc5 39bd 499e 663c 2e33 d4bd
00000370: e5a9 be3d c292 cbbd 7800 a2bd 415a b73c
00000380: eb44 a6bd d85f 703c 1f72 1e3d a455 64bd
00000390: 86e8 a0bd 42ba 9bbd 1b96 0cbe 3753 6ebd
000003a0: 61e3 d5bd 0ec4 543d e933 9d3d 59cb 26bc
000003b0: 3fce cdbc 4560 513b 6dfe d63c e700 6b3b
000003c0: 8a30 5e3d 5dce 9bbd 5124 ba3d 1088 c2bd
000003d0: bac3 913d 8ef3 8b3d 4d18 aabd 3865 e3bd
000003e0: ce8d 36bd 5a95 07bd b9cd e2bc 5598 80bd
000003f0: 1ee4 cf3d fb6e a0bd 9938 30bd 6cda 16bd
-0.02166326 0.008324811 0.012246405 -0.07091215 -0.055369638 0.021760808 0.01899885 0.04993014
-0.052333735 -0.120283864 0.040209398 -0.06051864 0.021841446 -0.022726633 -0.066151954 -0.057640534
-0.05375466 0.08872704 -0.0686856 -0.033948407 0.08339739 -0.04916515 0.090684064 0.05006549
0.01580487 -0.11483115 0.02540248 -0.07175312 -0.08489431 -0.02645708 0.017857347 0.041148994
-0.049645282 -0.07242414 0.029224461 -0.07363083 0.036294125 0.058331512 0.04541394 0.06169016
-0.036019266 0.0022406976 0.077043734 -0.11997334 -0.06769072 -0.09226517 0.028202925 -0.036962703
0.09499043 0.048086174 -0.0022728443 -0.11861231 0.099292755 0.0118676005 -0.09092543 0.05037997
-0.03173457 -0.10652158 0.07435176 -0.06625435 0.056139257 -0.028913692 0.07582255 0.010510437
-0.05621021 0.020615824 -0.06605573 -0.0033024342 -0.115205735 0.06941453 -0.06806526 -0.050201055
0.05205136 -0.025199456 -0.03924225 -0.05637665 -0.03589696 0.050661653 -0.04570554 -0.0048394147
-0.04044634 -0.07291399 0.03222754 -0.06120231 -0.11080364 0.023532204 0.09914845 -0.06902653
0.06082259 -0.09520569 0.027057704 -0.053568207 0.030425273 -0.04616817 0.054411393 0.030359086
-0.07292806 -0.036724433 0.002969917 0.110655874 0.11043937 0.06571254 -0.00077003025 -0.020554643
0.040760532 -0.0957687 -0.042789236 -0.013547809 -0.038281683 0.057210766 -0.10401625 0.040440366
0.0059328955 -0.074411385 0.03329338 -0.0066386634 0.03644194 0.019687599 -0.087213464 -0.044075735
-0.046019938 0.0376299 0.023167076 0.110202335 -0.010365281 -0.025269685 -0.10624943 0.068146706
-0.010331345 0.097151525 0.019738652 -0.10530349 0.063338764 -0.0800104 0.032359205 0.00042988447
0.06832156 -0.08628454 -0.08145003 0.09700235 -0.08452756 0.104730316 -0.01590299 0.049674965
-0.07449235 -0.06812099 0.040815223 -0.003150256 -0.05029743 -0.14171922 -0.042988107 -0.11270153
-0.021249227 -0.12013016 0.03498355 -0.08523533 0.064758144 -0.010476994 0.1084759 0.0007898737
0.042266045 -0.045450278 -0.066204056 0.002621523 -0.06770836 0.021092178 -0.0044195405 0.11282493
-0.075456396 -0.072623685 -0.029576674 0.003539689 -0.075211965 0.12083469 0.09795385 0.048696995
-0.054070897 0.060899872 -0.09731318 -0.04078626 -0.101605214 0.029701937 0.059821267 0.019151943
-0.11215849 -0.018322734 0.034360293 0.033173807 0.07709668 0.07370314 0.0685851 -0.06253875
0.0015866498 0.077928945 0.03482513 -0.08064655 -0.010096747 -0.026897648 -0.08336238 -0.008722151
0.03619532 -0.09324381 -0.07736942 -0.07603499 0.11130761 0.09208532 -0.01659937 -0.04281882
0.046559066 0.05677393 -0.0723468 -0.0036445004 -0.026796643 0.09854246 0.059380244 -0.032137603
-0.0101829 -0.045354005 0.014075824 -0.10361324 0.093097486 -0.09940101 -0.07910246 0.022381904
-0.08118614 0.014671288 0.038683053 -0.055745736 -0.0785685 -0.07603885 -0.13729136 -0.05818483
-0.1044376 0.051944785 0.07675917 -0.010180318 -0.02512276 0.003194825 0.026244367 0.0035858692
0.05424551 -0.0760772 0.09088958 -0.09498608 0.0711741 0.06833564 -0.08305416 -0.1110329
-0.04456883 -0.033101417 -0.027685987 -0.06279055 0.10150932 -0.07833668 -0.043022726 -0.036829397

l1.bias f4 [256]
00000000: 72a8 f33d 0911 fd3d a0e2 933b 1862 753d
00000010: 67b2 2c3e 6872 ff3d 6e1b 003d 53d3 1d3e
00000020: 09c5 003e a636 023e 58f2 fe3d 8cb6 2d3d
00000030: 78e0 da3d e615 ae3a 8c7a ac3d 042a b13d
00000040: 5b59 f03d b3e2 1e3e b6e5 513e a030 a93d
00000050: 9c4a 343e 13bb d33d e897 df3d 9bbc f43b
00000060: dc90 c13d e69e e83d f71c 493d ad3e 7a3b
00000070: 1bf0 ee3b b656 ec3d 3ce0 0f3e 4373 003c
00000080: d92f 193e 38c6 c03c 9199 f43d 93a6 543e
00000090: b1d1 263e 7fea 033d 34a1 213e 132d c73d
000000a0: 7634 2e3e 1ff7 a53d fb2e 3a3e 8909 1a3e
000000b0: acd2 3c3e 5529 063e cc86 283e c4da 143e
000000c0: 7538 cb3d e30a 3a3e 3165 243e 1a31 0c3e
000000d0: 88ff c13d a14f 443d 30c7 133d 9fba 173e
000000e0: 82a1 a23d 7cb6 143e c32b 243e 2684 db3d
000000f0: 75f4 c93d b5eb bc3d 4bd5 ee3d 02ca ce3b
00000100: 20b5 ea3d 5900 9f3d f280 273e f601 823b
00000110: 9378 1d3e cab9 d33d 8275 113e be4f f63d
00000120: 8db6 e03d cbb2 e73d 4587 ab3a 92c3 0a3e
00000130: d90a 233e 00a0 4d3e 1ebd e83d 2042 db3d
00000140: 791e 013e bf3b 133e 2661 2a3e 1563 eb3d
00000150: d15d f53d c9df 373e 14ca f33d baca 123e
00000160: 99c8 d23d f324 fb3c 44b9 183e ee78 323e
00000170: 65f0 693d 6dfb 003e 2434 8d3d 0369 063e
00000180: bcf7 f43d 61d3 1b3e 7fc4 563d 831c 5b3d
00000190: 7d2e cc3d 426b 053d 14b5 b03a d854 853d
000001a0: 2f11 e83d 269e fb3d c8b6 1c3e dac7 0d3e
000001b0: df3d 3b3e 416a de3d c36a 0a3e b4e0 d43d
000001c0: f92a 133d 807b 423c af97 263c e7a6 f23d
000001d0: ab19 fc3d e424 b73c b413 f13d 7a19 243e
000001e0: 327a ec3d daae f43d ee30 fc3d 69f3 f73d
000001f0: 6c58 f23d 195e 073e 6cc2 0c3e 29ab ca3d
00000200: c874 5b3d 13df 663d 3b0f fc3d ea66 c73d
00000210: d4fd 9a3c 2fc5 c83d 1f0e 053e ec90 e63d
00000220: 49f4 083e 51c3 ff3d e43e c63b eb32 fd3d
00000230: 8599 f03d dd43 093e 9a0c e43d a498 c83d
00000240: ac8d 063e ab85 043e b8f5 ff3d b9f1 1b3e
00000250: 9d2e dd3d ae62 db3d 8d27 1f3e df0b ce3d
00000260: 7866 193e 3c61 f239 0dd0 dd3d 9c73 493e
00000270: 798a 0e3b a755 e53d baa6 e73d 5a60 b33d
00000280: 4e7d 063d dd4c 363e 8c78 b93d 371e 093e
00000290: cb68 cb3d 43ea 1d3e e1e3 993d df1e d53d
000002a0: dbbd 3b3e a412 4a3e 2355 5f3e f299 033e
000002b0: ca8d 9d3d 466a 173e a2ed ba3d dd19 423e
000002c0: c06b 133e 3233 c93d 5866 1b3e 101e db3b
000002d0: bc3e 8d3c 50f2 133e 5578 403e 50f3 083e
000002e0: c643 013e 9aad c53d 96b5 c93d aec0 243e
000002f0: d9de 473e 8469 d23c 1300 1b3e 346c 093e
00000300: 952c ae3d 121f 323e 403c 023e acaa f43d
00000310: ee24 b03d 2005 253e 2f0a e33c 1ca5 343e
00000320: 3363 133e b349 e13d d2a7 cf3d 80dc 693b
00000330: ab28 dc3d 641e ee3d 1854 ea3d 4ed5 103e
00000340: f6ea f23d 398e a03c f66b 0a3e 047a 333e
00000350: 33b7 483e 25b5 df3d 7eba 303e 6a3d 033e
00000360: d510 0a3e c01c f03d 4668 cc3d 14eb 1a3d
00000370: 6b0c 263d cfcf 0a3b a84b 0f3e ed4b 0d3e
00000380: db72 6e3c 92e1 123d dba4 f83d 163b d33d
00000390: 9875 433e 0d7d f43d 0275 2f3e 9634 eb3d
000003a0: dfce 2a3e 70bd 413e c946 003e 4e0a e33d
000003b0: ba6a 193e a796 3d3e 9a55 433e 2eb1 073e
000003c0: 9446 0a3e 9067 9b3d 0896 273e db98 a13d
000003d0: 3cb7 c23b 8d25 113e 1025 943b a786 093e
000003e0: f3ab ca39 ff76 ef3d 84bc dc3d 27e2 0f3e
000003f0: 699d 1c3e 049c 123e bdaf 933d 130a 0a3e
0.11897363 0.12356765 0.0045131 0.059908003 0.1686493 0.12472993 0.03127616 0.15412645
0.12575163 0.12716159 0.12448567 0.04241042 0.10687345 0.0013281673 0.084218115 0.08650592
0.11735793 0.15516166 0.20497784 0.082612276 0.17606586 0.10338416 0.10917646 0.0074687726
0.09451458 0.113584325 0.04909989 0.003818433 0.0072918064 0.11539976 0.14050382 0.007839981
0.14959659 0.023532018 0.11943353 0.20766668 0.16290928 0.032206055 0.1578415 0.09725394
0.170122 0.08103775 0.18181984 0.150427 0.1843974 0.13101704 0.16457671 0.14536577
0.09922878 0.18168215 0.16054226 0.13690606 0.09472567 0.047927503 0.036078632 0.14817284
0.079409614 0.14522737 0.16032319 0.10718565 0.098610796 0.09224645 0.11661776 0.0063107023
0.11460328 0.07763738 0.16357782 0.003967519 0.15378027 0.10338171 0.14204982 0.12026928
0.10972319 0.11313399 0.0013086578 0.13551167 0.15922107 0.20080566 0.11364196 0.10705972
0.1260928 0.1437826 0.16638622 0.11493508 0.11980785 0.17956461 0.11903778 0.14335147
0.10292167 0.030657267 0.14914423 0.17428944 0.057114024 0.12595911 0.06894711 0.13125996
0.11961314 0.15217353 0.052433487 0.053493988 0.099698044 0.032572992 0.00134817 0.06510323
0.113314025 0.12286024 0.153041 0.13845769 0.1828532 0.1086011 0.13517289 0.10394421
0.035929654 0.011870265 0.010168 0.1184824 0.12309583 0.022356458 0.11771336 0.16025344
0.115467444 0.11947413 0.1231402 0.12106974 0.118332714 0.13219489 0.13746041 0.098959275
0.05357817 0.056365084 0.123075925 0.09736426 0.018919863 0.09803235 0.12993668 0.112581104
0.13374437 0.124884255 0.0060499776 0.123632275 0.117480315 0.13404794 0.11135216 0.09794739
0.13139981 0.12941615 0.12498039 0.15228929 0.107999064 0.10712181 0.15542431 0.10060858
0.14980495 0.00046230282 0.10830698 0.19673008 0.0021750017 0.111979775 0.113110974 0.08758612
0.032834344 0.17802759 0.090561956 0.13390432 0.09932097 0.15421395 0.075141676 0.10406279
0.18334143 0.19733673 0.21809821 0.12851694 0.0769306 0.14786634 0.09127356 0.18955179
0.14396572 0.09824218 0.1517576 0.0066869333 0.017241828 0.14447904 0.18795903 0.13374066
0.1262351 0.096522525 0.09849088 0.16089126 0.19518603 0.02568508 0.15136747 0.13420182
0.08504597 0.17394665 0.12718296 0.119466156 0.08600794 0.16115236 0.027714817 0.17641109
0.1439331 0.11000385 0.10139431 0.0035684407 0.10749944 0.1162689 0.11441821 0.1414387
0.118612215 0.019599067 0.13517746 0.17527014 0.19601135 0.109232225 0.17258641 0.12816396
0.13482983 0.117242336 0.09980826 0.037821844 0.040539186 0.0021180992 0.13993704 0.13798495
0.014553751 0.035859652 0.12140819 0.10314004 0.19087827 0.11937914 0.17134479 0.11484639
0.16680478 0.18919921 0.12527002 0.1108595 0.14982119 0.185145 0.19075623 0.13251182
0.13503486 0.07588112 0.16365826 0.07890483 0.0059422534 0.1417448 0.0045210198 0.13430272
0.00038656555 0.116926186 0.10778144 0.14051114 0.15294422 0.14317328 0.07211254 0.13480406

l2.weight f4 [256, 256]
00000000: 006e abbd 838d 01bd 1e59 9cba 2327 43bc
00000010: dfc2 b83d ea9f 2bbd c268 f03b cf15 4dbb
00000020: 2ba7 a0bb 8b7c 24bd c734 613d f7ad 263d
00000030: 48ef bd3d 00e9 2fb9 6ad6 a33d 30ca 88bd
00000040: 48ad 003e 4da7 35bd 868f ea3d f21d 973c
00000050: 0ee5 083e 0723 0cbd 2393 cbbd 9ed2 a8ba
00000060: 58ed c7bd 445b f2bd 403a 213d ab78 daba
00000070: 186e 85bb 13bb 53bd e3fc d43d a97e aebb
00000080: 7243 52bc 9b3c 57bc a928 5e3d 162b cbbd
00000090: c1e2 2e3d fd6c 463a 3300 2fbd 4e3d a63d
000000a0: 0f65 803d 046d e43d 2062 95bd 5987 e0bd
000000b0: a15d 97bd 9c0b cd3d c312 8b3d 7052 ffbc
000000c0: bd49 f13d 1308 1f3d b22e 8d3d 77bf d83d
000000d0: 1032 43b9 bd03 5ebb e7ce bfbc e66a 2d3d
000000e0: ef95 46bd 6263 a0bd 52fb bbbd 0e63 1a3d
000000f0: 5af8 22bb 869d c43d 855b 233d 6ff7 0e3c
00000100: 053c a73d adbd 45bd 2c2f e43d 2f87 373a
00000110: 0e18 123e 486e 19bb 8e2b e93d d1e0 f23d
00000120: caac 9d3d 184c aabc 5a18 ceb8 2a69 7ebd
00000130: 151e c63d 337a 75bd e7ba af3d 7c6f 023e
00000140: 7a24 5dbd 5ed6 cebd 5552 c63d bd46 8c3d
00000150: b418 dabd 73c7 5abd 1928 6ebd 3bda 8c3c
00000160: 74b3 043b b02f 70bc f859 e53d f775 bdbc
00000170: 04ee 963b 2f16 8a3d 9885 e8bb adce dbba
00000180: 4239 6dbd aeef 42bd 0a84 803d fc3f b23d
00000190: 628c 24bd 9915 453c 1b46 ffb9 758c f6bc
000001a0: b42e f03d 21e0 353d 83ab c13d 6fe9 bcbd
000001b0: c6ef 813d ad83 e13d b1bc c9bd c51e 813d
000001c0: 5cf2 313c e7d9 953b 67c6 17bc 8590 6d3a
000001d0: aa49 f63d 0ee5 6639 fa75 a23d 0682 cebd
000001e0: ab00 e8bd b91b 983d e172 dabd f78e 2c3c
000001f0: 3528 23bd 1eaa cbbc cd88 ad3d b5e4 b23d
00000200: 4a48 c9bc 933c 8b3d f1b3 003d bf01 1d3d
00000210: 369f 04bb 8b67 c63c 4f28 a2bd 2802 d13c
00000220: e651 a3b8 0b1a cabd 5eac 60bb e423 ee3d
00000230: 8489 743d 7f79 bebc 9995 4abd b7f9 4e3d
00000240: b03e 003e 5d4e 61bc 82eb b4bd 941a 11bd
00000250: 667a 06be a1ad 41bd c21a c7bd bb2e 003e
00000260: e2dd 54bd ae97 99b8 eba2 b23d 92dd 9cbd
00000270: ac6e 6338 90cc 4fbd 4bab 283c 8fe6 533d
00000280: cce1 e8bc 308b 94bd 680b f4bd 3284 8e3d
00000290: b6ef dcbb d00b 9f3d a703 e93b 49b0 aebd
000002a0: f994 ff3d 2a75 bb3d bf07 0a3e 460c ff3d
000002b0: c243 af3d d8c5 c9bd 78e2 52bc 9c66 acbd
000002c0: 1b9c ec3d 8950 1f3d 3251 ee3c b192 c5ba
000002d0: f5be 153b 1b1d 8b3c 7e19 673d 07b8 8fbd
000002e0: 333e c6bc ba55 303d 7eba d0bd 58de a1bd
000002f0: 8700 c73d 0582 93ba 870d 81bd dbc9 9cbd
00000300: 50ad f03d 1de0 e83d b8a5 ee3c 1885 03be
00000310: 0202 fdb8 3140 2fbd 033d eabb b472 013e
00000320: 5a1a a43d cab0 85bc 367e 003e aad6 fb3a
00000330: fab6 983d 3ada ecbd 265b 1ebd 90eb 70ba
00000340: b615 403d d411 afbb 19d5 13bc 1081 84bd
00000350: 1864 f13d 7507 8d3d d78f 0ebd 4e01 983d
00000360: 0f0d a6bc 80ae afbd 2711 8ebd 1c8d 09bc
00000370: 4794 0dbd 09b6 e3ba 8772 eb3d 793e b83d
00000380: 8a73 2b3c 7a8e d03c 7bc0 693d fd6d b0bd
00000390: 70dd a03d 579a 23bc cae1 403d a4bf 26bd
000003a0: 283d 7d3c 1f52 f73d 4a60 4cbd 8722 cb3d
000003b0: d3cb 023e 7cc5 a2bd 4f1e 003e 82bc 26bc
000003c0: 5490 1abd ef46 f53d 6c72 6abd 6269 f73d
000003d0: af77 ad3b 16f5 81bd 9a3c 98bb c9f3 fe3d
000003e0: ce13 8eb8 24c1 35bc 237a 17bd 4290 3dbd
000003f0: 587a d23d 4aa8 d53d 4d11 53bc 65d9 ac3d
-0.0837059 -0.031629097 -0.0011928414 -0.011911186 0.09021544 -0.041900553 0.007336707 -0.0031293517
-0.0049027405 -0.040157836 0.054981973 0.04069325 0.09274155 -0.000167761 0.079998806 -0.06679189
0.12566102 -0.044349004 0.11453156 0.018446896 0.13368627 -0.034213092 -0.099401735 -0.0012880152
-0.097620666 -0.11833814 0.039362192 -0.0016668042 -0.004071962 -0.05169208 0.10399797 -0.0053251577
-0.012833463 -0.013137008 0.054237995 -0.09920327 0.042696718 0.0007569341 -0.0427248 0.08117162
0.062692754 0.111536056 -0.072941065 -0.109633155 -0.07390905 0.1001198 0.06790688 -0.031167239
0.117816426 0.03882606 0.06893672 0.10583394 -0.00018615299 -0.003387674 -0.023414088 0.042338274
-0.04848283 -0.07831456 -0.09178795 0.037692122 -0.0024867267 0.09600358 0.0398822 0.008725985
0.08165745 -0.048276592 0.1114181 0.000700104 0.14266989 -0.002341168 0.113852605 0.118592866
0.076989725 -0.020788237 -9.827381e-05 -0.06211201 0.096737064 -0.05993099 0.08580571 0.1273784
-0.053989865 -0.10099481 0.09683672 0.0684943 -0.10649243 -0.053412866 -0.05814371 0.017193904
0.0020248564 -0.014659807 0.11198801 -0.02312754 0.0046060104 0.067425124 -0.0070960037 -0.0016769968
-0.057915933 -0.047591858 0.062751845 0.0870361 -0.040172942 0.012029075 -0.00048689623 -0.030096272
0.11727658 0.0444032 0.094565414 -0.092242114 0.06344561 0.11011443 -0.09850443 0.06304697
0.010861006 0.004573095 -0.009263611 0.00090623676 0.12025769 0.00022019839 0.079326585 -0.10083394
-0.113282524 0.07427163 -0.10666443 0.010532132 -0.039833266 -0.024861392 0.08473358 0.08735029
-0.024570603 0.06798663 0.031421605 0.038331743 -0.0020236499 0.024219295 -0.079178445 0.025513723
-7.7877005e-05 -0.098682486 -0.0034282426 0.11627939 0.059701458 -0.023251293 -0.049459074 0.050531115
0.12523913 -0.013751593 -0.08833982 -0.035425738 -0.13132629 -0.047284726 -0.097219005 0.12517826
-0.051969416 -7.323861e-05 0.087224804 -0.07659449 5.422409e-05 -0.050732195 0.010294746 0.05173355
-0.02842798 -0.072531104 -0.11916238 0.06958808 -0.006742443 0.07765925 0.007111031 -0.085297175
0.12479586 0.09153207 0.13479517 0.12453513 0.08557846 -0.09852189 -0.012871377 -0.08418009
0.11553212 0.038895164 0.029091451 -0.0015073625 0.0022849415 0.016981652 0.056420796 -0.07017522
-0.02419958 0.043050505 -0.101918206 -0.07903737 0.097168975 -0.0011253959 -0.06301408 -0.076556884
0.11751807 0.11370871 0.029131755 -0.1284374 -0.00012064354 -0.042785827 -0.0071483864 0.12641412
0.08012839 -0.016319651 0.12548146 0.0019213755 0.07456775 -0.11565061 -0.038661145 -0.0009190375
0.046895705 -0.0053427014 -0.009022974 -0.06469929 0.117866695 0.06886188 -0.034805145 0.07422124
-0.020269899 -0.08578205 -0.06936865 -0.0083954595 -0.034565236 -0.0017372976 0.11496454 0.08996291
0.010464558 0.025458563 0.05706833 -0.086147286 0.07854736 -0.009985528 0.04709033 -0.040710106
0.015456475 0.1207621 -0.049896516 0.09918695 0.12773065 -0.079478234 0.12511562 -0.01017678
-0.0377353 0.1197642 -0.057238027 0.12080647 0.0052938084 -0.063455746 -0.004645896 0.12448842
-6.7747766e-05 -0.011093412 -0.036981713 -0.046280153 0.102772415 0.10432489 -0.012882543 0.08439902

l2.bias f4 [256]
00000000: 4fff 6c3d e9b6 393d d536 4d3d 335f 763d
00000010: 8770 393d 5f28 693d 0983 383d dd35 693d
00000020: b6df 413d 3ba5 323d f538 703d 46d1 493d
00000030: 384d 563d 2517 693d 867c 543d bc9c 4b3d
00000040: 73fe 4a3d 1572 773d c015 223d a210 3c3d
00000050: 2a5f 3f3d 3667 353d f745 403d 19b1 263d
00000060: 6d4b 203d 1023 303d 664e 583d 2040 573d
00000070: dbb3 223d 9d65 6d3d 3500 273d 73db 573d
00000080: fc2f 543d 0ce9 453d f1e2 193d c15b 5b3d
00000090: 5c7f 273d 42cd 643d 6d0c 623d 6645 663d
000000a0: 5317 293d f632 493d 76f8 6c3d 17cf ff3c
000000b0: f3a4 4f3d bec8 4b3d ea7e 483d c327 613d
000000c0: 7031 613d 47b2 403d 01c2 813d 960d 1f3d
000000d0: 4608 333d 58a1 203d 1248 373d bc48 483d
000000e0: 7f0b 6a3d af16 683d 6394 553d 4d45 6d3d
000000f0: 4486 443d 4f15 1e3d d109 893d f6ae 5e3d
00000100: 2de4 2e3d f643 5f3d 4fdf 203d 842f 163d
00000110: 6525 533d bd7d 3f3d 7f3b 303d 230e 683d
00000120: 6a8e 5f3d 3357 333d 0aeb 6e3d 8b45 643d
00000130: b29d 473d 4c05 5d3d 876e 263d b23f 743d
00000140: 4ff4 593d ee17 383d 71c3 6a3d 56f9 753d
00000150: edc3 543d a10c 5c3d cacc 613d 939d 1e3d
00000160: e5cf 403d 6898 773d b4a1 383d f85f 573d
00000170: 62e8 823d 6a31 953d 00f1 463d b73f 8e3d
00000180: f105 4c3d 4165 3e3d 596c 3e3d e976 7c3d
00000190: f70e 1e3d 59c1 5c3d 845f 4c3d bacb 303d
000001a0: 5c40 4d3d f605 313d e363 6e3d e76e 503d
000001b0: 2d7c 323d 659a 683d 2d24 7a3d 607a 393d
000001c0: 5e36 453d e717 873d c743 523d 25cd 503d
000001d0: ebb2 643d 8921 773d 49cf 483d 6d44 403d
000001e0: 6f82 1c3d 70eb 623d 2385 443d 7e63 743d
000001f0: 04d5 5e3d e493 073d 737e 463d 6147 523d
00000200: 05d3 603d e9e9 2c3d 5b40 383d aa88 373d
00000210: dc33 093d 53f2 163d 43be 4da0 8a55 073d
00000220: 1bc8 1f3d b8e4 533d 40c8 653d 1b99 5f3d
00000230: 9bdf 483d 63ac 5c3d 6a62 7c3d 804f 6c3d
00000240: 2dc1 823d 01b8 093d 3e1f 133d 55a9 3e3d
00000250: fc0d 203d 8ed7 3d3d dea7 683d 8ee8 4f3d
00000260: 5332 1b3d 9753 543d 7725 0b3d 076f 5e3d
00000270: 609c 5e3d 33ed 753d 91ee 393d 2633 433d
00000280: 895d 613d 6e9e 5f3d d2ea 1a3d e1e6 713d
00000290: c545 523d b812 563d a861 303d 8030 343d
000002a0: b973 563d ee42 633d 219c 373d ac1f 4a3d
000002b0: dd49 673d f6d8 583d a2fb 753d 1f33 413d
000002c0: c1bd 4b3d 2d36 5d3d 0d9e 5a3d 26e3 133d
000002d0: 4fe9 4f3d 5dba 583d 7744 523d 98b2 fe3c
000002e0: 1d50 5c3d 7ec2 433d 4f22 2a3d 1687 263d
000002f0: e8e2 8e3d 817f 663d 10af 97a0 f365 373d
00000300: 148f 5c3d f082 2d3d 519e 5b3d 09e2 763d
00000310: 8e28 453d 85ad 373d f16c 103d fb9b 4a3d
00000320: 6542 6d3d 2ef6 6a3d cb5b 463d e788 563d
00000330: a073 7e3d 9eea 663d 9339 343d 62bc 4f3d
00000340: ed19 4d3d 164b 453d 41b0 523d 39a0 603d
00000350: 52aa 283d 8166 6b3d f0a9 593d f3bf 473d
00000360: 490c 4c3d 4673 373d e1f9 373d b925 593d
00000370: 2df5 503d af10 3f3d de5b 7b3d 1bfe 663d
00000380: 72a5 6a3d 9f44 363d ca04 4e3d ebb0 343d
00000390: 1001 743d b872 f43c 6eb0 6b3d e10f 5c3d
000003a0: aaa2 583d 2660 733d cb1d 543d ba13 533d
000003b0: 78b2 4f3d 79e1 753d b039 233d 3300 533d
000003c0: f99f 5d3d 5566 653d 1fb2 503d c9e6 533d
000003d0: 6e4d 7e3d 0f59 8b3d c09f 3b3d d4b1 533d
000003e0: caec 793d 3335 4e3d a770 2a3d 8bda 0c3d
000003f0: 9698 c13c 7f78 fb3c fc1a 443d 6b4a 553d
0.05786067 0.045340452 0.05010112 0.060149383 0.04527333 0.056923267 0.04504684 0.056936134
0.047332488 0.043614607 0.05864807 0.049271844 0.052319735 0.056906838 0.051876567 0.04971002
0.049559068 0.06041153 0.039571524 0.0459143 0.046721615 0.044287883 0.046941724 0.040696237
0.03913443 0.04300219 0.05280914 0.05255139 0.039722305 0.057958234 0.04077168 0.052699517
0.051803574 0.048317954 0.037569944 0.0535543 0.040892944 0.05585981 0.05518763 0.056218527
0.04128201 0.049120866 0.05785414 0.031226678 0.050694417 0.04975199 0.04894916 0.05496956
0.054978788 0.04704502 0.063358314 0.038831316 0.043709062 0.03921637 0.044746466 0.04889749
0.05713987 0.056662258 0.052143466 0.05792742 0.04797961 0.03859454 0.066913255 0.054366075
0.042698074 0.054508172 0.039275464 0.03666641 0.051549334 0.046750773 0.04302549 0.056654107
0.054579176 0.04378433 0.05832962 0.055730384 0.048734374 0.05396013 0.04063275 0.059631057
0.053211506 0.044944696 0.057315294 0.06005224 0.051944662 0.05372298 0.055126943 0.038724493
0.047073264 0.06044808 0.045076087 0.052581757 0.0639198 0.072848156 0.04856968 0.069457464
0.049810354 0.046483282 0.046490047 0.06163684 0.03858849 0.05389533 0.04989578 0.04316304
0.050110206 0.043218575 0.05820073 0.050887015 0.043575455 0.056787867 0.061069656 0.04528272
0.04814755 0.06596356 0.05133417 0.05097689 0.055834692 0.060334716 0.049025808 0.046940256
0.03821033 0.055400312 0.04797853 0.059665196 0.054402366 0.033100024 0.048460435 0.051337603
0.054888744 0.04221526 0.04498325 0.044808067 0.033496723 0.036852192 -1.7427128e-19 0.03304056
0.039009195 0.051731795 0.056099176 0.054589372 0.04904137 0.05387534 0.061617292 0.057693005
0.063845016 0.033622745 0.035918467 0.046548206 0.039075837 0.046348147 0.056800716 0.05075889
0.03788979 0.05183753 0.033971276 0.054305103 0.05434835 0.060040664 0.04539353 0.0476562
0.055020843 0.05459445 0.0378216 0.059058074 0.05133607 0.052263945 0.043061882 0.043991566
0.052356455 0.05548375 0.04482663 0.04934661 0.056466926 0.052941285 0.06005443 0.047167893
0.04974151 0.054006744 0.053373385 0.036105298 0.05075961 0.052912105 0.051334824 0.03109102
0.05378734 0.047792904 0.041536625 0.04065617 0.06976873 0.05627394 -2.5696242e-19 0.04477496
0.053847387 0.0423612 0.05361778 0.060274158 0.04813438 0.044843215 0.035260145 0.04946516
0.057924647 0.05736368 0.048427384 0.052376654 0.062121987 0.056376092 0.04400022 0.050716765
0.050073553 0.04816731 0.05143762 0.0548403 0.041178055 0.057470802 0.05314058 0.04876704
0.049816404 0.044787668 0.044916037 0.05301449 0.051015068 0.04664677 0.06136691 0.056394678
0.057286687 0.044499036 0.050297536 0.044114035 0.059571326 0.029839858 0.057541303 0.05372608
0.052889504 0.059417866 0.051786225 0.051532485 0.05070731 0.06002948 0.039849937 0.051513862
0.05410764 0.056005795 0.05095112 0.051733766 0.06208556 0.06804096 0.045806646 0.051683262
0.061016835 0.050343703 0.04161134 0.034388106 0.023632329 0.030697105 0.047877297 0.052072924
