code/save/model_beta_embeddings/model_beta_3.pt (torch, 649914 bytes, 6 tensors)

embed.weight f4 [59, 256]
0.13925074 -0.00739403 0.17177904 -0.17902815 0.037746225 0.15478432 -0.031919606 -0.0032394824
-0.0033949788 -0.03315989 -0.106524244 0.17053102 -0.05632147 -0.08754602 -0.10241801 -0.05369556
0.0756311 0.14103384 0.13368994 -0.13875465 -0.22694823 0.08703 -0.19092031 -0.03598521
-0.089494705 0.10914908 0.072046705 -0.14605995 0.123507544 0.09063593 -0.018821513 0.003982389
-0.10216543 0.07305291 -0.12008125 -0.04414724 0.010426223 -0.062077142 0.09155261 0.091265686
0.124971494 -0.07343243 0.014157853 0.03426579 0.16620283 0.05695099 -0.04802229 -0.1306457
-0.13945352 0.09658953 0.171689 0.12672472 -0.23299691 -0.15635301 -0.095210254 0.036830828
-0.14299525 -0.085407905 0.018335216 0.017507644 0.15394565 0.1687031 -0.17070845 0.18379661
0.18365826 -0.120544404 -0.060049493 -0.19069105 -0.1915432 -0.14887561 -0.10621668 -0.025437463
-0.12878503 0.02816229 -0.06319205 -0.09139083 0.0093900915 -0.11572866 -0.04328104 0.13214423
-0.11142988 -0.009164312 -0.024110736 0.04613538 -0.06262204 0.15093158 -0.14632718 0.11630544
0.13056266 0.058502313 0.1828131 0.10030226 -0.04251059 0.19437894 -0.14150204 -0.13919076
0.08117502 -0.073777065 -0.0788599 0.05256907 -0.10872178 0.20459874 -0.19707337 -0.1940253
-0.021457607 0.01027457 -0.1801461 0.2111093 -0.2078557 -0.14519836 -0.14229034 0.15640388
-0.13492453 -0.16356498 -0.025210375 0.10150954 -0.06894323 0.04494838 0.003317241 0.055238735
0.18797483 -0.025481727 -0.05282551 -0.0031696327 -0.11559729 0.21022367 -0.0015461984 -0.016609086
-0.025658458 0.0518587 -0.10012321 -0.2193475 0.12474256 -0.12540647 -0.038153898 0.07207749
-0.091143414 0.20940131 0.16606939 -0.13493012 0.19826828 0.1696637 -0.1925007 -0.09563741
0.07909114 -0.0003261495 0.05574968 0.16416177 -0.077353604 -0.036906496 0.07604297 -0.14100821
-0.13032883 -0.07718879 -0.130161 -0.15846635 -0.07367756 0.060081378 0.007283188 0.05274705
0.12861684 0.17720631 0.083262116 -0.0046431604 -0.0035566695 0.13598387 0.14189185 -0.0976089
-0.17807385 -0.080183335 -0.039716553 0.15485786 -0.074506216 0.012615501 0.16514175 -0.10435336
-0.075905815 -0.18795672 -0.17259341 -0.07433967 0.15209928 -0.14289303 0.074125364 0.017268835
0.1078253 -0.17406103 0.051360976 -0.053903088 -0.0012741531 0.14330424 -0.061736025 0.04597548
0.017785113 -0.21687417 -0.019490564 0.05579386 -0.1357025 -0.16153029 -0.112698615 -0.0095495805
-0.1163482 -0.07607609 -0.09077782 -0.08333901 0.040739547 -0.20372662 0.117618605 -0.17980349
-0.0919642 0.185916 -0.04028473 -0.23696761 0.11968198 0.11974492 0.12167729 0.06752033
0.08116415 -0.1477917 0.18489751 0.19129588 -0.0481787 -0.15215638 0.069977745 0.13951224
-0.08973625 0.12835267 -0.21355043 -0.09716138 0.011886879 -0.09838798 0.16555598 0.044446766
0.07000531 -0.112826906 -0.17858289 -0.13693744 -0.0474572 -0.07712324 -0.11984157 -0.029434115
-0.044261433 -0.106866926 -0.006684754 -0.10975337 -0.2004513 -0.22054785 0.20761482 -0.04437339
-0.14775509 -0.1639475 -0.04576039 -0.06962292 -0.10777238 0.15049003 -0.13560443 -0.112977624
00000000: bf97 0e3e 9f49 f2bb d8e6 2f3e 2853 37be
00000010: c99b 1a3d c87f 1e3e 22be 02bd 7f4d 54bb
00000020: 4b7e 5ebb aad2 07bd 6229 dabd af9f 2e3e
00000030: 57b1 66bd 544b b3bd 89c0 d1bd e0ef 5bbd
00000040: 7ae4 9a3d 2d6b 103e 04e6 083e b315 0ebe
00000050: 1e65 68be c93c b23d 9d80 43be 3a65 13bd
00000060: 0049 b7bd 8e89 df3d 398d 933d bd90 15be
00000070: 86f1 fc3d 559f b93d 932f 9abc b37e 823b
00000080: 1c3c d1bd c49c 953d 29ed f5bd bdd3 34bd
00000090: c0d2 2a3c 9a44 7ebd ef7f bb3d 81e9 ba3d
000000a0: 0ef1 ff3d be63 96bd 57f6 673c 495a 0c3d
000000b0: 1331 2a3e 7145 693d 05b3 44bd fdc7 05be
000000c0: e7cc 0ebe bbd0 c53d 3ecf 2f3e 20c4 013e
000000d0: be96 6ebe 011b 20be 98fd c2bd ecdb 163d
000000e0: 596d 12be 57ea aebd bc33 963c 316c 8f3c
000000f0: eea3 1d3e 81c0 2c3e 32ce 2ebe 2e35 3c3e
00000100: e910 3c3e fcdf f6bd 75f6 75bd 8444 43be
00000110: e723 44be d972 18be 2188 d9bd 3a62 d0bc
00000120: 39e0 03be 9ab4 e63c d56a 81bd 1e2b bbbd
00000130: e6d8 193c 2603 edbd 7647 31bd d150 073e
00000140: 5935 e4bd e925 16bc e183 c5bc 74f8 3c3d
00000150: fc3f 80bd cf8d 1a3e cbd6 15be 8c31 ee3d
00000160: 38b2 053e 1fa0 6f3d 5b33 3b3e 456b cd3d
00000170: 961f 2ebd 460b 473e e9e5 10be 0688 0ebe
00000180: 173f a63d 6e18 97bd 4d81 a1bd aa52 573d
00000190: 86a9 debd 5582 513e 9acd 49be 91ae 46be
000001a0: ddc7 afbc ac56 283c 3878 38be 092d 583e
000001b0: 20d8 54be e1ae 14be 8fb4 11be 5728 203e
000001c0: a829 0abe 947d 27be fd85 cebc 3ce4 cf3d
000001d0: 1c32 8dbd cb1b 383d 1266 593b 0342 623d
000001e0: 797c 403e 0ebf d0bc 905f 58bd 9db9 4fbb
000001f0: 46be ecbd e044 573e cfa9 caba c70f 88bc
00000200: b031 d2bc ca69 543d 660d cdbd a29c 60be
00000210: 0779 ff3d 8e6a 00be 4347 1cbd 5d9d 933d
00000220: 66a9 babd 4c6d 563e 180e 2a3e 1f2b 0abe
00000230: d706 4b3e 52bc 2d3e e71e 45be 8cdd c3bd
00000240: 89fa a13d 0bff aab9 c759 643d 061a 283e
00000250: 916b 9ebd 442b 17bd 6bbc 9b3d 7564 10be
00000260: ec74 05be 2815 9ebd ed48 05be 0145 22be
00000270: 43e4 96bd e417 763d cfa7 ee3b 4a0d 583d
00000280: 22b4 033e 9275 353e 5485 aa3d a725 98bb
00000290: 0317 69bb 5b3f 0b3e 194c 113e 2de7 c7bd
000002a0: fe58 36be 2937 a4bd d3ad 22bd 0f93 1e3e
000002b0: b796 98bd 3fb1 4e3c eb1a 293e 37b7 d5bd
000002c0: 8274 9bbd ba77 40be 54bc 30be 663f 98bd
000002d0: eabf 1b3e 8d52 12be 0acf 973d 5f77 8d3c
000002e0: 83d3 dc3d 0e3d 32be e35f 523d 7cc9 5cbd
000002f0: 7c01 a7ba 59be 123e eade 7cbd c950 3c3d
00000300: 16b2 913c 4314 5ebe adaa 9fbc 1a88 643d
00000310: 99f5 0abe 3268 25be 88ce e6bd d875 1cbc
00000320: f747 eebd c8cd 9bbd b9e9 b9bd a5ad aabd
00000330: 83de 263d b69d 50be 06e2 f03d 681e 38be
00000340: ba57 bcbd c460 3e3e 9a01 25bd a3a7 72be
00000350: d31b f53d d33c f53d f131 f93d 1948 8a3d
00000360: 6439 a63d b556 17be c655 3d3e 11e3 433e
00000370: 0757 45bd e2ce 1bbe 7e50 8f3d 4cdc 0e3e
00000380: a4c7 b7bd e26e 033e f7ac 5abe 8cfc c6bd
00000390: 2fc1 423c a37f c9bd 8287 293e d00d 363d
000003a0: f25e 8f3d cb11 e7bd 6fde 36be 5439 0cbe
000003b0: 7b62 42bd caf2 9dbd 7f6f f5bd d01f f1bc
000003c0: 7a4b 35bd 0cdd dabd c80b dbbb 60c6 e0bd
000003d0: 1b43 4dbe 4cd7 61be fb98 543e dfc0 35bd
000003e0: 1c4d 17be dae1 27be 3f6f 3bbd 7696 8ebd
000003f0: c4b7 dcbd 0f1a 1a3e e3db 0abe d060 e7bd

unembed.weight f4 [59, 256]
0.10115514 0.08179571 0.15724914 -0.10045248 -0.18406671 -0.017342571 0.042756215 0.14584158
0.11999961 0.047779355 -0.12859723 -0.17736976 0.10081409 0.19687018 0.15571134 -0.12038642
0.1711176 0.18432333 0.06570158 -0.0946661 -0.17794523 -0.07484593 -0.18538141 -0.012551202
-0.00021353984 -0.016571831 0.09229938 0.12649214 0.20265214 0.019310078 0.22032236 0.122242875
0.12792033 -0.18734016 -0.013803565 -0.0948601 0.017468248 0.2702754 -0.19986367 -0.16748777
0.022704815 0.0020801274 0.14703879 0.19625166 -0.13705052 0.028270165 -0.006515235 -0.0011016625
0.030321367 -0.07583198 -0.016812693 0.13508153 -0.21974456 0.12277304 -0.16129567 0.12471589
0.03903947 -0.09910462 -0.010505408 0.21178792 0.03506799 0.0242265 0.1418471 -0.09601177
0.0035427392 0.023796652 0.21158375 0.023556318 0.016185906 -0.022841683 0.05882623 -0.119673744
0.16461349 -0.1919222 0.09400525 -0.15836248 -0.054838117 -0.016242087 0.080119535 0.082560904
-0.18612137 0.08145327 -0.029675318 -0.19240212 -0.04252629 0.14088516 -0.14387892 0.049994484
-0.22084685 -0.07858064 -0.06676707 -0.19680706 0.05330119 -0.056868427 -0.18976203 0.19138694
-0.1416 -0.032904383 -0.04556033 -0.17986435 -0.068906836 0.16445878 0.18941313 0.06403979
-0.19738416 0.0333507 0.04290555 0.2093248 -0.018382212 0.19238243 -0.005845213 0.18003795
0.026241288 -0.11130217 0.21094209 0.1193046 -0.08047755 0.07443066 -0.04338064 0.029858273
0.0988216 0.11998111 -0.21929438 -0.10608664 -0.050411645 0.11485274 -0.14590436 -0.021425463
-0.10861444 -0.029158594 0.09899714 -0.16723022 -0.20340587 -0.0051066694 0.047953006 0.071984544
0.010530392 0.046896145 0.0622878 -0.12758648 -0.18069755 -0.098017 -0.16927238 -0.13591081
-0.18630019 -0.155103 -0.18305664 0.15298909 0.123479135 -0.13803546 0.021118062 0.0661174
0.17751059 -0.15809089 -0.07733316 -0.080528125 -0.09143758 -0.19512933 0.015268201 0.0410699
-0.11413655 0.10597433 -0.027042931 -0.12507322 0.15386888 0.12518065 0.14730515 -0.18244691
0.107294746 -0.124969855 -0.061731137 0.15762714 -0.06141313 -0.0004613562 -0.16694275 0.0786568
0.076091 0.09831997 0.042598266 -0.07853336 -0.108499825 -0.13918784 0.068062246 0.051615745
0.19720596 0.023120886 -0.043777782 0.060800318 -0.19641021 -0.099091016 0.043590434 0.2193524
1.901192e-20 0.07928865 0.028671004 0.029104546 -0.07417332 0.046680894 -0.15841205 0.053807516
-0.066996925 -0.049980223 0.11769533 -0.07821541 0.19373812 0.043538377 0.08027006 -0.021627996
0.038882896 0.082370944 -0.13273194 -0.026571758 -0.13619058 -0.13616854 -0.022727543 0.11271265
-0.04506586 0.029428134 -0.012346078 -0.038926426 -0.19520386 -0.0006768081 -0.16618949 0.098599866
0.13258034 -0.08198461 -0.076490685 0.09133831 0.07292439 -0.19696298 0.122138806 -0.061654784
0.04356508 0.2050405 0.102456845 -0.12774225 -0.039265316 0.009834486 -0.16473281 0.0670149
-0.12414874 0.046116784 -0.026914805 -0.20838593 0.089637324 0.2043576 0.07827272 0.14279756
0.027591564 -0.19529057 0.038888566 0.087407194 0.07222589 -0.18042322 -0.015380326 -0.049797013
00000000: 6d2a cf3d 8284 a73d eb05 213e 08ba cdbd
00000010: fc7b 3cbe 0212 8ebc 2421 2f3d 7f57 153e
00000020: 5bc2 f53d 49b4 433d feae 03be 6ba0 35be
00000030: 9e77 ce3d 5698 493e cb72 1f3e 288d f6bd
00000040: 7439 2f3e 41bf 3c3e 8d8e 863d 4de0 c1bd
00000050: 4637 36be d348 99bd a0d4 3dbe 8fa3 4dbc
00000060: aae9 5fb9 a6c1 87bc 7507 bd3d 2887 013e
00000070: 0b84 4f3e 2b30 9e3c 2f9c 613e 795a fa3d
00000080: 8cfd 023e 19d6 3fbe 5928 62bc 0346 c2bd
00000090: 9219 8f3c 8a61 8a3e 10a9 4cbe ea81 2bbe
000000a0: 73ff b93c bf52 083b 5691 163e 32f6 483e
000000b0: f956 0cbe d596 e73c c17d d5bb a965 90ba
000000c0: 8464 f83c cc4d 9bbd c6ba 89bc d052 0a3e
000000d0: b804 61be 6e70 fb3d b12a 25be 0b6b ff3d
000000e0: dae7 1f3d 5df7 cabd e01e 2cbc efde 583e
000000f0: 74a3 0f3d a776 c63c 5e40 113e d2a1 c4bd
00000100: 4d2d 683b 32f1 c23c 69a9 583e 2ef9 c03c
00000110: 4e98 843c 7b1e bbbc c6f3 703d 8217 f5bd
00000120: 7090 283e 4187 44be d385 c03d c629 22be
00000130: ef9d 60bd 200e 85bc b615 a43d b115 a93d
00000140: 9a96 3ebe f9d0 a63d a719 f3bc 1005 45be
00000150: 0c30 2ebd 3344 103e ff54 13be 04c7 4c3d
00000160: ad25 62be e3ee a0bd 2cbd 88bd ca87 49be
00000170: 5952 5a3d deee 68bd fa50 42be f0fa 433e
00000180: 97ff 10be bfc6 06bd 789d 3abd 5c2e 38be
00000190: 071f 8dbd e267 283e 84f5 413e 4b27 833d
000001a0: 131f 4abe be9a 083d bbbd 2f3d 3e59 563e
000001b0: 4b96 96bc e6ff 443e 3389 bfbb de5b 383e
000001c0: f8f7 d63c 64f2 e3bd 3401 583e f855 f43d
000001d0: 6ad1 a4bd 1a6f 983d e6af 31bd 5699 f43c
000001e0: fb62 ca3d a8b8 f53d b58e 60be f443 d9bd
000001f0: 717c 4ebd ea37 eb3d f467 15be 7484 afbc
00000200: 3f71 debd 01de eebc 03bf ca3d 663e 2bbe
00000210: a149 50be d955 a7bb 5f6a 443d a26c 933d
00000220: aa87 2c3c 2c16 403d 7e21 7f3d 08a6 02be
00000230: c708 39be 23bd c8bd bd55 2dbe 342c 0bbe
00000240: 7ac5 3ebe 52d3 1ebe 3373 3bbe 2ca9 1c3e
00000250: a1e2 fc3d 2b59 0dbe c9ff ac3c 8f68 873d
00000260: 56c5 353e 94e2 21be d960 9ebd eeeb a4bd
00000270: a043 bbbd fccf 47be 7a27 7a3c e938 283d
00000280: 6cc0 e9bd 1209 d93d 2389 ddbc 3213 00be
00000290: ce8f 1d3e 5b2f 003e 29d7 163e 5dd3 3abe
000002a0: 59bd db3d 32f0 ffbd cad9 7cbd 0269 213e
000002b0: 568c 7bbd 2ee2 f1b9 0af3 2abe d116 a13d
000002c0: 99d5 9b3d fb5b c93d 857b 2e3d 19d6 a0bd
000002d0: 2835 debd 4287 0ebe 3864 8b3d 086b 533d
000002e0: 5cf0 493e 0368 bd3c 5550 33bd c109 793d
000002f0: c21f 49be 3bf0 cabd e28b 323d ea9d 603e
00000300: 0090 b31e 1662 a23d 74df ea3c a86c ee3c
00000310: 2ee8 97bd 7734 3f3d c536 22be 4565 5c3d
00000320: af35 89bd 10b8 4cbd 400a f13d 672f a0bd
00000330: 4963 463e 4c55 323d a164 a43d 322d b1bc
00000340: ac43 1f3d 19b2 a83d e2ea 07be 04ad d9bc
00000350: 8b75 0bbe c46f 0bbe 1d2f babc e4d5 e63d
00000360: fb96 38bd 4513 f13c 3447 4abc 5171 1fbd
00000370: 85e3 47be d36b 31ba 942d 2abe baee c93d
00000380: 24c3 073e 8ce7 a7bd 26a7 9cbd 940f bb3d
00000390: 6259 953d aab0 49be e923 fa3d ba89 7cbd
000003a0: 4c71 323d 23f6 513e e5d4 d13d ddce 02be
000003b0: abd4 20bd d320 213c b8af 28be 1c3f 893d
000003c0: b241 febd f4e4 3c3d 707c dcbc 1f63 55be
000003d0: c693 b73d 1e43 513e 734d a03d 8639 123e
000003e0: b407 e23c 40fa 47be 9e49 1f3d 8b02 b33d
000003f0: 2beb 933d ddc0 38be c3fd 7bbc f4f7 4bbd

l1.weight f4 [256, 256]
-0.1510209 -0.14588498 -0.0425217 0.14806344 -0.034925893 -0.10271831 0.06413105 -0.0014924261
-0.09937049 0.079208724 -0.058124818 -0.11388517 -0.11741443 -0.05666808 -0.030190708 -0.1277357
0.060505293 -0.08817777 -0.11907128 0.08878091 0.08871941 0.09992134 0.16661799 0.084623024
-0.009543708 0.058047447 -0.15617728 -0.11089967 -0.06985122 -0.049900427 0.007290331 -0.047964245
0.122700326 -0.05823588 0.0134009775 0.14550678 0.07747954 0.008433967 0.057781383 0.04333106
-0.06253567 -0.057096474 -0.09739512 -0.00032018145 -0.13326432 -0.09259226 0.050862666 0.04708197
0.1230976 -0.081449 -0.12250507 -0.122097716 0.16223583 0.090431295 0.13474473 -0.09481367
-0.027906148 -0.037682787 -0.042633034 -0.07785389 0.070180565 0.06289947 0.028576856 -0.037075743
0.03900933 -0.069837965 0.08291295 -0.044736747 0.019216081 0.13499342 0.12354887 0.012296525
0.06923895 -0.004902269 0.041052785 -0.12276961 0.012829167 0.01835505 0.08850583 -0.018616958
0.12386148 -0.016555961 -0.11254623 0.003013758 -0.07978654 -0.12581171 0.079272 0.06325003
-0.14131057 0.061126746 -0.104411006 -0.14039524 0.10109267 -0.01287927 -0.10232135 0.05886512
-0.13570815 -0.055431083 0.07924811 -0.094700456 -0.11892385 -0.019835696 -0.036961466 0.09922877
0.12641092 -0.10501141 0.11904545 -0.1383691 0.0423061 -0.03423291 0.05699757 -0.17029114
0.0052920743 0.1741937 -0.0062708766 -0.14217263 0.056964897 0.14766072 0.12599678 0.03944966
-0.06564861 0.03184119 -0.022181505 -0.04506871 0.02465581 -0.023635294 0.06610889 -0.15346277
-0.061680738 -0.14616919 0.06987211 0.059957836 0.13465884 -0.09976998 -0.09037036 -0.014710844
-0.057339013 -0.13562164 -0.12530105 0.11971781 -0.08733892 0.027254388 0.13823073 0.0984566
-0.05419209 0.06064428 -0.1088808 -0.06827157 0.08775315 0.0777429 -0.005962543 -0.0077646803
0.08663189 -0.0019169404 -0.024411175 -0.06356314 0.12287475 -0.14342189 -0.11204188 0.047724254
-0.12226566 -0.12269745 -0.06804172 0.06265464 -0.120608434 0.07033737 -0.05319803 -0.03826408
-0.03541001 0.11329031 -0.018647395 -0.12499091 -0.055878498 0.09604176 0.08247597 -0.09090322
-0.07274472 0.1472158 -0.07094056 -0.012664731 0.03175607 0.06297355 0.01661493 -0.057731
0.06663077 0.023240592 -0.07709425 0.13402039 -0.01582765 0.030655628 0.08752581 -0.11645245
0.106395125 0.088388614 0.050882608 -0.033181034 -0.008515801 0.048384372 0.11642637 0.015005598
0.03799661 -0.036416285 0.07010724 -0.096855246 0.008749512 0.11384277 -0.019127402 0.07919113
-0.14871034 -0.053481292 -0.08585421 0.05256895 -0.1256697 -0.075457364 -0.14080398 -0.022526497
-0.116072275 0.10508354 0.062047165 0.0009411636 -0.0036049285 0.047686607 -0.043195456 0.028371802
0.11329462 -0.065272614 0.082618654 0.13728915 -0.037047707 0.0535678 -0.006581422 0.0024676248
0.0994285 -0.027716562 0.106710315 0.12221542 -0.04798468 -0.09435401 0.055629883 -0.06884816
0.05000649 0.06226301 0.11445779 0.12103889 0.11180844 0.007223847 -0.0857607 0.023702672
-0.078273945 0.11320486 0.08521821 0.15932186 0.044283777 -0.1091095 0.087456 0.052218784
00000000: 39a5 1abe df62 15be 3c2b 2ebd f19d 173e
00000010: 740e 0fbd fa5d d2bd 2457 833d 839d c3ba
00000020: c182 cbbd 2f38 a23d 4a14 6ebd a13c e9bd
00000030: fa76 f0bd ca1c 68bd 8152 f7bc 26cd 02be
00000040: 66d4 773d 8c96 b4bd a5db f3bd c4d2 b53d
00000050: 86b2 b53d 8fa3 cc3d e89d 2a3e d64e ad3d
00000060: 365d 1cbc 29c3 6d3d f0ec 1fbe 5e1f e3bd
00000070: 280e 8fbd 6464 4cbd bbe3 ee3b 2876 44bd
00000080: 4f4a fb3d bf88 6ebd c68f 5b3c bbff 143e
00000090: 98ad 9e3d 9f2e 0a3c 2cac 6c3d e97b 313d
000000a0: b412 80bd fedd 69bd 1877 c7bd 07de a7b9
000000b0: 7176 08be 03a1 bdbd 5f55 503d 06d9 403d
000000c0: 981a fc3d bcce a6bd f0e3 fabd 5e0e fabd
000000d0: 2621 263e 0b34 b93d 86fa 093e ab2d c2bd
000000e0: 6f9b e4bc 4459 1abd fa9f 2ebd dc71 9fbd
000000f0: d4ba 8f3d 70d1 803d 031a ea3c bcdc 17bd
00000100: 3fc8 1f3d 3507 8fbd 44ce a93d e13d 37bd
00000110: 0b6b 9d3c b73b 0a3e 3107 fd3d 5d77 493c
00000120: 27cd 8d3d 37a3 a0bb f726 283d a26e fbbd
00000130: 6d31 523c 545d 963c 8b42 b53d 9782 98bc
00000140: 16ab fd3d 5ea0 87bc a37e e6bd 7882 453b
00000150: 2067 a3bd c9d4 00be 5c59 a23d 3b89 813d
00000160: b8b3 10be 0a60 7a3d 70d5 d5bd c5c3 0fbe
00000170: ac09 cf3d 9303 53bc db8d d1bd 8d1c 713d
00000180: 14f7 0abe b40b 63bd d54c a23d 50f2 c1bd
00000190: 598e f3bd 787e a2bc e864 17bd 7438 cb3d
000001a0: dd71 013e 3910 d7bd 1ace f33d a1b0 0dbe
000001b0: 2949 2d3d cf37 0cbd 4976 693d cd60 2ebe
000001c0: 2369 ad3b d55f 323e ed7b cdbb b495 11be
000001d0: 0654 693d 5f34 173e 4d05 013e f795 213d
000001e0: c772 86bd e86b 023d fdb5 b5bc f899 38bd
000001f0: fbfa c93c ce9e c1bc 1964 873d 5825 1dbe
00000200: f1a4 7cbd 60ad 15be 1c19 8f3d 5996 753d
00000210: 02e4 093e 3454 ccbd 1814 b9bd c005 71bc
00000220: 50dc 6abd 66e0 0abe eb4e 00be 9c2e f53d
00000230: bfde b2bd 9844 df3c 5b8c 0d3e 9da3 c93d
00000240: 86f8 5dbd 2366 783d e6fc debd f7d1 8bbd
00000250: ecb7 b33d ab37 9f3d 7061 c3bb dc6e febb
00000260: 0f6c b13d d941 fbba f2f9 c7bc 642d 82bd
00000270: c2a5 fb3d 30dd 12be 3776 e5bd 827a 433d
00000280: 6b66 fabd cd48 fbbd 7559 8bbd 1351 803d
00000290: 8e01 f7bd 0a0d 903d 2de6 59bd ccba 1cbd
000002a0: 160a 11bd c004 e83d 6cc2 98bc 3cfb ffbd
000002b0: dae0 64bd 8bb1 c43d 29e9 a83d 782b babd
000002c0: 2ffb 94bd bdbf 163e 4949 91bd bb7f 4fbc
000002d0: a712 023d 47f8 803d 091c 883c 5777 6cbd
000002e0: b775 883d 0e63 be3c 97e3 9dbd a43c 093e
000002f0: fda8 81bc 8321 fb3c bb40 b33d 9f7e eebd
00000300: b0e5 d93d 1705 b53d 486a 503d d6e8 07bd
00000310: dc85 0bbc b12e 463d f370 ee3d 0ada 753c
00000320: 55a2 1b3d 3e29 15bd 6294 8f3d 0b5c c6bd
00000330: 1d5a 0f3c 6626 e93d 12b1 9cbc f62e a23d
00000340: 8647 18be 330f 5bbd 55d4 afbd 8a52 573d
00000350: 8faf 00be 6489 9abd eb2e 10be 7d89 b8bc
00000360: 4db7 edbd 0a36 d73d 2b25 7e3d 6cb8 763a
00000370: aa40 6cbb 0853 433d b8ed 30bd fb6b e83c
00000380: 0207 e83d a6ad 85bd f833 a93d 8795 0c3e
00000390: 56bf 17bd e969 5b3d f8a8 d7bb e0b7 213b
000003a0: 2ba1 cb3d d80d e3bc f08a da3d 144c fa3d
000003b0: 958b 44bd ad3c c1bd 29dc 633d 4400 8dbd
000003c0: 9bd3 4c3d 7f07 7f3d d968 ea3d 3de3 f73d
000003d0: d3fb e43d 05b6 ec3b 4ea3 afbd 1b2c c23c
000003e0: 174e a0bd f3d7 e73d e386 ae3d 4525 233e
000003f0: e862 353d cd74 dfbd 221c b33d 5de3 553d

l1.bias f4 [256]
0.11545327 0.000302581 0.1698464 0.21501827 0.16343805 0.17844082 0.007672302 0.020121379
0.09383906 0.011392595 0.1085111 0.013318943 0.10082471 0.18535301 0.16397819 0.1692986
0.0140557755 0.12973295 0.010584871 0.08778719 0.010612263 0.1502759 0.14106382 0.11227101
0.07769748 0.14311458 0.1472623 0.003732189 0.17450109 0.09345321 0.047499128 0.2028658
0.117182225 0.017436724 0.09836426 0.2164349 0.09402071 0.06488755 0.23096101 0.13171904
0.15975538 0.15774639 0.0057876376 0.15607198 0.17578173 0.17632219 4.004509e-05 0.19882591
0.18091717 0.21902107 0.069479026 0.15420246 0.006121847 0.14955133 9.342587e-05 0.07502129
0.072006784 0.116960905 0.0019262601 0.1780236 0.10175173 0.12531386 0.18668513 0.022436703
0.14196163 0.0860648 0.18332364 0.021534117 0.0208027 0.17383784 0.005866249 0.00929896
0.083780944 0.16139418 0.022870902 0.121006064 0.15385234 0.025497021 0.18355995 0.001458793
0.02415575 0.07322074 0.04396127 0.16545543 0.19087675 0.07947778 0.21417493 0.14760071
0.10571854 0.13470706 0.11832483 0.0152979065 0.08119678 0.17368157 0.17297336 0.08057974
0.08329515 0.21589018 0.08973548 0.18070641 0.075835206 0.020520428 0.18751392 0.018521156
0.23119979 0.18171313 0.15247054 0.053709477 0.16088524 0.15422694 0.06366047 0.16903386
0.13153586 0.10961258 0.19448169 0.15248571 0.106214106 0.037980393 0.17582095 0.017485602
0.0013315458 0.015546117 0.0112973405 0.12145492 0.007341824 0.15286273 0.1376046 0.15293175
0.15806673 0.19381143 0.0064283544 0.10386448 0.1785806 0.2008113 0.21047631 0.18285069
0.16182071 0.15071994 0.15934925 0.18195966 0.07734104 0.120900124 0.005122446 0.16540252
0.15110306 0.16151357 0.09418478 0.010099673 0.08798878 0.18237199 0.23417895 0.20425938
0.15296839 0.19055024 0.09851216 0.06982561 0.116936356 0.20274208 0.00023026977 0.028824026
0.09968812 0.13895956 0.19513518 0.13756903 0.119604014 0.1887239 0.012386705 0.21328121
0.054972358 0.032499325 0.17466484 0.083527915 0.09877673 0.008895187 0.16978058 0.14583026
0.02077891 0.02037374 0.00069513207 0.1315414 0.0023047451 0.044584185 0.0070096646 0.051160693
0.100396514 0.219881 0.022117512 0.10302936 0.13539661 0.098770015 0.18398844 0.0063199042
0.12857372 0.00023158593 0.18028733 0.07148284 0.044748332 0.013812034 0.25845698 0.068142995
0.18802524 0.01423781 0.0020765532 0.017114924 0.020951226 0.1387874 0.12107741 0.14428435
0.19553848 0.19678673 0.15141967 0.02933675 0.105031095 0.19909957 0.01966376 0.004503585
0.00827138 0.16969377 0.1849987 0.15852112 0.19652972 0.20083773 0.06633919 0.21209672
0.017048331 0.14675848 0.01013037 0.01670489 0.18928996 0.14826202 0.2175359 0.09809456
0.20445722 0.16814433 0.18235606 0.016443549 0.047438487 0.17148885 0.09926009 0.14175949
0.023514807 0.21130838 0.17771484 0.079580635 0.0022611492 0.072853215 0.111782 0.21203373
0.0045293095 0.008137236 0.1504716 0.1647355 0.10588799 0.081774265 0.0006079038 0.0069733793
00000000: c472 ec3d bca3 9e39 37ec 2d3e c02d 5c3e
00000010: 4e5c 273e 31b9 363e ef67 fb3b 97d5 a43c
00000020: b12e c03d 02a8 3a3c 113b de3d b237 5a3c
00000030: 307d ce3d 2ecd 3d3e e6e9 273e 9d5c 2d3e
00000040: 324a 663c b7d8 043e 2b6c 2d3c c5c9 b33d
00000050: 0fdf 2d3c ede1 193e 0973 103e 58ee e53d
00000060: db1f 9f3d a18c 123e eecb 163e be97 743b
00000070: 6ab0 323e 6664 bf3d 728e 423d 0dbc 4f3e
00000080: 3cfd ef3d 76d7 8e3c 3373 c93d 1ca1 5d3e
00000090: ee8d c03d c4e3 843d 0b81 6c3e 5be1 063e
000000a0: ea96 233e 4588 213e 39a6 bd3b 55d1 1f3e
000000b0: 2000 343e ce8d 343e 17f6 2738 0599 4b3e
000000c0: 5a42 393e 0f47 603e 054b 8e3d 40e7 1d3e
000000d0: c699 c83b fc23 193e a2ed c338 c3a4 993d
000000e0: 4b78 933d 3389 ef3d 907a fc3a d24b 363e
000000f0: 3663 d03d 4752 003e 632a 3f3e 2dcd b73c
00000100: 645e 113e be42 b03d 31b9 3b3e 5168 b03c
00000110: 6d6a aa3c 8c02 323e aa39 c03b aa5a 183c
00000120: 5895 ab3d 8444 253e c25b bb3c 07d2 f73d
00000130: 788b 1d3e 21df d03c 24f7 3b3e f834 bf3a
00000140: 48e2 c53c c1f4 953d bc10 343d 266d 293e
00000150: 3275 433e 3fc5 a23d ac50 5b3e a424 173e
00000160: f682 d83d a6f0 093e 4a54 f23d 12a4 7a3c
00000170: 7f4a a63d 95d9 313e ee1f 313e fe06 a53d
00000180: a696 aa3d 5112 5d3e 3cc7 b73d 1a0b 393e
00000190: 7d4f 9b3d 751a a83c a603 403e aeb9 973c
000001a0: a3bf 6c3e 0213 3a3e 3d21 1c3e 78fe 5b3d
000001b0: 1abf 243e abed 1d3e 6c60 823d 3617 2d3e
000001c0: 56b1 063e 8f7c e03d 3526 473e 3725 1c3e
000001d0: c886 d93d 5491 1b3d 680a 343e f73d 8f3c
000001e0: 4387 ae3a 24b5 7e3c 7b18 393c 5bbd f83d
000001f0: af93 f03b 0c88 1c3e 38e8 0c3e 249a 1c3e
00000200: 3fdc 213e 8176 463e f2a4 d23b e7b6 d43d
00000210: d5dd 363e 7aa1 4d3e 1a87 573e 363d 3b3e
00000220: 54b4 253e 5456 1a3e 732c 233e a253 3a3e
00000230: fb64 9e3d 7c9a f73d 31da a73b 475f 293e
00000240: c3ba 1a3e d063 253e f3e3 c03d 1979 253c
00000250: 7633 b43d b9bf 3a3e 9bcc 6f3e 5f29 513e
00000260: bfa3 1c3e 9a1f 433e bec0 c93d bb00 8f3d
00000270: 547c ef3d 9f9b 4f3e 9274 7139 5d20 ec3c
00000280: 4929 cc3d 6a4b 0e3e 84d1 473e e5de 0c3e
00000290: f3f2 f43d d740 413e 9bf1 4a3c 6466 5a3e
000002a0: b22a 613d 031e 053d 57db 323e af10 ab3d
000002b0: 744b ca3d 1ebd 113c f6da 2d3e 8754 153e
000002c0: 8838 aa3c d4e6 a63c 8639 363a cab2 063e
000002d0: 350b 173b e89d 363d 54b1 e53b e08d 513d
000002e0: b09c cd3d 7c28 613e c92f b53c 0f01 d33d
000002f0: 69a5 0a3e ef47 ca3d 7767 3c3e 3317 cf3b
00000300: d4a8 033e e0d5 7239 3e9d 383e 9865 923d
00000310: 074a 373d df4b 623c 7954 843e 8e8e 8b3d
00000320: b089 403e b445 693c c816 083b 9934 8c3c
00000330: e8a1 ab3c 491e 0e3e 6ff7 f73d 47bf 133e
00000340: 3d3b 483e 7682 493e c20d 1b3e a053 f03c
00000350: 8b1a d73d c2e0 4b3e e515 a13c cf92 933b
00000360: af84 073c 34c4 2d3e 4d70 3d3e 5c53 223e
00000370: 163f 493e 68a8 4d3e d7dc 873d e22f 593e
00000380: f1a8 8b3c db47 163e daf9 253c b2d8 883c
00000390: 3ad5 413e 00d2 173e bbc1 5e3e cde5 c83d
000003a0: 3c5d 513e 072e 2c3e 8cbb 3a3e 9fb4 863c
000003b0: dc4e 423d c69a 2f3e e048 cb3d 6629 113e
000003c0: 20a2 c03c 3961 583e e1fa 353e 2cfb a23d
000003d0: ca2f 143b 1134 953d f6ed e43d 5f1f 593e
000003e0: 9a6a 943b 0b52 053c 3a15 1a3e 6cb0 283e
000003f0: cddb d83d 4479 a73d bc5b 1f3a f280 e43b

l2.weight f4 [256, 256]
-0.037857786 0.00034188066 -0.075839065 -0.13068528 0.12634109 -0.011984589 0.07222978 0.110113695
0.05442857 0.04589322 -0.06784379 0.008481151 -0.06416416 -0.10791514 0.058212396 0.16216016
-0.057928253 -0.09600488 0.09147635 -0.08029811 0.05877101 0.13001537 0.085238755 0.01503665
0.042767495 -0.09977548 -0.09369682 0.09157086 0.15906838 0.06133066 0.047268063 0.13480726
0.032450322 -0.002546536 0.093333736 -0.11537285 -0.0025838118 0.054113865 -0.15480982 -0.10453715
-0.12139354 -0.06397775 0.004281331 -0.046793625 -0.120844305 -0.0002567476 8.656939e-06 0.0964886
0.029794306 0.094572924 0.046933677 0.13474642 0.0041481527 -0.087353475 6.4699736e-05 0.056607768
0.006518635 0.077990144 0.03854997 0.15810391 0.07410385 -0.07693534 0.113703996 -0.013376949
-0.07093856 0.0037381672 0.120370485 0.026489494 -0.06807486 0.036038443 0.061237358 0.006221363
0.055675067 -0.11594811 -0.00520936 0.0847545 -0.10225658 0.03611721 0.058655787 0.0011504311
-0.06530895 0.07825381 0.024083184 0.11149211 -0.06467834 -0.030241815 0.12744954 -0.10954217
-0.07706744 -0.11540349 -0.048208904 0.086025015 0.00820437 0.008285262 -0.114236504 0.048474487
0.013747357 -0.024545021 0.037288427 -0.07526165 0.044404894 0.016550485 -0.006233647 -0.0074427403
0.1349898 0.10283518 0.016757667 0.03472315 0.1665678 0.016256606 0.040169187 0.031168353
-0.040903904 0.09426287 0.13769613 -0.08562499 0.074381776 0.032312952 -0.13088621 0.027850037
0.0023726483 0.094428115 0.016223116 0.09503079 0.005613624 0.08786946 0.06937292 -0.01195015
-0.054007974 0.040487222 -0.009927271 -0.05019674 0.110695414 0.15796596 0.087956734 0.1605057
0.14658362 0.10607408 0.046398774 -0.103727326 0.04744364 -0.0628889 -0.0009731489 -0.050472297
0.060753703 -0.09976644 -0.050870597 -0.04950976 0.07759049 -0.00083012285 0.18009518 -0.11589248
-0.015241053 0.11615654 0.11363082 -0.048106674 0.0733743 0.16680598 0.0028812415 0.021885445
0.05134752 -0.04459179 0.0904454 -0.09222937 -0.089647226 0.11932822 0.005225206 0.13668403
0.038327795 0.026891889 -0.030297924 0.065105334 0.0424764 -0.09020615 -0.047216218 0.11360367
0.050077774 0.10387604 0.00043175765 -0.042037573 -0.0014882112 -0.023050293 0.0052443244 -0.002832694
-0.05165057 0.06781985 0.04280946 -0.0633755 -0.11476192 0.07277367 0.13853003 0.054478433
0.11290666 -0.00013300678 -0.060274635 0.044419117 0.06108814 0.05828124 -0.16510312 0.06078514
-0.11196822 -0.050193224 0.0015912666 -0.075338826 0.018037725 -0.08782573 0.06124811 -0.07567332
0.1588799 0.13841183 0.13369489 -0.0016075231 0.09614042 -0.06352769 0.005547076 0.009234831
0.12035212 -0.09594631 0.15346095 -0.06643112 0.16949812 0.0073181293 0.04186485 -0.011190117
-0.11047395 -0.11964077 0.0051909345 0.09022772 0.108533114 -0.11008264 -0.09479819 0.08610577
0.06103799 -0.051331498 -0.08488855 0.100492515 0.023434488 0.12956595 0.018672979 -0.077498026
0.01760759 0.14896788 0.12022754 -0.046262465 -5.3605952e-05 0.041848112 -0.06412134 0.1644918
0.0024248117 0.005147733 -0.017854217 0.08992467 0.08288115 0.038996775 0.0004660044 0.06321814
00000000: c410 1bbd 723e b339 8351 9bbd 5dd2 05be
00000010: 8f5f 013e 025b 44bc 35ed 933d 4a83 e13d
00000020: 7ef0 5e3d 87fa 3b3d aff1 8abd 87f4 0a3c
00000030: 8068 83bd 9d02 ddbd 1f70 6e3d 500d 263e
00000040: 2d46 6dbd 359e c4bd f457 bb3d 5673 a4bd
00000050: dfb9 703d c022 053e a891 ae3d 485c 763c
00000060: f82c 2f3d 1657 ccbd 1ee4 bfbd 8189 bb3d
00000070: d2e2 223e dc35 7b3d 289c 413d ea0a 0a3e
00000080: a1ea 043d c9e3 26bb c225 bf3d 9a48 ecbd
00000090: 2b55 29bb 80a6 5d3d 7786 1ebe 9317 d6bd
000000a0: 2d9d f8bd c406 83bd 684a 8c3b acaa 3fbd
000000b0: 387d f7bd 149c 86b9 453d 1137 d19b c53d
000000c0: 3013 f43c 73af c13d 873d 403d f7fa 093e
000000d0: 3aed 873b 61e6 b2bd 68af 8738 8cdd 673d
000000e0: 469a d53b 4cb9 9f3d 93e6 1d3d fee5 213e
000000f0: c2c3 973d 4790 9dbd a4dd e83d fe2a 5bbc
00000100: 3c48 91bd 0afc 743b cd84 f63d 7f00 d93c
00000110: d56a 8bbd 0c9d 133d 06d4 7a3d 93dc cb3b
00000120: 8a0b 643d 3476 edbd 47b3 aabb c493 ad3d
00000130: e66b d1bd a4ef 133d 0d41 703d 10ca 963a
00000140: b3c0 85bd 8943 a03d 194a c53c fa55 e43d
00000150: 1476 84bd afbd f7bc 2282 023e a557 e0bd
00000160: 89d5 9dbd aa58 ecbd b376 45bd e22d b03d
00000170: 9f6b 063c e8be 073c d4f4 e9bd 2f8d 463d
00000180: 983c 613c a412 c9bc c0bb 183d c822 9abd
00000190: e8e1 353d e294 873c 9f43 ccbb 3be2 f3bb
000001a0: c43a 0a3e 409b d23d 6047 893c dd39 0e3d
000001b0: c090 2a3e 932c 853c 7288 243d c654 ff3c
000001c0: da8a 27bd e40c c13d 3700 0d3e 285c afbd
000001d0: 7955 983d 965a 043d 0907 06be c325 e43c
000001e0: 6f7e 1b3b 8763 c13d 57e6 843c 819f c23d
000001f0: 7ef2 b73b e7f4 b33d 6413 8e3d 90ca 43bc
00000200: 7737 5dbd eed5 253d fea5 22bc 199b 4dbd
00000210: 47b4 e23d d4c1 213e a922 b43d 9b5b 243e
00000220: 041a 163e 5e3d d93d a40c 3e3d fe6e d4bd
00000230: 4354 423d e5cb 80bd eb1a 7fba 0abc 4ebd
00000240: e0d8 783d 5952 ccbd b05d 50bd bfca 4abd
00000250: c3e7 9e3d 9a9c 59ba df6a 383e 0959 edbd
00000260: 9cb5 79bc 7be3 ed3d 46b7 e83d 810b 45bd
00000270: 4445 963d 30cf 2a3e 36d3 3c3b 1b49 b33c
00000280: c751 523d e1a5 36bd 703b b93d c0e2 bcbd
00000290: f798 b7bd 5b62 f43d 3438 ab3b e6f6 0b3e
000002a0: 9bfd 1c3d 614c dc3c 5a33 f8bc f255 853d
000002b0: bcfb 2d3d 01be b8bd cb65 41bd 0aa9 e83d
000002c0: 5a1e 4d3d f6bc d43d 885d e239 972f 2cbd
000002d0: 1510 c3ba f8d3 bcbc 95d8 ab3b b8a4 39bb
000002e0: 8c8f 53bd 22e5 8a3d f958 2f3d 04cb 81bd
000002f0: 4c08 ebbd 5d0a 953d d1da 0d3e c724 5f3d
00000300: 9b3b e73d bc77 0bb9 89e2 76bd d2f0 353d
00000310: 8f37 7a3d 4fb8 6e3d cb10 29be d7f9 783d
00000320: 984f e5bd 6997 4dbd 0c92 d03a 3e4b 9abd
00000330: dac3 933c fadd b3bd 4cdf 7a3d 9dfa 9abd
00000340: 6ab1 223e d5bb 0d3e 50e7 083e 86b3 d2ba
00000350: 45e5 c43d ce1a 82bd 3fc4 b53b b04d 173c
00000360: 2c7b f63d 807f c4bd de24 1d3e 0a0d 88bd
00000370: ea90 2d3e ebcc ef3b 7a7a 2b3d c156 37bc
00000380: 2b40 e2bd 3806 f5bd b718 aa3b 50c9 b83d
00000390: 9c46 de3d 0273 e1bd 8e25 c2bd 3958 b03d
000003a0: f902 7a3d fa40 52bd 0cda adbd 05cf cd3d
000003b0: aff9 bf3c f0ac 043e 13f8 983c 49b7 9ebd
000003c0: cb3d 903c 098b 183e db39 f63d b67d 3dbd
000003d0: f4d6 60b8 ed68 2b3d 0d52 83bd 8a70 283e
000003e0: 97e9 1e3b 50ae a83b 0243 92bc 6d2a b83d
000003f0: 98bd a93d 15bb 1f3d 0d52 f439 8378 813d

l2.bias f4 [256]
0.052115362 0.031108078 0.033993557 0.053673174 0.051136367 0.058766723 0.041085172 0.053478092
0.05233519 0.049602505 0.038911637 0.044522464 0.040695436 0.043648053 0.04204372 0.04169149
0.05901602 0.04358094 0.0429891 0.055394202 0.050571218 0.059771787 0.046641022 0.04219353
0.061323065 0.04216752 0.050255984 0.053089797 0.040415574 0.04710964 0.04834991 0.05192984
0.056029927 0.042662013 0.050620444 0.03507237 0.05440497 0.062339343 0.046574797 0.053940326
0.041159734 0.05237009 0.051710714 0.05751175 0.054334067 0.05701828 0.047588762 0.0465769
0.037799515 0.03724603 0.045042183 0.039863624 0.0410554 0.041616227 0.055165924 0.051917054
0.04453212 0.033075348 0.050564572 0.041993044 0.04848531 0.04501491 0.046390954 0.048300892
0.04917475 0.04046434 0.05526037 0.04347267 0.058806505 0.037466485 0.05857361 0.04987064
0.046935715 0.050686166 0.062029153 0.04450814 0.039729048 0.040416114 0.052458975 0.04301679
0.048053935 0.04226979 0.055416312 0.044155948 0.054970343 0.048318762 0.043841474 0.04273035
0.0669992 0.05138591 0.04290179 0.052229498 0.05348458 0.04580018 0.03923417 0.06478196
0.04444515 0.053685647 0.050400205 0.046697404 0.06793044 0.05233748 0.05916797 0.03691121
0.05339319 0.04499302 0.03757182 0.053664755 0.06265012 0.051310614 0.05931099 0.05763438
0.041603666 0.06467899 0.04531595 0.046091724 0.042900182 0.04823367 0.05734913 0.045582756
0.06436312 0.05876862 0.05917987 0.04170322 0.04514548 0.051518925 0.06335316 0.05623989
0.060578942 0.03417334 0.04796504 0.05327906 0.054260377 0.04963312 0.050505023 0.049132578
0.053712316 0.060893502 0.04848553 0.04871277 0.04252983 0.030095996 0.04230846 0.056224607
0.053724974 0.05451974 0.048762646 0.052607376 0.047319 0.057423294 0.059496257 0.036233313
0.05140407 0.046781953 0.05801833 0.058354296 0.047545288 0.046577793 0.045854144 0.061976343
0.05235732 0.05029539 0.054641597 0.04700809 0.063230395 0.051468078 0.0557936 0.04868433
0.036640726 0.05935738 0.049556646 0.056689054 0.052111566 0.047223963 0.038909033 0.050826617
0.059186827 0.04578567 0.03807082 0.058380675 0.053242207 0.054056596 0.050671443 0.04221889
0.061473195 0.036935586 0.03937328 0.05239825 0.064982444 0.042277604 0.050892916 0.041848183
-1.5362027e-19 0.055253875 0.053209335 0.050854184 0.06583216 0.04779778 0.03678477 0.047874346
0.037856445 0.04329946 0.04944658 0.04603575 0.06289267 0.052295234 0.03830874 0.05141531
0.05540776 0.06491733 0.051469985 0.06549492 0.057250686 0.063879155 0.04079198 0.059469502
0.062015135 0.041498266 0.054022543 0.052127197 0.052897267 0.05347155 0.055770893 0.05896342
0.053561416 0.050212674 0.029345697 0.06576179 0.05662237 0.043587886 0.04785316 0.049943272
0.063744314 0.05655113 0.06819145 0.046523865 0.05136537 0.053038236 0.061253935 0.056719106
0.050858043 0.04268223 0.059777137 0.06694553 0.057547983 0.042775992 0.054712098 0.059208002
0.04544019 0.06544537 0.04361569 0.035297804 0.04461274 0.055300105 0.06299117 0.037318155
00000000: eb76 553d 5ed6 fe3c d43c 0b3d 67d8 5b3d
00000010: 5e74 513d 60b5 703d ed48 283d d80b 5b3d
00000020: 6d5d 563d ff2b 4b3d cf61 1f3d 305d 363d
00000030: 42b0 263d 4dc8 323d 0936 2c3d b2c4 2a3d
00000040: c8ba 713d ee81 323d 5715 303d 08e5 623d
00000050: c423 4f3d 43d3 743d a80a 3f3d 1fd3 2c3d
00000060: e52d 7b3d d9b7 2c3d 38d9 4d3d b074 593d
00000070: cd8a 253d 0af6 403d 8e0a 463d 62b4 543d
00000080: a37f 653d 5dbe 2e3d 6257 4f3d 0ca8 0f3d
00000090: bfd7 5e3d 8a57 7f3d 37c5 3e3d 88f0 5c3d
000000a0: 1c97 283d 0582 563d 9dce 533d 7191 6b3d
000000b0: 668d 5e3d 008c 693d 6fec 423d 6bc7 3e3d
000000c0: aad3 1a3d 4b8f 183d 277e 383d 0a48 233d
000000d0: b529 283d c775 2a3d aaf5 613d faa6 543d
000000e0: 5067 363d 047a 073d cc1c 4f3d e600 2c3d
000000f0: 8898 463d 8e61 383d 7104 3e3d 28d7 453d
00000100: 766b 493d f0bd 253d b358 623d 6610 323d
00000110: 17df 703d 7576 193d e2ea 6f3d 2845 4c3d
00000120: aa3f 403d 4c9c 4f3d 4812 7e3d 2b4e 363d
00000130: edba 223d 5e8b 253d 39df 563d 6032 303d
00000140: 34d4 443d 1623 2d3d 37fc 623d dedc 343d
00000150: 9528 613d e5e9 453d 1e93 333d 0506 2f3d
00000160: e036 893d 087a 523d cab9 2f3d 99ee 553d
00000170: a612 5b3d f898 3b3d 02b4 203d 67ac 843d
00000180: 1e0c 363d 7be5 5b3d 7270 4e3d c745 3f3d
00000190: 1d1f 8b3d d35f 563d 1d5a 723d 3530 173d
000001a0: d1b2 5a3d 9a4a 383d e9e4 193d 93cf 5b3d
000001b0: b54e 803d 142b 523d 15f0 723d 0712 6c3d
000001c0: 9b68 2a3d 6b76 843d 389d 393d adca 3c3d
000001d0: 1ab8 2f3d ab90 453d ece6 6a3d fcb4 3a3d
000001e0: d0d0 833d 5db7 703d 9766 723d ffd0 2a3d
000001f0: 78ea 383d 8205 533d 4dbf 813d cd5b 663d
00000200: a021 783d 58f9 0b3d fd76 443d 253b 5a3d
00000210: 2140 5e3d 194c 4b3d 5bde 4e3d 3e3f 493d
00000220: 7201 5c3d 776b 793d c398 463d 0b87 473d
00000230: c233 2e3d e18b f63c a34b 2d3d c64b 663d
00000240: b80e 5c3d 1750 5f3d 57bb 473d d57a 573d
00000250: 91d1 413d b034 6b3d 59b2 733d 6269 143d
00000260: 138d 523d 6f9e 3f3d a1a4 6d3d ea04 6f3d
00000270: d9be 423d 5bc8 3e3d 8ed1 3b3d e8da 7d3d
00000280: a174 563d 8a02 4e3d decf 5f3d 8e8b 403d
00000290: f07e 813d 31d0 523d d487 643d 3869 473d
000002a0: 9614 163d b920 733d e9fb 4a3d c832 683d
000002b0: f072 553d ea6d 413d 145f 1f3d 922f 503d
000002c0: e36d 723d c189 3b3d 26f0 1b3d 9320 6f3d
000002d0: 8014 5a3d 736a 5d3d dc8c 4f3d b7ed 2c3d
000002e0: 51cb 7b3d c549 173d e045 213d 8c9f 563d
000002f0: 8415 853d 482b 2d3d 1775 503d 0069 2b3d
00000300: e15c 35a0 e351 623d 08f2 593d 7a4c 503d
00000310: 03d3 863d 9bc7 433d a1ab 163d e417 443d
00000320: 5c0f 1b3d c65a 313d 7f88 4a3d fc8f 3c3d
00000330: dfcd 803d 8733 563d a0e9 1c3d dc98 523d
00000340: 3ff3 623d 61f3 843d 31d2 523d 3322 863d
00000350: b27f 6a3d 13d3 823d 7e15 273d 4b96 733d
00000360: 9503 7e3d 16fa 293d be46 5d3d 5483 553d
00000370: ceaa 583d fc04 5b3d 0570 643d a183 713d
00000380: 3763 5b3d ceab 4d3d 6366 f03c 1eae 863d
00000390: dcec 673d 3689 323d ad01 443d 5191 4c3d
000003a0: 618c 823d 28a2 673d f5a7 8b3d cf8f 3e3d
000003b0: 7f64 523d 9f3e 593d 68e5 7a3d 4b52 683d
000003c0: 8650 503d 90d3 2e3d dfd8 743d bd1a 893d
000003d0: 6fb7 6b3d e135 2f3d cb19 603d 1784 723d
000003e0: 7e1f 3a3d 3908 863d 5ea6 323d 6e94 103d
000003f0: d9bb 363d 5d82 623d 8401 813d ecda 183d
