code/save/model_beta_embeddings/model_beta_0.pt (torch, 649914 bytes, 6 tensors)

embed.weight f4 [59, 256]
00000000: 0ccf ee3d 7dcc 3ebe 5a72 e43d 4524 d8bc
00000010: 1a97 0fbe 4838 3cbe ff82 a13d dadd 18be
00000020: 8b77 3e3e ece9 05be 4bb3 363e 6def 1b3e
00000030: 30bf 2cbd f1c5 c33c 5d14 5fbe a56e 3fbe
00000040: 91d7 453e d0c6 ae3d 4bc0 5d3d 9926 943b
00000050: 3643 3d3e 46a3 15bc b670 133e 117b 40bd
00000060: 0985 813c ac20 8dbd 32fa 383d 04ec 2c3e
00000070: 680d 10be 7a52 d63d df3d 3d3e 9ce0 46be
00000080: b4b7 c1bd 202f bc3c 7b2d 583e 2e9a 2bbe
00000090: ba62 40be c75b 44be 8a36 b7bd cf0f 56bd
000000a0: 903c 413e 8638 16be e6e9 85bc f15d 05be
000000b0: 0813 01be e507 b7bd 1e72 be3d d30d 19bd
000000c0: 2d74 9d3d 2966 e2bc 73bc 0dbd 1602 073e
000000d0: 3a79 243d 89c8 1f3e 3373 e2bd db80 2bbe
000000e0: 8724 ab3d 746a 433e d069 13bd 164f 513d
000000f0: bb67 e4bd eafd 19be 470c 48bd ca2b b7bc
00000100: 5ff4 1abd 31a6 943d a6ce be3d 46f4 89bc
00000110: aea3 f3bc 22b4 1d3e cc16 df39 7087 5f3d
00000120: 8d22 a03c e1e7 61bc bd1b 99bd 61d2 02be
00000130: 7dd9 053e 2160 173a fe3f 0dbe 9dfd ae39
00000140: 9188 c1bd ffd5 b5bd e36d a63d d8fb f43b
00000150: 03a6 ebbd 0f9a 4cbe 5e9d 353e 5c71 dd3d
00000160: 6c4a 7fbd fa07 d33c 60db e53d c423 b1bd
00000170: 6a09 dcbd 586f 0abd a085 5a3e 09e9 7d3a
00000180: f32a 3abe 6944 01bd 00a6 263e 9179 babc
00000190: 084b f6bc 4613 32bc 09e8 a9bd 412b 4e3e
000001a0: 5eba 1b3e 968e b83d ee9f cdbd 5618 0abe
000001b0: 1a7d fdbc 2e1a ff3d c244 15be 9526 293b
000001c0: 6207 09be 47d8 07bd cf64 8fbc 952b 0dbc
000001d0: df98 4abe 1dc0 d4bc 986e 993d aa0e 013e
000001e0: e3e2 033e f185 c5bd 7f1b 0d3e fe76 943c
000001f0: 2290 ad3d 7a63 c4bd e58d 043e 329c dcbd
00000200: 4d22 2d3e 2146 353d 62a9 0bbe 7232 533e
00000210: 1fdc 1abd 54f7 48be 2fd3 f73a 4d8e 0cbc
00000220: a9dd fa3d d2d6 393e 780b 2c3e b3b5 093e
00000230: 557e 0c3c 5c48 243e 33a3 023e 4998 3abe
00000240: c9e2 c2bd 17da 593b 4727 cfbd dcf7 4bbc
00000250: 2893 21be 1119 0b3e 4cdb 81bc 3d83 39be
00000260: c504 ef3d 88ef 92bd 2862 2e3e d6cc adbd
00000270: bb32 ab3d 2ac9 23be 5e47 ba3d 45cb e73d
00000280: 9d1c 25be 5cd6 fcbd 0175 71bc d352 edbd
00000290: 71ee 563e 3189 c2bc 80b3 123e acae 1c3e
000002a0: 0b2a 21be 6bf8 c73d ebfc f2b8 0c7e 85bd
000002b0: 30c4 553e 7974 85bd b6fd 953d 8f87 053e
000002c0: 14b7 33bd cfb7 fc3c 85f7 023d 495f 40be
000002d0: 6a0f 15bd 32d5 253e 5797 d03b e5fd 50bd
000002e0: c10d 503e 1383 cc3d 6c50 153e 68cf 02be
000002f0: 83ff cc3d 0803 c93d 3b6a 0f3e bbd2 62bd
00000300: 6880 b1bd dc80 cebb c44f 48be 3c87 a7bd
00000310: f865 98bd d2a6 a2bd cae8 f53d 4fd4 5f3d
00000320: 4481 38be 00b2 4dbd de43 2a3d 461d 4f3d
00000330: c995 333d 2d0b 3ebe f9a9 2e3e 2ff0 233e
00000340: f889 7c3d 6e6d 273c a88c 8c3d 31a3 aa3d
00000350: 4e75 f53b e06d 633d 8b8e 2dbe 4e62 85bd
00000360: ec27 403e 6db0 473e 6585 ce3d 70ea 873d
00000370: 328e 253e a4d2 31be 83ca abbc 7d48 4fbc
00000380: dc47 203d c473 3e3e b250 083e 47a3 f2bc
00000390: 4ced c13d d45b 943d 2330 c1bd 418e 41be
000003a0: 1e40 22be c48a 00bd e2a9 03be 6c67 643e
000003b0: 65b9 c43d 6dba acbd c0b4 10be 670c 243e
000003c0: 3b19 02be bb21 113e c363 263e ab64 243e
000003d0: 58d8 72bd 0dc0 cd3d bf38 dd3d e711 fabc
000003e0: f9d3 ef3d e0bd 473e 0411 823c 1e17 e0bd
000003f0: 164a b43d 473d 803d cdff 2a3e 4a26 e8bd
0.11660585 -0.18632694 0.11154623 -0.026384482 -0.14022484 -0.18380845 0.07886314 -0.1492838
0.1860029 -0.13077515 0.17841832 0.15228052 -0.042174518 0.023898097 -0.21785112 -0.18694551
0.19320513 0.08534014 0.054138463 0.0045212028 0.1848267 -0.009133166 0.14398465 -0.046992365
0.015810506 -0.06890997 0.04516048 0.16886908 -0.14067614 0.1046495 0.18480633 -0.19421619
-0.09458867 0.02297169 0.211111 -0.16758034 -0.18787661 -0.19175635 -0.089459494 -0.05226117
0.18870759 -0.1467 -0.016346883 -0.13024117 -0.12604916 -0.08937053 0.0929911 -0.0373667
0.076881744 -0.027636604 -0.034603547 0.1318439 0.040154673 0.15603842 -0.11057129 -0.16748373
0.083565764 0.19083577 -0.035989583 0.051100813 -0.111525975 -0.15038267 -0.048839834 -0.022359747
-0.037830707 0.07258261 0.09316759 -0.016840111 -0.029741134 0.15400746 0.0004255086 0.054572523
0.019547725 -0.013788194 -0.07475994 -0.12775566 0.13071246 0.0005774517 -0.13793942 0.00033376823
-0.09449876 -0.08878707 0.08126428 0.007476311 -0.115062736 -0.19980644 0.17735812 0.10812637
-0.062326834 0.02576064 0.11223483 -0.086494 -0.10743983 -0.033797592 0.21340036 0.0009685909
-0.18180446 -0.03155938 0.16274261 -0.022763046 -0.030065075 -0.010868853 -0.0829621 0.20133688
0.15207812 0.09011571 -0.1004027 -0.13485846 -0.030943442 0.12456165 -0.1457701 0.002581035
-0.13381723 -0.033165243 -0.017504124 -0.008616348 -0.19784878 -0.025970513 0.07491797 0.1260325
0.12879519 -0.09644688 0.1378002 0.018123146 0.08474757 -0.09589286 0.12944753 -0.107719794
0.16907616 0.044256333 -0.13638833 0.20624712 -0.03780758 -0.19625598 0.0018907542 -0.008578849
0.122493096 0.18148354 0.1680125 0.13448219 0.008575042 0.16043228 0.12757568 -0.18222155
-0.09515912 0.0033241564 -0.101149134 -0.012449231 -0.15778792 0.13583781 -0.01585164 -0.1811647
0.116708316 -0.07174593 0.17029631 -0.08486335 0.083592854 -0.15994707 0.090956435 0.113180675
-0.16124196 -0.12345573 -0.014737369 -0.11588063 0.20989396 -0.023747059 0.14326286 0.15301007
-0.15738694 0.09764179 -0.00011586569 -0.06518182 0.20875621 -0.06516356 0.07323782 0.13039993
-0.04387577 0.030849366 0.031974334 -0.18786348 -0.036391653 0.16194609 0.0063656974 -0.051023383
0.20317747 0.09985938 0.1458146 -0.12774432 0.100096725 0.09815031 0.14005367 -0.05537675
-0.0866707 -0.0063019823 -0.19561678 -0.08180091 -0.07441324 -0.07941975 0.120072916 0.054645833
-0.18018061 -0.050218582 0.04156863 0.050565027 0.043844018 -0.1855895 0.17057027 0.16009592
0.061655015 0.010218961 0.068627656 0.083319075 0.0074907904 0.055524707 -0.16948907 -0.06512891
0.18765229 0.19500895 0.10084037 0.06636512 0.16167524 -0.1736551 -0.020970589 -0.01265156
0.03913103 0.18598849 0.13312033 -0.029618872 0.09469089 0.07244077 -0.094330095 -0.18901922
-0.15844771 -0.031382337 -0.12857774 0.22305077 0.09605674 -0.084339954 -0.1413145 0.16020356
-0.12704937 0.14173023 0.16248994 0.16054027 -0.059288353 0.100463964 0.10801839 -0.030526115
0.117103525 0.19506025 0.015877254 -0.10941909 0.08803193 0.06261688 0.16699143 -0.11335428

unembed.weight f4 [59, 256]
00000000: b95c 4c3e 2c51 153d a37e 14bd fe0e c0bd
00000010: 1781 6ebc cff5 053d 8073 0ebe 029c bebd
00000020: 8e41 84ba fd8d 143d 72cc 4c3e 13a5 4bbd
00000030: c6a5 93bc 749a 78bd 48a0 b3bc 178e 3a3d
00000040: 95b1 46be 6b56 9f3d e30c 183e f999 ddbd
00000050: bcf0 53be 5dc7 43be b56b cb3d a817 873d
00000060: 4209 cbbd 2937 873d 0b14 253e 6d83 adbd
00000070: 5a6a 33be 44cf 26be dc42 d83d 8449 383d
00000080: 9b2a e6bd bbe1 363d 88df 4fbd a2d5 82bd
00000090: 22d4 36bc c908 3ebd 1c2c a7bc 8bc2 23be
000000a0: 4959 4a3e 63b6 4c3e 292c cdbd 8f48 283e
000000b0: 58ca b53d eadb f63d 310d 0c3e 5390 2ebe
000000c0: ea6b 243d d0ac b33d 1f99 a1bd 064c 20be
000000d0: 170e 103d f157 343e 22c2 80bd ea2e b83d
000000e0: 6c22 d8bb cae3 423e 753c 0b3d 86e7 f6bd
000000f0: 0e68 33bd c484 bf3d 63a2 c2bd 9adc 14bc
00000100: a5a7 0fbe a5ee 963d bf4c ac3d 3a4f 0fbe
00000110: f566 bf3d 17ca 4e3e b9b8 853d 9f37 2fbe
00000120: 1fa0 6abc 1b99 713e 7966 303d 7123 12be
00000130: 1614 a63d 7983 393e a168 cabd bc3c ee3b
00000140: 8863 163e 448c 30bb c87e 96bd 0051 9ebd
00000150: 1e39 40be d089 2e3e 44bb 0e3e 3fdb a5bd
00000160: 0e43 49be 38b4 e73b 0631 e43c ba18 2c3e
00000170: 4b6e 44be bfd9 2a3d 3379 90bd 113a 51be
00000180: 3226 b83d 29f8 eebd e20d c03d 02a1 42be
00000190: ef79 8d3d bd2f 40be 6b5d 4ebe 7ada 38be
000001a0: 6099 41be 1569 c9bb fe8b 8a3d 74b0 ab3d
000001b0: df60 16bd 22fa c03d e684 bb3d be92 9abd
000001c0: 2b9b c33b 2083 b0bd ce0a e83d 74c9 30be
000001d0: 7bc2 bc3d 6a17 9f3d 24b3 043e 9747 dcbd
000001e0: f473 443d 2f13 05be 4731 3f3e 46c9 183e
000001f0: ac2f 2dbe bbda 92bd 140c 0d3e 15aa a23d
00000200: 4e12 bebd 3c15 133e 90d7 833d 8d9e 4cbe
00000210: 333c e13d 82a2 3f3e 54b5 2ebe 8c8f b83d
00000220: 2cef 01be 5f0f 793c 5b42 4d3d 2669 f03a
00000230: 9079 41be 25fa 0bbd 19a0 a9bd af73 563d
00000240: 3d44 0f3e 0671 123e 6b1c af3d 9f8f a13d
00000250: 6254 353c 0f15 3abe f61c 21bd 3603 12bd
00000260: 0d27 6c3e ea76 6b3d 84c9 8cbd f5ba cfbd
00000270: a7cb 21bd a25e 5fbd a18e 163e cdd1 47bd
00000280: b5a4 a6bc c84f d73d 8eb2 d93d e60b b63d
00000290: 1fe5 303d f38a 953d 7cab a03c 7b8f 09be
000002a0: f3be 043d 8375 acbc ed48 24be 0409 5abd
000002b0: 758b 523e 5d10 843d 76f4 24bd 4c5a fc3a
000002c0: 10c2 c83d 277f c8bd 3b9a 4e3c 5a37 023e
000002d0: 7f6c 4dbd 481e 23be 608d 0bbe 4dc9 6abd
000002e0: b81a 0c3e 3d89 c33d 0d68 27bc 22a1 1bbd
000002f0: 864f 11bd aea0 223e 149c 153e 6bc1 3c3d
00000300: 091b 3dbe 5d9c 07be 8d92 8bbc 55c0 9dbc
00000310: f0de e4bb 1d6e 4abe dfbd 633e 6847 813d
00000320: 6541 a93d fd1c 6cbd 0773 cdbd dc88 05be
00000330: 3c7a f3bd 38a2 3d3e 380a 683d fc48 debd
00000340: ab60 d33c 2008 4e3e 4b47 493e 8fdc 0ebc
00000350: 9349 083e 1910 193e f385 8fbd 5941 293e
00000360: 387d 813c e484 a43d 3ca0 0e3e ea6f 933d
00000370: 03fc fe3d 5948 2abe 81cd f83d fadf 0dbc
00000380: d7d5 ae3d fe99 9cbd f4d2 bbbd 5a7e 31be
00000390: c432 083e 395d 1c3c 51f6 973d bfba abbd
000003a0: 7e58 b73a b0bd 29be 5795 99bd ca0b 5cbe
000003b0: 260f 8d3d c549 3d3d 9a05 46be de9d 853e
000003c0: afa1 c43d 196d 023b 888f 1c3d da08 893d
000003d0: 3de7 0abd 2741 b0bc f1cb 3fbe c5e6 96bd
000003e0: cb38 583d ee4a b8bd 69db 863d a3db 083e
000003f0: ff2a 963d 51ae 41be f268 cb1f 14d1 32be
0.19957246 0.036454365 -0.036253583 -0.093778595 -0.014557145 0.032705124 -0.13911247 -0.093071
-0.0010090338 0.036268223 0.19999865 -0.049717974 -0.018023383 -0.060694173 -0.021927014 0.045545664
-0.1940368 0.07780155 0.14848666 -0.108203836 -0.20697302 -0.1911902 0.09932653 0.06596309
-0.09913875 0.06602318 0.16120927 -0.08472333 -0.17521039 -0.16290003 0.105596274 0.044991985
-0.11238595 0.044648867 -0.050750285 -0.063884035 -0.011158975 -0.046395097 -0.020406775 -0.15992181
0.19760622 0.1999145 -0.100181885 0.16433929 0.08876485 0.12053664 0.13676907 -0.17047243
0.040141977 0.08773196 -0.07890534 -0.15654 0.035169687 0.17611672 -0.06287028 0.08993323
-0.0065959003 0.19032207 0.033993203 -0.12055878 -0.043800406 0.09351495 -0.09503629 -0.009085799
-0.14028795 0.073697366 0.08413076 -0.13995066 0.09345809 0.20194279 0.06529374 -0.17111062
-0.014320402 0.23593561 0.043066476 -0.14271332 0.081093 0.18116559 -0.09883238 0.0072704237
0.14686406 -0.0026939074 -0.073484 -0.07730293 -0.18771788 0.17044759 0.13938624 -0.080984585
-0.19654486 0.0070710443 0.027855407 0.16806307 -0.19182698 0.041711565 -0.07054367 -0.20432307
0.0899166 -0.116684265 0.09377648 -0.19006732 0.069080226 -0.1876821 -0.20152824 -0.18052092
-0.18906164 -0.00614656 0.06764983 0.08383265 -0.036713477 0.09422709 0.09156208 -0.0754752
0.005969425 -0.0861876 0.11330186 -0.17264348 0.09216782 0.07768138 0.12958962 -0.10755842
0.047962144 -0.12995599 0.18671142 0.1492053 -0.16912717 -0.07170626 0.13774139 0.07942597
-0.09280835 0.14363569 0.064376 -0.19982357 0.1099781 0.18714336 -0.17061359 0.090117544
-0.12688893 0.015201419 0.05011211 0.0018341884 -0.18894029 -0.034174103 -0.08282489 0.05235642
0.13990875 0.14300928 0.08550342 0.07888722 0.011067482 -0.18172096 -0.03933426 -0.035647593
0.23061772 0.057486452 -0.068743736 -0.10143081 -0.03950086 -0.05453361 0.14702846 -0.048784066
-0.02034221 0.10513264 0.1062976 0.08888988 0.043187257 0.07301893 0.01961302 -0.1343364
0.032408666 -0.021052128 -0.16043444 -0.053231254 0.20561011 0.064484335 -0.0402722 0.0019252985
0.098026395 -0.097898774 0.012610014 0.12716427 -0.050152298 -0.1592952 -0.13628149 -0.05732088
0.13682067 0.095476605 -0.010217679 -0.037995465 -0.03547623 0.15881607 0.1461032 0.046082895
-0.18467344 -0.13243242 -0.017037654 -0.01925675 -0.006984584 -0.19768567 0.22240399 0.06312448
0.08264426 -0.057644833 -0.10031705 -0.13040489 -0.11888549 0.18518913 0.05665037 -0.108537644
0.02580293 0.20120287 0.19656102 -0.008719577 0.13309316 0.14947547 -0.07007971 0.16528834
0.01580678 0.080331594 0.13928312 0.0719908 0.12450411 -0.16629161 0.12148572 -0.008659357
0.085368805 -0.07646559 -0.091710955 -0.17333356 0.13300616 0.00954371 0.07420028 -0.08385228
0.0013988165 -0.16576266 -0.074991874 -0.21488872 0.06887655 0.04621293 -0.19338074 0.26097006
0.09601151 0.0019901453 0.03822282 0.066911414 -0.033911932 -0.021515442 -0.18730141 -0.073682345
0.052788537 -0.08998667 0.06584818 0.13365035 0.073324196 -0.18914153 8.614746e-20 -0.1746257

l1.weight f4 [256, 256]
00000000: 6a0a 9ebd 9271 fa3d 1567 09bd 2e83 bb3d
00000010: f409 993d f56e c2bc b927 14bc 82b8 3b3d
00000020: 00e2 26bd 1122 783c 77cf bd3b d86d c2bd
00000030: f950 14be 033f 04be 8070 e33d 4521 a13d
00000040: 46bd 0ebd 322b aebd b460 bbbd 2884 943d
00000050: 7fdd e7bd 9c98 0a3e 3a97 c5bd 0db2 f2bd
00000060: a6a9 94bd 85a1 f03d 0e5c 15bc 359a 77bc
00000070: ef42 273e 99a3 e2bd 5b2c a63d d602 4bbc
00000080: 5d30 40bd 1502 c4bd c583 ef3c f506 c43d
00000090: e64c e83d 795d c13d 45ee d1bd 875b e93d
000000a0: 18ac c7bd 6536 be3d 1dcc e83d a0b1 e63c
000000b0: 9e81 303d de17 c7bc 5819 8cbd c23a 5d3d
000000c0: 994a 993d e7c5 89bd e9e7 ee3c d087 06be
000000d0: 28af ecbd ac4c 8cbd f818 d63d a5d7 7abc
000000e0: 895f 5dbd 7dd9 f23d 8b79 2c3c 937e ae3c
000000f0: ff15 f43c 7a9b 9c3d 9b5b 0d3c 2cd4 8a3d
00000100: 727d 113e e687 b0bd 7ce0 623d 9147 73bd
00000110: 0103 05bd f089 ffbd 54d2 7fbd d469 5cbd
00000120: 3cff 93bd 5306 863d 8ba6 3eba d53a 0cbb
00000130: 71eb 83bd 3119 e83b 9dfb b83d 742c b53d
00000140: 0f66 ce3d 3b2e 6c3d 3236 cf3c 1301 873d
00000150: e554 d53c 2fd0 4d3c afe0 26bd 8e69 ee3d
00000160: a6b1 d2bd 2153 6ebc 6b36 e03d 8c0c 503d
00000170: a636 f2bd 7365 fdbd 60f3 d23d 024a 50bd
00000180: c965 083e 274f 993d 2bc1 bebd 3557 44bd
00000190: 79b0 c6bc c8f4 14be e045 c83d 041a 94bd
000001a0: 60d5 29bd 0450 18be bbf3 bb3d 21ee e83d
000001b0: 3ae7 96bd 86b8 febd 9ebb a93d 4c01 bbbc
000001c0: b169 d23d 92af debd 8ade 9cbc f0e0 82bc
000001d0: 81d6 1f3d e708 2fbd 4429 13bc 79b8 91bd
000001e0: ba8e e0bd f627 45bd 5630 eabd 3a83 13bd
000001f0: cdc4 c43d 6dc8 cf3d 1f62 06be 761a 033e
00000200: 6612 13be 2f44 463d a499 9dbd c628 93bd
00000210: 3da4 b83d a3a6 983d 2b10 dc3d f1d8 c73d
00000220: d52b b6bd aedd 0bbd d0cc 19bc 9868 c6bd
00000230: c753 eabd 551b 153c 4e3a 14bd f6e0 39bd
00000240: 506d ed3d 9675 ce3c 166a fa3c d7e6 033e
00000250: eedf ec3d beb5 b4bc 445a 483d 1e08 acbc
00000260: cf06 15be e757 223e e58d 59bd 3dcf e3bc
00000270: 456e 9abd ee0c 63bd bfee 8b3d d29f 4cbd
00000280: eb59 923c e2b2 2c3e 7774 86bd b1e1 9a3d
00000290: b1ce a6bd aef7 c0bd c4de c9bd dff9 a1bd
000002a0: 7b7b 82bd f690 b73d aa9b b03d dc04 40bd
000002b0: 1ccd b2bd da00 b5bc d721 883c 4bc7 d93d
000002c0: 7bc2 663d bf67 b8bd 6253 b6bd deb8 0f3e
000002d0: 66ca adbc 7fb2 953c f521 263d e6e8 7bbc
000002e0: b459 aabd 43f8 7dbd 768c 02bc 4244 cd3b
000002f0: e78c 70bd b9c8 3f3b db15 3a3d d917 bd3d
00000300: 0ac7 7f3d 8cee 16be f321 ce3d 031d 873d
00000310: 85a8 0c3c b02c 55bd 48b2 bb3d 42b6 8c3c
00000320: 3b15 0f3e 7c6c 933d de9d 8cbc c008 e7bd
00000330: 36fa 6b3d 1219 733d db0b 23be bf70 0ebe
00000340: dccd 8fbc c8ef 573d 1ab3 14be c32a f73d
00000350: 3f07 0e3e da37 c4bd d36a a63d ecaa d93d
00000360: c976 b7bd 94e7 e6bd 7292 81bb 23f1 15be
00000370: 53df e73b 83c1 ed3b f451 9f3d 8b49 173e
00000380: f0d3 1dbd 875d f6bd 66e0 5d3d 1b10 86bc
00000390: 2dce 23be 0b2a 45bc e9da e2bd 63a5 21bd
000003a0: 02dd bebb b91c 6bbc b3da a53d ca2e a9bd
000003b0: 45e3 f9bd 76cf 0f3e 3d9d aa3d 9490 b6bc
000003c0: e6c6 aa3d 0aaf fabc 91d9 babd b04f 0ebe
000003d0: 0629 d6bd 2641 83bd bb09 9fbc 3738 16bc
000003e0: 10bc 01be bc73 47bc 5b94 16bb bc88 863c
000003f0: ec7e 05be b6aa 673d 55e4 8fbd 75b0 e0bc
-0.0771683 0.12228693 -0.033545572 0.0915588 0.074726015 -0.023734549 -0.009042674 0.045830257
-0.040742874 0.015144841 0.005792554 -0.09493607 -0.14484014 -0.12914662 0.11105442 0.07867674
-0.034848474 -0.085043326 -0.09149304 0.07251769 -0.11321544 0.13534778 -0.09647985 -0.11850367
-0.0725892 0.117495574 -0.009116186 -0.015112449 0.16334127 -0.1106636 0.08113929 -0.012390813
-0.046921123 -0.095707096 0.029237637 0.095716394 0.11342792 0.094416566 -0.102505244 0.113944106
-0.09749621 0.09287719 0.113670565 0.02816087 0.043092363 -0.024303373 -0.068407714 0.054011114
0.074849315 -0.067272 0.029163318 -0.13137746 -0.11556846 -0.068505615 0.10453981 -0.015310203
-0.054046188 0.11857889 0.010527025 0.02130059 0.029795645 0.07646842 0.0086277975 0.0677875
0.1420801 -0.086196706 0.055389866 -0.059394423 -0.032473568 -0.12477481 -0.062456444 -0.053811863
-0.072264165 0.06544175 -0.00072727416 -0.0021397371 -0.06441391 0.007083081 0.090323664 0.088463694
0.1007806 0.057661276 0.025294397 0.06592002 0.026041457 0.012561842 -0.04074162 0.11641227
-0.1028779 -0.014546187 0.109478794 0.050793216 -0.118268296 -0.123728655 0.10300326 -0.05085183
0.13320078 0.074858 -0.093141876 -0.04793473 -0.02425407 -0.14546502 0.097789526 -0.072315246
-0.041463256 -0.14874274 0.09177347 0.113735445 -0.07368322 -0.12437539 0.08287738 -0.022827767
0.10274065 -0.10873331 -0.019149084 -0.0159764 0.039022926 -0.0427331 -0.008982006 -0.071152635
-0.10964723 -0.048133813 -0.114350006 -0.03601382 0.09607849 0.1014565 -0.13123368 0.12803063
-0.14362487 0.04840487 -0.0769532 -0.07185511 0.09015701 0.074536584 0.10745271 0.09758175
-0.08895079 -0.034146957 -0.00938721 -0.096879184 -0.114417605 0.009100755 -0.036188416 -0.045380555
0.11593115 0.025202554 0.030568164 0.12881027 0.11566149 -0.022059318 0.04891421 -0.020999964
-0.14553379 0.15853845 -0.053113837 -0.02780878 -0.075405635 -0.055432253 0.068326466 -0.049957104
0.017865142 0.16865113 -0.06565183 0.075625785 -0.08144892 -0.09422241 -0.09856942 -0.07908987
-0.06371208 0.08963196 0.086234406 -0.046879634 -0.08730528 -0.022095133 0.016617699 0.10633715
0.056337815 -0.09004163 -0.08902623 0.14035365 -0.021214675 0.01827359 0.040559728 -0.0153753515
-0.08317891 -0.06200434 -0.007968059 0.0062642405 -0.058728125 0.0029263927 0.045431 0.09233064
0.062445678 -0.14739436 0.10065069 0.065973304 0.0085851 -0.05204457 0.09164864 0.017176751
0.13972943 0.07198426 -0.01716512 -0.11280966 0.057611667 0.05935008 -0.15922491 -0.13910197
-0.017554216 0.052718908 -0.14521447 0.12068703 0.13869952 -0.09580965 0.08125844 0.10628304
-0.08958203 -0.11274639 -0.003954225 -0.14642768 0.007076183 0.0072557344 0.07779303 0.14774148
-0.038532197 -0.12029558 0.05416908 -0.016365102 -0.15996619 -0.01203395 -0.1107691 -0.039464366
-0.005824686 -0.01435011 0.08098354 -0.082608774 -0.12201551 0.14043984 0.08330772 -0.022285737
0.08338718 -0.030601043 -0.09123529 -0.13897586 -0.10457043 -0.064089105 -0.01941382 -0.009168676
-0.12669396 -0.012173589 -0.002297661 0.016422622 -0.13036698 0.056559287 -0.07025973 -0.027427891

l1.bias f4 [256]
00000000: f686 563e beed 313e 9d6d 1a3e e6df 5d3e
00000010: 1013 1c3e 40b2 453e 5a2c 163e 77be 5c3e
00000020: 8ca0 463e f808 ab3d d131 323e 7fa1 1e3e
00000030: cf7a 4f3e a630 753d 7c31 e33d 7b53 173e
00000040: c507 6a3e 4eb3 a83d b473 cf3d fdc7 b63d
00000050: 5225 1b3d 4c0f 5d3e 13e7 5d3e 89f7 d63d
00000060: 3df6 2b3e 9a9b 0a3e a72e 233e 228e c13c
00000070: caa5 353e 4a74 473e c4b3 143e 91fb 0b3a
00000080: f237 cd3a a887 b539 ca42 523e e17a 093e
00000090: 52fc 093e 6ec4 063e 7339 8e3d 99fa 343e
000000a0: ebf3 933d d626 f33d e4b1 9a3c 91a7 0d3e
000000b0: 0058 943d 5293 4638 6731 053e c950 e93d
000000c0: eaa7 1c3e 1017 c93d 9737 093e 40b8 8f3d
000000d0: 6de3 cb3c dcb4 483b 49c5 9c3d 9ca2 f03d
000000e0: 6d50 073e 3451 413e c51b 463e 2a2e ec3a
000000f0: 9ff1 e23d 1f68 f43d 52e1 7b3d d383 553e
00000100: 22ad 1b3e 99c5 0a3e 8c1e 813e 481a 293d
00000110: 956d 463e 6775 f13d cd93 3c3d 63ec d13d
00000120: d7cd 1e3e d3c7 1e3e 63c7 a83b d6ff 133e
00000130: 0d8d f63d 8497 b23c e621 5a3d 5bb1 573e
00000140: d199 663a 261f de3d 3fc6 0f3e 72e8 7f3d
00000150: 532a 953d 916c f23d 80c3 8e3d 7ae4 bf3c
00000160: 90a0 493d 4605 383e e7ec fc3d e487 d93d
00000170: bf92 573d f654 ab3d 4893 1a3e fc21 2a3e
00000180: f257 443b 2e45 1a3e c6d6 aa3d 29b7 ea3d
00000190: 5f79 103e c481 2d3e 3990 383b 8f36 1f3e
000001a0: 3c65 dc3d 52b8 0f3e 28ae b13d 4cd0 2c3c
000001b0: 0504 683e 946e b43d 3eee 273e 6c78 1f3e
000001c0: b29a c33d 1625 233e 81a4 8b38 ff2e ab3d
000001d0: dae2 413e f731 053e 1b93 133e 1b70 293e
000001e0: 472d ab3d 5201 0b3e 38c1 d73d 9551 f93d
000001f0: dcdb 483e cc40 103e ecad a53d e58c 0e3e
00000200: a83b 413e 1d3b 0f3e 34c9 c23d 9c6e 253e
00000210: 6039 9c3c afd0 083e 31c9 483e 306b 2d3e
00000220: 11bd d63d a751 3b3e 519e 5a3b ab92 e43d
00000230: 51e7 873c 0503 ff38 6a9f df3d 4f74 383e
00000240: fa75 983c 9f09 d63d fc5d 083e 2db8 cf3a
00000250: ae5e 333e 266c 873c 9cd2 0d3e a401 353e
00000260: 14bb fb3d 0b59 4f3e 14f2 7738 6be5 313e
00000270: 0a88 043e 84af 083e f087 d13d afdc 263e
00000280: 0bbf 4c3e 8b78 373e c5ad e53d 9568 f83a
00000290: 83c4 1b3e c134 bd3d 74bc 3e3e c84c 193e
000002a0: 45f2 0f3e a7ca 1e3e 72a2 0e3d 4d2a a93b
000002b0: 9173 0c3d e37b c13d e1f7 133e 069b 123e
000002c0: 04c2 e03d 14d0 353e 9088 f03d e29b db3d
000002d0: 2fe3 053d 016a 273e fedb bf3d 6694 083e
000002e0: 392c 4d3e 9372 123d b721 513e b0ca f23d
000002f0: 5f43 3f3d 8d67 503e 9848 493e 70c0 a23d
00000300: 0b9b 3339 b7ea 033d 5d73 f13d 7239 593e
00000310: bf85 2f3e 3cc5 663d 0439 2f3d cdf0 b53d
00000320: f295 6a3e 754a 0e3e 3946 4b3e ed16 4e3e
00000330: 968c ef3d 6a82 183e f2f4 123e e4b0 093e
00000340: 6ccf e53d 76b5 763e b758 133e a3fa 9f3b
00000350: 3ef2 923d b3d0 143e 6e0e 0a3e c904 143e
00000360: 9e7c 3d3e 2bf6 cb3d a9ec 363e 08f4 fe3d
00000370: 8c5e d739 06a8 013e da06 773b a69a 263e
00000380: 511f 8d3c 7a15 ad3d 49db dc3d 146e 3c3e
00000390: 6468 0e3e a48a f33c c442 903d 38dc a23d
000003a0: c108 1e3e 8721 bb3d 767f c63d 86a1 033e
000003b0: 01f1 a73d 00d4 fc3d 8b79 673e dd4c 313e
000003c0: 4007 313e 0412 e83d 26bc 3f3d c096 fb3d
000003d0: 6169 1d3e 23a0 333c c4f0 103e b5f1 013e
000003e0: de9e 313e b730 e537 492d f23d b37b 473e
000003f0: 6a27 223e 1bf5 843d 04a7 e23d 8bc5 543e
0.20949921 0.17375848 0.15080877 0.21667442 0.15241647 0.19306278 0.14665356 0.21557032
0.19397181 0.0835132 0.17401816 0.15491293 0.20261692 0.059860848 0.11093423 0.14777939
0.22854526 0.08237325 0.101294905 0.089248635 0.03787739 0.21587867 0.21670179 0.10496432
0.16793151 0.1353592 0.15935765 0.023627345 0.17739025 0.19477955 0.145217 0.00053399155
0.0015656932 0.00034624082 0.2053329 0.13425781 0.13475159 0.1316087 0.06944551 0.1767372
0.07224258 0.11872642 0.018883653 0.13833453 0.07243347 4.734408e-05 0.13007127 0.11392362
0.15298429 0.09818852 0.13400112 0.07017565 0.024888719 0.0030625379 0.07654817 0.11749765
0.13214274 0.18878633 0.1934653 0.0018019129 0.11081242 0.11933922 0.06149418 0.20851068
0.15202764 0.1355194 0.25218618 0.04128483 0.1937774 0.11789971 0.04603939 0.10250165
0.15508209 0.15505914 0.005150722 0.14453062 0.12038622 0.021800764 0.053254984 0.2106375
0.0008796724 0.10845785 0.14040469 0.062477536 0.07283463 0.11837114 0.069708824 0.023424376
0.04922539 0.17970762 0.12349873 0.10621622 0.052630182 0.083658144 0.15095246 0.16614527
0.0029959646 0.15065452 0.08341746 0.11460716 0.141088 0.16944033 0.0028162135 0.15548156
0.107614964 0.14035156 0.08675796 0.010547709 0.22657783 0.088101536 0.16399476 0.15573281
0.0955099 0.15932116 6.658678e-05 0.08358573 0.18934193 0.13007341 0.14411585 0.16546671
0.08358245 0.13574722 0.105349004 0.12173764 0.1961512 0.14087218 0.080898136 0.13920934
0.18870413 0.13987394 0.09511033 0.16155475 0.019070327 0.13360856 0.19607998 0.1693542
0.1048528 0.18292867 0.0033358524 0.11160787 0.016589792 0.0001215991 0.10919078 0.18013118
0.018610943 0.10451054 0.13317102 0.0015847735 0.17516586 0.016531061 0.13849872 0.17676407
0.12291542 0.20248811 5.9114842e-05 0.17372672 0.1294252 0.13348204 0.10231006 0.16295122
0.19994752 0.17917077 0.112147845 0.0018952066 0.15211682 0.09238578 0.18626577 0.14970696
0.14057262 0.15506993 0.03482289 0.0051625133 0.0342899 0.09447458 0.14450027 0.14316949
0.109745055 0.17755157 0.11744797 0.10723092 0.032687362 0.16349031 0.09368132 0.1333786
0.20036401 0.035753798 0.20423017 0.11855066 0.04669511 0.20352001 0.19656599 0.07946861
0.00017128528 0.032206263 0.11789582 0.2121332 0.17140864 0.05634044 0.042778984 0.0888382
0.22908762 0.1389559 0.19851007 0.20125933 0.116967365 0.14893499 0.14351252 0.13446385
0.11221203 0.2409266 0.14389311 0.004882173 0.0717511 0.14532737 0.13482067 0.1445495
0.18504569 0.09959062 0.17863716 0.12448889 0.00041078439 0.12661752 0.0037693293 0.16269931
0.017226847 0.08451362 0.10784013 0.18401366 0.1390701 0.029729195 0.070439845 0.0795216
0.15433027 0.09137254 0.0969228 0.12854585 0.08200265 0.12345123 0.22604959 0.17314477
0.17287922 0.11331561 0.04681029 0.12284613 0.1537223 0.010963473 0.14154345 0.1268986
0.1734576 2.7321612e-05 0.11825044 0.19480781 0.15835348 0.06492063 0.11067012 0.20778482

l2.weight f4 [256, 256]
00000000: f787 833c 3913 ca3d f04a 1d3e 7b9b 173d
00000010: afc6 30bd aa3d ce3d b766 093d db3e 643d
00000020: f2db f03c 276b 963d 35d7 c93d 7e06 803d
00000030: 71d5 a43c 9fa5 8e3d 56f4 243d 518c c23d
00000040: 28ec 8cbd c3b0 b63c 4580 b7bd a8cf 2d3d
00000050: b5f1 f33d d49f 46bd 1bf7 853b 3308 fd3c
00000060: 6403 91ba 522d 0d3d 4b56 9c3c 4119 5bbc
00000070: 1ac7 76bb 3cf1 3fbd ff89 30bd 4428 43b9
00000080: 2e06 ad38 f649 5ab7 0deb 2bbc 924d 8a3d
00000090: 04d1 bcbd a6f2 dcbc d8d8 cbba 9aba 4f3d
000000a0: ed9a 8c3d 0544 303e 7235 f33a b660 04be
000000b0: 7059 933d 795a a9b7 819c 7d3c 5b3c 3d3d
000000c0: 8e27 ef3c 3a52 993d abf3 d4bd 0edf 90bc
000000d0: c946 6ebc 1677 f93a 8b34 e3bc a44c eabd
000000e0: 17b1 25bd 4b23 c2bb acf6 d13d 9baa 87ba
000000f0: 40f0 1a3e 71bd 05be 2377 1abd 0509 80bc
00000100: 30d5 f23d 3ff6 a8bc a36c 773d 8e4b 9bbc
00000110: 699a 003d 9b4a 2c3e 5ca8 6a3c 67e5 b43d
00000120: fce8 d23d c4a6 a13d 4c56 d738 b9dd bd3d
00000130: c8ad 0c3e c8c9 c63b 4abc 99bc 1270 84bb
00000140: 993a d6b9 92aa 29bd f92e 263e 32b1 43b8
00000150: a6c9 753d 26a5 1a3d 75dd 05bd 87cb 48bc
00000160: 3955 643b 0f92 64bd c89b 013e 97b6 cabb
00000170: 8522 983b 00d6 183e 8b88 a73d 583b 2dbd
00000180: 4e53 b83a 3ba4 e03d 8692 4d3c 851b 523d
00000190: 7a8a adbd df6f 1fbe 53b5 db39 1887 7f3c
000001a0: 0156 5cbd 2292 b93d d114 00bd 0847 1ebb
000001b0: f91e c33d c830 393d 657b 81bc 1f0c ad3d
000001c0: 9c1a 4fbd 74bd 8c3d b160 9537 99ef 06bc
000001d0: f20b d43d c775 f13c 7981 03bd 52b6 a03d
000001e0: a7d0 0d3c 4e30 91bd ba7a 003e 2136 b73d
000001f0: da92 88bd 3cf2 1fbc ecd7 d8bc e3c5 b43d
00000200: c782 e23c 7f8a 793d ce70 913d 721f a2bd
00000210: d507 063c 61cf b9ba 022f 983d aeff b3bd
00000220: d915 f83c 0ed1 1d3d b246 c5b9 bbce 1abc
00000230: 48d9 33ba 3270 ed38 6b64 3a3d 1457 65bd
00000240: 0229 1b3c e8ad 833c ab80 303e a652 11b9
00000250: d26e 093c 1b7b 5f3c 5d23 cb3d 1a9e 1fbd
00000260: 94e0 283e ad8f af3b 5438 8137 40d6 1cbc
00000270: 0b11 883c fa30 1dbe ea80 8d3d 99c2 c43d
00000280: 7c3e 253d 25d5 65bd b363 793d d99f 3eba
00000290: dc75 9f3d 71be d5bc 16cc 3fbc b364 86bd
000002a0: fdab 53bd 67f2 14be 84d2 b7bc 7460 e6ba
000002b0: 7fad ec3b f3f7 753d 25b4 9e3d 0bf6 d0bd
000002c0: 800a 803d c09b b93d dd53 26bd 96bf eebc
000002d0: b8b6 733c 73ab c83d f42b 123b dc61 78bd
000002e0: 3397 c13d 3ef7 e53c cf83 ebbc c78a 32be
000002f0: 47c4 86bc 3f23 77ba 7490 dcbb cbfa fabc
00000300: abce d1b8 9f2e 37bc dc08 82bd 47e1 923d
00000310: 1c31 423e 059a 5a3d 98c6 32bc b552 253e
00000320: dfd4 52bd 64b6 93bd 1fe1 0f3d 9df1 123d
00000330: 6e1a 3d3d 706e 42bd b8f4 aebd 1071 273e
00000340: d780 3a3d 9d44 1d3d 9131 503d f8ce 673a
00000350: 198e 883a 41aa c53d a081 50bd 0c8a debd
00000360: 70ce f0bb 5389 a03d b5cc 553d 49b8 1dbd
00000370: 425a fe38 6ba1 363d d952 843a 988f 033e
00000380: ec3f 0f3b e637 8ebc 091f 24be a6c5 e93d
00000390: bb3f 65bc cf15 713c 93b9 4dbd 9226 1bbd
000003a0: 8e1c 8b3c 65a9 5c3d d05b fc3d 4842 39be
000003b0: 87c3 943d b3cf be3d 280b 0f3d 64c7 4d3d
000003c0: 28f7 13bd 9480 273d 04c5 9c3c b87c a9bd
000003d0: 30fc 003c 5e60 68bb 8072 6cbd 3db6 023e
000003e0: 6bbf 46bd 2d50 3737 48c3 b7bd 59fa a93d
000003f0: 6186 3a3d 9780 383d dd3e 8dbd c188 6e3d
0.016056044 0.09866948 0.15360618 0.037013512 -0.04315823 0.10070355 0.033545222 0.055724006
0.029401753 0.073446564 0.098555006 0.06251238 0.020121308 0.069651835 0.04027208 0.094994195
-0.06880981 0.022301083 -0.08960012 0.042434365 0.11911336 -0.048492268 0.004088295 0.030887699
-0.0011063633 0.03446705 0.019084116 -0.01337272 -0.0037655295 -0.04686092 -0.043100353 -0.0001861165
8.250434e-05 -1.3011033e-05 -0.010493052 0.067530766 -0.09219554 -0.026971173 -0.0015552295 0.050715066
0.06865487 0.17213447 0.0018555357 -0.12927517 0.07194793 -2.01885e-05 0.015479208 0.046200138
0.029193666 0.074863866 -0.103980385 -0.017684486 -0.014543244 0.0019032683 -0.027735015 -0.11440399
-0.04045209 -0.0059246174 0.10252127 -0.0010350527 0.1513071 -0.13060547 -0.037711274 -0.0156293
0.118570685 -0.020625232 0.06040634 -0.018956926 0.031397257 0.16825335 0.014322367 0.088328175
0.102983445 0.07893136 0.00010268073 0.09270806 0.13738167 0.0060665347 -0.018766541 -0.00404168
-0.0004086092 -0.041422434 0.16228856 -4.665665e-05 0.06000676 0.037755154 -0.0326819 -0.012255556
0.0034840836 -0.055803355 0.12657082 -0.006186317 0.004642787 0.14925385 0.081803404 -0.042292923
0.0014062913 0.109688245 0.012547141 0.051295776 -0.08473678 -0.15570019 0.00041906032 0.015596174
-0.053792957 0.09061076 -0.031269852 -0.0024151225 0.09527392 0.045212537 -0.01580591 0.084495775
-0.050562486 0.06872073 1.780721e-05 -0.0082358355 0.10353841 0.029475106 -0.032105897 0.07847275
0.008655704 -0.070892915 0.12546816 0.08945871 -0.06668635 -0.009762343 -0.026470147 0.088268064
0.02765025 0.060923096 0.07101594 -0.07916154 0.008180578 -0.0014176184 0.07430841 -0.087890014
0.030283855 0.03852945 -0.0003762744 -0.009448702 -0.00068606855 0.00011321939 0.045505922 -0.055991247
0.009470226 0.016074136 0.17236583 -0.00013859067 0.008388238 0.0136401905 0.099188544 -0.038969137
0.1649192 0.0053577037 1.5404228e-05 -0.009572566 0.01660969 -0.15350714 0.06909354 0.09607429
0.040342793 -0.056111474 0.060886096 -0.0007271744 0.07786152 -0.026091786 -0.011706373 -0.065621756
-0.051677693 -0.14545594 -0.022439249 -0.0017576353 0.007222831 0.060050916 0.077492036 -0.10203179
0.06252003 0.0906291 -0.040607322 -0.02914409 0.0148751065 0.09798326 0.002230403 -0.0606402
0.09452667 0.028071996 -0.028749375 -0.17435752 -0.016451014 -0.00094275543 -0.0067310873 -0.030637166
-0.000100043915 -0.011180549 -0.06349346 0.071718745 0.18964046 0.05336954 -0.010911606 0.16144831
-0.05147254 -0.072125226 0.0351268 0.03587495 0.046167783 -0.047468603 -0.0854277 0.16351724
0.045533027 0.038395513 0.05082852 0.00088427914 0.0010418325 0.09651614 -0.05090487 -0.10866174
-0.007348828 0.078386925 0.052197177 -0.038505826 0.00012128476 0.044587534 0.0010095491 0.12847745
0.0021858169 -0.017360639 -0.16027464 0.114146516 -0.013992245 0.014714672 -0.050225805 -0.03787858
0.01698139 0.053872485 0.12322199 -0.1809169 0.072638564 0.09316959 0.03492275 0.05023898
-0.03612438 0.040894106 0.019136913 -0.08275741 0.007872626 -0.003545783 -0.057726383 0.12764831
-0.048522394 1.0926317e-05 -0.08972794 0.08299703 0.04553831 0.045044508 -0.06896756 0.058235887

l2.bias f4 [256]
00000000: 11ec 563d f49b 923d 240d 633d 913b 443d
00000010: ed24 703d a916 803d 944b 4c3d 3924 5e3d
00000020: 6c6b 653d 3e2d 583d 8289 903d f50b 803d
00000030: 915b 6d3d 544b 233d d8a1 563d a205 5d3d
00000040: d7e1 8c3d 707b 8e3d d45e 983d e3ea 5d3d
00000050: aa00 723d 0a9a 693d fdb1 5e3d 10bc 3f3d
00000060: 2754 443d a0c6 533d f647 4f3d 14af 283d
00000070: fe98 3e3d 4684 3e3d 188c 773d 9c3a 513d
00000080: e5a9 5e3d f89f 343d 08ce 6f3d 9a57 4e3d
00000090: a276 6c3d b651 5d3d 7996 703d c7b5 753d
000000a0: 7b55 683d cb2a 613d b49d 5b3d 96be 2c3d
000000b0: 4726 013d bdbc 653d 1e17 443d d33c 653d
000000c0: f3b7 1e3d 9458 733d 2128 813d 5d85 563d
000000d0: 61f2 723d cf19 3b3d 3a7f 573d 87fa 123d
000000e0: 4174 523d 38b3 433d d270 653d d99c 863d
000000f0: a89e 4e3d 260d 6d3d 9936 5d3d 0474 4e3d
00000100: 5f58 843d ce40 673d 1a18 233d 39c4 3f3d
00000110: 3939 023d d059 3d3d d800 593d 401b 5e3d
00000120: 3cf9 3f3d de90 5f3d 5674 353d 3e27 403d
00000130: 40a3 4a3d 45ba 623d f332 6c3d f080 623d
00000140: fda8 213d 4fd3 d73c a6ae 573d 7491 233d
00000150: b1ba 633d 79e2 283d ebd2 793d 4a96 383d
00000160: 9030 563d be67 833d 540b 5a3d 72c7 493d
00000170: b5a0 873d dd26 553d 54ca 733d e42d 653d
00000180: 6bd8 763d aed3 453d 3445 773d c8f8 293d
00000190: eeac 3e3d 74b1 4e3d b442 633d b9e6 493d
000001a0: 11ba 503d d054 633d 7695 813d 2f4e 513d
000001b0: f90d 893d 779b 553d 37a4 423d bedc 453d
000001c0: 1dfe 7a3d 4550 2a3d 08f3 5e3d b46d 5a3d
000001d0: d3a7 3a3d 1a16 493d f854 133d 8640 5b3d
000001e0: 7a9e 743d 3717 353d 520d 6e3d b2e2 4a3d
000001f0: 22ec 353d 670d 1c3d 219f 643d 590e 4d3d
00000200: a9d5 1e3d 3520 0c3d c697 823d a5b1 693d
00000210: 388d 283d 3516 2a3d de39 7c3d 9c06 4f3d
00000220: eca2 793d d024 503d ae84 7c3d e43b 723d
00000230: c55f 313d f490 273d 82cb 5c3d 4571 443d
00000240: 72bd 243d d417 833d 045a 673d 91d1 423d
00000250: 91bf 3e3d 9a64 173d e82d 843d 7392 3f3d
00000260: 82d3 753d ee26 653d 27ae 633d 6f7a 3d3d
00000270: b95f 3a3d 1895 5c3d 9a5f 2d3d 5c19 623d
00000280: b4db 793d a3a3 5b3d 1502 553d b653 1c3d
00000290: 7ce1 6b3d cabf 103d 6ee6 403d a4d6 403d
000002a0: 264e 603d dbe7 343d 8535 3b3d 380a 853d
000002b0: a4ed 5f3d cd2a 573d ff3d 4f3d 0c8b 4c3d
000002c0: d9d9 4d3d 92fb 673d 1106 7e3d c088 813d
000002d0: 9df3 473d de2d 633d c210 393d 89aa 4a3d
000002e0: d6a9 643d c576 693d 9b5a 643d 1ac9 693d
000002f0: d088 313d cb57 513d 2a42 5a3d f933 533d
00000300: 8299 443d 77b5 183d 29d9 533d 41e1 543d
00000310: 0fa9 e63c 95df 7d3d 4864 313d 570a 423d
00000320: 549d 773d c966 7f3d c1e7 6e3d 5b50 453d
00000330: 0348 533d d782 2d3d c4d4 613d 12e8 233d
00000340: f82a 5b3d c1b9 893d b685 453d 7009 713d
00000350: c11f 273d 5386 463d e713 343d 6f22 7e3d
00000360: cf12 5c3d 5481 563d 652c 583d 8263 6d3d
00000370: 09cc 163d 0034 643d 4eba 2a3d 2cf9 1f3d
00000380: a07e 7f3d 0855 043d 9e39 5b3d 579a 8b3d
00000390: cb73 2f3d 85b5 343d 52cf 3b3d db4c 433d
000003a0: f740 513d 32cd 843d 7b6d 623d e70c 883d
000003b0: 8889 583d 6cb7 513d de09 663d 20fc 4d3d
000003c0: 7067 2b3d 6f72 503d 09af 4e3d b892 5c3d
000003d0: a4b5 493d db84 3f3d 9e97 2b3d c7d9 593d
000003e0: 808f 843d 0da0 763d fd0a 5c3d f37d 463d
000003f0: e25e 463d d4b2 693d b3f5 9ea0 2c60 853d
0.052471224 0.07158652 0.055432454 0.04790837 0.058628965 0.06254322 0.049876764 0.054233763
0.05601065 0.05277752 0.070574775 0.062522806 0.057948653 0.03986676 0.05240044 0.05396045
0.06879013 0.069571376 0.07439962 0.054179084 0.059082665 0.05703167 0.05436896 0.04681021
0.047931816 0.051703095 0.050605737 0.041182593 0.046532623 0.046512865 0.06043634 0.051081285
0.054361243 0.04409787 0.058546096 0.050376512 0.057730325 0.054033004 0.058737252 0.05998781
0.056722146 0.05497245 0.053617194 0.042173944 0.031530645 0.056088198 0.04787361 0.05596621
0.038749646 0.059410647 0.06306482 0.05237328 0.05931318 0.04567891 0.052611567 0.035883453
0.0513804 0.04777834 0.056015797 0.06572885 0.050444275 0.057873867 0.054007147 0.05040361
0.06462168 0.056458287 0.039817907 0.046817992 0.031792853 0.04622823 0.05297932 0.054225206
0.046868548 0.054581515 0.0443004 0.046912424 0.049472094 0.05535342 0.057665776 0.055298746
0.0394678 0.026345877 0.052656792 0.039933637 0.055597965 0.041231606 0.060992163 0.0450652
0.052292407 0.064162716 0.05323346 0.04926247 0.06622449 0.052039016 0.059519127 0.055951968
0.060264986 0.048297577 0.06036873 0.041497022 0.046551637 0.0504622 0.055483535 0.0492923
0.050958697 0.055500805 0.063273355 0.051099952 0.06692118 0.052150216 0.04751989 0.04830622
0.061277498 0.041580457 0.05443099 0.053327277 0.045570206 0.049093343 0.035969704 0.05352833
0.059721448 0.044211593 0.058118172 0.0495326 0.044414647 0.03809872 0.05581582 0.05006251
0.03877798 0.034210403 0.06376605 0.05705418 0.0411503 0.041525085 0.061578624 0.050543413
0.06094639 0.050816357 0.06164997 0.059139147 0.043304224 0.040909722 0.053905018 0.047959585
0.04021973 0.06401029 0.05648233 0.04756314 0.04656941 0.036961176 0.064540684 0.046770524
0.060016163 0.05594533 0.055586006 0.04625934 0.045501444 0.053853124 0.0423275 0.055199966
0.06100054 0.053622853 0.05200394 0.03816577 0.057588086 0.035339154 0.047094755 0.047079697
0.05476203 0.044166427 0.045705337 0.0649609 0.05466999 0.052531052 0.050596233 0.049937293
0.050256584 0.0566364 0.062017504 0.06324911 0.048816312 0.055463664 0.045181997 0.04947904
0.05582603 0.056998033 0.05575047 0.05707655 0.043343365 0.051109117 0.053285755 0.051563237
0.04799796 0.037282433 0.051720772 0.05197263 0.028156785 0.061980803 0.043308526 0.047373142
0.060452774 0.062353883 0.058326486 0.048172336 0.051582348 0.042361107 0.05513455 0.04001624
0.053507775 0.06724883 0.04822322 0.05884689 0.040801767 0.048467945 0.043964293 0.062044557
0.053728875 0.05236943 0.052776713 0.057956226 0.036815677 0.055713654 0.04168158 0.03905599
0.06237662 0.032307655 0.053521745 0.06816547 0.04283504 0.044118423 0.045852013 0.047680717
0.051087346 0.064844504 0.05528019 0.06643086 0.052865535 0.051200315 0.056161754 0.050289273
0.041846693 0.050890382 0.050459895 0.05385086 0.04924549 0.04675756 0.04189264 0.053186204
0.06472683 0.06021123 0.053721417 0.04845996 0.04843033 0.05705531 -2.692883e-19 0.06512484
