code/save/model_beta_embeddings/model_beta_1.pt (torch, 649914 bytes, 6 tensors)

embed.weight f4 [59, 256]
00000000: 0b1d f3bd 2c18 fe3d d455 1e3e 74e8 cc3d
00000010: 8511 27be 9279 14bd 6820 1f3e 553f ea3d
00000020: 9cea 42be ff7a af3d ac7f 9b3d dc63 7d3d
00000030: ce38 3cbd d4c9 eb3c bbfa 65be b293 553e
00000040: c28f 253e 2f7f e8bd 5f49 ecbd 0fb0 a33c
00000050: 9d52 12bc e9f3 133e e05b a9bd e13a 38be
00000060: 1137 38be c8fa 383d a60d 253e a6dc 683c
00000070: 49cc f93d 2698 563c 6fd9 9a3b a17e edbd
00000080: 8b3f 043e e940 333e 8e28 083e 15da 31bc
00000090: 919a aebd 1230 183e 2c80 e03c dc9e c8bd
000000a0: ef6c d73d 593c ebbd ac73 0fbe b407 c7bd
000000b0: 18df 1e3c 27e6 08bc 2120 283e f96e 6dbd
000000c0: 0336 92bd cdda 043c 3d88 03be aa7f 313d
000000d0: c113 f1bc be6f 0c3e a4eb 083e 5d65 7e3d
000000e0: 999b 3bbe d8fc 6a3d 3e29 593e 7511 e8bd
000000f0: 49a8 a1bd 419d 27be c8ab e3bd d92b 12be
00000100: 984c ec3d b174 75bd f62c 0bbe 7f11 0e3e
00000110: bb57 853d e7ea 3fbe 233a 26be fc2b 13be
00000120: fa63 6d3b 71a9 063e a733 fd3d 25df 4e3b
00000130: c61d 553e 7cf0 0cbe 173c 0b3e 2856 56bd
00000140: d30f de3d 04bf 293e f709 c1bd 7b46 c6bd
00000150: 112e 573d 0257 08be 270b 2b3e 7769 c03d
00000160: 0459 bdbd 93ff 853d fd6a 213e ba4f 6f3c
00000170: cfbe d53d 6993 193e 8b71 5e3e 1d49 15be
00000180: c304 d93d 8f97 dd3d 8eb6 69bb 1ead c5bd
00000190: a7e1 25bd 0d8f d13c 8a76 433e a26b d6bd
000001a0: 7254 253e 6ac8 543e d001 5f3e b948 1fbe
000001b0: c8e2 40be ce7e 3abe fbb6 27be f404 40be
000001c0: 39de 203e 7463 ae3d 1932 dbbd 8388 e2bd
000001d0: 0c61 babd 46d0 24bd 92b2 7fbc 2458 2e3d
000001e0: 4886 843d a78b 1d3e f877 0b3e 76e4 643c
000001f0: 32fc 243e e2b3 0c3e 811a c93d 7553 6e3e
00000200: d711 4e3e a652 7dbd fb2f 35be c8e4 1b3d
00000210: d832 8fbd c2ca f5bd 0c5f 013d 27f2 fa3d
00000220: a78f 153d b1f2 c2bd 8799 88bc d359 febd
00000230: cbea 59bd 3881 193e ffa3 cd3d 2dee cc3c
00000240: 6e6f 0e3e 139a e9bd 9717 d9bc ff94 063e
00000250: 8e71 4dbe e4fc 8d3d abe3 4dbe 1d7e 2e3e
00000260: 21f9 97bd e580 f53c 30af 56be 65e2 4a3e
00000270: 6736 263c 3abd 51be 00d2 60bb 8e1f b43d
00000280: 3a60 043e f5f4 143e 5dab 85bd 6503 123d
00000290: 09c4 b13d 86c9 72bc 3943 00be fa5c 2bbe
000002a0: 460d 9b3d 73ba dabd e4cc 6f3c 075e 0abe
000002b0: 206f 21be defd 403e 8ef4 113e 0ec2 0bbe
000002c0: ded7 4dbd 91d5 a8bd ff2a e53d 2c10 3d3e
000002d0: 8ea1 fc3d 91af c93d 3a94 83bd d4fe d2bd
000002e0: 22f3 a5bc 0b1a 95bb 407c 54be 9cad 313e
000002f0: 6e93 ebbc d7f0 52be 37bf 113b 5417 293e
00000300: 038f abbd e39d 603d 9c69 98bc 03bd 7a3d
00000310: 40fe 293e 61d8 6c3c 920f 09be eb19 77bd
00000320: 1418 d6bd 4061 9b3d b1bc 41be 9da1 54be
00000330: 6ffe 713d 995b f6bc bd0d 87bd 07fa 08bc
00000340: 6a1f 693b 4f29 15be 3620 c53d af60 cdbd
00000350: e925 b43d 5a03 0cbd 065a e73d 6956 2abe
00000360: 89fc 8dbd 7332 5fbd be72 393d 9cab a53d
00000370: 993b 11be 76d5 88bd 9ea4 26bd 810c cbbd
00000380: 6400 15bd 0496 12be 16ce c6bd fda3 693d
00000390: b0f9 f13d 9c68 183d b961 723c 941a 64be
000003a0: 40f2 593b e975 043e d426 203e c02e cfbd
000003b0: 333c 783d 1b83 babd 8fe2 003c 81b3 353e
000003c0: 5032 303d aad2 0fbe 96e4 913d ab26 c7bd
000003d0: 0153 953d 243c a13d e6c3 443e 7886 e33d
000003e0: 6e1c 243e 5978 013e c682 ee3d fb5b 1d3d
000003f0: 6fbd 23be 0bd1 0fbe d43b 1dbe 6dfa 3cbe
-0.11870774 0.12406954 0.15462428 0.100052744 -0.16315277 -0.03624875 0.15539706 0.11437861
-0.19034809 0.085683815 0.07592711 0.06186281 -0.04595261 0.028782763 -0.22458927 0.20857123
0.1616812 -0.11352383 -0.11537432 0.019981412 -0.008930829 0.14448513 -0.08269477 -0.1799121
-0.17989756 0.04516104 0.16118488 0.014212763 0.121971674 0.013097798 0.004725627 -0.11596418
0.12914865 0.1750523 0.1329672 -0.010855217 -0.08525575 0.14862087 0.027404867 -0.09795925
0.10518824 -0.1148612 -0.14008969 -0.09718266 0.009696744 -0.008355654 0.16418506 -0.05796716
-0.07139208 0.008108807 -0.1284494 0.04333464 -0.029428365 0.13714501 0.1337114 0.062108386
-0.18321075 0.057370037 0.21207139 -0.11331455 -0.07893426 -0.16368581 -0.11116749 -0.14274539
0.115380466 -0.05992574 -0.1359137 0.13873862 0.06510874 -0.18741952 -0.16233115 -0.14372247
0.003622292 0.13150574 0.123633675 0.003156611 0.20812139 -0.13763613 0.13597141 -0.05232826
0.10842862 0.16576773 -0.09425729 -0.09681412 0.052534167 -0.13314441 0.16703473 0.09395116
-0.09245494 0.065428875 0.15763469 0.014606411 0.104367845 0.14997639 0.21723 -0.14578672
0.10596611 0.10819923 -0.003566179 -0.0965216 -0.040498402 0.025580907 0.19088188 -0.10469748
0.16145495 0.20779577 0.21778035 -0.15555085 -0.1883651 -0.18212435 -0.16378395 -0.1875189
0.15709771 0.08515063 -0.10702915 -0.11061194 -0.091005415 -0.040237688 -0.015606539 0.042564526
0.064709246 0.15385304 0.13619983 0.013970485 0.1611183 0.13740495 0.09819508 0.23274024
0.20123993 -0.061846398 -0.17694084 0.03805998 -0.069921196 -0.120015636 0.031584784 0.12253218
0.03651395 -0.09518946 -0.01667477 -0.12419476 -0.05320243 0.149907 0.100410454 0.025015915
0.13909695 -0.114063405 -0.026500506 0.13142775 -0.20062849 0.06933001 -0.2010638 0.17040296
-0.074205644 0.029968688 -0.20965266 0.19812925 0.0101448065 -0.2048234 -0.0034304857 0.08795081
0.12927333 0.14546569 -0.065268256 0.03564777 0.08679969 -0.014818555 -0.12525643 -0.16734686
0.07570891 -0.106800936 0.014636252 -0.13512431 -0.15765047 0.18846843 0.14253446 -0.13648245
-0.050254695 -0.082438596 0.111898415 0.184632 0.123355016 0.0984794 -0.06424756 -0.10302511
-0.020257536 -0.0045502237 -0.20750523 0.17351383 -0.028756823 -0.20599686 0.0022239217 0.16512805
-0.08376887 0.054838073 -0.018605046 0.061215412 0.16600895 0.014455886 -0.13384846 -0.06032745
-0.10453811 0.07586908 -0.18919636 -0.20764776 0.059080537 -0.030072974 -0.06594417 -0.008360392
0.0035571703 -0.14566539 0.096252844 -0.100282066 0.08796293 -0.034182884 0.112964675 -0.16634525
-0.06932933 -0.05449147 0.045275442 0.080893725 -0.14182891 -0.066813394 -0.040684335 -0.09914494
-0.036377326 -0.14315039 -0.097072765 0.057041157 0.11815202 0.03720914 0.014793807 -0.22275764
0.0033255965 0.12935604 0.15639812 -0.10116339 0.060604285 -0.09107038 0.007866516 0.17744257
0.04301673 -0.14045206 0.071236774 -0.09724172 0.07291222 0.07872799 0.19215354 0.11109632
0.1602647 0.12643565 0.11646037 0.038417798 -0.15990232 -0.14044587 -0.15354854 -0.18454905

unembed.weight f4 [59, 256]
00000000: a80b 9a3d 41ce 3a3e e451 2a3e e075 efba
00000010: 32f5 c5bd f4f2 b13c fe06 36be 92f0 8e3d
00000020: 609a 879f fe60 2ebc 084c 3d3d 447b 51be
00000030: f60b f1bc 03cf db3d 651b cbbd 0be8 e33d
00000040: b4f0 4d3e e9f1 803d d4cd fa3d 8162 16be
00000050: f5be 5dbe 9893 713e 322b 9bbd 6107 853d
00000060: f6ae 4bbe db7d 33be 8daa 843d 66c7 82bd
00000070: 7da5 083e 2b53 873d b4c5 333e 8900 523e
00000080: 3dd2 0fbd 2533 45be 6544 d5bd 280c d8bd
00000090: b4fc fdbd 643e 453e aec4 443d 3e18 753c
000000a0: ea99 1a3e 3404 85bc 71cf 753c b294 18be
000000b0: dadf 3cbe 1837 b0bc 5c57 07be 1319 0e3e
000000c0: dc51 af3d e40a 523d 0946 e3bd e0f8 8c3d
000000d0: a584 893d cd18 dfbd 49a1 983c fdf2 0f3e
000000e0: 5306 273c 99ed 97bd 69d7 723e 2259 173e
000000f0: 946f 87bd 46d3 3abe ff14 b1bd 8cf9 84bc
00000100: 8446 04be 8642 9cbc 7b49 63bd 5486 4b3d
00000110: b188 633e c84e 033e 494b a63d 2412 10be
00000120: ef7e 7e3d c467 393e 3870 bc3d f288 b4bd
00000130: 239e 14be 138e 34be 7def a9bd e148 81bc
00000140: 874f 2f3d 2b32 0cbd 3c71 2cbe 42b6 6c3c
00000150: cd70 1fbe e366 e1bd fd0b 273e cbfc acbd
00000160: 4da7 9d3c 3d1b acbc 5e33 fabd 52af 813c
00000170: d8d3 f53d 3036 3dbe 1967 993d 3645 6cbc
00000180: 6b8c 533e 3308 b23d 81a0 eebd 38ef 3bbd
00000190: 058e 883d 6d8b 3cbe 75a9 45bd 9af6 983d
000001a0: a402 443e bfa7 eb3d 95e5 4abc cdb6 30bd
000001b0: aae8 bf3c 8694 e0bd 613c 0a3e dfd1 463c
000001c0: 2291 43be d9bc 7d3b 3ab3 7abd 5214 82bc
000001d0: 75b5 a4bd b606 0dbe fa62 433d 145b c93c
000001e0: ea10 b13d 061e 0ebe 74df ba3d 4728 393e
000001f0: 7062 553e 0344 fb20 7f87 633e 4de4 3dbe
00000200: 607b f5bb aa3c d13c e51e 103c fec7 223d
00000210: 3071 87bd d95c 1bbe 2fa4 fc3d ddd9 3e3d
00000220: c03e 213e d13a 40be 349e ae3d a4f7 193e
00000230: 9123 b53c 7542 073d e41f 5cbe 86c4 2abd
00000240: 4bfb 843c 6045 613e 9e82 86bd 3b27 b3bd
00000250: 4e0f c6bd ed42 90bd e906 86bd 23a5 12be
00000260: 17e3 b63d b463 a13d 7aa5 14be 9e20 93bd
00000270: fd36 203e b9d1 42bd 2b26 253d b66f 3cbd
00000280: 08b2 00be 5cac 4ebe aa47 fe3d 8e1c 53bd
00000290: 12dd dc3d de13 e73d 0004 443e 896c 9cbd
000002a0: 1317 1ebe bbd5 06be dd80 853d 75de 603e
000002b0: 74e2 22bd f3c2 0b3d 9280 41be 3077 b6bd
000002c0: 11ca 3c3e d8b7 a93d 8749 80bd 9b06 3cbd
000002d0: eeb2 a03b a99e e23d 0a4d 20be f00c b0bd
000002e0: 22aa 2d3e b3bd 673e 03d6 0b3d 585f ccbd
000002f0: b502 42bd 565a 193e 8709 383e 1fae 323d
00000300: fd20 fc3d 1b81 88bc afff a8bd 3cd3 9cbc
00000310: e26f 1ebe b9a5 1cbd 8db5 4dbd 36f3 1a3d
00000320: be68 273e 42e1 c2bc 1229 45be d9bb 58be
00000330: 2204 603d ff7f 45be 96f1 36be 86d2 3bbe
00000340: ff36 7b20 e262 81bd 5eab 31be 309a 0b3e
00000350: 8d83 16bd 3c84 87bb 7dda 0e3d 5f51 293e
00000360: cd81 5ebe dcb2 bf3c d3aa 493e e0d8 0cbe
00000370: af13 bbbd b4b2 693e 329e 2dbc da8d a3bd
00000380: c5ad c43d e2e2 46be cfcf df3d a90b 9c3d
00000390: d421 e7bd 7008 f33c 94fe 40be 6be9 8e3d
000003a0: a506 51bd f229 8e3d 67f4 563d 9adf 093e
000003b0: 8e5a 3abd 6175 183e c815 153c 53b5 ad3b
000003c0: d843 243d 80d0 3a3d fa18 6c3d d12f 453c
000003d0: 0cfa b63d a317 b93c 3bfe 293e c922 4b3d
000003e0: 72c0 e0bd b8e6 0d3e 663e f1bd 24e7 07be
000003f0: ab93 dfbd b57c 67bd fd4e 7ebd b541 303e
0.075217545 0.18242742 0.16632801 -0.0018269382 -0.09665908 0.021722294 -0.17776105 0.06979479
-5.7430116e-20 -0.010643242 0.046215087 -0.20457178 -0.029424649 0.10732844 -0.099173345 0.11128243
0.20111352 0.06296141 0.1224629 -0.14686014 -0.21654876 0.23591459 -0.07576598 0.06495548
-0.19890961 -0.17528479 0.064778425 -0.063856885 0.13344379 0.0660766 0.17555887 0.20508017
-0.03511261 -0.19257791 -0.10413436 -0.105491936 -0.12401715 0.19262081 0.04803913 0.014959393
0.15097776 -0.016237356 0.015003071 -0.14900473 -0.18444768 -0.021510646 -0.13216919 0.13876753
0.08560535 0.051279917 -0.110973425 0.06883407 0.06714753 -0.10893402 0.018631594 0.14057536
0.010194379 -0.07418365 0.23714985 0.14780095 -0.06613079 -0.18244657 -0.08646583 -0.016232274
-0.12917525 -0.01907469 -0.05549 0.049688652 0.22220112 0.12823021 0.08119828 -0.1406942
0.062132772 0.1810599 0.092010915 -0.08815183 -0.1451345 -0.17632322 -0.08297632 -0.015781822
0.042800453 -0.03422753 -0.1684007 0.0144477505 -0.15570374 -0.11005952 0.16313167 -0.08446654
0.019244814 -0.021009082 -0.12216829 0.01583067 0.120032966 -0.18477702 0.074903674 -0.014420798
0.20659034 0.0869297 -0.116517074 -0.045882434 0.06667713 -0.18412562 -0.04825731 0.074689105
0.19141632 0.115066044 -0.012383838 -0.043143082 0.023426373 -0.109658286 0.13499595 0.012134998
-0.19098333 0.0038717298 -0.06120608 -0.01587883 -0.08042423 -0.13772091 0.047701813 0.024579562
0.08645804 -0.1387864 0.091246516 0.18081771 0.20838332 4.256606e-19 0.22219656 -0.18544121
-0.007491514 0.025541622 0.008796428 0.03974151 -0.06613386 -0.15172137 0.12336003 0.04659449
0.15746593 -0.18772437 0.085262686 0.15035874 0.022111686 0.033022363 -0.2149654 -0.041691326
0.016233107 0.2199912 -0.06567882 -0.08747717 -0.09670888 -0.07044015 -0.06544287 -0.14320807
0.08930033 0.07880345 -0.1451625 -0.071839556 0.15645976 -0.04756329 0.040319603 -0.046004973
-0.12567914 -0.20182937 0.124160126 -0.051540904 0.10784353 0.11283086 0.19142151 -0.07637889
-0.1543849 -0.13167469 0.06518719 0.2195986 -0.039766744 0.034121465 -0.18896702 -0.08909452
0.18436457 0.082870185 -0.06264024 -0.045904737 0.0049041426 0.11065418 -0.15654388 -0.08596218
0.16959432 0.22630958 0.034139644 -0.09979123 -0.047365863 0.14975867 0.17972384 0.043623086
0.123109795 -0.016663125 -0.08251893 -0.019143693 -0.15472367 -0.038243983 -0.05022197 0.0378296
0.1634855 -0.023789052 -0.19253948 -0.21165408 0.05469144 -0.19287108 -0.17865595 -0.18342027
2.1278724e-19 -0.063176885 -0.17350528 0.13633037 -0.03674655 -0.0041356366 0.034876335 0.16534947
-0.21729203 0.023400716 0.1969407 -0.13754606 -0.09134614 0.22822076 -0.010596799 -0.079860404
0.096034564 -0.19422486 0.10928308 0.076194115 -0.11285749 0.02966711 -0.18847114 0.06978115
-0.051031727 0.06941594 0.052479174 0.13464203 -0.045496516 0.14888526 0.009099431 0.0053011565
0.040103763 0.045608997 0.057641007 0.012035326 0.089344114 0.022594279 0.16600887 0.04959372
-0.10974206 0.13857543 -0.1177948 -0.13271767 -0.10916837 -0.056515414 -0.062087048 0.17212565

l1.weight f4 [256, 256]
00000000: fb28 eebd aa04 ccbd 9da7 2a3e 19ec be3d
00000010: dadf 5dbd 4c0a 95bc f801 213e 5c15 9cbd
00000020: 62f4 09bc 1938 01be 2bb0 25be 5a95 31be
00000030: 2465 e4bd 30a4 de3d a69d afbd b542 e0bd
00000040: 89b7 e83d d4ef ae3d 1b8c 5a3d ae7b 56bd
00000050: 6944 efbd 3066 c33d f18d dcbd 378b 03be
00000060: 07b4 46bc b579 bc3d 2879 013d f2cd 17be
00000070: fc27 0ebe 824a 3bbd 107b 89bc fd8f c9bc
00000080: 7667 cc3d c1dd 733d 4406 8dbd 4f41 04be
00000090: 3a32 fa3b 2eaf ef3b ee83 c13d 73d0 8dbd
000000a0: fa6a 5dbd 484c 363e e85d 4abd 3545 f6bd
000000b0: 051b d03d aa88 4dbb 75b1 67bd b6f0 a9bd
000000c0: 6b42 65bc 66f0 1dbe 1833 4cbd 04c9 25be
000000d0: 4391 d53d 5480 123e c699 733d 74f7 93bd
000000e0: 0d7d 6dbd fb6e b33d 82eb 08be 1663 f33d
000000f0: 5e83 683c 4ee4 16be e24d 83bd bd5f d03d
00000100: 0d38 923d 489b 993c 3f4d d43c 7d82 fa3d
00000110: aa20 02be 2113 883d 2cc2 99bd f3e6 08bd
00000120: 2dcc 1cbe 22b6 bf3d 70bf f23c 6cca 003e
00000130: 0aaa 023e 55ad a43b afeb cf3d 2dad ab3c
00000140: a230 9b3d 8ef7 863d 4b1a 0abe 348b 14bd
00000150: 71c7 fdbd 3ead ae3d 46e4 3fbd 2de6 f7bd
00000160: 277e f03c 3aaa 0e3e 16d0 e13d 5eea c2bd
00000170: 8a6a 74bd c7c9 78bd 7127 00bd 99aa 6fbd
00000180: d873 a73d 259d 253e 7c25 783c 9335 cb3c
00000190: 871d c33d 5b39 04be 505a 583d 46a3 5ebd
000001a0: edcd b23d 820e c33b 7556 e73d a59d 663d
000001b0: b432 adbd ee4a adbd 20cb a4bd ad5f dfbc
000001c0: 2fdf 3dbd d151 03bd 4f5d 093e 4877 f0bd
000001d0: 55b7 a03d 613a bbbd bdac 6abd bdf2 523d
000001e0: aad5 8fbd 035f 833d a5c1 10be 428c 303e
000001f0: d3ab 6f3c edab 683b ad9c b3bd 0ca3 6d3d
00000200: 6124 b93d 2469 23bd 4e5d 2ebd 1ee0 803c
00000210: 0363 3abd 5b4a 223d fb3a f2bd 11a7 ecbd
00000220: 7bfa aa3d 908f 0b3e 4f72 c2bd d2c9 fdbd
00000230: d0c4 173e 8ab7 7e3d dcd7 18be a6a8 253e
00000240: d630 34be e90c 213e 0ad8 2fbe ea0a 9dbd
00000250: 6048 82bd 0696 05bd 9558 2b3c 6a36 9d3d
00000260: bfc4 803c 2979 75bd 7d96 85bd 168f a13d
00000270: e4e5 c13d b744 f3bd 69de 63bd 3461 2f3e
00000280: 627e a3bb 70e9 183e 9ffb 463d a04e 723c
00000290: b784 a1bd 9ce0 e03c ec07 d8bd 3fa8 e9bd
000002a0: ff45 f8bd 0b2a ae3c 0fa4 cebd 06c5 1abe
000002b0: d3ff 1dbd 45f1 c23d dcc7 4c3d 9e50 94bd
000002c0: 6247 83bd 7387 0bbd 6e1f 163e 425e b93d
000002d0: d1e1 083e abd8 ce3d 463b 5ebd 0def 33bd
000002e0: 3477 783c 955e be3d 2dcb 583d 6110 893d
000002f0: ce10 4fbd 9646 8ebd ce1a 073e 0bed 203d
00000300: 6975 a23d 0d72 bcbd bb8e 11be 8300 5d3d
00000310: 60e4 4b3c 930d e63c 9a9c 70bd 1f75 cabd
00000320: cb85 8abd ddab c23d e2ee 3f3d 8c3c d23c
00000330: 9b2a adbd 4ef9 993c dd64 e3bd 8aa2 913d
00000340: 6275 a8bc 7de5 95bd feff d2bd 039d 95bd
00000350: 86be 3b3d 0fed 48bd 05e3 013e 0b7b d9bd
00000360: a6e5 d3bc be7d 16bd 2326 0bbe 77fb bdbc
00000370: 347c e0bd a19b a0bd 9f51 09bc 84ed 663d
00000380: 3094 d63d 7105 ea3d ae2a 72bb 2b69 923d
00000390: a090 9dbd db98 c4bd b857 0bbe 860a 2eb9
000003a0: 214e 733d 2aaf a0bd 29d8 28bd 7c58 fa3d
000003b0: 0206 9f3d 364f 0b3e 4916 89bd 1bab d83d
000003c0: 8aeb 59bd 2c1a 0fbe 680f 1dbe a029 3c3d
000003d0: 2f6e ac3d 27e0 10be 21b6 3b3d bc74 b93d
000003e0: 5829 bc3d d225 0bbd 26fb db3d 7252 8f3d
000003f0: 3f24 e63d 15cc 913d 9d95 a3bd 2386 0e3e
-0.1162891 -0.09961827 0.16665502 0.09322376 -0.05416856 -0.018193386 0.15723407 -0.076212615
-0.008420082 -0.12619056 -0.16180484 -0.1734213 -0.111521035 0.1087116 -0.08574991 -0.10950223
0.113631316 0.08541837 0.05335627 -0.052364044 -0.1168297 0.09540975 -0.10769261 -0.12846075
-0.012127883 0.09202901 0.031609684 -0.14824656 -0.1388244 -0.045725353 -0.016782314 -0.024604792
0.09980671 0.059537653 -0.06885961 -0.12915538 0.007635382 0.007314584 0.09448992 -0.06924524
-0.0540571 0.17802536 -0.049405962 -0.12024919 0.101614036 -0.0031361976 -0.05656572 -0.08297865
-0.013992886 -0.15423736 -0.049853414 -0.16189963 0.10428097 0.14306766 0.05947282 -0.07224932
-0.057980586 0.08761402 -0.13371089 0.118841335 0.014191477 -0.14735529 -0.06411339 0.10174511
0.07139597 0.018750802 0.02591574 0.1223192 -0.12707773 0.066442735 -0.075077385 -0.033423375
-0.15312262 0.09360911 0.0296323 0.12577218 0.12760177 0.0050255456 0.10152375 0.0209566
0.07577635 0.06590186 -0.13486592 -0.036265567 -0.12391556 0.08529137 -0.046848558 -0.121044494
0.02935703 0.13932124 0.11026017 -0.09517358 -0.059671916 -0.060739305 -0.031287614 -0.058512304
0.08176392 0.16173227 0.015145656 0.02480582 0.09527116 -0.12912504 0.052820504 -0.05435493
0.087306835 0.005952657 0.11295787 0.056302685 -0.084569365 -0.08461557 -0.080465555 -0.027267301
-0.046355423 -0.032060448 0.134145 -0.11741501 0.07847468 -0.09141994 -0.057293642 0.051501025
-0.07023175 0.064146064 -0.1413637 0.17241004 0.014628368 0.0035502866 -0.08770118 0.05801682
0.09040142 -0.03989519 -0.04256945 0.015731867 -0.04550458 0.039621692 -0.11827656 -0.11555303
0.083485566 0.13628983 -0.09494459 -0.1239201 0.14821172 0.062186755 -0.14926094 0.16177616
-0.17596754 0.15727581 -0.17172256 -0.07668097 -0.06361461 -0.032613777 0.010458131 0.07676394
0.015718816 -0.05993 -0.06522844 0.078886196 0.09467676 -0.11878341 -0.05563203 0.17126924
-0.0049894312 0.149328 0.04857981 0.0147892535 -0.078866415 0.027450852 -0.10548386 -0.114090435
-0.12122726 0.021260282 -0.100898854 -0.15114221 -0.03857405 0.09518675 0.04999529 -0.07241939
-0.064100996 -0.03406472 0.14660427 0.090511814 0.13367392 0.1009992 -0.054255746 -0.04392915
0.015165139 0.09295384 0.05292814 0.06692577 -0.050553136 -0.06947057 0.13193819 0.03928856
0.079325505 -0.09201441 -0.14214604 0.053955566 0.012444586 0.028082645 -0.058743097 -0.0988562
-0.067638 0.095054366 0.046858676 0.025663637 -0.08455392 0.018795636 -0.111032225 0.0711108
-0.020563785 -0.07319162 -0.10302733 -0.07305338 0.045835994 -0.0490542 0.12684257 -0.10619172
-0.02586634 -0.03674101 -0.13588767 -0.023191197 -0.1096119 -0.07842184 -0.008381276 0.056378856
0.10477483 0.11426819 -0.0036951709 0.071489654 -0.07693601 -0.09599467 -0.13607681 -0.00016597853
0.05940068 -0.0784591 -0.04122177 0.12223908 0.07764818 0.13604435 -0.06693704 0.10579511
-0.053203143 -0.13974828 -0.15337908 0.045938134 0.08419453 -0.14148007 0.04582799 0.090554684
0.09187573 -0.033971615 0.10741262 0.06998147 0.11237382 0.07119004 -0.07987521 0.13918357

l1.bias f4 [256]
00000000: 59d8 2d3e 8bda 2f3e 041f 543b 9d99 143e
00000010: 33d2 233e 9bd1 be3b a507 303e 604e bd3d
00000020: 23ab 2f3e d96c c03d a02e 063c 56bb 3e3e
00000030: 4742 493e 7d00 403e bfb5 103d bb00 3a3e
00000040: 6d20 493c bf61 a93c 5748 cb3b ec59 713b
00000050: 907d ee39 4e17 c73c 6d8b 353e 0e7f 263e
00000060: 5e15 f83d 63a9 203e daad f23d 5a7b 9e3d
00000070: e6c5 c83d bf5f a73d 7538 273e 9e2c e13d
00000080: 3c4c 5d3d 5ff4 393a d2d4 3f3e 7f6d c73d
00000090: 9fa3 823b e7ba 593e 632b 3c3e c944 143e
000000a0: 80af 2f3e 9af7 3c3e 3a28 303e d3e4 6d3e
000000b0: b6af 913d e1af c03d 6ed5 473e 3e73 3f3e
000000c0: 71c2 1d3e 0908 9f3d b959 323e 0854 1e3e
000000d0: 547e 533e f96a 4b3e 670d 1c3e 807c 403e
000000e0: d1ce 443e ef23 313e 92ec a93d c6b8 673d
000000f0: b1d1 b63d 2a28 853a 011c f53d 67f8 b83d
00000100: 6cc2 393e 10e5 343e 8858 a43d 2662 0d3e
00000110: 9a8d 2b3c c677 1639 c963 c13b 5c6c 323e
00000120: 4f08 363e f01f 133e 09b1 463e 663f b43d
00000130: a5bf 233e de8a 203e a5cf ba3d 6083 1f3e
00000140: a338 a03d 669d 9237 1aae 4f3c 247b 253d
00000150: aa68 243e e408 043e c466 cc3d aa8e c43d
00000160: d19b 143e cb1c 113e fbe0 2a3e 4f68 2d3e
00000170: 29e0 453e ff7c 3d3e d2c4 e23d d472 2a3e
00000180: 2e2b 953d 0078 323e 9c6a a13d f4bb c53d
00000190: 251a ff3d b82b b13a bfe9 ef3d 2c28 d93d
000001a0: 125f 3a3e d449 3e3e 7972 0a3e 8853 0c3e
000001b0: 8ad5 0f3e c0c5 e03d 332a 5e3d ba19 583e
000001c0: ef9d e03d 61c8 5137 d6b5 9b3d 860c 2c3e
000001d0: f524 463e 8377 4b3e 2cc6 143e a142 013e
000001e0: e316 913d fc1a 1f3e 0758 fd3b 9bb4 b33d
000001f0: 2d9a 6a3d 1895 183e 8323 383e ee5f 1f3b
00000200: 6a8e eb3d 86de 373e d17a ea3d dfee 293e
00000210: 301b f93d 74ac 253e a4e6 e93d 7e75 373e
00000220: cfa3 093e cced 833d 192d de3d 4edd 4238
00000230: 3307 063e c122 eb3d 5391 f83d 069d d13d
00000240: 89df dd3d 97e2 3e3e 6dba 023e 6bc5 b03d
00000250: 1a3f 813d d5d2 d13d 4c5b ed3a e228 373e
00000260: 4cf6 fd3d f2e4 3e3a 2192 ca3d 5fbd 433e
00000270: 628c e83d 57f0 db3d 6a25 2e3e 586f 7a3d
00000280: e0d4 003e d517 f93d 673f 1b3e 9a4b 953d
00000290: 44f7 673e f00a 233e f9d9 803d e80e 4f3e
000002a0: 8322 4e3e 0472 3b3e c826 bf3b afdd 4d3e
000002b0: 8d0e ca3d e134 0b3e 2cc2 cf3d b3ac 173e
000002c0: 72d6 413e db63 373e fd68 2d3e c23d 503e
000002d0: ce6a 153e 90b5 9437 755b 733a 68b1 f23d
000002e0: e432 8c3c 5ebe de3d 921e 383e 8d7f 083e
000002f0: d9f9 2a3e 339f f53d 60c6 3a3e 61e4 6b3c
00000300: 0b90 073e 1ec2 0b3e b972 ec3d 5f99 013e
00000310: c5d3 cf3d a85a 3e3e 0573 b43b 3318 193d
00000320: 4ba6 9d3d 4dcb a83d a13d 0f3e 68df 9c3c
00000330: 4d84 d53c 548e 8d38 4c94 5a3c 2619 f43d
00000340: 2906 493e f9ea 033e c6e6 653b e069 d93d
00000350: e981 4a3e a716 153e 86b7 fd3d 3ed8 133e
00000360: ad1d 023d a58d 113e 7d7c 853d 6421 a63d
00000370: 02ed 443e bb19 da3d 6859 cb3d f1bc 493d
00000380: 560b ab3b 7837 3e3e df27 b33d 9b9a 303e
00000390: dc52 d13d b19d 323e 0474 003e ed95 2e3e
000003a0: c1aa 063d 2da8 333e 7c12 373e ef79 ce3b
000003b0: a3ab 803b 6cf2 dc3d 3f66 4d3e afbd 4b3e
000003c0: 1c9f 073e 5027 193e e5a6 f33d 4774 b43d
000003d0: 1143 813e 4b66 4a3e 4bf4 063e f200 473d
000003e0: a7fb 5d3e 7ef7 323e db5f 3f3e 185d ee3d
000003f0: f289 b73d 49de 233e e6ff 043e 2772 d93d
0.16977061 0.17173211 0.003236712 0.14511724 0.15998153 0.0058233268 0.17190416 0.092434645
0.17155127 0.09395761 0.008189827 0.1862615 0.19654189 0.18750186 0.035329577 0.18164341
0.012275797 0.020676492 0.006203692 0.003682728 0.0004548845 0.024303105 0.17728968 0.16259405
0.121134505 0.15689616 0.11849566 0.07738371 0.09803371 0.08172559 0.1633013 0.10994838
0.05402778 0.0007093604 0.18733528 0.097376816 0.0039867903 0.21262704 0.18375926 0.14479364
0.17156792 0.18453828 0.17202845 0.23231821 0.07113592 0.09408546 0.1951501 0.18696305
0.15406205 0.077652045 0.17417039 0.15461743 0.20653659 0.19865026 0.15239488 0.18797493
0.19219519 0.17298864 0.08297075 0.056572698 0.08926714 0.0010159065 0.11968232 0.09031754
0.18140572 0.17665505 0.080246985 0.13806972 0.010470772 0.00014349734 0.005901788 0.17424148
0.17776607 0.14367652 0.19403471 0.08801155 0.15991075 0.15677974 0.09121636 0.1557746
0.078233026 1.747785e-05 0.012675786 0.04040064 0.16055551 0.12894017 0.099805385 0.095975235
0.14512564 0.1417114 0.16687386 0.16934322 0.19323792 0.18504713 0.11072697 0.16645366
0.072836265 0.17428589 0.07881662 0.0965499 0.124561585 0.0013517058 0.117145054 0.10603365
0.18200329 0.1858285 0.1352023 0.1370374 0.14046302 0.10975218 0.054239463 0.21103564
0.109676234 1.2504025e-05 0.07603042 0.16801652 0.19350035 0.19869809 0.14528722 0.12623073
0.070844434 0.15537637 0.007731441 0.08774682 0.05727594 0.14900625 0.17982297 0.0024318653
0.11501773 0.1795598 0.114492066 0.16595028 0.12163389 0.16179067 0.11420944 0.17915913
0.13441394 0.064418405 0.108484454 4.645931e-05 0.13088684 0.11481238 0.121370934 0.10235028
0.108336516 0.18641125 0.12766428 0.086314045 0.06310864 0.10245291 0.0018108874 0.1788669
0.12400493 0.00072820403 0.09891153 0.19115208 0.11354901 0.107392006 0.1700646 0.061141342
0.12581205 0.12162749 0.15160905 0.072898105 0.22652918 0.15922141 0.06291575 0.2022053
0.20130353 0.18305212 0.0058334805 0.20104097 0.098660566 0.1359439 0.10144457 0.14811973
0.1892946 0.17909186 0.16934581 0.20336059 0.14591524 1.7727521e-05 0.00092833425 0.11850244
0.01711411 0.108761534 0.17980412 0.13329907 0.16696872 0.119932555 0.18239737 0.0143977115
0.13238542 0.13648269 0.11545319 0.12656163 0.10147814 0.1858927 0.0055068755 0.037376594
0.076977335 0.082419015 0.13988353 0.019149497 0.026064062 6.7499146e-05 0.013341021 0.11918859
0.19631256 0.12882604 0.0035080179 0.10615897 0.1977612 0.14559422 0.1238852 0.14437959
0.031766582 0.1421419 0.06517885 0.081118375 0.19231036 0.10649439 0.09929162 0.049252454
0.005219857 0.18575847 0.08747839 0.17246477 0.10220882 0.17442967 0.12544256 0.1704938
0.032877687 0.17544623 0.17878145 0.0063011567 0.0039267107 0.10788426 0.20058535 0.19896577
0.13244289 0.14956403 0.11897067 0.08811241 0.2524648 0.19765584 0.13179128 0.048584886
0.21678029 0.17477223 0.1868891 0.1163885 0.08961858 0.16002764 0.12988243 0.10617476

l2.weight f4 [256, 256]
00000000: 919c 8abd 01d4 783c 0ed1 9e3b 53f4 683d
00000010: c8ad 413d f09c 10ba e61c ad3d b100 9a3d
00000020: 3f36 e33d 95d6 133e fcc5 3ebb 55a5 41bd
00000030: 0fb0 a13d 9ecc 953c 3395 96bc 6761 a4bd
00000040: 6797 7a3c c753 813a 9918 973b 2a83 703b
00000050: 1173 c539 51dd 1f3c 4a93 503d 3df6 bdbd
00000060: 61bd 20bd bcf6 d1bb dd00 5ebd 26af 023e
00000070: 2e2d d13d 8d75 c73d c48d 093e 4523 ef3c
00000080: a41a 2c3d 146f 7138 6822 b7bd 89f1 4cbc
00000090: 1751 00bb 2411 8b3d 843d d7bd 90e4 bfbd
000000a0: b1f6 033e 9709 113e 3f81 063d 5d19 b5bd
000000b0: be8f 3b3d b442 aebc d546 8f3d 7898 e53d
000000c0: 039b 6cbd ecbf d63d c0ee dd3d 6678 113e
000000d0: 90b9 353d c39a e53d 930d bebd 0d6a e63d
000000e0: 3542 f43d 34da 033e 9187 16bd 4a5e fb3d
000000f0: 3efa 063e a79c b438 368c 9a3d a82e 39bd
00000100: 7cb4 c3bd 299f 9a3d 5c42 61bd 4f47 56bd
00000110: e2da 003c 3936 19b9 4006 21bb dff2 c7bd
00000120: 71e0 c83d ee04 bdbd 66ec f63d cf3a 863a
00000130: 1b2f c3bd 40a0 313c 1a40 0dbe 5b02 e33d
00000140: e551 abbd 5fc8 f7b6 1cf0 923b 16fd 643d
00000150: 50ee f83d 197c 87bb bdfc e43d 5d66 4abd
00000160: 4913 4abd 1720 02bd ec38 22bd 9cf6 dc3d
00000170: 194b 04bd 7ef5 b5bd f180 c53c fa95 b9bc
00000180: fe7d 9e3c 6750 e7bc 9c97 e2bc 7d5e 373c
00000190: 774c 6b3d c2c0 8eb8 26d9 f43d ac5a 97bd
000001a0: 9613 97bd 8271 d53d d6d5 fc3c 404e debd
000001b0: e895 cb3d f4bb da3d 75b5 5e3d d34c b0bd
000001c0: 70a5 793d 0f3f 7db6 6199 d83d 4cc3 ea3d
000001d0: 9d72 abbd 5be9 62bd ad5c bdbd 2eb3 cd3d
000001e0: 7b01 12bd 07ce c6bd 5820 3b3b 13ee 11bd
000001f0: d151 a1bc 1ed6 55bd 7702 50bd a9db 903b
00000200: 526a 093e d130 083e 9150 cabd f5c1 e43d
00000210: e843 883d 81d4 0bbd 5642 a5bc c769 ed3b
00000220: d8c8 1a3e e349 92bc d3ac c83d dd65 0f36
00000230: e8c6 013c 11bf c83d a971 13bb 91da 11be
00000240: bd06 c33d 7c82 cf3c 6e9d 9abd b85c 6ebd
00000250: 6337 273d 085c 743d 8617 66ba d2f7 ed3d
00000260: a601 ac3d ffca dbb9 c914 a8bd 40c5 c93c
00000270: 9d14 f43d 63ba 1a3c c155 043e 4056 01be
00000280: 5dfc 043e d42f 033e fda0 66bd 294f 133e
00000290: 69f1 123e edec 033e 89b5 04be 4281 79bc
000002a0: 2536 c2bd c607 2abd 955d 643b 228e 453d
000002b0: a009 063e 9c93 b6bd c65f 31bd 194d e63d
000002c0: 8197 e23d 3777 42bc 8882 b63d 61ae 333e
000002d0: d65f 41bd e8e7 54b7 5b0c dc3a 2595 043e
000002e0: 2679 cebb 8e5b f83d 7eb4 113b 78a9 f13c
000002f0: 2b2e 343d 8259 dcbd 702e e8bd 902a 853a
00000300: d0db e73d e0a2 a03d e777 453d bdb4 7bbd
00000310: f197 63bd af49 f03d 0303 6fbb eca9 403d
00000320: ad4b 89bd a12e b23c fd53 b53c 8e33 02bc
00000330: de6b 63bc 5d89 c238 c375 7bbb 68b2 dcbd
00000340: d71e 84bd 863b 9dbd e8ab 9c3b 7bdb 253e
00000350: 88af 0b3e 4a0b 553d 0c66 103e df32 c33c
00000360: 8dec bfbc 8e9b eabd 318b 713b c54b 363c
00000370: 88f6 1d3e 52dc adbd 943e efbd ea37 05bd
00000380: 442e ea3a d4db 6f3d b961 8b3d bcb5 0e3d
00000390: 0d0e 81bd 7a75 e9bd 24a5 eb3d 3691 f5bd
000003a0: fe92 603b 7f31 253d 1f2d 003e 6ae4 103c
000003b0: 218d 14bb d874 023e 4507 c93d 7f41 97bd
000003c0: 63f0 b13d a7b9 6b3d 6206 df3d e5e1 063e
000003d0: 1319 99bd 70de 0fbd 485c 013d d844 a3bc
000003e0: 53d7 adbd 9ce5 b7bd 9e04 103e ed8c 8a3d
000003f0: ff67 01be e34d c8bd abfa f23c 0f05 adbd
-0.06768144 0.015187264 0.0048466986 0.05687363 0.04728487 -0.00055165496 0.084527776 0.07519663
0.11094331 0.14437325 -0.0029109707 -0.047276814 0.07894909 0.018286046 -0.01838169 -0.080263905
0.015294886 0.0009866887 0.0046110866 0.0036699274 0.000376605 0.009757356 0.050921716 -0.09275482
-0.039243106 -0.006407587 -0.054200042 0.12762126 0.102136955 0.09739218 0.13432986 0.029191623
0.042017594 5.7562327e-05 -0.08942109 -0.012508758 -0.0019579583 0.06790379 -0.1050978 -0.09369767
0.12887074 0.14163814 0.032838102 -0.08842728 0.04579138 -0.02127204 0.06995932 0.11210722
-0.05776502 0.10485825 0.108365536 0.14206085 0.04436642 0.11211159 -0.09279933 0.11250696
0.119266905 0.12876207 -0.03675038 0.122738436 0.13181397 8.6122476e-05 0.07546274 -0.04521051
-0.09555909 0.07549889 -0.054994926 -0.0523141 0.007864686 -0.00014611417 -0.0024570376 -0.09763121
0.09808434 -0.09229456 0.12056808 0.0010240915 -0.09530469 0.010841429 -0.13793984 0.11084434
-0.083652295 -7.3845e-06 0.0044841897 0.055905424 0.121548295 -0.0041346666 0.111810185 -0.049414027
-0.049334798 -0.031768885 -0.039605066 0.107892245 -0.03229818 -0.088847145 0.024109336 -0.022654522
0.019347187 -0.028236581 -0.027660184 0.011191961 0.05744597 -6.8069916e-05 0.1195548 -0.07390341
-0.073767826 0.104220405 0.030863684 -0.10854769 0.09940702 0.106803805 0.05437227 -0.08608403
0.06094879 -3.7736643e-06 0.1057613 0.11463031 -0.0837147 -0.055398326 -0.09246192 0.100439414
-0.035645943 -0.09707265 0.0028553214 -0.035627436 -0.019692333 -0.05220615 -0.0507836 0.004420717
0.13419464 0.13299872 -0.09878648 0.11169807 0.06653577 -0.034138206 -0.020173233 0.0072452757
0.15115678 -0.017857498 0.097985886 2.1367953e-06 0.007920958 0.09802068 -0.0022498167 -0.14243533
0.095227696 0.025330774 -0.075495586 -0.058193892 0.040824305 0.05965808 -0.0008777309 0.116195336
0.08398752 -0.0004192218 -0.082070895 0.024630189 0.11917994 0.009443852 0.12923338 -0.12630558
0.12986894 0.12811214 -0.056305874 0.14385666 0.14349903 0.12883349 -0.12959875 -0.015228571
-0.094829835 -0.04151132 0.0034845818 0.04823125 0.13089609 -0.08914873 -0.043304227 0.11245174
0.11064053 -0.011869243 0.089116156 0.17546989 -0.047210537 -1.269018e-05 0.001678835 0.12947519
-0.006301063 0.12126838 0.0022232826 0.029499754 0.04398934 -0.1075926 -0.11336982 0.0010159779
0.11321223 0.07843566 0.04821005 -0.061451662 -0.055564824 0.11732804 -0.00364703 0.04703705
-0.06703887 0.02175075 0.022134775 -0.007946862 -0.013880698 9.276227e-05 -0.0038369752 -0.10776216
-0.06451195 -0.07677369 0.004781235 0.16197006 0.13641179 0.05201272 0.14101428 0.023827968
-0.023428226 -0.11455451 0.0036856646 0.011126463 0.15426075 -0.084892884 -0.11681858 -0.032524027
0.0017866571 0.058559254 0.068057485 0.034841284 -0.06301508 -0.1139936 0.115061074 -0.119905874
0.0034267302 0.040330406 0.12517212 0.008843521 -0.0022667127 0.12739885 0.0981584 -0.07385539
0.08688428 0.0575501 0.10889889 0.1317211 -0.07475486 -0.035124242 0.031582147 -0.019930288
-0.084883355 -0.089793414 0.14064261 0.06765161 -0.12637328 -0.09780481 0.029660543 -0.084482305

l2.bias f4 [256]
00000000: b617 893d f048 7d3d 2d98 653d dea5 5f3d
00000010: 77bd 713d 405b 8f3d 4df4 453d 4449 513d
00000020: 9e81 aba0 cd03 2c3d 81db 893d 861f 4e3d
00000030: 53f9 6a3d 1d21 603d 025c 2e3d 2c6a 8c3d
00000040: 20de 843d 7500 583d 86f4 783d 96c6 5a3d
00000050: bee8 783d 5302 853d 4751 353d 0cb1 2d3d
00000060: 6731 3b3d 113c 203d 434e 753d 6588 3e3d
00000070: 1529 513d 892f 6c3d e9ce 653d 5e45 163d
00000080: 384d 603d 8c66 833d 4e0e 433d b191 543d
00000090: 9ac0 2c3d 0e31 863d 2a20 2b3d ce97 3c3d
000000a0: 536c 393d 610a 2b3d cecd 823d d75e 363d
000000b0: f4a5 2c3d 2110 363d e733 423d 7eb8 983d
000000c0: 44bc 363d ebaf 4b3d 5927 7a3d 540f 693d
000000d0: 88dc 593d 6ac5 5d3d 2fa0 6f3d d4ff 643d
000000e0: 9925 7b3d 0f24 863d 325d 833d 28ea 763d
000000f0: 7bc8 603d d92b 473d 2060 2a3d e4cb 363d
00000100: 078b 843d 6d0d 333d 495b 4d3d 117c 403d
00000110: 483b 5f3d e889 8f3d 83bf 753d 929b 543d
00000120: 891a 743d 7cf1 673d 24bc 3c3d 06f9 283d
00000130: 119e 5b3d d6b8 643d 6a87 3e3d 7874 703d
00000140: 4719 803d c18f 3c3d 3bdd 243d bbd6 373d
00000150: eb06 813d a05a 473d 1881 5e3d a206 5d3d
00000160: 4cfb 5b3d 909a 823d f032 513d 2f6c 843d
00000170: ed5a 613d 134e 503d 331c 833d 8848 453d
00000180: ef1b 823d 88eb 533d f7d0 873d 90d6 3f3d
00000190: 3126 823d 3c61 5b3d 80cd 873d ecc8 5b3d
000001a0: c976 813d b903 483d 2cf9 843d 1e6b 4a3d
000001b0: a1d0 353d d46a 6b3d 5d02 5c3d ae51 473d
000001c0: 1d3e 6f3d 0585 3d3d 90e4 523d b5ef 573d
000001d0: 2ea6 743d b2b9 803d c67a 503d 7164 823d
000001e0: de46 503d 276b 813d 6d41 483d def7 533d
000001f0: ee11 3f3d 2242 9b9f 49be 8b3d 5880 533d
00000200: 3255 843d 4c98 5f3d e527 693d d118 313d
00000210: a638 293d 42e3 6d3d 29bc 843d 4f94 623d
00000220: cd85 753d bc74 533d 275c 583d 2063 253d
00000230: b4bc 303d 05b1 413d 9610 683d d70d 4a3d
00000240: 9335 583d 4e5e 5d3d ce67 5d3d 9c16 3f3d
00000250: 1cd2 683d 706e 5e3d bab6 6b3d 455b 5e3d
00000260: e710 3e3d 6a40 753d 0036 3c3d 6f50 7e3d
00000270: 53f1 4b3d aac3 583d f29e 6e3d 3931 583d
00000280: 4df1 583d a76a 3a3d 5c48 3d3d 8af0 853d
00000290: 8628 493d e605 733d fa6d 433d fae2 343d
000002a0: f2d6 713d 62c5 3a3d 547c 6a3d 1340 7b3d
000002b0: 2376 533d 05cc 7b3d f6e6 613d 6c55 433d
000002c0: e555 473d 22df 903d aa08 6b3d 66da 393d
000002d0: 9f80 713d f00a 473d f4d0 643d b012 6c3d
000002e0: e614 343d 1b83 3d3d 7df6 573d d6bd 913d
000002f0: 4735 803d c6a4 543d f0c2 783d b2d2 763d
00000300: a631 713d 9468 5a3d 0be9 3e3d 62e7 523d
00000310: 2f7a 243d adf5 603d 484d 4e3d b025 243d
00000320: 7ae7 2a3d d520 623d ef07 6a3d 16e0 833d
00000330: 6673 873d 5a14 853d 81e2 803d 09c5 703d
00000340: 6596 a8a0 0244 573d e39b 613d 13cf 3e3d
00000350: 7151 2d3d 5f00 6d3d 468f 733d bf00 453d
00000360: a75b 333d 3b91 f53c b6fe 6b3d ff5c 383d
00000370: 0ea9 2b3d 8778 463d 1f7c 213d 034a 7b3d
00000380: 0ce4 703d cea1 693d 85d6 4c3d 7830 7b3d
00000390: e126 563d dd76 4a3d 2dbf 6c3d bf7e 6a3d
000003a0: 367c 613d a9aa 533d 2eba 383d 18ef 523d
000003b0: 1cb0 3e3d af8c 2e3d 5643 6f3d 89cd 293d
000003c0: 2915 343d 34fa 4d3d b7a2 483d 2acc 3b3d
000003d0: 475b 653d a48a 323d 78ff 383d aed4 623d
000003e0: 7a1e 8f3d 50e2 813d f811 5b3d f69d 6f3d
000003f0: 42a5 093d 2f30 5f3d c35f 503d cbea 173d
0.066939756 0.061837137 0.05605333 0.054601543 0.05901858 0.069998264 0.048328687 0.051095262
-2.90543e-19 0.041995812 0.0673132 0.05032303 0.05736668 0.05471908 0.042568214 0.06856188
0.064876795 0.05273481 0.06078007 0.053412043 0.060768835 0.06494584 0.044266965 0.042405173
0.04570141 0.039119784 0.05988909 0.046516795 0.05106457 0.05766252 0.056105528 0.036687247
0.05476114 0.06416044 0.047621064 0.051896755 0.042175867 0.06552325 0.04177872 0.04604321
0.04526932 0.041757945 0.063869104 0.04452404 0.042150453 0.044448975 0.04741278 0.07457064
0.044613138 0.049728315 0.06107268 0.056899384 0.05318883 0.054143347 0.058502372 0.05590804
0.061315153 0.065498464 0.0641426 0.060281903 0.054878693 0.0486258 0.04159558 0.04462804
0.0647183 0.043713976 0.050135884 0.04699332 0.054499894 0.070087254 0.059997093 0.051906176
0.05959562 0.05662678 0.046077862 0.041253112 0.05361754 0.055840336 0.04651586 0.058704823
0.06254821 0.046035532 0.040250044 0.044882517 0.063001476 0.04867041 0.054322332 0.053961404
0.053706452 0.06377137 0.05107397 0.06465947 0.055018354 0.050855707 0.06401863 0.048164874
0.06352984 0.051738292 0.06631654 0.046835482 0.06354941 0.053559527 0.06630993 0.05365841
0.063214846 0.048831675 0.06492838 0.04941856 0.044388417 0.057474926 0.05371319 0.04866188
0.058408845 0.046269435 0.051487505 0.052718837 0.059728794 0.062854186 0.050898336 0.06366814
0.050848834 0.06319266 0.04889052 0.051750056 0.04664796 -6.575446e-20 0.068234034 0.05163607
0.06461562 0.0545886 0.056922812 0.043236557 0.04131379 0.058078058 0.06481201 0.05531722
0.059942055 0.051625 0.05282226 0.040377736 0.04314871 0.04728796 0.056656443 0.049329605
0.052785467 0.054045014 0.054054074 0.04665242 0.056841 0.05430454 0.05754731 0.05428626
0.046402838 0.059875883 0.045949936 0.062088426 0.04979069 0.052920975 0.05825705 0.052781317
0.052964497 0.045511868 0.046211585 0.0654002 0.04911091 0.059331797 0.047712304 0.044161774
0.05904288 0.045598395 0.057247475 0.061340403 0.051626336 0.061473865 0.055151902 0.047688887
0.0486659 0.07073809 0.05738131 0.045374297 0.058960553 0.048594415 0.055863336 0.05763501
0.043965243 0.04626761 0.052725304 0.071162865 0.06260162 0.051914953 0.060732782 0.06025953
0.05888524 0.05332239 0.046608966 0.051490195 0.040155586 0.054921795 0.05036667 0.040075004
0.04172466 0.055207092 0.057136472 0.064392254 0.066138074 0.064980224 0.06293202 0.058781657
-2.855983e-19 0.05255509 0.055080306 0.0465842 0.042313997 0.057861682 0.059462808 0.048096415
0.04378858 0.029976478 0.05761596 0.045010563 0.04190927 0.048454788 0.03942501 0.06134988
0.058811232 0.057039075 0.05000927 0.06132552 0.05228317 0.049429763 0.057799507 0.05724978
0.055050097 0.051676426 0.04509943 0.05149755 0.04655467 0.042614635 0.058413826 0.04145578
0.043965492 0.05028744 0.048983302 0.045849003 0.055995252 0.04358925 0.04516551 0.05537861
0.06988235 0.06341994 0.053483933 0.058500253 0.033604868 0.05448931 0.050872575 0.03708915
